hydrone_aerial_underwater_ddpg/scripts/Models/sac_stage_1_sub2D_tanh_3layers/1000_value_net.pth (torch_old, 585563 bytes, 10 tensors)

linear1_q1.weight f4 [256, 26]
0	0x3e987ca7	0.29782602
1	0x3e62bb2c	0.22141713
2	0x3cb58b37	0.02216111
3	0x3b0a43e7	0.0021097602
4	0x3e462ee2	0.19353822
5	0x3dac717c	0.08420083
6	0xbcaa04c1	-0.02075422
7	0xbd98ceb2	-0.07461299
8	0xbe6cabd5	-0.23112424
9	0xbe89515b	-0.26819882
10	0xbe5bf001	-0.21478273
11	0xbe446dcb	-0.19182508
12	0xbd565976	-0.05233141
13	0xbead55c9	-0.3385451
14	0xbea139a5	-0.31489292
15	0xbe3c86d3	-0.18410806
16	0xbecd8fa0	-0.4014864
17	0xbeca36fc	-0.39495075
18	0x3da10864	0.078629285
19	0x3c3b56de	0.011434285
20	0x3e4ea950	0.20181775
21	0xbc38d4d6	-0.011281213
22	0xbc83cb7c	-0.01608824
23	0x3f6180ae	0.88086975
24	0x3e64e11c	0.22351497
25	0xbdfbfd69	-0.123041935
26	0xbe29be25	-0.1657644
27	0xbe2c2481	-0.168108
28	0x3d7fe41f	0.062473413
29	0x3e007049	0.12542833
30	0xbd917a39	-0.0710339
31	0x3da62b4f	0.08113729
32	0xbcffc2ec	-0.031220876
33	0xbe063dc5	-0.131095
34	0x3db1f8ea	0.08690055
35	0xbe38969b	-0.18026201
36	0xbdf8faae	-0.12157188
37	0xbd7a92f5	-0.061175305
38	0xbe9b4206	-0.3032381
39	0xbd1975df	-0.037465926
40	0xbdc3ad81	-0.095545776
41	0xbd0fca80	-0.03510523
42	0x3dafc1c6	0.08581881
43	0x3cce1816	0.02515797
44	0x3d4a0317	0.049319353
45	0xbd976a2f	-0.073933
46	0xbf1b5c5f	-0.6068782
47	0x3d79af27	0.060958054
48	0xbf9c0957	-1.219035
49	0x3eecf8c0	0.4628353
50	0xbe922280	-0.28541946
51	0xbe74515e	-0.23859164
52	0xbe23c81a	-0.15994301
53	0xbe5b0c0c	-0.21391314
54	0xbe080dd0	-0.13286519
55	0xbe06fb05	-0.13181694
56	0xbe2f5941	-0.17123891
57	0xbd28368b	-0.04106764
58	0xbe6a01ff	-0.22852324
59	0xbe504e23	-0.20342307
60	0xbe8553de	-0.26040548
61	0xbe34686e	-0.17617962
62	0x3d4429ce	0.04789143
63	0xbe17bff8	-0.14819324
64	0xbe7cb800	-0.24679565
65	0xbe97bc1d	-0.29635707
66	0x3c5d3578	0.0135015175
67	0xbd7e8d31	-0.06214637
68	0xbd59cb20	-0.05317223
69	0xbe892712	-0.2678762
70	0x3e54f5de	0.20796916
71	0x3e68e629	0.22744049
72	0x3f85441d	1.0411412
73	0x3f462fb0	0.77416515
74	0xbeb75063	-0.35803518
75	0x3e4cf69b	0.20015948
76	0x3e669190	0.22516465
77	0x3d7245f8	0.05914876
78	0xbdab9707	-0.083784156
79	0x3df469d6	0.11934249
80	0x3d97a933	0.07405319
81	0x3d5ef31d	0.05443107
82	0xbcdf872b	-0.027286133
83	0x3c674139	0.014114671
84	0xbe2360a4	-0.15954834
85	0xbd86d8bb	-0.06584307
86	0xbd9901dc	-0.07471058
87	0xbe227c48	-0.15867722
88	0x3d2b68b7	0.04184791
89	0xbdd2ab39	-0.102865644
90	0xbd22ff01	-0.039793972
91	0xbdc67173	-0.096896075
92	0x3da4d201	0.080478676
93	0xbd7ff20e	-0.0624867
94	0x3bd643af	0.00653883
95	0xbd9a4a23	-0.07533672
96	0x3d8a6cb2	0.06759013
97	0x3e3849ec	0.17996949
98	0x3ea2244a	0.3166831
99	0xbf6415ad	-0.89095575
100	0x3e0821ec	0.1329419
101	0xbe3f957e	-0.1870937
102	0x3e88848e	0.2666363
103	0xbb83f001	-0.0040264134
104	0xbdd93155	-0.106051125
105	0xbc87c79b	-0.016574671
106	0xbe0769cc	-0.13223952
107	0xbdb4b697	-0.08823889
108	0xbd0d7de4	-0.034543887
109	0xbd481cf0	-0.048855722
110	0x3d8ac9a8	0.06776744
111	0xbe1a85ba	-0.15090075
112	0xbe5e0867	-0.21682893
113	0xbe4e9de9	-0.20177425
114	0xbe7cc660	-0.24685049
115	0xbd0223fc	-0.0317726
116	0xbe6388ec	-0.222202
117	0xbea145c1	-0.3149853
118	0xbe76f90a	-0.24118438
119	0xbecfb0ca	-0.40564567
120	0xbebfdc8f	-0.3747296
121	0xbef9cc3f	-0.4878864
122	0xbeeec436	-0.46634072
123	0xbe1162ed	-0.14197893
124	0x3eaf07d6	0.34185666
125	0xbe96f142	-0.2948094
126	0x3f0968f1	0.5367575
127	0xbf03412b	-0.51271313
128	0xbddd9203	-0.10818865
129	0xbf643ef3	-0.8915855
130	0xbe79aebc	-0.24383062
131	0xbe598660	-0.21242666
132	0xbe389787	-0.18026553
133	0xbe4a5aab	-0.1976115
134	0xbda041c9	-0.078250475
135	0xbc514a7f	-0.012774109
136	0xbe530739	-0.20608224
137	0xbe7c0070	-0.24609542
138	0xbc021aa2	-0.00794092
139	0xbea72563	-0.3264571
140	0xbe95f2b2	-0.29286724
141	0x3c90890b	0.017643472
142	0x3e9c76e4	0.30559456
143	0xbe965a90	-0.2936597
144	0xbe15c5bf	-0.14626215
145	0xbe4b10ce	-0.19830629
146	0xbea86869	-0.3289216
147	0xbe4e4011	-0.20141627
148	0xbe5a2264	-0.21302181
149	0xbe363570	-0.17793822
150	0xbf3a02b2	-0.7266036
151	0x3e79082d	0.24319525
152	0xbe83dfe3	-0.2575675
153	0xbe928a46	-0.2862112
154	0xbf3a6310	-0.7280741
155	0x3e030c1b	0.12797587
156	0xbe17b343	-0.14814477
157	0xbd8964f7	-0.06708711
158	0xbd1c9262	-0.03822554
159	0xbdad7bcc	-0.08470878
160	0xbe338f2e	-0.17535087
161	0xbdbdc368	-0.092657864
162	0xbd6ec4e0	-0.058293223
163	0xbe117a14	-0.14206725
164	0x3e1b5865	0.15170439
165	0x3c9ba7d1	0.01900092
166	0xbe26cd56	-0.16289267
167	0x3e82dd45	0.2555944
168	0xbdf21c3f	-0.11821794
169	0xbcb1dd5d	-0.021712
170	0x3e5a29c3	0.21304993
171	0x3c0bf6af	0.008542701
172	0xbddcbc53	-0.107781075
173	0xbd82c560	-0.063853025
174	0xbe7e039f	-0.24806069
175	0xbe62ffca	-0.22167888
176	0xbe4c8975	-0.1997431
177	0x3fbfef12	1.4994833
178	0xbee68f3d	-0.45031157
179	0xbd8e9313	-0.06961646
180	0xbe2bafbd	-0.16766258
181	0x3d5db1db	0.054124694
182	0x3dacc291	0.08435548
183	0xbeb2e54a	-0.3494056
184	0xbeb5630f	-0.35427138
185	0xbe2ff14d	-0.17181893
186	0xbe4a2bda	-0.1974329
187	0xbe94449d	-0.28958598
188	0xbe82adad	-0.2552313
189	0xbe8f46a0	-0.2798357
190	0xbe97e339	-0.29665545
191	0xbd228a0d	-0.039682437
192	0xbe8a3544	-0.26993763
193	0xbe434c91	-0.19072177
194	0xbe84c0bf	-0.25928304
195	0xbe9eba7a	-0.31001645
196	0xbe0c17b0	-0.13680911
197	0xbe1128cf	-0.14175723
198	0xbdf5ce8d	-0.12002287
199	0xbe628767	-0.22121964
200	0xbeb5a4a2	-0.35477167
201	0xbeb13ab4	-0.346151
202	0xbd7196f3	-0.058981847
203	0x3e7c8a36	0.24662098
204	0x3db39506	0.08768658
205	0xbddc2020	-0.10748315
206	0xbf39dc4f	-0.7260179
207	0xbeb846bc	-0.35991466
208	0x3e897b64	0.26851952
209	0x3efe6312	0.4968496
210	0x3daf9741	0.08573771
211	0x3d63c790	0.05561024
212	0x3d9e937d	0.07742975
213	0xbdbde348	-0.09271866
214	0xbbe2c5c0	-0.0069205463
215	0xbda01dfe	-0.078182206
216	0xbe133035	-0.14373858
217	0xbdc6af36	-0.097013876
218	0xbc0c7d6b	-0.008574824
219	0xbd6a7497	-0.057240095
220	0xbb066823	-0.0020508848
221	0xbe5f2493	-0.21791296
222	0xbe20121b	-0.15631907
223	0xbdb4c611	-0.08826841
224	0xbe07bded	-0.13256045
225	0xbb2e3d21	-0.0026586729
226	0xbd11a760	-0.035560012
227	0xbda11cc2	-0.07866813
228	0x3dac78a4	0.08421448
229	0x3efe25d2	0.4963823
230	0x3e8e2a51	0.2776666
231	0x3e7c56b8	0.24642456
232	0x3e451b37	0.19248663
233	0xbe2802b9	-0.16407289
234	0x3ab18480	0.0013543516
235	0xbdaed7d3	-0.08537259
236	0xbc357147	-0.011074371
237	0xbe3a86d0	-0.1821549
238	0x3dbf075c	0.093275756
239	0xbd9a6bb2	-0.075400725
240	0xbc0573b8	-0.008145265
241	0x3e061f8c	0.13097972
242	0x3d888ab7	0.06667083
243	0x3d9bab87	0.076010756
244	0x3d4480f3	0.047974538
245	0xbdb91de3	-0.090389036
246	0x3d3255ee	0.04353898
247	0x3c80ffe3	0.015747016
248	0x3e13f5d2	0.14449242
249	0x3e1062cc	0.14100188
250	0xbd3b2483	-0.045689117
251	0x3e0e7420	0.13911486
252	0xbd69ce51	-0.057081524
253	0xbe1e4a57	-0.15458046
254	0xbe8f3d2b	-0.27976355
255	0x3e235021	0.15948536

linear1_q1.bias f4 [256]
0	0x3e50e64e	0.20400354
1	0x3f7eaa45	0.9947856
2	0xbe74cb02	-0.23905566
3	0x3faa8ed6	1.332484
4	0x3f0145c0	0.50497055
5	0x3eab5238	0.33461165
6	0xbec76566	-0.38944548
7	0x3cb0bf7f	0.021575687
8	0x3eb4ec01	0.35336307
9	0x3f90e893	1.1320976
10	0x3c52f3c5	0.012875502
11	0x3ed13c87	0.4086649
12	0xbf59fd8f	-0.85152525
13	0x3f6dccbe	0.92890537
14	0x3f7c07a3	0.9844915
15	0x3f8af599	1.08562
16	0x3f259889	0.64685875
17	0x3efb60b2	0.4909721
18	0xbdc18e0d	-0.09450922
19	0x3f5e680e	0.86877525
20	0x3f87ef9a	1.0619996
21	0x3e6bc8b4	0.23025781
22	0x3ead4653	0.33842716
23	0x3f7b6904	0.98207116
24	0x3f79e83c	0.97619987
25	0x3fa0f040	1.2573318
26	0xbf0245e0	-0.5088787
27	0x3f476fa1	0.7790471
28	0xbf6ca73c	-0.9244268
29	0xbf8b00bb	-1.0859598
30	0x3f3c51db	0.735624
31	0xbe149303	-0.14509206
32	0xbf920814	-1.1408715
33	0xbf8a692d	-1.0813347
34	0xbf5d07fd	-0.86340314
35	0x3f8fa955	1.1223551
36	0x3f1fcc14	0.62420774
37	0x3f8e8cab	1.1136678
38	0xbd6af98a	-0.057366885
39	0x3ecdfa29	0.4022992
40	0x3d1cdbeb	0.038295668
41	0x3f9f4447	1.2442712
42	0xbcc71f9a	-0.024307061
43	0x3e9fc705	0.31206527
44	0x3f6c3e87	0.9228291
45	0x3f3359c4	0.70058846
46	0x3eb8f62b	0.3612531
47	0xbd2839ba	-0.041070677
48	0x3faaeabe	1.3352888
49	0x3f9942d9	1.1973525
50	0x3ec223bf	0.37917897
51	0x3f7f0728	0.99620295
52	0x3f439ffa	0.7641598
53	0x3c8968d2	0.016773615
54	0x3e972584	0.2952081
55	0xbd01400b	-0.031555217
56	0x3d994036	0.074829504
57	0x3f88822f	1.0664729
58	0xbd949e9b	-0.07256814
59	0xbf37ce82	-0.7179948
60	0x3fb5442e	1.4161432
61	0x3f58d90b	0.8470618
62	0x3f0ca0ef	0.54933065
63	0x3e3bb858	0.1833204
64	0x3e8a77b5	0.27044454
65	0x3f2b41d5	0.66897327
66	0xbf79c536	-0.97566545
67	0x3f896da9	1.0736591
68	0x3f5aa142	0.8540231
69	0xbf4a245e	-0.7896174
70	0xbfa8a39f	-1.3174933
71	0xbf0c851e	-0.5489062
72	0xbf887fb5	-1.0663973
73	0xbcf1706f	-0.029472558
74	0xbf922b85	-1.1419531
75	0x3f5892d8	0.84599066
76	0xbf033d0e	-0.5126504
77	0x3fa272be	1.2691267
78	0x3e9b97d6	0.3038928
79	0x3f524c2b	0.82147473
80	0x3f95ebca	1.1712582
81	0xbf7df375	-0.9919961
82	0xbf130b66	-0.5743927
83	0xbe51431f	-0.20435761
84	0x3cce3be0	0.025175035
85	0xbe8a0f3f	-0.26964757
86	0xbd14d1fe	-0.036333077
87	0x3d813728	0.06309348
88	0x3f1f7e38	0.6230197
89	0x3f6272ab	0.8845622
90	0x3ec4e261	0.38453963
91	0x3d84e881	0.06489659
92	0xbf83cb84	-1.0296483
93	0xbd5304f7	-0.051518407
94	0xbf868c31	-1.0511533
95	0xbf2ed8bb	-0.68299454
96	0x3f550609	0.83212334
97	0x3f8666ea	1.0500157
98	0x3cd5bf01	0.026092054
99	0xbda043a4	-0.078254014
100	0x3f62731d	0.884569
101	0xbdf7d38e	-0.12100898
102	0x3e1fc096	0.1560081
103	0x3e836c61	0.25668624
104	0x3f238f66	0.63890684
105	0x3d93da18	0.072193325
106	0xbb09773c	-0.002097561
107	0xbe4bccfc	-0.19902414
108	0x3d2efae1	0.042719726
109	0xbf772316	-0.9653791
110	0x3f5c8fd7	0.8615698
111	0xbd09f137	-0.033677306
112	0x3f198221	0.59964186
113	0x3fa372d5	1.2769419
114	0x3db5f0aa	0.08883794
115	0xbdd323e5	-0.10309581
116	0x3fc57ca4	1.5428662
117	0x3f205f74	0.6264565
118	0x3f3fd971	0.74941164
119	0x3f3c1dd7	0.7348303
120	0x3e9a3172	0.3011585
121	0xbf30375d	-0.6883448
122	0x3eded667	0.4352295
123	0xbf1daa5e	-0.61588085
124	0xbf7e3c24	-0.9931052
125	0x3e3f5244	0.18683726
126	0x3e88912a	0.2667325
127	0x3f48ea7a	0.7848278
128	0x3f1780aa	0.591807
129	0xbe0e415c	-0.1389212
130	0x3f8adf90	1.0849476
131	0x3de4b635	0.11167566
132	0xbec62aa1	-0.38704398
133	0x3f8316c7	1.0241326
134	0xbc3b02e9	-0.011414268
135	0x3f8d938b	1.1060652
136	0xbd4beb8f	-0.049785193
137	0x3f263426	0.6492332
138	0x3f8c2d0d	1.0951248
139	0xbf4dc98b	-0.80385655
140	0x3fb70733	1.4299072
141	0x3f4c14d2	0.7971927
142	0x3eba9e06	0.36448687
143	0x3cb803e3	0.02246279
144	0xbf6c8057	-0.9238333
145	0x3da54694	0.08070102
146	0xbeeb5fcf	-0.45971534
147	0xbd48a194	-0.048982218
148	0x3f8bda53	1.0926002
149	0x3e47e781	0.19521905
150	0xbe44a330	-0.19202876
151	0x3f57c2dc	0.84281707
152	0xbf36a3e2	-0.71343815
153	0x3e93f011	0.28894094
154	0x3f4acaa0	0.7921543
155	0x3e4d61e7	0.20056878
156	0x3f8f287d	1.1184231
157	0x3f681e72	0.90671456
158	0x3e30eb11	0.1727717
159	0x3e5c2b43	0.21500878
160	0x3c66bc7f	0.014083027
161	0xbf9f7414	-1.2457299
162	0x3fa839be	1.3142622
163	0x3e2c056d	0.16798945
164	0x3f553667	0.83286136
165	0x3d54bf76	0.051940404
166	0x3f0b576b	0.54430264
167	0x3f4a0cc4	0.7892573
168	0x3f887c39	1.066291
169	0xbfa1480c	-1.2600112
170	0x3f5b2264	0.8559935
171	0xbf7084e1	-0.9395276
172	0xbdc022e1	-0.093816526
173	0x3f6df0d5	0.92945606
174	0x3e00e616	0.12587771
175	0x3f9d5b2d	1.229345
176	0xbf804f51	-1.0024205
177	0x3f9b6d1e	1.2142675
178	0x3e94a0ac	0.29028833
179	0x3f8ca7b5	1.098868
180	0x3dbedc93	0.09319415
181	0xbe1cb877	-0.15304743
182	0x3f750f95	0.957269
183	0xbf448401	-0.7676392
184	0xbd6f9a4e	-0.058496766
185	0x3d9c9835	0.07646219
186	0x3f6593d8	0.89678717
187	0x3f620d38	0.8830142
188	0x3f3301b0	0.6992445
189	0xbf387532	-0.72053826
190	0x3ea900e7	0.330085
191	0xbe089624	-0.13338524
192	0x3f8c22f9	1.0948173
193	0xbe2cf254	-0.16889316
194	0xbf81766f	-1.0114268
195	0x3e8ed1ce	0.27894443
196	0xbf2f32ea	-0.68437064
197	0x3e03b31c	0.12861294
198	0x3ee18e8c	0.44054067
199	0x3f87e86f	1.0617808
200	0x3f1c400e	0.6103524
201	0x3f72e488	0.9487996
202	0x3f40ba1f	0.75284
203	0x3de8fabe	0.1137595
204	0x3eb65002	0.35607916
205	0xbd922013	-0.07135024
206	0xbf98a8cd	-1.1926514
207	0xbf36b9d6	-0.71377313
208	0x3f523403	0.82110614
209	0x3f46fd3a	0.77730143
210	0x3fadb6fc	1.3571467
211	0xbf87f808	-1.0622568
212	0x3f71c531	0.94441515
213	0xbf4ce258	-0.80032873
214	0x3e83500c	0.25647008
215	0xbf072086	-0.52784
216	0x3e8a32a0	0.2699175
217	0x3f644330	0.8916502
218	0x3f0ed37b	0.55791444
219	0x3f9910f1	1.1958295
220	0x3f054974	0.52065206
221	0x3e3ea25e	0.18616626
222	0x3f790677	0.9727549
223	0x3ee4fbaa	0.44723254
224	0x3f881969	1.0632755
225	0xbbfa8ac0	-0.007645935
226	0x3f5bc430	0.85846233
227	0xbe61fd64	-0.22069317
228	0x3eee8fcb	0.4659408
229	0xbd4e39c1	-0.050348047
230	0xbdafe912	-0.085893765
231	0x3f394847	0.7237591
232	0x3d6139e4	0.05498685
233	0xbf8a1a5d	-1.0789295
234	0x3e0668e2	0.13125947
235	0xbf727903	-0.947159
236	0xbe084d74	-0.13310796
237	0x3fcf02a3	1.617268
238	0x3faf6175	1.3701617
239	0x3eaf58ce	0.3424744
240	0x3e470a6e	0.19437572
241	0x3f84b676	1.0368183
242	0xbf463d80	-0.7743759
243	0xbf17bea0	-0.59275246
244	0x3f7137fd	0.94226056
245	0xbf835a81	-1.0261995
246	0xbf1d5449	-0.61456734
247	0x3e87cbeb	0.26522765
248	0x3f3817d5	0.71911365
249	0x3f6ec491	0.93268687
250	0x3f6cd8e8	0.9251847
251	0x3f8dbffc	1.1074214
252	0x3eab8e8b	0.3350719
253	0x3f260a97	0.6485991
254	0x3f9aba99	1.2088195
255	0xbf86b44c	-1.0523772

linear2_q1.weight f4 [256, 256]
0	0xbf7be7e2	-0.984007
1	0xbdf80292	-0.12109865
2	0xbe62ec81	-0.22160532
3	0x3e978385	0.2959253
4	0x3ea1bcb8	0.31589293
5	0xbd9be23c	-0.0761151
6	0xbf863b99	-1.0486938
7	0x3f0da4fd	0.5532988
8	0x3e34a745	0.17641933
9	0x3e28fed5	0.1650346
10	0xbe107d26	-0.1411024
11	0xbd58ffa6	-0.05297818
12	0xbe232d2d	-0.15935202
13	0x3f2913e1	0.6604596
14	0x3dc3caa1	0.09560133
15	0x3e7f538d	0.24934216
16	0xbfaae8fd	-1.3352352
17	0xbea86a3f	-0.3289356
18	0x3e61481a	0.22000161
19	0x3ec86450	0.39139032
20	0x3ec78b81	0.3897362
21	0xbe7dcdfd	-0.2478561
22	0x3d6c00e3	0.057618033
23	0x3f7c4409	0.98541313
24	0x3e4ce740	0.2001009
25	0x3e414df8	0.18877399
26	0x3e8a0a84	0.26961148
27	0xbe4461ef	-0.19177984
28	0xbed26213	-0.4109045
29	0xbd028c60	-0.031872153
30	0x3f2303e8	0.63677835
31	0x3f1b3ef2	0.6064292
32	0xbcd5683c	-0.02605068
33	0xbf06489f	-0.5245456
34	0x3cbaca3f	0.022801517
35	0xbc6f7a51	-0.014616565
36	0xbe6e8fe8	-0.23297083
37	0x3eaab30a	0.3333972
38	0x3e462e3a	0.19353572
39	0x3ecf3572	0.40470463
40	0xbf6c82bd	-0.9238699
41	0x3eb5abc0	0.35482597
42	0x3ee665ca	0.44999534
43	0xbf66797e	-0.9002913
44	0x3ef7035c	0.4824475
45	0xbea7770e	-0.3270802
46	0x3e2a833a	0.16651621
47	0x3ec06e62	0.37584215
48	0x3dcbac07	0.09944921
49	0x3eeef97f	0.46674725
50	0xbe6594bd	-0.2242002
51	0xbdaa72d3	-0.08322682
52	0xbe2e7079	-0.17035092
53	0xbea6f1e4	-0.32606423
54	0x3bfc5380	0.0077003837
55	0xbf35d073	-0.71021193
56	0xbf2e528d	-0.6809471
57	0x3fa2192c	1.2663932
58	0x3da3d249	0.07999093
59	0xbd0053fd	-0.031330097
60	0x3e3922ad	0.18079634
61	0x3f006b55	0.50163776
62	0xbf55b43e	-0.8347815
63	0xbeb556d9	-0.35417822
64	0xbdb942b9	-0.090459295
65	0xbe714221	-0.23560382
66	0xbf4d7be8	-0.8026719
67	0x3e9d6e16	0.3074805
68	0x3ecf4c0b	0.40487704
69	0xbeb06009	-0.3444827
70	0xbe3dd384	-0.18537718
71	0xbe0183ad	-0.12647887
72	0xbd00c925	-0.031441826
73	0x3ef6a794	0.48174727
74	0xbe9a5199	-0.3014038
75	0x3c622df4	0.013804901
76	0xbe38c468	-0.18043673
77	0x3eb75128	0.35804105
78	0xbe136632	-0.14394453
79	0x3ec5d891	0.3864179
80	0x3d0df900	0.034661293
81	0xbec79061	-0.3897734
82	0xbf01d5a0	-0.5071659
83	0xbd853144	-0.06503537
84	0x3ee08837	0.43853924
85	0x3e86af09	0.26305416
86	0x3e7021ff	0.23450468
87	0x3e354e0d	0.17705555
88	0xbf406134	-0.7514832
89	0x3f26b178	0.65114546
90	0xbf5eb2b6	-0.8699144
91	0xbe1d4c12	-0.1536105
92	0xbee3ab31	-0.44466546
93	0xbc48f95a	-0.012266481
94	0xbe11f4dd	-0.14253564
95	0x3f1fe7cd	0.62463075
96	0x3e813e21	0.25242713
97	0x3ee61a36	0.44941872
98	0x3e73a5a3	0.23793654
99	0x3eb6ce0d	0.3570408
100	0x3d747df7	0.059690442
101	0xbf04ca20	-0.5187092
102	0xbf0cbb6b	-0.5497348
103	0xbd86898e	-0.06569205
104	0x3f1e2a7b	0.6178357
105	0xbd90daf4	-0.07073012
106	0xbc3f66c5	-0.011682217
107	0xbf2ef153	-0.6833698
108	0xbdf2db17	-0.11858194
109	0x3e1cada0	0.15300608
110	0x3f5775f8	0.8416438
111	0x3ddd2732	0.107984915
112	0xbe6e4fe8	-0.2327267
113	0xbd6f3fe2	-0.058410533
114	0x3eb28944	0.3487035
115	0xbf09a94c	-0.5377395
116	0x3ec7636c	0.3894304
117	0x3eb11c44	0.34591877
118	0xbed0d6de	-0.4078893
119	0x3f6d4148	0.92677736
120	0x3da2e673	0.07954111
121	0xbf6075ae	-0.87679565
122	0xbee07679	-0.43840387
123	0xbe7d376b	-0.24728172
124	0xbd1a9d5b	-0.037747722
125	0xbef5656f	-0.4792895
126	0xbebdbb19	-0.37056807
127	0xbf92ddb7	-1.1473912
128	0xbf57738d	-0.8416069
129	0xbd8f5651	-0.069988854
130	0x3ec4f989	0.3847163
131	0x3eaa578d	0.3326992
132	0x3eb80337	0.35939953
133	0x3d18417e	0.037171833
134	0x3e069721	0.13143589
135	0x3eba3724	0.36370194
136	0xbe2a48dd	-0.16629358
137	0xbc78200b	-0.015144358
138	0x3e641ebe	0.22277352
139	0xbeb2d946	-0.3493139
140	0x3eb62962	0.35578448
141	0xbeea4c4b	-0.45761332
142	0xbf58b3a6	-0.8464912
143	0x3ce7291d	0.028217847
144	0xbe122318	-0.142712
145	0xbea57ef1	-0.3232341
146	0x3dc981a9	0.09839184
147	0x3cc53963	0.024075216
148	0x3c08d820	0.008352309
149	0xbf01f172	-0.5075904
150	0xbe951686	-0.29118747
151	0x3f23030e	0.63676536
152	0xbb655231	-0.0034991617
153	0xbd958f4e	-0.07302724
154	0xbfb4c9cb	-1.4124082
155	0x3c74fc29	0.014952698
156	0x3f1409d7	0.57827514
157	0x3ebde5ea	0.37089473
158	0x3ead504d	0.33850327
159	0xbd99bf69	-0.07507212
160	0x3e7f953f	0.24959277
161	0xbe43f7e6	-0.19137534
162	0x3e9e12a7	0.30873606
163	0x3e1d6cf4	0.15373594
164	0xbf578a43	-0.84195346
165	0xbd269d03	-0.04067708
166	0xbddc495b	-0.10756179
167	0x3f494d26	0.78633344
168	0x3eea1446	0.45718592
169	0xbe2dee2f	-0.16985391
170	0xbda9d076	-0.08291714
171	0xbdbaab52	-0.09114708
172	0x3d997041	0.07492114
173	0xbd2aff54	-0.041747406
174	0xbed21a92	-0.41035897
175	0x3da8de38	0.0824551
176	0xbe678058	-0.22607553
177	0x3e0bb622	0.13643697
178	0xbe8e4011	-0.27783254
179	0x3dddbfe0	0.10827613
180	0xbf263957	-0.64931244
181	0x3f0dc20a	0.55374205
182	0xbd80ab8b	-0.06282719
183	0xbf41861b	-0.75595254
184	0x3db0aa4d	0.08626232
185	0x3ef6b48c	0.4818462
186	0x3ccce659	0.025012182
187	0x3e96859f	0.2939882
188	0x3ee24432	0.44192654
189	0xbdc3a8fb	-0.09553715
190	0x3fc2c972	1.5217726
191	0x3deccea9	0.11562855
192	0x3ee3cd9f	0.44492814
193	0xbf5990e6	-0.8498672
194	0xbe814a77	-0.25252125
195	0xbf6cb7ce	-0.92467964
196	0x3ec62d06	0.38706225
197	0x3ec1ac96	0.37826985
198	0xbc2388bc	-0.0099813305
199	0x3f45c9fb	0.7726132
200	0x3db4f1bb	0.08835169
201	0xbf41da26	-0.75723493
202	0xbfa96cd8	-1.3236341
203	0xbee592c7	-0.44838545
204	0xbeb40837	-0.35162517
205	0x3ec1fb55	0.37887064
206	0xbe2cdf30	-0.16882014
207	0xbe91e5bf	-0.28495595
208	0xbeeaf081	-0.45886615
209	0x3e83d90e	0.25751537
210	0x3e95944d	0.29214707
211	0xbe678703	-0.22610097
212	0x3dd3fa83	0.10350516
213	0xbe8c4c73	-0.27402076
214	0x3d343f2d	0.04400556
215	0x3e4c613c	0.19958967
216	0xbeec5414	-0.46157897
217	0x3efb04ab	0.49027
218	0x3f48b134	0.7839539
219	0x3e333fca	0.17504802
220	0xbf1710fb	-0.59010285
221	0xbf06b2bd	-0.5261648
222	0x3e0b4a75	0.13602622
223	0xbe390ef3	-0.18072109
224	0x3f2a1c38	0.6644931
225	0xbf23ff38	-0.6406131
226	0x3d5c3335	0.053759772
227	0x3f15dd68	0.58540964
228	0xbf5cce46	-0.8625225
229	0xbe214e51	-0.15752532
230	0xbd9e4f58	-0.07729977
231	0x3ef93914	0.4867636
232	0xbe42e56e	-0.19032833
233	0xbf0b171e	-0.5433215
234	0xbf275d57	-0.653768
235	0xbf09776f	-0.53697866
236	0xbe8d5658	-0.27604938
237	0x3ec9b059	0.39392355
238	0x3ee460a4	0.4460498
239	0xbf306718	-0.6890731
240	0xbe73d671	-0.23812272
241	0x3ea4b5c0	0.32169914
242	0xbefd0b49	-0.49422672
243	0xbeee4fc4	-0.4654523
244	0x3f106366	0.5640167
245	0xbe04f73a	-0.12984934
246	0xbed6e25c	-0.41969573
247	0xbd30dd9f	-0.043180104
248	0xbe060f5c	-0.13091797
249	0x3ea9f61c	0.3319558
250	0x3e9a7c15	0.30172792
251	0x3eac95a0	0.33707905
252	0xbe5bd2f7	-0.21467195
253	0xbf831a28	-1.0242357
254	0x3e9367bb	0.28790078
255	0xbe87d778	-0.26531577

linear2_q1.bias f4 [256]
0	0xbeb6ffef	-0.35742137
1	0x3cfc823a	0.030823816
2	0xbe34e8ca	-0.17666927
3	0x3f8debed	1.1087624
4	0xbe094b18	-0.13407552
5	0xbd11fbd1	-0.03564054
6	0x3f8b4aa2	1.0882151
7	0x3e69fe66	0.22850952
8	0x3f8782fa	1.0586846
9	0xbde7537d	-0.11295221
10	0xbd1b436a	-0.037906088
11	0xbea62a34	-0.32454073
12	0x3ed111a7	0.4083378
13	0xbe0317b5	-0.12802012
14	0x3fb05b96	1.377795
15	0xbd09a52b	-0.033604782
16	0xbce1c4a9	-0.027559595
17	0xbf72f5d5	-0.9490636
18	0xbd234394	-0.03985937
19	0x3f335db9	0.70064884
20	0x3dcf991b	0.101366244
21	0x3c843816	0.016140025
22	0x3f8496b7	1.0358495
23	0x3f981952	1.1882727
24	0x3fa52af3	1.2903732
25	0xbcd0173c	-0.025401704
26	0x3ce47fe0	0.027893007
27	0x3e44141a	0.19148293
28	0x3f34f04e	0.70679176
29	0xbd41bbd4	-0.047298267
30	0x3f71b1b8	0.944118
31	0xbec97375	-0.393459
32	0xbd6a5e9f	-0.057219144
33	0xbf2ced52	-0.6754962
34	0x3f8bd666	1.0924804
35	0xbe7cd781	-0.24691583
36	0x3f86326f	1.0484141
37	0x3f987646	1.1911094
38	0x3f953d89	1.1659404
39	0xbe2dfdb0	-0.16991305
40	0xbd1dfb5b	-0.03856979
41	0xbd60fadb	-0.054926734
42	0x3e087260	0.1332488
43	0xbaedfd40	-0.001815714
44	0xbe5d6358	-0.21619928
45	0xbf2acb52	-0.6671649
46	0xbea397c4	-0.31951725
47	0xbe9962a8	-0.2995808
48	0x3badc9b2	0.005303585
49	0x3ee295ea	0.44255
50	0xbc939325	-0.0180145
51	0x3f86d70e	1.053438
52	0x3f8917b7	1.0710362
53	0x3f9f59c0	1.2449265
54	0xbd2de4eb	-0.04245464
55	0xbca0c245	-0.019623885
56	0xbd27e08f	-0.04098564
57	0xbcf9a47e	-0.030473944
58	0x3e9f5f68	0.31127477
59	0x3f88be1c	1.0683017
60	0x3f47e9e0	0.7809124
61	0x3f8a62c9	1.0811397
62	0xbda468c4	-0.08027795
63	0x3d9086e2	0.07056977
64	0x3e9033ca	0.28164512
65	0xbead5765	-0.3385574
66	0xbf4947aa	-0.78624976
67	0xbee3a782	-0.44463736
68	0xbebaeeb8	-0.36510253
69	0xbf9d0c4e	-1.226938
70	0xbf2932be	-0.6609305
71	0xbf1198e7	-0.56873935
72	0xbe93bb5b	-0.28853878
73	0xbf841dd6	-1.0321605
74	0x3f9c051e	1.2189062
75	0xbe9a1faa	-0.30102283
76	0x3f8f3306	1.1187446
77	0x3f4609fa	0.77358973
78	0xbf821801	-1.0163575
79	0xbf000fc8	-0.5002408
80	0x3c223391	0.00989999
81	0xbec0bbde	-0.3764333
82	0xbd381c19	-0.04494867
83	0xbf82e2f3	-1.022551
84	0xbe70e1fd	-0.23523708
85	0x3e0b8d4a	0.13628116
86	0xbd65767d	-0.056021202
87	0xbd4df8e8	-0.050286204
88	0x3e0feeda	0.14055958
89	0x3e1d5882	0.15365794
90	0x3f505557	0.8138022
91	0xbf20fb6b	-0.62883633
92	0x3f43a13f	0.76417917
93	0xbea7b7da	-0.32757455
94	0xbdd63812	-0.10459913
95	0xbe65b7cf	-0.22433399
96	0x3f84195f	1.0320243
97	0xbf84fc15	-1.0389429
98	0x3f515dda	0.8178383
99	0xbf17e9e5	-0.5934127
100	0x3f8bbdb7	1.0917271
101	0xbdec3e65	-0.11535338
102	0xbe7e7c60	-0.24852133
103	0x3f559bbf	0.83440775
104	0xbcf435e7	-0.029810859
105	0x3aa7143a	0.0012747117
106	0xbeaae9c7	-0.33381483
107	0x3e7072f4	0.23481351
108	0xbe51026e	-0.20411083
109	0xbea79bc2	-0.3273602
110	0x3ece6aa4	0.40315735
111	0xbf87f572	-1.0621779
112	0x3e143a43	0.1447535
113	0x3dd0380d	0.10166941
114	0x3e6eab9c	0.23307651
115	0x3f9996a1	1.1999093
116	0x3fa9e30f	1.3272418
117	0x3dcf3208	0.101169646
118	0xbd2a8bb4	-0.041637138
119	0xbcec5325	-0.02884824
120	0x3eb4e030	0.3532729
121	0x3e864367	0.262233
122	0x3ed01ec5	0.40648475
123	0xbd884bd9	-0.06655092
124	0xbda433b8	-0.08017677
125	0x3cd5a065	0.026077459
126	0xb9f58a3f	-0.00046833043
127	0x3f9b5396	1.2134883
128	0xbdecabfb	-0.1155624
129	0xbe7338c2	-0.2375212
130	0xbe4672a3	-0.19379668
131	0x3f881970	1.0632763
132	0xbe2757a3	-0.16342025
133	0x3db15530	0.08658826
134	0xbddd3c39	-0.10802502
135	0x3f2eb9e0	0.6825237
136	0x3e89d61f	0.26921174
137	0xbb747e46	-0.003730671
138	0xbd126b16	-0.035746656
139	0x3f9db161	1.2319757
140	0x3f41426c	0.75491977
141	0xbee3878f	-0.4443936
142	0x3f887ef8	1.0663748
143	0xbef20c35	-0.47274938
144	0x3f090e45	0.535374
145	0x3f58bd38	0.84663725
146	0x3e8ad0c3	0.27112398
147	0xbd1d6716	-0.03842839
148	0xbe86a2b3	-0.26296005
149	0x3f8a6b8b	1.081407
150	0x3f96de02	1.1786501
151	0xbd132e9d	-0.035933126
152	0x3f9cf738	1.2262945
153	0xbab24823	-0.0013601821
154	0x3f9ac113	1.2090172
155	0xbf817455	-1.0113627
156	0x3f8be814	1.09302
157	0x3f792799	0.97326046
158	0xbf77b933	-0.96766967
159	0x3f9d44d6	1.2286632
160	0xbce3ce77	-0.027808411
161	0xbdb630cc	-0.08896026
162	0xbce6cd64	-0.02817411
163	0xbf26d627	-0.6517052
164	0x3f37cb90	0.71794987
165	0x3f80d651	1.0065404
166	0x3f8dd901	1.1081849
167	0x3eab6587	0.33475897
168	0x3f951e48	1.1649866
169	0x3f910d64	1.1332211
170	0xbd48ae0f	-0.04899412
171	0xbe986798	-0.29766536
172	0xbf514b7f	-0.8175582
173	0xbe9e0184	-0.3086053
174	0x3f8f948b	1.1217207
175	0x3f9021a9	1.1260272
176	0x3f0a7785	0.5408862
177	0xbc56c600	-0.01310873
178	0xbc7a887a	-0.015291328
179	0xbf356f31	-0.7087279
180	0x3f9b56d7	1.2135876
181	0x3e374218	0.17896307
182	0x3f383345	0.7195323
183	0xbcc74756	-0.024326008
184	0x3f413894	0.75476956
185	0x3f810b0d	1.0081497
186	0xbe13350a	-0.14375702
187	0x3f62f42e	0.8865384
188	0xbefda927	-0.49543115
189	0x3f423674	0.7586434
190	0x3f9ce3ce	1.225702
191	0x3e28f6bb	0.1650037
192	0xbcd8a52d	-0.02644595
193	0x3f403362	0.75078404
194	0x3f8f9c0c	1.1219497
195	0xbd1e374c	-0.038626954
196	0xbe9c2024	-0.3049327
197	0x3d8e88bf	0.06959676
198	0x3f74ac5e	0.9557551
199	0x3f9e02ef	1.2344645
200	0x3f99f76a	1.202863
201	0xbcd53255	-0.026024977
202	0xbdd13075	-0.102143206
203	0xbd5e9a17	-0.05434617
204	0x3f6ae043	0.91748446
205	0x3f1c527c	0.6106336
206	0x3f63ed27	0.8903374
207	0x3f959913	1.168734
208	0xbd18e3fa	-0.03732679
209	0x3e5dd350	0.2166264
210	0x3e6875f2	0.22701243
211	0x3f7d8b41	0.9904061
212	0xbf4b81cc	-0.7949493
213	0x3f8b25e3	1.0870937
214	0xbdb9b693	-0.090680264
215	0x3f04cbd8	0.5187354
216	0x3b854cfc	0.004068015
217	0x3ee3028c	0.4433788
218	0xbcef9f71	-0.029250832
219	0xbe2b735b	-0.16743223
220	0x3f807acc	1.0037475
221	0xbf3faebe	-0.7487601
222	0x3f48a106	0.783707
223	0x3f907022	1.128422
224	0xbe499a6e	-0.19687817
225	0x3f3289b3	0.6974136
226	0x3eddd40c	0.4332584
227	0x3daef947	0.0854364
228	0xbf89e123	-1.0771831
229	0xbccc2360	-0.024919212
230	0x3f3b7499	0.7322479
231	0x3c993df1	0.018706294
232	0xbe00faca	-0.12595668
233	0xbc86f971	-0.016476365
234	0xbf01a5f1	-0.5064383
235	0xbeabe506	-0.3357317
236	0xbd464a6a	-0.04841081
237	0x3efdaeb1	0.4954734
238	0xbd10577d	-0.035239685
239	0xbd441f9e	-0.047881715
240	0x3f892f63	1.0717586
241	0x3f89fc46	1.0780113
242	0x3f286dcc	0.65792537
243	0x3f2a84c4	0.66608834
244	0xbd137341	-0.035998587
245	0xbe9a945d	-0.30191317
246	0xbf813b77	-1.0096272
247	0x3f928289	1.1446086
248	0xbe78bfd9	-0.24291934
249	0x3f267032	0.65014946
250	0x3f8e034b	1.1094755
251	0xbe3e0754	-0.18557483
252	0xbd172f3d	-0.036910284
253	0x3f8aeab8	1.085288
254	0xbf622d2d	-0.8835018
255	0xbf14bf6d	-0.5810459

linear3_q1.weight f4 [1, 256]
0	0xc07d5461	-3.958275
1	0x3f6f106c	0.9338443
2	0xbedd3f6e	-0.43212456
3	0x3e88c46f	0.26712367
4	0xbf71539c	-0.942682
5	0xbcadccfd	-0.02121591
6	0x3f996774	1.1984696
7	0x3f63b7e6	0.8895248
8	0x3f2fccdd	0.6867197
9	0xbf71caf4	-0.94450307
10	0x3d8fd306	0.070226714
11	0xc093e2a0	-4.621414
12	0x3f62c231	0.8857756
13	0xbf076c3b	-0.5289952
14	0x3f92137c	1.1412196
15	0x3da635ab	0.08115705
16	0x3ea62675	0.32451215
17	0xbefa8e67	-0.4893677
18	0x3c195b1c	0.009360101
19	0x3f4fbe3e	0.8114966
20	0xc0134f09	-2.301699
21	0xc00c2e56	-2.1903281
22	0x3edee6bb	0.43535408
23	0x3e8fee50	0.28111506
24	0x3e8887b8	0.26666045
25	0x3da1a6d9	0.07893152
26	0x40110210	2.265751
27	0xbeee78e9	-0.46576622
28	0x3f2613dd	0.6487406
29	0xbf13d782	-0.57750714
30	0x3f130da3	0.57442683
31	0xc0313eef	-2.7694662
32	0xbfad6c7f	-1.3548735
33	0xbf157688	-0.5838399
34	0x3e8a1c9d	0.26974955
35	0xbf856d87	-1.042405
36	0x3f767a61	0.96280485
37	0x3ee508d4	0.44733298
38	0x3f583cda	0.8446785
39	0xc0ab8c47	-5.3608737
40	0xc001326a	-2.018702
41	0x3d19d930	0.03756064
42	0x3fc19407	1.5123299
43	0xbea730c5	-0.32654396
44	0xbf78ac44	-0.97137856
45	0xbf3bd737	-0.73375267
46	0xbfb29b72	-1.3953688
47	0xbfc25d02	-1.5184634
48	0x3fbea274	1.4893327
49	0x3f5077cf	0.81432813
50	0x3b957ff7	0.0045623737
51	0x3ef7e798	0.4841888
52	0x3f01f985	0.5077136
53	0x3e9265e7	0.2859337
54	0x3dc767dd	0.09736607
55	0xbd917338	-0.07102054
56	0xbdd3716a	-0.103243664
57	0xbb1334d2	-0.0022461903
58	0x3f372f34	0.715564
59	0x3e1b6314	0.15174514
60	0x3e90b7e6	0.28265303
61	0x3f88d9a0	1.0691414
62	0xbf0f2302	-0.5591279
63	0xbfff5b3f	-1.9949721
64	0x3f83916b	1.0278753
65	0xc083ad33	-4.1148925
66	0xbf12732f	-0.57207006
67	0xbf9d915f	-1.2309989
68	0xbeddeeb4	-0.4334618
69	0xbf2977d0	-0.66198444
70	0xbf82e5c3	-1.0226368
71	0xbf1ad40e	-0.6047982
72	0xc0957a43	-4.6711745
73	0xbf16fce6	-0.5897964
74	0x3e7a260c	0.24428576
75	0xbfa99c57	-1.3250836
76	0x3eb7ae37	0.35875103
77	0x3fd7a9d4	1.6848702
78	0xbf0fd1e1	-0.56179625
79	0xbeee866d	-0.46586934
80	0xbf426f97	-0.7595152
81	0xbf8a7e1b	-1.0819734
82	0xbb66c71b	-0.003521389
83	0xbf9bdfef	-1.2177714
84	0xbee80557	-0.45316574
85	0x3fc56344	1.5420918
86	0x3d6041a2	0.054750092
87	0x3d698414	0.057010725
88	0x4000093c	2.0005636
89	0xbf9d64d1	-1.2296392
90	0x3f8a6699	1.081256
91	0xbf84037b	-1.0313562
92	0x3f471ab4	0.7777512
93	0xbea2d1d1	-0.31800702
94	0xc047792f	-3.1167715
95	0x3f65819a	0.8965088
96	0x3e92e990	0.2869382
97	0xbf41845d	-0.75592595
98	0x3f662a37	0.89908165
99	0xc00202e6	-2.031427
100	0x3f001d50	0.5004473
101	0xbf81eb16	-1.0149868
102	0xbf32b30a	-0.6980444
103	0x404ff291	3.24918
104	0xbd99c3af	-0.07508027
105	0xbf84ef9c	-1.0385623
106	0xbea3798a	-0.31928664
107	0x3fa11e94	1.2587457
108	0xc00565a2	-2.0843282
109	0xbffb576f	-1.9636058
110	0x407d241e	3.9553294
111	0xbf0970c4	-0.5368769
112	0xc057a53b	-3.3694599
113	0xbfe12714	-1.7590051
114	0xc02c755f	-2.6946638
115	0x3e6b47e2	0.2297664
116	0x3fa0281e	1.2512243
117	0xc0a36246	-5.1057463
118	0x3daece02	0.085353866
119	0x3b7432aa	0.0037261643
120	0x3f2e88e9	0.6817766
121	0x3fb937e5	1.4470183
122	0x3fc2e83b	1.5227121
123	0xc079fa76	-3.905912
124	0xbf28e779	-0.659782
125	0xbfd096ca	-1.6296017
126	0x3fa1bc65	1.2635618
127	0x3f80dbe6	1.0067108
128	0xc01fa855	-2.4946492
129	0xc0a822f8	-5.2542686
130	0xc027b634	-2.6204958
131	0x3e03442f	0.12818979
132	0xc03fea56	-2.9986777
133	0xbfb6ce72	-1.4281752
134	0xc02800bb	-2.6250446
135	0x3f5f85d0	0.87313557
136	0x3f55fbe7	0.835875
137	0xbf8fc067	-1.1230592
138	0x3d66d8c6	0.056359075
139	0x3e703030	0.23455882
140	0x3f607ef7	0.8769373
141	0xbe915d8f	-0.28391692
142	0xbe1f5361	-0.1555915
143	0xbf97fa8f	-1.187334
144	0x4018ade8	2.3856144
145	0x3f086d17	0.5329146
146	0x3fd983d7	1.6993359
147	0xbeaa7829	-0.332948
148	0xc04f7aae	-3.2418628
149	0x3ea8c177	0.32960102
150	0x3e4f9d1a	0.20274773
151	0xbb9a5799	-0.0047101495
152	0x3f02b2d2	0.5105411
153	0x3ddc50be	0.10757588
154	0x3e7f44cc	0.24928588
155	0xbf087dec	-0.5331714
156	0x3e3cacbb	0.18425266
157	0x3ec1ddbf	0.3786449
158	0xbf53e9f3	-0.82778853
159	0x3f23b39d	0.63945943
160	0xba80f0c5	-0.000983738
161	0xc01c9f0d	-2.4472077
162	0x3d8a1e74	0.0674409
163	0x3fad44bd	1.3536602
164	0x3ee9a5e3	0.45634374
165	0x3eb737e5	0.35784832
166	0x3e19f5ab	0.15035121
167	0xc0327a36	-2.7887092
168	0x3e543e10	0.207268
169	0x3efe7bd5	0.4970385
170	0x3d805522	0.06266238
171	0xbe5546bc	-0.20827764
172	0xbf09a354	-0.53764844
173	0xc0051c71	-2.079861
174	0x3e361af7	0.17783724
175	0x3e6ee9ce	0.23331377
176	0xc004609e	-2.068397
177	0xbe0b5117	-0.13605152
178	0x3dc81035	0.09768716
179	0xbfdec0ef	-1.7402629
180	0x3eafa4b2	0.3430534
181	0x3f9f94d9	1.24673
182	0x3fabeb0a	1.3431103
183	0x3ca4d2e3	0.02012009
184	0x3f6136a6	0.8797401
185	0x3f3e3aa0	0.74308205
186	0x3f6fdf7b	0.9370038
187	0x3f2e7c9d	0.68158895
188	0xbfc427bd	-1.5324627
189	0x3f41605b	0.7553765
190	0x3e75fd7b	0.24022476
191	0x3f88cac2	1.0686877
192	0xbcb6847d	-0.022279972
193	0x3f8a4aaa	1.0804036
194	0x3ebeaf38	0.37243056
195	0xbf7aa2b1	-0.979045
196	0xc08ca033	-4.3945556
197	0x3fb41577	1.406905
198	0x3ebd12b6	0.36928338
199	0x3e5873b0	0.21137881
200	0x3e355194	0.17706901
201	0x3fd9b4de	1.7008321
202	0xc00217c8	-2.0327015
203	0x3f50f7e2	0.8162824
204	0x3f938550	1.1525059
205	0x4018a67a	2.385161
206	0x3f4d45f3	0.8018486
207	0x3f0e1bf8	0.55511427
208	0x3cb84f70	0.022498816
209	0x3f9f8394	1.246203
210	0x40119c7a	2.2751756
211	0x3ef3a549	0.4758704
212	0xbf221703	-0.63316363
213	0x3e845c55	0.25851694
214	0xc00a78ae	-2.1636157
215	0x3fa99876	1.3249652
216	0xc0189502	-2.3840947
217	0x4013d35b	2.309775
218	0x3df8ef21	0.12154985
219	0xbf511c8d	-0.8168419
220	0x3f1af0a9	0.6052347
221	0xc00fe632	-2.248425
222	0x3f331cdf	0.6996593
223	0x3ee3e19d	0.44508067
224	0xbeacbd04	-0.33737957
225	0x3f94f791	1.1638051
226	0xbfeaeb0b	-1.835298
227	0xbfe25aba	-1.7683938
228	0xbec43fa8	-0.38329816
229	0x3ddea17a	0.10870643
230	0x3f04ad59	0.5182701
231	0xbf191c57	-0.5980887
232	0xc088a7a5	-4.2704644
233	0xbe971a2e	-0.2951216
234	0xbfd5dc8f	-1.6707934
235	0xbf767a15	-0.9628003
236	0xbdd2320f	-0.10263454
237	0x3f61f588	0.88265276
238	0xbf18ee8c	-0.59738994
239	0xc05683a2	-3.3517842
240	0x3f52286c	0.8209293
241	0x3f23579a	0.63805544
242	0x3fcb66ec	1.5890784
243	0x3ef8b128	0.4857266
244	0xbab0ad5e	-0.0013479402
245	0xbf9e6963	-1.2375911
246	0xbf03bcb0	-0.5145979
247	0x3e56d10c	0.20978183
248	0xc08c9ad3	-4.3938994
249	0x3fa6b04b	1.302255
250	0x3eaa094e	0.33210224
251	0xc00b2d19	-2.1746275
252	0xbf0e6b06	-0.55632055
253	0x3e0a997b	0.1353511
254	0xbf62a156	-0.8852743
255	0xbf961128	-1.1723986

linear1_q2.weight f4 [256, 26]
0	0xbe13df4c	-0.1444065
1	0xbe47e19e	-0.1951966
2	0xbe399f14	-0.1812709
3	0xbe3db883	-0.18527417
4	0xbdc8635b	-0.097845756
5	0xbe3b4495	-0.1828788
6	0x3df4d54f	0.11954748
7	0x3d1708ca	0.036873616
8	0x3d782cbf	0.06058955
9	0x3df3f3f3	0.11911764
10	0x3e0d1302	0.13776782
11	0x3d5f26e3	0.054480445
12	0x3cb1da7e	0.02171063
13	0x3d8d808b	0.06909283
14	0xbc62673e	-0.01381856
15	0xbd71dcec	-0.05904858
16	0xbbfc5783	-0.007700862
17	0xbd4d8d89	-0.050183807
18	0xbdfcc653	-0.12342515
19	0x3e03cf74	0.12872106
20	0xbd3e2e99	-0.046431158
21	0x3eae3292	0.34022957
22	0x3e16e430	0.14735484
23	0x3ec2b328	0.3802731
24	0x3e88ebbc	0.2674235
25	0xbece5572	-0.40299565
26	0xbe24b67a	-0.16085234
27	0xbd8aa1f4	-0.06769171
28	0xbe94590c	-0.28974187
29	0xbdfecc88	-0.12441355
30	0xbe00c0bc	-0.12573522
31	0xbe1410e7	-0.14459573
32	0x3cc3e6ad	0.023913706
33	0x3d155617	0.036459055
34	0xbdc54c46	-0.09633689
35	0x3e2aac73	0.16667347
36	0xbcdc86f5	-0.026919821
37	0x3e5f9747	0.21835051
38	0x3da62c06	0.081138656
39	0x3cce3beb	0.025175055
40	0xbcdee5f7	-0.027209265
41	0x3e20b757	0.15694939
42	0xbda30735	-0.07960359
43	0xbe3defc6	-0.18548498
44	0xbd00ccb3	-0.031445216
45	0xbe8087d9	-0.25103644
46	0xbf128f9b	-0.57250375
47	0x3fbf3a95	1.4939753
48	0xbf8b6756	-1.0890911
49	0xbd8965ca	-0.06708868
50	0xbeca844c	-0.3955406
51	0xbeddc2f9	-0.43312815
52	0xbe39c3ce	-0.181411
53	0xbeed096e	-0.46296257
54	0xbeb61d75	-0.3556935
55	0xbeb3bcac	-0.35104883
56	0xbecd7bd7	-0.40133545
57	0x3e94ac17	0.29037544
58	0xbe9f59e0	-0.31123257
59	0xbdcc28d9	-0.099687286
60	0xbe3f7b59	-0.18699397
61	0xbeb050e9	-0.3443673
62	0xbe77fcef	-0.2421758
63	0xbe1f621d	-0.15564771
64	0xbe8b88a8	-0.27252698
65	0xbeb3e177	-0.35132954
66	0x3e643074	0.22284108
67	0x3d29304b	0.04130582
68	0x3e6c114b	0.23053472
69	0x3d557aec	0.05211918
70	0xbcd3f513	-0.025873696
71	0x3d17e95b	0.03708778
72	0xbe6a7736	-0.22897038
73	0x3e89156b	0.26774153
74	0xbf3e490f	-0.7433023
75	0xbdac3d72	-0.08410157
76	0xbec2f96c	-0.3808092
77	0xbf07fe61	-0.53122526
78	0xbe473858	-0.19455087
79	0xbe6579f0	-0.22409797
80	0xbe084d15	-0.13310654
81	0xbe39f154	-0.18158466
82	0xbe108841	-0.14114477
83	0xbd56597b	-0.05233143
84	0xbe4a861c	-0.19777721
85	0xbded4cfc	-0.11586949
86	0xbe790574	-0.24318486
87	0xbc9b6fa0	-0.018974125
88	0xbe71fcff	-0.23631667
89	0x3d80190a	0.06254776
90	0x3b505fa4	0.0031795288
91	0xbe85ddc0	-0.26145744
92	0x3cb4254c	0.02199044
93	0xbe3d738a	-0.18501106
94	0xbe6265a0	-0.2210908
95	0xbe007799	-0.12545623
96	0xbe181087	-0.14850055
97	0xbde73638	-0.11289638
98	0x3e9a9bf6	0.30197114
99	0xbe8c1173	-0.27357063
100	0xbcd70aaf	-0.026250212
101	0xbd57b9aa	-0.052667297
102	0xbdbdf641	-0.09275485
103	0x3dacc901	0.08436776
104	0xbee3af56	-0.44469708
105	0xbe95670e	-0.29180187
106	0xbee3f217	-0.44520637
107	0xbeb1b797	-0.3471038
108	0xbef20a59	-0.4727352
109	0x3e4b0f8f	0.19830154
110	0xbef0d968	-0.47040868
111	0xbeed7275	-0.46376386
112	0x3eef4e6c	0.4673952
113	0xbe832ba0	-0.2561922
114	0xbe318701	-0.17336656
115	0x3dce20f1	0.10064877
116	0xbd26f940	-0.040765047
117	0xbe225b2a	-0.15855089
118	0xbec6f5dd	-0.38859454
119	0x3cfaefae	0.030631866
120	0x3e89c8a4	0.2691089
121	0xbe3fcd72	-0.18730715
122	0xbe199ad6	-0.15000471
123	0xbea52b24	-0.32259476
124	0x3e52868c	0.20559138
125	0xbe65e9ed	-0.22452517
126	0xbeef0b83	-0.4668847
127	0x3f1d7df4	0.61520314
128	0x3dabe31e	0.083929285
129	0xbea0871e	-0.31353086
130	0xbce26e7f	-0.02764058
131	0xbe12d5ce	-0.14339373
132	0xbdb76901	-0.08955575
133	0xbe567f67	-0.20947038
134	0xbd0a6288	-0.033785373
135	0xbd9f6be6	-0.07784252
136	0xbe9a5d72	-0.30149418
137	0xbe34b6c5	-0.17647846
138	0xbe164d84	-0.14678007
139	0xbe8f9b2f	-0.28048083
140	0xbe85bf85	-0.2612268
141	0xbe1daa4d	-0.15396996
142	0xbe80142b	-0.25015387
143	0xbc81fe36	-0.015868288
144	0x3d3ba87c	0.045814976
145	0xbdcbad30	-0.09945142
146	0xbddefc10	-0.10887921
147	0xbd6f4d57	-0.058423366
148	0xbc0ed05e	-0.008716671
149	0xbd73f1c5	-0.05955674
150	0xbed01b44	-0.40645802
151	0xbf896590	-1.073412
152	0xbd489548	-0.04897049
153	0xbf4d84ac	-0.80280566
154	0x3f275edb	0.6537911
155	0x3e3dc1aa	0.18530908
156	0xbc204ca5	-0.0097838985
157	0x3d83e958	0.06440991
158	0xbb10f339	-0.0022117628
159	0xbd68c3c3	-0.056827318
160	0x3d5e8e8a	0.054335155
161	0x3d9310e0	0.07180953
162	0xbdebed13	-0.11519828
163	0x3c99f224	0.01879222
164	0x3cd2d6ff	0.025737284
165	0x3e145d50	0.14488721
166	0x3da223da	0.079169944
167	0x3cb313a6	0.021859955
168	0xbda84a54	-0.08217302
169	0x3a4c799f	0.00078001054
170	0xbbf3ec2f	-0.0074439268
171	0x3d23c382	0.039981373
172	0xbd6ca793	-0.057777
173	0x3cbdfb46	0.023191106
174	0x3d197515	0.037465174
175	0x3cc1fc34	0.02367983
176	0xbb7aeb5c	-0.0038287258
177	0x3e4d8208	0.20069134
178	0x3d603c1f	0.054744836
179	0xc017298e	-2.3619113
180	0x3dd9efe4	0.10641459
181	0x3d5acc7d	0.05341767
182	0xbe02e8af	-0.12784074
183	0xbd013d9b	-0.031552892
184	0xbddc339f	-0.107520334
185	0xbe1633f3	-0.14668255
186	0xbe6110f7	-0.21979128
187	0xbd34db8d	-0.044154692
188	0xbe38524a	-0.18000141
189	0xbd160a25	-0.03663077
190	0xbc643521	-0.013928683
191	0xbdd90f2e	-0.105985984
192	0x3cdc13ea	0.026864965
193	0xbe1422e2	-0.14466432
194	0xbe6acb4a	-0.22929111
195	0x3cb151dc	0.021645479
196	0xbe5a3d44	-0.21312433
197	0xbe38c8bc	-0.18045324
198	0xbe7b8c1b	-0.24565165
199	0xbe68bebe	-0.22729012
200	0xbe1eae1b	-0.15496103
201	0xbe6ca1bb	-0.2310857
202	0x3f301e24	0.6879599
203	0x3d641474	0.055683568
204	0xbd43c036	-0.04779073
205	0x3c9486f7	0.018130763
206	0xbf34ea4b	-0.7067
207	0x3df57c0b	0.1198655
208	0x3af5f0b3	0.001876375
209	0x3e1cf0bf	0.15326212
210	0x3dd6dbac	0.10491118
211	0x3c731f61	0.014839024
212	0x3e7e6643	0.24843697
213	0xbd1b8769	-0.037970934
214	0x3e0feaa6	0.14054355
215	0xbd4ee28f	-0.05050903
216	0xbdc50946	-0.096209094
217	0x3c8fe81f	0.017566739
218	0x3e1b3e22	0.1516042
219	0xbe02e1ca	-0.12781444
220	0xbdebbb17	-0.11510294
221	0xbdf048e2	-0.11732651
222	0xbe0eedc9	-0.13957895
223	0xbe31d24a	-0.17365375
224	0x3d28cf67	0.04121342
225	0xbdf1dee5	-0.11810092
226	0xbdfd7fb6	-0.123778746
227	0x3df4977f	0.11942958
228	0xbe8c10c1	-0.27356532
229	0xbf887e92	-1.0663626
230	0xbf79c560	-0.97566795
231	0x3eeec911	0.46637776
232	0x3dc859fb	0.097827874
233	0xbf13889c	-0.57630324
234	0xbe075ed4	-0.13219768
235	0xbd6f1e9a	-0.058378793
236	0x3cd3cbdc	0.025854044
237	0x3c88da8f	0.01670578
238	0xbb30e9f3	-0.0026994913
239	0xbdefd01f	-0.11709618
240	0xbd5ff7a5	-0.05467953
241	0xbdbc7a6d	-0.09203038
242	0xbe040f15	-0.12896378
243	0x3ecddb39	0.40206316
244	0xbcfc1e4d	-0.030776167
245	0xbdc08596	-0.094004795
246	0x3e15c970	0.14627624
247	0xbde9f7b2	-0.11424197
248	0x3d8fc556	0.07020061
249	0xbc027f2e	-0.007964892
250	0xbe10ce5d	-0.14141221
251	0xbe354314	-0.1770137
252	0x3dc6715c	0.0968959
253	0x3e87f6c3	0.26555452
254	0x3f259861	0.64685637
255	0xbe2d22be	-0.16907784

linear1_q2.bias f4 [256]
0	0x3f6fb2d1	0.9363223
1	0xbdab9b26	-0.083792016
2	0x3e6bd99e	0.23032233
3	0xbd0f9d11	-0.0350619
4	0x3e38e0a0	0.18054438
5	0x3df86ed6	0.12130515
6	0x3f236ad0	0.6383486
7	0x3d10d93f	0.035363432
8	0x3eb2d2b9	0.34926394
9	0x3d831235	0.06399957
10	0x3e79481e	0.24343917
11	0x3f72d307	0.9485325
12	0xbe07656c	-0.13222283
13	0xbf8fa6e0	-1.1222801
14	0xbe038d1f	-0.12846802
15	0x3c836049	0.016037123
16	0xbee8bf68	-0.4545853
17	0x3e933c8e	0.28757137
18	0xbea8f7b1	-0.33001474
19	0x3e3569e3	0.17716174
20	0x3f65f0ca	0.8982054
21	0x3f3280b8	0.6972766
22	0x3f6ee316	0.93315256
23	0xbd51993a	-0.05117152
24	0xbda11ea5	-0.07867173
25	0x3e79cad0	0.24393773
26	0x3e387a9b	0.1801552
27	0x3f774dfc	0.9660337
28	0x3f20aa27	0.6275963
29	0xbf2f8706	-0.68565404
30	0x3e21c7f7	0.15798937
31	0x3f622114	0.88331723
32	0x3fa2c0c1	1.2715074
33	0xbf303428	-0.68829584
34	0x3ac2ce1c	0.0014862451
35	0xbd64782c	-0.055778667
36	0xbf74f9da	-0.95693743
37	0x3f8310ee	1.0239542
38	0xbfa31689	-1.2741252
39	0x3e47bd87	0.19505893
40	0xbde9d414	-0.11417404
41	0xbf9a57d6	-1.2058055
42	0xbfa1a50c	-1.2628493
43	0x3efd35a7	0.49454996
44	0xbf235c62	-0.6381284
45	0xbf2a2dcb	-0.66476125
46	0x3f4688c5	0.77552444
47	0x3f8349ef	1.0256938
48	0x3f269868	0.65076303
49	0x3e8d9246	0.2765066
50	0x3e030152	0.12793472
51	0x3f5dcdff	0.8664245
52	0xbf3d45b9	-0.73934513
53	0x3f37458a	0.71590483
54	0x3f85508d	1.0415207
55	0x3f8161f6	1.010802
56	0xbbe7e153	-0.0070764213
57	0x3e6cd163	0.2312675
58	0x3e9e5a1a	0.30928117
59	0xbeb181ab	-0.3466924
60	0xbe0641e7	-0.13111077
61	0x3f89e0b0	1.0771694
62	0xbecd43fd	-0.40090933
63	0x3facf143	1.3511127
64	0x3e17c5b9	0.14821519
65	0x3fa37f22	1.2773173
66	0x3f45a881	0.7721024
67	0x3e22f6f8	0.15914524
68	0x3f715537	0.9427065
69	0x3effbf34	0.49950564
70	0x3fa821f9	1.3135368
71	0xbf959988	-1.1687479
72	0xbf580fb3	-0.84398955
73	0xbf096cfe	-0.53681934
74	0x3f7c2dea	0.9850756
75	0x3f2c3f49	0.67284065
76	0x3ce7a22b	0.02827557
77	0x3ecdebc1	0.40218928
78	0x3f34999e	0.705469
79	0x3e9d4753	0.3071848
80	0x3f5b0ba5	0.85564643
81	0x3fa17f03	1.2616886
82	0xbe0557ab	-0.13021724
83	0x3faa8062	1.3320429
84	0x3daca6d1	0.08430255
85	0x3d7fc11a	0.062440015
86	0xbf3d893f	-0.74037546
87	0x3efc6bb2	0.49300915
88	0xbf69cf65	-0.91332084
89	0x3e8c28cf	0.27374884
90	0x3c66fa98	0.014097832
91	0x3f8c535f	1.0962943
92	0x3f58b925	0.8465751
93	0x3ebbce74	0.3668095
94	0x3f517679	0.818214
95	0xbf817bb5	-1.0115877
96	0x3f773812	0.9656993
97	0xbc3095fc	-0.010777947
98	0x3f5ffdf5	0.8749688
99	0x3f9516b0	1.1647549
100	0x3de1c3b4	0.110236555
101	0xbe43baa3	-0.19114165
102	0x3f29dea1	0.6635533
103	0x3ee72d10	0.45151567
104	0x3e047a6c	0.12937325
105	0x3d089352	0.03334362
106	0x3f48c69d	0.7842806
107	0xbcb4b673	-0.022059655
108	0x3fac7659	1.3473617
109	0x3ee324d0	0.44364023
110	0x3e27f5dc	0.16402382
111	0x3f4f6b0d	0.8102272
112	0x3eb7ed49	0.35923222
113	0xbdd86698	-0.10566443
114	0x3fb17d44	1.3866353
115	0xbf8edff9	-1.1162101
116	0xbe270e17	-0.16313969
117	0xbf9befe5	-1.2182585
118	0x3f966daa	1.1752217
119	0x3f37a14e	0.71730506
120	0x3ec2d5fb	0.3805388
121	0x3f27888d	0.65442735
122	0x3f0f384a	0.55945265
123	0xbf477e93	-0.7792751
124	0x3e264370	0.16236663
125	0x3f80f293	1.0074028
126	0x3f1b2049	0.6059614
127	0x3ed59818	0.417176
128	0x3eb548a3	0.3540698
129	0x3f9bc123	1.2168316
130	0xbf4ffe05	-0.8124698
131	0x3e50463f	0.20339297
132	0xbf5a070c	-0.85167
133	0x3d4a43da	0.049381115
134	0x3f91a43d	1.1378247
135	0x3fb09a12	1.3797019
136	0x3d984441	0.074348934
137	0x3f6e3119	0.9304367
138	0xbf42bb76	-0.7606729
139	0xbd6d3162	-0.057908423
140	0x3f8b2142	1.0869524
141	0x3e2a9c34	0.1666115
142	0x3f880ab3	1.0628265
143	0x3f4a3dc1	0.7900048
144	0xbf506175	-0.8139871
145	0xbdce870a	-0.100843504
146	0x3e2501dc	0.1611399
147	0x3eebce62	0.46055895
148	0x3d0ae319	0.033907983
149	0xbf856946	-1.0422752
150	0x3f133ab5	0.57511455
151	0x3f7e6967	0.9937958
152	0x3e245be7	0.16050683
153	0xbd9ff12d	-0.078096725
154	0x3f701896	0.93787515
155	0xbe3519c2	-0.17685607
156	0x3e67e8ea	0.22647443
157	0xbed00df2	-0.4063564
158	0x3f9c69c4	1.2219777
159	0x3f5ac8a6	0.85462415
160	0x3ee241f4	0.44190943
161	0xbf855525	-1.0416609
162	0x3f8bd415	1.0924097
163	0x3f98377d	1.1891934
164	0x3f036159	0.51320416
165	0x3e01f3ce	0.1269066
166	0x3e1449b0	0.14481235
167	0xbc574220	-0.013138324
168	0x3f9dd77b	1.2331384
169	0x3f4cc1ca	0.799832
170	0x3eebc773	0.46050605
171	0x3f94bc2c	1.1619925
172	0xbd33a686	-0.04385998
173	0x3f8653f3	1.0494369
174	0x3f6c49b3	0.92299956
175	0x3f423b76	0.7587198
176	0x3edef43f	0.4354572
177	0x3ce30181	0.027710678
178	0xbf89003e	-1.0703199
179	0x3f0718cd	0.5277222
180	0x3e205c25	0.1566015
181	0x3f530510	0.824296
182	0xbef36e11	-0.47544912
183	0x3fa22c3d	1.266975
184	0x3f9b8cba	1.2152321
185	0x3e794f88	0.24346745
186	0x3dd47546	0.10373931
187	0x3fa176cd	1.261438
188	0x3ede0a5f	0.43367288
189	0x3cd8263c	0.02638542
190	0x3f1becf1	0.6090842
191	0x3e90af42	0.2825871
192	0xbd1f2ddb	-0.03886209
193	0xbdf7b5ba	-0.120952085
194	0xbc4ed496	-0.012623927
195	0x3ecb23ac	0.39675653
196	0xbf6eaa27	-0.9322838
197	0x3f4f0e87	0.8088154
198	0xbefd2c16	-0.49447697
199	0xbea6425e	-0.3247251
200	0xbd86600e	-0.0656129
201	0x3f81ade6	1.0131195
202	0xbd96b8c8	-0.07359463
203	0x3f0cf3da	0.5505959
204	0xbf571727	-0.840197
205	0x3fa67ce8	1.3006868
206	0x3dbd36e4	0.09238985
207	0x3f2c578f	0.67321104
208	0x3d5bc72f	0.053656753
209	0xbcca8d28	-0.024725512
210	0x3ead109b	0.3380173
211	0xbf66165f	-0.89877886
212	0xbc4c6322	-0.012474807
213	0x3e1ef0a9	0.15521492
214	0x3e064977	0.13113962
215	0x3f41d614	0.7571728
216	0xbefa76da	-0.48918802
217	0xbf75ec9a	-0.9606415
218	0x3fc1f9ac	1.5154319
219	0x3f9198bd	1.1374737
220	0xbf1a4eb9	-0.6027637
221	0x3f85add9	1.0443679
222	0x3eccd51d	0.40006343
223	0x3f9f686b	1.2453741
224	0x3f6ac093	0.91700095
225	0xbd5b0bf8	-0.05347821
226	0x3e7b147d	0.24519534
227	0x3d797a2f	0.06090754
228	0x3e9d74fa	0.3075331
229	0xbfb120a6	-1.3838089
230	0xbf9f002f	-1.2421931
231	0x3f507571	0.814292
232	0x3cda72e9	0.026666122
233	0xbcce71b2	-0.025200699
234	0x3fb2f319	1.3980438
235	0xbf1266ad	-0.5718792
236	0x3e8613a9	0.26186875
237	0xbd50340f	-0.050830897
238	0x3f5181b2	0.81838524
239	0xbecaf4fb	-0.3964003
240	0x3f3159ab	0.6927745
241	0x3f3d0917	0.73841995
242	0xbf1c5f1e	-0.6108264
243	0x3f5fa4d5	0.8736089
244	0x3f74d6c3	0.956402
245	0x3fa91557	1.3209637
246	0x3e3ef211	0.18647029
247	0x3ee840e3	0.45362005
248	0x3b633a5c	0.0034672236
249	0x3f48b446	0.78400075
250	0x3f93d86e	1.1550424
251	0xbd321270	-0.043474615
252	0xbf931a53	-1.1492409
253	0x3f2187c3	0.6309778
254	0x3d8f0858	0.06984013
255	0x3df3b903	0.119005226
