hydrone_aerial_underwater_ddpg/scripts/Models/sac_stage_1_sub2D_tanh_3layers/460_value_net.pth (torch_old, 585563 bytes, 10 tensors)

linear1_q1.weight f4 [256, 26]
00000000: e4d0 6bbd 2b55 f0bd 083e 0abe 62a5 45be
00000010: 49dd bc3c 6694 513d 2202 afbd e538 3cbd
00000020: cce1 38be 33e1 3cbe 16ce aebd 45a5 21bd
00000030: 22a1 863d 5da7 3ebe 1c4a fcbd a5d0 c6bc
00000040: 13ae 42be d11b 30be 95cf 613e 0b29 273e
00000050: 1f3e 193e cb11 633e 4b82 7a3e 995a 003f
00000060: 6874 103f bb3e 5cbc 4d4e cdbe 5cba c3be
00000070: 05f8 0e3e 44e4 a83d c5de e2bd 4dea 4fbd
00000080: 4a60 2abe bd5a d4bd c845 20bd 96da 19be
00000090: bbcf cebd 813a d3bb 2156 69be 8828 2ebd
000000a0: c163 2e3d a07f 1fbd e0b7 ca3d d51b aa3d
000000b0: 9f62 cabd 6cb4 3abe 7e48 babe 39f8 663d
000000c0: 0754 3dbe c50e db3e 356f b4be 6410 28bd
000000d0: 38ae 66be c321 7abe dcc8 1dbe a6af 97bd
000000e0: ab4c 1dbe 179b 14be 9afb 80be 891a 69be
000000f0: 2c25 14be a281 34be e943 4a3d cbdc 25be
00000100: d574 6fbe 9299 72be 2d08 123b 40ba 78bd
00000110: f704 b43d d900 7bbe 20ca 2b3d 4fa1 de3d
00000120: 6530 1b3f 2289 1a3f 7ed8 2fbe 7483 983e
00000130: 6f1e 0b3f e08a 9cbd c01c 09be fd45 9b3d
00000140: 1856 143d 6710 693d 736f 263c 148a a53d
00000150: 1111 13be b8d4 60bd cb91 a7bd a17c 0bbe
00000160: 09a3 c23d 368b 0bbd c59e 7c3d 7c73 73bd
00000170: aa54 db3d a454 a9bd 974b 063c 2e01 11be
00000180: 7fac 0c3d b90f 373e e1a1 c93e b787 03bf
00000190: 6130 3d3e 2227 5bbe 27dd 303e 8270 373e
000001a0: a9d7 bbbd 682c 8dbb dca0 ffbd 25db a4bd
000001b0: 0f9d dfbc ea65 36bd 75b3 923d 2972 17be
000001c0: 44b9 5fbe e8a9 51be 5353 7ebe 187f 0bbd
000001d0: ee1b 6dbe edbe a4be 3029 80be cd5d d6be
000001e0: 8627 c7be 0f9f 00bf 53f6 f6be d06f 23be
000001f0: 03cf a43e 30cb 8dbe 8888 023f 063c 04bf
00000200: 0c78 01be b3c8 5ebf fbce 48be 6efb 2cbe
00000210: 0c2d 11be bdb9 23be 1c99 2abd b533 bc3c
00000220: dbdd 2fbe cfcd 5bbe 73f0 c53c 1fb5 96be
00000230: d261 86be 1147 413d af57 7e3e 8c78 87be
00000240: 89bb f0bd 4aff 2dbe 37a1 99be 22b7 2fbe
00000250: 0e49 3cbe 2ab0 17be e3e9 1fbf 5766 063f
00000260: ac02 9fbe 4eb8 a9bd bd10 60bf 5798 243e
00000270: 292f 34be 3fdd 9fbd 2881 233d 4650 8ebd
00000280: 5e65 22be c556 a2bd 83fe 25bd c8f5 5abd
00000290: c328 023e b9e9 103d a899 dbbd 5cf2 6b3e
000002a0: 9b88 6abd 680d 5fbc 9e2d b73d 5ce2 0d3e
000002b0: ec51 a2bd 53a7 79bc bc9b 44be 7557 26be
000002c0: 2392 0ebc dfde b83f 0674 29bd 309a 15be
000002d0: 5a71 263e d8ab 81be 734f d03d da8e adbe
000002e0: 7389 afbe 71e8 23be 99e0 3cbe 6dd2 8dbe
000002f0: d0d4 77be 40ea 87be eb44 91be 3d82 d3bc
00000300: 0f95 82be 89b1 33be b253 7abe 1625 97be
00000310: 9152 f9bd 82ab 00be ac96 d6bd 2fe7 52be
00000320: 0ba6 adbe 3bc5 a8be dbc1 f2bd 62e5 7d3e
00000330: 39ad dd3d cf1e a9bd 80f8 3dbf dcc1 bebe
00000340: 050f bc3d d844 ad3e 2831 06bd 64a4 bb3c
00000350: f866 8dbd 7f83 12be 2315 73bd 79b8 15be
00000360: e077 3ebe 7eba b9bd 4528 8abc 9b41 5cbd
00000370: c04a 1d3d 73be 4abe dca9 16be 7b0b 7abd
00000380: 3ca5 e3bd 5363 b2bd 13f7 7ebd 8e22 08bd
00000390: f4de b63e 9ddb 2b3f 5051 be3e d1a9 ad3d
000003a0: 0491 c53e f3d4 5dbc 4484 26bd 7ef5 10be
000003b0: 626c 52bd 0d86 1fbe d87a cf3d 48a2 a7bd
000003c0: 2d53 8c3c bab7 033e f007 973d 40b5 cd3d
000003d0: 8321 933d 1461 82bd a1fa 9b3d 869e 193d
000003e0: c8e0 1b3e 29ce 0f3e aa5e 85bd 8820 033e
000003f0: 99c8 1bbd db36 bbbd d1bf 23be 1d71 a9bc
-0.05757226 -0.117349945 -0.13500226 -0.1930137 0.023054736 0.051166914 -0.08545329 -0.045952696
-0.18054885 -0.18445282 -0.085354015 -0.039464254 0.065737024 -0.18618532 -0.12318823 -0.024269411
-0.19011717 -0.17198111 0.22051843 0.1632425 0.14965104 0.22174756 0.24463765 0.5013824
0.5642762 -0.0134426905 -0.400988 -0.38228118 0.139618 0.08246663 -0.11077646 -0.050760556
-0.16638294 -0.103688695 -0.03912905 -0.1502479 -0.10098215 -0.006446183 -0.22786762 -0.042519122
0.0425756 -0.038940072 0.098983526 0.0830609 -0.09882092 -0.18232888 -0.36383432 0.056389067
-0.18489085 0.42784706 -0.35241094 -0.041031256 -0.22527397 -0.24426942 -0.15408653 -0.07406549
-0.15361278 -0.14512287 -0.25191957 -0.22764029 -0.14467305 -0.17627576 0.04938117 -0.16197507
-0.23384412 -0.23691395 0.0022282705 -0.060724497 0.087900095 -0.24512042 0.04194081 0.10870611
0.6062072 0.603655 -0.17172429 0.2978779 0.5434331 -0.07643676 -0.13389874 0.075817086
0.036214918 0.056900408 0.0101584075 0.08082977 -0.14361979 -0.054890364 -0.08182105 -0.13621761
0.09503753 -0.03406831 0.061674852 -0.059436306 0.10709508 -0.08268097 0.008196733 -0.14160606
0.034344193 0.17877091 0.39381316 -0.5137896 0.18475486 -0.21401647 0.17271863 0.17914012
-0.09171993 -0.004308272 -0.12481853 -0.08049611 -0.027296571 -0.044530787 0.07163135 -0.14789642
-0.21848017 -0.2047497 -0.24836473 -0.034056753 -0.23155186 -0.32176915 -0.25031424 -0.4186844
-0.3889734 -0.50242704 -0.48234805 -0.15960622 0.32189187 -0.27694082 0.5098958 -0.5165409
-0.1264345 -0.8702499 -0.19610207 -0.16892788 -0.1417734 -0.15988822 -0.041649923 0.022973875
-0.17174475 -0.21465228 0.024162507 -0.2943506 -0.26246506 0.047186915 0.24838136 -0.26459157
-0.117545195 -0.16991916 -0.3000581 -0.17159703 -0.18387243 -0.14813295 -0.6246626 0.5249991
-0.31056726 -0.082871065 -0.8752554 0.16073738 -0.17596115 -0.07805871 0.039918095 -0.06948905
-0.15858981 -0.07926706 -0.040525924 -0.05345705 0.12710862 0.035379145 -0.10722667 0.23041672
-0.057259183 -0.013614036 0.08944248 0.1385588 -0.079257816 -0.015237647 -0.19200033 -0.162443
-0.008701834 1.4443015 -0.041370414 -0.14609599 0.16254178 -0.2532642 0.10171404 -0.3389805
-0.34284553 -0.16006638 -0.18445052 -0.27699605 -0.24202275 -0.26545906 -0.28372893 -0.025818938
-0.25504348 -0.17548193 -0.2444599 -0.29520482 -0.121739514 -0.12565425 -0.10477957 -0.20596002
-0.33915743 -0.32962975 -0.11853381 0.24794534 0.10824055 -0.082578294 -0.74207306 -0.37257278
0.09182552 0.33841586 -0.032761723 0.022905536 -0.06904405 -0.14307974 -0.05934633 -0.14621152
-0.18600416 -0.09068774 -0.016864905 -0.053773504 0.038401365 -0.19799213 -0.14713234 -0.061046105
-0.111155 -0.08710351 -0.062247347 -0.03323608 0.35716975 0.6713198 0.37171412 0.084796555
0.385872 -0.013539541 -0.040653482 -0.14156148 -0.051372893 -0.1557848 0.101308525 -0.081852496
0.017129505 0.12863055 0.07374561 0.10044336 0.07184126 -0.063661724 0.07616163 0.037504695
0.15222466 0.14043488 -0.06512196 0.12805378 -0.0380331 -0.09141322 -0.15991141 -0.02068382

linear1_q1.bias f4 [256]
00000000: c638 833e f01f e43e 178b a0be f139 5b3f
00000010: adde fa3e 1a58 e23e e549 fcbe 3179 1f3d
00000020: aff4 653e 4eb6 4f3f 0689 953d 1ac3 913e
00000030: abfa 3abf 1df8 2a3f 260d 1a3f 0d8a 4f3f
00000040: a0cc 1c3f d43a 103f 0d8e c1bd e133 4f3f
00000050: 58db 373f 2778 913e 4aee a63e 3799 443f
00000060: e4d1 223f e861 573f 7692 c7be 9ad4 3d3f
00000070: 0ac5 26bf f202 32bf 5f4b 4c3f 0393 14be
00000080: f77f 49bf 70e2 3dbf 70f2 05bf 1d45 3d3f
00000090: b8be d53e 8cd8 433f 8af9 6abd aa0d 8d3e
000000a0: 1ace d53d 948f 403f 9a1f c7bc 2e49 7d3e
000000b0: 6aca 2b3f 7dc8 313f 4675 e53e ba39 28bd
000000c0: 75fd 653f fbd8 4e3f 60ef 2a3e c4c2 5b3f
000000d0: 1311 4b3f 45d4 c73d fc0c 943d f137 30bd
000000e0: 01e3 1ebd 4d9b 3e3f 9b9e 94bd 8004 05bf
000000f0: 5bac 7e3f 5914 2d3f 95f9 b33e f934 d53e
00000100: ab65 8f3e b6fa 243f 3fbd 19bf 6843 453f
00000110: 7279 2f3f 1c90 21bf 9bbc 63bf 806f babe
00000120: c2a2 e7be 0743 48bc 2cb5 58bf bb20 463f
00000130: c308 febd 9c81 5d3f 611a 363e 2225 1a3f
00000140: 9ede 573f 0f51 04bf 7497 b9be d9de 15be
00000150: 78aa abbd 5fb5 d4bc fed1 14bd 2837 813d
00000160: 6582 053f cec9 363f ca9b 9f3e 5df3 213e
00000170: da05 31bf f704 53bd c074 11bf 5572 a8be
00000180: 7ace fb3e f4a9 463f a0af 09bd a443 a0bd
00000190: 8954 1a3f c489 95bc 9715 3c3d 37d9 803e
000001a0: 9d45 ea3e 9423 533d 78ff 5abe e9db ffbd
000001b0: bf42 4abd 2abc c0be 5b5b 2d3f 37f1 09bd
000001c0: bed6 193f 5531 6a3f c570 9a3c 03b2 02be
000001d0: cb61 8b3f 5c3a f83e 9bbf 193f 6870 003f
000001e0: 7d75 20bd 9834 fcbe 8f9c ad3e beba c4be
000001f0: 76ba 54bf 333c d83d c436 983e fb90 4c3f
00000200: cdb0 9a3e f3d3 d83b 97f7 313f ba57 03be
00000210: 0ff1 9fbe 46df 2d3f e902 3bbc 042f 463f
00000220: 3879 d8bd 45ff 303f 2698 383f 000b fabe
00000230: 6326 6f3f c340 443f 8bd0 893e 050f 2d3d
00000240: ca5d 4cbf 5a81 de3d d07f cebe eac8 f2bc
00000250: 8cdc 513f 5f17 7e3e 440f 00be cb31 053f
00000260: c083 13bf 4a43 373e 26c2 403f e761 4d3e
00000270: 13c2 4b3f 84db 163f 63e5 ae3d c2e7 f5bd
00000280: 506f c13c 0d6c 50bf 23c5 663f 89a8 873e
00000290: 3d9f 5c3f 2326 ca3d 8853 093f bc80 fd3e
000002a0: 847b 533f f602 47bf 8802 3f3f b306 3fbf
000002b0: e122 c0bd 174a 433f 87f7 293e a322 503f
000002c0: c068 09bf c4e0 5b3f a078 373e 9fe9 303f
000002d0: 794e f93d cea4 abbd fd4c 3b3f 35d3 efbe
000002e0: 4e9a 6fbd a6b8 3bbd 6d17 343f 833a 143f
000002f0: 2683 1b3f cf58 02bf d691 883e 5c50 dfbd
00000300: 07f0 4f3f ff81 aa3d 923f 0ebf 97cd dc3d
00000310: fefb 21bf f85a bf3c 2768 f63e ddaf 463f
00000320: e6bf 063f 4bef 3e3f 150c 2e3f 4305 253e
00000330: 341c 4c3e 3fd6 c6bb d575 3ebf 2135 0bbf
00000340: 70c0 093f 99e1 1f3f 42ff 663f 3a9d 47bf
00000350: 7b02 3b3f 7b65 1ebf 2f1a 4a3e 6f85 05bf
00000360: 7724 133e 28eb 1c3f 05d4 da3e a3f3 5e3f
00000370: 8a76 063f 1b66 983d 3be0 1a3f 7dd4 bb3e
00000380: 52b8 523f 9a79 59bd deb2 2c3f ff12 46be
00000390: 0bbb 093f bd2b 38be 11bf bebd c5ae 2c3f
000003a0: 0be4 68bc 04e5 3ebf c7e7 ceba e2d2 1dbf
000003b0: d106 62bd ed84 863f d677 903f 92fa 933e
000003c0: a4f3 babc 6787 2c3f 1f80 efbe 19ee 16bf
000003d0: ec1a 203f 765d 4bbf b56a f2be 0ade e93d
000003e0: 0154 03bf c85e 1d3f 5c4b 233f 3ce4 4e3f
000003f0: e64a dcbb 0fdf 233f dd58 8e3f 93bc 3bbf
0.25629252 0.44555616 -0.31356117 0.85635287 0.48998013 0.4420784 -0.49275127 0.038933937
0.2245662 0.8113755 0.07301526 0.28469163 -0.7303874 0.6678484 0.6017631 0.81070024
0.6124973 0.56339765 -0.09450922 0.80938536 0.71819067 0.2841198 0.32603675 0.7679629
0.6360152 0.8413377 -0.38978928 0.7415253 -0.6514441 -0.69535744 0.7980251 -0.14509206
-0.78710884 -0.7417364 -0.52323055 0.73933583 0.4174707 0.765023 -0.057366885 0.27549487
0.104397014 0.7521908 -0.024307061 0.24734947 0.67105734 0.69446546 0.44816035 -0.041070677
0.8983987 0.80799836 0.16692877 0.85844064 0.7932293 0.09757284 0.07229039 -0.0430221
-0.038790707 0.7445572 -0.07256814 -0.5195999 0.99481744 0.67609173 0.35151353 0.41641977
0.28007254 0.64445055 -0.6005439 0.7705598 0.68544686 -0.6311052 -0.88959664 -0.36413193
-0.45241362 -0.012223012 -0.84651446 0.7739369 -0.12404015 0.86525893 0.177835 0.6021291
0.8432406 -0.51686186 -0.36248362 -0.14635791 -0.08382124 -0.02596539 -0.036333077 0.06309348
0.5215209 0.7140168 0.31173545 0.15815492 -0.69149554 -0.051518407 -0.5681877 -0.32899728
0.49180967 0.7760308 -0.033614755 -0.078254014 0.6028524 -0.018254168 0.045919027 0.25165722
0.45756236 0.0515476 -0.21386516 -0.124931164 -0.04938006 -0.37643558 0.6771752 -0.033677306
0.60093296 0.91481525 0.0188526 -0.12763219 1.0889219 0.48482025 0.6005799 0.5017152
-0.039174546 -0.49258876 0.33908507 -0.38423723 -0.83097017 0.10558357 0.29729283 0.7990872
0.30213013 0.006617063 0.6951842 -0.12826434 -0.312386 0.67918813 -0.011414268 0.7741549
-0.10569996 0.6913951 0.7210716 -0.48836517 0.9341795 0.7666132 0.26916918 0.042250652
-0.7983061 0.108645156 -0.40331888 -0.029636819 0.8197715 0.24813603 -0.12505823 0.52029103
-0.5762291 0.17896762 0.75296247 0.20056878 0.7959301 0.58928704 0.08539846 -0.12007095
0.023612648 -0.8141487 0.90144557 0.2649577 0.8618048 0.09870555 0.53643084 0.4951228
0.82610345 -0.77738893 0.7461324 -0.746196 -0.093816526 0.7628493 0.1659833 0.8130285
-0.5367546 0.8588984 0.17917109 0.6910648 0.121731706 -0.083810434 0.7316435 -0.46840826
-0.058496766 -0.04583039 0.70348245 0.5790178 0.6074699 -0.5091676 0.26673764 -0.10903999
0.8122563 0.08325576 -0.5556575 0.10781401 -0.63275135 0.023358807 0.48126337 0.77612096
0.52636564 0.7458388 0.67987186 0.16115288 0.19932634 -0.0060680206 -0.7439855 -0.54377943
0.5380926 0.6245361 0.9023324 -0.77974284 0.7305066 -0.61873597 0.19736551 -0.5215673
0.14369379 0.6129632 0.42739883 0.8709051 0.52524626 0.0744135 0.604984 0.36685553
0.823125 -0.053094484 0.6746043 -0.19343184 0.5380103 -0.17985435 -0.09313787 0.6745418
-0.014214526 -0.745682 -0.0015785628 -0.61649907 -0.055182282 1.0509316 1.1286571 0.28902107
-0.022821255 0.6739411 -0.46777436 -0.5895706 0.6254108 -0.79439485 -0.47347036 0.11419304
-0.51300055 0.6147275 0.63786864 0.8081701 -0.006722796 0.64012235 1.1120869 -0.73334616

linear2_q1.weight f4 [256, 256]
00000000: 0de4 05bf af1a 83bc 1489 64be ddcb 093d
00000010: 2a9d b83e f89d 03bd 3ce5 88bf 6c3c 163f
00000020: c5e5 9e3e 2eb2 363d e16b 8b3e df75 5fbe
00000030: 1f13 c2bc 9cf0 a63e 6aba fcba 8bc8 013e
00000040: 2152 89bf f665 1c3e 1a48 613e a8bf 903d
00000050: c207 653e 035e 85bd c303 3abe dd9d 763e
00000060: e73a eb3c c860 36bd 7cd8 3e3e a7eb 1ebe
00000070: 20c5 76be 2d68 603d 8aed 023f f23e 1b3f
00000080: b45d ab3d d6c8 68be 48b8 47be 093c bb3d
00000090: 2ceb 3f3e 4d16 7a3e 3a2e 463e 34e1 1a3f
000000a0: a795 f4be dd28 91bd ca65 e63e bbfc 00bf
000000b0: 5110 d6be 90fb e1bd eced c03b 626e c03e
000000c0: 67c6 1abd 5145 573e 08b1 eebe 8402 23be
000000d0: 956c 8e3d 7fab 8abe 7366 96be f29e e5be
000000e0: ee49 a5be edc4 af3e 49d2 a33d 968d 0dbd
000000f0: 65a2 833d b6cc 283e 3fec a2be 38f3 85be
00000100: da27 a3bc a943 33be 2e6a bdbe 9037 3abd
00000110: 772d 373e 7d09 33bd 061e 803c 406a 13be
00000120: c700 f23d 94a7 f63e 79a4 cfbd 0964 21bd
00000130: cf98 c1be ab4b 803e d39b a83d 8d80 5bbd
00000140: d9de 143b afb1 7e3c 2e7d 3abe de08 c93d
00000150: 58d0 003e 8040 a8bd ff21 703e 0d4e 353e
00000160: 7f26 74be 009b a93e 575d 28bf 124c 1dbe
00000170: 4ff3 b9bd 5af9 48bc 91f1 12be 3200 673e
00000180: e224 353e 49c4 313e 7ab5 9f3e 0dce b63e
00000190: 05b5 5fbd f724 46be 68bb e7bd af66 593e
000001a0: 3ac2 003e 14bb 5d3e 3fa3 a0bd 5595 053d
000001b0: b152 9bbc 3aba 693e d723 b53e 3227 dd3d
000001c0: 71fb 013d 5748 58be 4db6 d43e 189d b8bd
000001d0: 5b53 cd3d bcc3 ea3e ccae d03d ebfb a33e
000001e0: 1f4d 593e 5b36 91be 8bbe ac3c 57f8 f6bd
000001f0: 5ead 3c3d 9356 69be 187b c7be 331c 94bf
00000200: 57d0 81be ab5d ae3c 38da 823e ab77 cb3d
00000210: 47bd 833e e567 c9bd 2197 063e dd53 3b3e
00000220: 0ce1 cabe b8be d2bc bd37 743d 3baf a3be
00000230: c11d af3c ecf6 f5be 2bb2 eabe 44d8 8f3d
00000240: 8861 1dbe f17e a5be 5124 f33e 6339 c53c
00000250: d900 19be db73 e9be 5ba5 55be 1d2a 893e
00000260: 08e7 783e 98aa b43d 23ba 85bf 29fc 743c
00000270: a37a 253e 24da ef3d c397 e63d 7c18 783e
00000280: 3f95 7f3e a8eb a7bd b551 3b3e 1d5a 733e
00000290: 0455 5ebf 14fa c33d df62 653c c45e 623e
000002a0: 509d a83b 742d 52bd cba2 d1be 6d5f 523c
000002b0: 4170 993d 7929 9cbd e9ae d3be 36a3 cbb9
000002c0: 078b 34bd 1708 c4bc 2043 13bf 80fc a7ba
000002d0: 3772 82bf eed1 f33e 4ddc 013e 05e0 403d
000002e0: 4daa b03d b4e7 c73e de36 23be b66b ed3d
000002f0: 7331 da3e b2e4 483d 3dfa 963e f3db fc3e
00000300: cb70 9c3d cd07 2abf dda8 8dbd 05dd d3be
00000310: 214a 1b3f 796c f83e 6770 fb3d ac53 a63e
00000320: b712 c1bc 6b56 833c 4936 83bf 571c 7d3d
00000330: b2cd a2bc 55fb c13e c685 0fbd f6e9 1ebb
00000340: 7208 3cbe 7efb 4dbe c9cf 07be c25e 11bc
00000350: 4845 3cbd 6042 3d3d 293b 0bbe d8b0 213e
00000360: 5b0e 0cbe 1b5d 2d3e 54bf 693e 47a9 8c3b
00000370: 5997 02bf 8376 543e 8754 ef3d 746e 1cbe
00000380: 9291 243e c046 c2bd cce8 2dbe 997e 603e
00000390: 4a27 79bf a4d8 02bc 34a7 3f3e 2a73 e93e
000003a0: d08c f13d 40d5 ebbd 4612 d2bd aa7d 84bd
000003b0: b07a 88be f954 3b3e 716b bc3d 65bb 17bf
000003c0: 4986 b2bd e9bc 483e 95e4 27be 5f81 e4bb
000003d0: 900d 273e 3afe d7bd df88 033d e091 1b3f
000003e0: ecf4 43bc 6483 303e 54f1 ff3d 5681 1e3e
000003f0: c7df 683e ef39 fabe d12e 943e 4d67 e63c
-0.523011 -0.016003935 -0.22317916 0.033641685 0.36057407 -0.032133073 -1.0694957 0.58685946
0.31034675 0.04460352 0.27230743 -0.21822308 -0.023690758 0.32605445 -0.001928163 0.12674157
-1.0728189 0.1527327 0.22000161 0.070678055 0.2236624 -0.06512072 -0.18165497 0.24083658
0.02871461 -0.04452589 0.1863727 -0.15519582 -0.24098635 0.05478685 0.51143706 0.6064292
0.08367482 -0.22732863 -0.19503891 0.0914231 0.18742055 0.2442257 0.19353572 0.6049988
-0.47770426 -0.07087872 0.44999534 -0.50385636 -0.41809323 -0.1103431 0.0058877375 0.37584215
-0.037786867 0.21022536 -0.4661944 -0.15918928 0.06954304 -0.27083966 -0.29375038 -0.44847828
-0.32282966 0.3432993 0.07999093 -0.034558855 0.06427459 0.16484341 -0.31820866 -0.26162124
-0.019916464 -0.17506279 -0.3699507 -0.045463145 0.17888437 -0.04371022 0.015639316 -0.14396
0.118165545 0.48174727 -0.101387925 -0.03940204 -0.37811896 0.2505773 0.08232846 -0.053589392
0.0022715835 0.015545293 -0.18211815 0.098161444 0.12579477 -0.082154274 0.23450468 0.17705555
-0.2384281 0.33126068 -0.65767425 -0.1536105 -0.090796106 -0.012266481 -0.14349963 0.22558668
0.17689851 0.17360033 0.31193143 0.3570408 -0.054615993 -0.19350038 -0.11315042 0.21230577
0.12574092 0.21653396 -0.07843637 0.032613117 -0.018960329 0.22824946 0.35378906 0.107984915
0.031733934 -0.21121345 0.41545334 -0.09014338 0.100256644 0.45852458 0.1018959 0.32028136
0.21220826 -0.28361782 0.021086952 -0.12059086 0.046063773 -0.22786932 -0.389611 -1.1571106
-0.25354263 0.021284899 0.25557113 0.09934934 0.25730345 -0.098342694 0.13143589 0.1829371
-0.39624822 -0.025725707 0.05962347 -0.31969628 0.021376492 -0.4803995 -0.45839056 0.07023671
-0.15369236 -0.3232341 0.47488645 0.024075216 -0.1494173 -0.45596203 -0.2086386 0.26789942
0.24306881 0.08821601 -1.044743 0.014952698 0.16160063 0.11711529 0.11259415 0.2422809
0.24959277 -0.08199245 0.18292888 0.23764844 -0.86848474 0.09569183 0.0140006235 0.22106463
0.0051457062 -0.05131288 -0.40944514 0.012840134 0.07492114 -0.07625098 -0.41344383 -0.0003884078
-0.0440779 -0.023929639 -0.575243 -0.001281634 -1.0191106 0.476211 0.12681694 0.04708864
0.08626232 0.39043963 -0.15938899 0.1159281 0.42615852 0.049046226 0.29487792 0.49386558
0.07638701 -0.66418153 -0.06916974 -0.41379562 0.60659987 0.48520258 0.122772984 0.32485712
-0.023568494 0.016032418 -1.0250942 0.061794605 -0.019873474 0.37887064 -0.035039686 -0.0024248338
-0.18362597 -0.20115468 -0.13262857 -0.00887269 -0.04596451 0.04620588 -0.13596787 0.15790117
-0.13677351 0.16930048 0.22826892 0.0042926404 -0.5101219 0.20748334 0.11686044 -0.1527651
0.16071156 -0.09486151 -0.16983336 0.21923293 -0.97325575 -0.007986221 0.18716127 0.45595676
0.11794436 -0.115152836 -0.10257392 -0.06469281 -0.26656103 0.18294133 0.0920018 -0.59270316
-0.08717019 0.19603314 -0.16395791 -0.00697343 0.16313767 -0.10546537 0.032112952 0.6076946
-0.011960249 0.17237622 0.124972016 0.15479025 0.22741614 -0.48872325 0.28941968 0.02812543

linear2_q1.bias f4 [256]
00000000: d08a eabe 5e84 d9bd acf9 9dbe 2d68 663f
00000010: a72f 54bd d1fb 11bd fa03 5c3f b875 dc3e
00000020: bd64 573f 7502 bebd 6a43 1bbd 7757 cebe
00000030: 4e0f 383e b82a 97bc 4bc5 7a3f 2ba5 09bd
00000040: 19e9 dcbc 7ed3 27bf 61a5 f8bc 22cc 173f
00000050: 2797 c0bc 3655 1ebe 5c4a 5e3f 50a3 573f
00000060: 8846 603f 3c17 d0bc 30d1 9dbd e3a4 13be
00000070: c42e 293f e53d 19bd d202 113f 0c04 97be
00000080: 9b56 43bd c441 17bf c355 5c3f 64a3 51be
00000090: 1e39 483f 17f9 603f 5b81 523f 60bc 9cbe
000000a0: b007 6a3d acf7 12bd a3a7 8b3e 40fd edba
000000b0: d799 a2be 537d 2abf 87fb adbe fef6 9fbd
000000c0: 6298 f0bd 6f5c 1c3f 2593 93bc 55ec 563f
000000d0: 9b80 5a3f 2f34 5d3f ebe4 2dbd 45c2 a0bc
000000e0: 45d9 00bd 7ea4 f9bc 6247 7f3e 290a 633f
000000f0: 5f60 2f3f a40a 693f e2c6 55bd ce8b 253d
00000100: 6b2d 8e3e 9706 b6be 11f1 2abf ceeb f5be
00000110: 3d73 cebe d220 2ebf e1aa 28bf 1768 a7be
00000120: a0a6 c4be 6498 04bf 4648 5e3f ef16 cabe
00000130: d3bd 523f c336 3d3f 6faa f1be 3392 c5be
00000140: f5a5 a83c 1965 12bf 191c 38bd 7f26 05bf
00000150: 62f0 80be 24cb 463d 026e 3ebd 3ef1 26bd
00000160: 94a4 e23d f436 24be a890 473f cf29 12bf
00000170: 7c16 423f 5d4e 9ebe 3e3a e1be 7c57 7bbe
00000180: e0e8 593f b4dd 3dbf f00a 173f 7de4 0bbf
00000190: 1c5b 473f ff24 11be 619f 2dbe 7245 273f
000001a0: d624 a6bc 1e76 dbbd a129 a1be fdee 333e
000001b0: 181b 7ebe ccbc 95be 1487 9d3e e2ce e7be
000001c0: 75d1 21be c778 03be e14e 573e 5eb4 593f
000001d0: ebac 7a3f dbb7 bbbd b48b 2abd 2553 ecbc
000001e0: d518 2d3c 6743 863e 85a5 bf3e bd50 eebd
000001f0: b833 a4bd 8ad8 113d 6b57 4ebd 84d3 673f
00000200: 27b2 d7bd 4644 c1be 976d d7be 311e 5d3f
00000210: 7dfb 50be 3055 b13d 41cc dabd dff0 0f3f
00000220: 7656 023e c8aa 4cbd cfc8 c4bc 7c36 5f3f
00000230: 0420 213f 9e93 b4be bd23 683f 5ce6 09bf
00000240: 74cf fa3e acc6 4a3f 8ccf 3f3e 2e3e cdbc
00000250: 52df 8abe 391d 603f 4ab9 593f 9d2e 13bd
00000260: f119 603f 2348 b2ba a7ff 5d3f 3bec 2dbf
00000270: d578 603f 0a67 4c3f 84db e5be a724 5d3f
00000280: 77ce e3bc 1394 083e 64cd e6bc fcc9 25bf
00000290: 90ba 333f 8260 603f fb79 5c3f c45f 263d
000002a0: f172 533f cf1f 4e3f 0fae 48bd 9867 98be
000002b0: c099 dabe bd5e 9cbe 5efa 653f 54a0 5d3f
000002c0: a2d2 793e 00c6 56bc 7a88 7abc 5073 26bf
000002d0: ed7c 5b3f 2b1f 323e 57cd 0a3f 5647 c7bc
000002e0: 5667 623f 2a11 463f 7ceb 4f3e d74c 4d3f
000002f0: 3b8e edbe f94f 463f 29b0 613f 4a28 343e
00000300: 0085 80bc b947 2c3f c167 503f 1cfe e6bd
00000310: f537 c5be adea 283d 5e5a 343f b2b8 5f3f
00000320: 3881 683f cf3b 353d 6dd5 f0bd 013f 06bc
00000330: 3af3 643f 4a46 013f 8477 3b3f 64e3 583f
00000340: fae3 18bd 9ae1 813e a920 0c3e 6d5a 323f
00000350: 1850 0bbf 5e1c 593f 7bcd 30bd 6055 cc3e
00000360: ffda 90bd ed40 cd3e 719f efbc 2788 bebd
00000370: cf0e 453f 93e4 26bf f20d 153f 9077 533f
00000380: 2ca0 49be bb9c 133f cad6 7c3e a436 c9bd
00000390: 9281 38bf 6023 ccbc ab6c 0f3f c33b a6be
000003a0: 9346 3bbe 71f9 86bc bfee 0cbf 0c6b 9bbe
000003b0: 6a4a 46bd 0e00 133f 7d57 10bd 144d 3dbe
000003c0: 1d0b 4a3f 3cc6 393f cade 083f e469 273f
000003d0: aba1 09bd 5ec3 c6be cb7d 2ebf 0512 653f
000003e0: 36ba acbe cc91 223f 6c05 4d3f 8255 99be
000003f0: 3d2f 17bd 7b3d 5e3f a4a9 0abf 5e9a 14bf
-0.4580903 -0.1062095 -0.30854547 0.9000271 -0.051803257 -0.03564054 0.8594357 0.43058562
0.8413809 -0.092778124 -0.037906088 -0.40301105 0.17974588 -0.018452987 0.97957295 -0.033604782
-0.026966618 -0.65557086 -0.030352296 0.59295857 -0.023509575 -0.15462193 0.86832213 0.8423357
0.8760762 -0.025401704 -0.07705915 -0.14418368 0.66086984 -0.037412543 0.5664493 -0.29495275
-0.047690015 -0.59084725 0.8606836 -0.20472485 0.78212154 0.8788008 0.8222863 -0.3061247
0.057136238 -0.03588073 0.27276334 -0.001815714 -0.31757995 -0.6659748 -0.33980963 -0.07810782
-0.11747815 0.6107854 -0.0180145 0.83954364 0.85352486 0.8640775 -0.04245464 -0.019623885
-0.031457204 -0.030473944 0.24929574 0.8868738 0.68506426 0.9103186 -0.052191623 0.04041653
0.27769026 -0.35551903 -0.6677409 -0.48031467 -0.40322295 -0.6801883 -0.6588574 -0.32696602
-0.38408375 -0.5179503 0.8682903 -0.39470622 0.823209 0.73911685 -0.47200343 -0.38588104
0.020586947 -0.5718551 -0.04494867 -0.52011865 -0.25183398 0.048533574 -0.04649163 -0.04075741
0.11066547 -0.16036588 0.779551 -0.57095045 0.7581556 -0.3091916 -0.43989748 -0.24545091
0.85120964 -0.7416642 0.59001064 -0.5464552 0.77873397 -0.14174269 -0.1695533 0.6534034
-0.020281237 -0.107158884 -0.31477073 0.17571636 -0.24815023 -0.29245603 0.3076712 -0.45275027
-0.15802558 -0.12839042 0.21026184 0.85040843 0.979201 -0.09165927 -0.041637138 -0.02884824
0.010565002 0.262233 0.3743097 -0.11636493 -0.08017677 0.0356069 -0.050376337 0.9055712
-0.10532027 -0.377474 -0.42075798 0.86374193 -0.20408435 0.08658826 -0.106834896 0.56226915
0.12728295 -0.049967557 -0.024021534 0.8719251 0.62939477 -0.35268873 0.9067953 -0.53867126
0.489864 0.792094 0.18731517 -0.025054064 -0.27123505 0.8754459 0.85048354 -0.035933126
0.87539583 -0.0013601821 0.8671822 -0.67938584 0.87684375 0.79844725 -0.4489404 0.8638405
-0.027808411 0.13337736 -0.02817411 -0.6476133 0.70206547 0.8764726 0.8612363 0.040618673
0.8259726 0.80517286 -0.04899412 -0.29766536 -0.42695427 -0.3054103 0.89835155 0.86572766
0.24396756 -0.01310873 -0.015291328 -0.650197 0.85737497 0.17394702 0.54219574 -0.024326008
0.8843893 0.7736994 0.20304674 0.80195373 -0.46397576 0.7746578 0.88159424 0.17593494
-0.01568842 0.6729694 0.81408316 -0.11278936 -0.38519254 0.04123943 0.7045039 0.873912
0.9082217 0.04424649 -0.11759458 -0.008193732 0.89433634 0.5049788 0.7322924 0.8472197
-0.03732679 0.25367433 0.13684334 0.6966923 -0.5441909 0.8480891 -0.04316471 0.39908886
-0.0707302 0.40088597 -0.029250832 -0.09303313 0.7697572 -0.65192527 0.58224404 0.8260431
-0.19690007 0.57661027 0.2469131 -0.09824875 -0.7207271 -0.024919212 0.5602519 -0.3246747
-0.1828864 -0.016476365 -0.550518 -0.30355108 -0.04841081 0.5742196 -0.035239685 -0.18486434
0.7892321 0.72568107 0.5346495 0.6539595 -0.033601444 -0.38820928 -0.68160695 0.8948062
-0.33735818 0.6350372 0.800864 -0.2994805 -0.036910284 0.8681256 -0.541651 -0.58048046

linear3_q1.weight f4 [1, 256]
00000000: 5489 8ebf 38fc cf3e eef2 b8be d0d3 ed3e
00000010: 0fa9 aabe fdcc adbc 9434 ad3f 6a46 873f
00000020: 11ce 1f3f 6219 ffbe 06d3 8f3d a314 7bbf
00000030: e934 5a3f c867 50bf fff1 973f ab35 a63d
00000040: acc8 e23e 2149 86be f4dc 31b9 1422 163f
00000050: b52a 8cbf 6d8d 41bf a19b f73e a564 9b3e
00000060: 6681 6c3e d9a6 a13d f28d b83f ab42 00bf
00000070: a4ae e13e 99ce 22bf 7d90 ee3e d869 d2bf
00000080: 70a4 aebf 4a67 06bf db01 7f3e e143 afbd
00000090: dd0d 903f d2fd 053f 2b2f 733f d836 e9bf
000000a0: 89ab f7bf 13ee 633d 727b a93f c530 a7be
000000b0: f8c8 16bf 1aea 81be f104 70bf a8cd 3fbf
000000c0: 6b78 483f 2b31 f03e f77f 953b b8ce 0e3f
000000d0: e5e3 1f3f 67e5 933e dd67 c73d 3873 91bd
000000e0: 9ff1 e6bd d234 13bb 693f df3e cbf9 323e
000000f0: 32e0 f93e 6115 9c3f 7b2b e5be 10d6 e5bf
00000100: 75a9 593f 7248 a0bf 6245 9bbe ad6a e9be
00000110: 1f63 f8be a012 10bf cc67 e0be 0dd2 06bf
00000120: 8fdd b0bf 0d1a 98be 7e0e 5d3e ff0a 41bf
00000130: 5d73 d63e e5d7 8d3f fc1e 05bf dee9 93be
00000140: 403d 32bf 1b8e abbe 1bc7 66bb 3150 59bf
00000150: 4380 d8be b3f1 783f 24a5 833d fe3c 883d
00000160: c4cf 8d3f b124 3ebe f660 233f 3c08 8ebe
00000170: 45c8 ba3e b96f a8be 20b3 cabf 351f 3c3f
00000180: 2d59 9d3e 4029 4cbe b8d6 7f3f 08b4 9dbf
00000190: e444 023f d605 08bf bc77 05bf 75bf 1c40
000001a0: 7f45 adbd c850 18bf af29 adbe 4bca 483f
000001b0: 94ce 99bf 54ea 98bf 93da 0540 6f27 ebbe
000001c0: 4e52 18c0 8431 90bf 4da7 0ec0 d29f 613e
000001d0: 0a12 ac3f 455c 19c0 02ce ae3d aa32 743b
000001e0: 0325 223f e537 b93f 23e7 853f 1a4a e2bf
000001f0: 79e7 28bf ddce d1bf a68c 6f3f e4ef 913f
00000200: 49f6 83bf de68 c2bf 7e71 acbf 6953 3b3e
00000210: 1619 cdbf 72ce b6bf c5ae 72bf 6bf6 153f
00000220: f611 303f 3677 93be 45bc 9c3d 77d1 563e
00000230: af8f 033f 04a3 c3be cd68 7a3e 4ef0 29bf
00000240: 1947 0840 3507 083f 7115 6a3f 4b95 a7be
00000250: fd39 82bf 39ae 963e 1789 9a3e 9957 9abb
00000260: f06b e63e be50 dc3d 8dd6 5a3e 34a7 89be
00000270: d8d7 223e fc63 a53e 93ca 22bf 0a33 363f
00000280: c5f0 80ba c99c dabf 741e 8a3d 3e17 4b3d
00000290: 8c52 093f 8460 6a3e a3f1 143e 7ef7 bebf
000002a0: deb0 883e cea3 1c3f 2255 803d bc46 55be
000002b0: 5f07 eebe c949 07c0 0a84 233e 8b22 3f3e
000002c0: 326f adbf 1751 0bbe 3510 c83d 5a10 54bf
000002d0: 15f0 9b3e 63e0 6e3f 3a09 313f e3d2 a43c
000002e0: 6b19 283f 8807 203f 5dcf 643f 286e 8a3e
000002f0: 36d7 36bf c277 d73e 29ab 5d3e aa51 fb3e
00000300: 3db8 0dbd 6e7e 153f e2d5 b63e d3e8 11bf
00000310: 9181 7bbf 269e 4b3f 14fb ab3e bba6 503e
00000320: 1808 1e3e 763e 3e3f bd44 a8bf 8cad 5b3f
00000330: 8554 0a3f d97b 0640 dbf7 3a3f 726f 2f3f
00000340: 704f b83c f553 823f c887 4f3f 8cc2 d23e
00000350: 224f b2be 64dd 863e 873e c3bf 3c81 a63e
00000360: 9deb 40bf 25a9 cd3f 21ef f83d 4977 41bf
00000370: 4cd7 3e3f 0748 39bf 333d 633f 8142 913e
00000380: e1a9 aebe 3e60 d63e 4a58 acbf 0ed9 6cbf
00000390: f4f1 2fbe 7aa1 de3d c1a1 0f3f 78ed ebbe
000003a0: af06 6ebf 2e1a 97be 2249 96bf 8a57 debe
000003b0: 0f32 d2bd af6f 563f 8cee 18bf e996 babf
000003c0: cc01 813f b2a7 333f cf3f 403f 730d 383f
000003d0: efce 813b cf00 36bf f6e6 c7be b4dc 6d3e
000003e0: 641b 85bf 7ed7 883f 2205 fd3e 6b26 93bf
000003f0: 066b 0ebf 7f5a 523e 4a04 55bf d143 fabe
-1.1135659 0.40622115 -0.3612284 0.46450663 -0.33332106 -0.02121591 1.353167 1.0568364
0.6242381 -0.49824053 0.070226714 -0.98078364 0.85236984 -0.8140836 1.1870726 0.08115705
0.44293725 -0.26227668 -0.00016962347 0.5864575 -1.0950533 -0.75606424 0.48360923 0.30350223
0.23096237 0.07893152 1.4418318 -0.5010173 0.44078553 -0.63596493 0.4659461 -1.6438551
-1.3643932 -0.52501357 0.24903052 -0.08557869 1.1254231 0.52340424 0.9499385 -1.8219862
-1.9349223 0.055646967 1.3240798 -0.32654396 -0.58900404 -0.25373918 -0.9375754 -0.7492318
0.78308743 0.46912512 0.0045623737 0.5578418 0.62457114 0.28885958 0.09736607 -0.07102054
-0.11276554 -0.0022461903 0.43603066 0.17478101 0.4880386 1.2194024 -0.44759735 -1.7955952
0.85024196 -1.2522109 -0.30326372 -0.455892 -0.48513123 -0.5627842 -0.4382919 -0.5266426
-1.3817614 -0.29707375 0.2158756 -0.75407404 0.4188489 1.1081511 -0.52000403 -0.28889364
-0.6962471 -0.33506855 -0.003521389 -0.8488799 -0.42285356 0.97243804 0.064279824 0.06652258
1.107903 -0.18568684 0.63819826 -0.27740657 0.3648092 -0.32897738 -1.5835915 0.7348512
0.30732098 -0.1993761 0.9993701 -1.2320566 0.5088637 -0.53133905 -0.52135825 2.4491856
-0.08460521 -0.5949826 -0.33820865 0.78433675 -1.2016168 -1.1946511 2.0914657 -0.45928523
-2.3800235 -1.1265111 -2.2289612 0.22033623 1.3443005 -2.3962567 0.085353866 0.0037261643
0.63337725 1.4470183 1.0461162 -1.7678864 -0.659782 -1.6391255 0.9357399 1.1401334
-1.0309535 -1.5188253 -1.3472135 0.18293537 -1.6023281 -1.4281752 -0.9479793 0.5857913
0.68777406 -0.28801888 0.07653097 0.20978342 0.5139112 -0.3821031 0.24454041 -0.663823
2.1293395 0.53136 0.91438967 -0.3273109 -1.0173947 0.29429796 0.30182716 -0.0047101495
0.45004225 0.10757588 0.21370907 -0.26885378 0.1590265 0.32302845 -0.63590354 0.7117163
-0.000983738 -1.7079097 0.0674409 0.049582712 0.5364158 0.2288838 0.14545302 -1.4919279
0.2669744 0.61187446 0.06266238 -0.20827764 -0.4649 -2.1138785 0.15968338 0.18665521
-1.3549559 -0.13605152 0.09768716 -0.8283745 0.30456606 0.93311137 0.69154704 0.02012009
0.65663785 0.6251149 0.8937891 0.27037168 -0.71422136 0.42083555 0.21647324 0.49085742
-0.03459953 0.5839604 0.35710055 -0.56995887 -0.9824458 0.7953819 0.33589995 0.20376103
0.15432775 0.7431406 -1.3145977 0.85811687 0.54035217 2.101309 0.7303445 0.6852943
0.022498816 1.0181872 0.8106656 0.41164052 -0.34826 0.26340783 -1.5253457 0.32520473
-0.7535952 1.6067244 0.12154985 -0.7557264 0.74547267 -0.7237553 0.8876526 0.2837105
-0.34113982 0.41870302 -1.3464444 -0.925187 -0.17182142 0.10870643 0.5610619 -0.46079612
-0.9297895 -0.2951216 -1.1741068 -0.43426162 -0.10263454 0.83764166 -0.59738994 -1.4577304
1.0078673 0.7017776 0.75097364 0.7189552 0.003961436 -0.71094984 -0.39043397 0.23228723
-1.0398984 1.0690763 0.4941798 -1.1496099 -0.55632055 0.20542334 -0.8320967 -0.48879865

linear1_q2.weight f4 [256, 26]
00000000: 3129 853c 70b5 b0bd bb8d b4bd 2b33 c3bd
00000010: f071 c9bc 2be9 07be ef22 133e 2aee c03c
00000020: bcb5 113d 49a7 a73d 7d29 ca3d 9c0c d3bc
00000030: cc08 373d a052 c63d 1357 313d 8d74 7bbd
00000040: a436 4abd a213 ccbd be64 0abe 30da fa3d
00000050: 3949 01be 510e 983d 8f98 b43d 49ff c73c
00000060: dbf8 3a3e 5d58 c5be 07ce e9bc e944 ba3c
00000070: f7f9 04be b60f ca3d 4290 303d b110 0f39
00000080: f9a5 033e a894 023e 846b 2d3d 4cd3 1c3e
00000090: 0d79 80bc b7e5 9a3d 3ebe 9d3d 686b 623c
000000a0: 398d dabc 6d97 253e 7b50 c0bd f187 2dbe
000000b0: 469a 4b3d 788f 3cbe dc10 d2be 9a2c 943f
000000c0: c9ee 43bf f1fd 2cbe 881d 99be 4267 49bf
000000d0: e9f1 b9bd de9d a7be 5d73 72be df47 69be
000000e0: d22d 9fbe 88ae a03c c3ef 5ebe 888a f7bc
000000f0: 4670 f4bd e9a7 96be 4b0c 99be 9a3e ddbd
00000100: 4ff1 6cbe 181e 79be 9981 003e 12a7 e83d
00000110: 1979 8b3d f461 3f3e 80f9 7abd bee5 15be
00000120: 4af3 51bf 3356 cc3b 5c2c 4bbf 5696 fbbd
00000130: a4f4 49bf 2fca 57be 1af4 35be 3772 54be
00000140: 96bf f0bd 5827 29be 0223 fdbd 1ec0 7cbc
00000150: 33af 30be 0e5a b6bd c265 60be 7494 2dbb
00000160: a3b1 5abe ac33 503d cf32 c23c f8e5 78be
00000170: 6951 0d3d 1962 2ebe abbe 54be 5a82 eabd
00000180: fbe4 0dbe 7ff4 d7bd 495b 8c3e 981a 9cbe
00000190: 21ab 6cbd 7633 983d 8e65 e1bd 95fc ba3d
000001a0: 37e2 dabe 5bd4 96be bfaa c7be 5ef6 88be
000001b0: e495 bdbe 9b44 2b3e 92d8 97be 61d0 76be
000001c0: 33e5 653e 1e04 1abe c5c7 52be dec6 2ebc
000001d0: 9b9c 693e 88b1 2a3d c046 93be cb82 4f3c
000001e0: 3c4a 843e 2398 1abe 39bf 06bd 1abc 3abe
000001f0: 91bb 103f 5c82 c2be 4fc3 fcbd d747 dc3e
00000200: 42dc 61bc 8715 ec3c 7f6e e2bc ced5 12be
00000210: 0169 b7bd 677f 56be 8862 0abd e66b 9fbd
00000220: 725d 9abe c5b6 34be 844d 16be 2f9b 8fbe
00000230: 85bf 85be 4daa 1dbe 2b14 80be 36fe 81bc
00000240: 7ca8 3b3d 30ad cbbd 10fc debd 574d 6fbd
00000250: 5ed0 0ebc c5f1 73bd 441b d0be 9065 89bf
00000260: 4895 48bd ac84 4dbf db5e 273f aac1 3d3e
00000270: 32da d3bc b4d2 8a3d aa70 d93a 6145 82bd
00000280: 4ed6 7e3d f001 6e3d a495 16be 0946 30bb
00000290: 6519 803b 4010 003e 9098 873d 87ca 353d
000002a0: d218 bbbd d838 26bc 16f6 0cbc beff 3f3d
000002b0: b3dc 68bd 848b bc3c 64c4 9b3c 4e9a 3d3c
000002c0: a4ce 87bd 9906 343e 0037 b93c d7a4 a4bf
000002d0: 54f8 b73d 9073 c93d 144d f2bd 066a b4bc
000002e0: 53af c8bd cf71 0cbe d34e 57be f3d2 0dbd
000002f0: 2790 2ebe 1a03 debc 7c25 90bb e38a c5bd
00000300: 8f12 153d be60 0abe 2609 61be 2c63 ff3c
00000310: 207b 50be 9806 2fbe f7c9 71be 9afc 5ebe
00000320: f7eb 14be 96df 62be aa8e 323f d60b 3d3d
00000330: 90b7 1cbd 4798 e23c d15a 37bf 2c80 043e
00000340: 367f 5a3d 06a4 d83d 918e 4b3d cb74 3dbc
00000350: 994e 163e dd6c acbd 1044 d93d 39e0 5ebd
00000360: 0914 91bd 00d6 f73c 6252 223e a9e3 ccbd
00000370: 02f0 d7bd d8fb ecbd 48cc 0dbe 2a6d 32be
00000380: b839 2f3d 1d16 e9bd 9395 02be 0722 ea3d
00000390: 5cce 1abe 7518 29bf 984d 3bbf 5d7c 583e
000003a0: 33a1 2c3e a3e0 f1be a264 16be b57c e0bd
000003b0: 8f62 e5bd 3384 3fbd 2ccb 9eba fd2f 0ebe
000003c0: 560b 21bd 41a4 f3bd 83b1 18be 2029 6c3d
000003d0: da31 f5bd 3a3c d3bd c2da 2d3e 96e2 03be
000003e0: 659a ac3d 447f 31bb ee72 08be 2b23 3cbe
000003f0: cbcf b03d bb73 6a3e ff2f c33e 63e0 bd3b
0.016254993 -0.086283565 -0.088160954 -0.09531244 -0.024590462 -0.1327254 0.14368795 0.023551065
0.035573706 0.08186204 0.098711945 -0.025762849 0.044686124 0.09683728 0.04329593 -0.06139045
-0.049368516 -0.09964682 -0.13514993 0.12248647 -0.12625588 0.07424606 0.08818161 0.024413722
0.18258993 -0.38543978 -0.028540624 0.022737937 -0.12985979 0.09866278 0.043106325 0.00013643761
0.12856282 0.1275202 0.042338863 0.15314978 -0.015682722 0.07563346 0.077023014 0.013819553
-0.026678668 0.16171046 -0.093903504 -0.16946389 0.049707673 -0.18414104 -0.41028488 1.1576111
-0.7653623 -0.16893746 -0.29905343 -0.78673184 -0.09079344 -0.3273763 -0.2367682 -0.22781323
-0.31089646 0.019614473 -0.2177115 -0.030217424 -0.11935477 -0.2942498 -0.2989219 -0.10802956
-0.23138927 -0.24327886 0.12549438 0.11359991 0.06810207 0.1868971 -0.061273098 -0.14638421
-0.82011855 0.0062358617 -0.7936456 -0.12284534 -0.78888917 -0.2107322 -0.17768899 -0.20746695
-0.11755292 -0.16518915 -0.12360193 -0.015426664 -0.17254333 -0.08903895 -0.21913818 -0.002648619
-0.21356826 0.05083053 0.023705868 -0.24306476 0.034501467 -0.17029609 -0.20775859 -0.11450644
-0.1385688 -0.10544681 0.27413395 -0.3048904 -0.05778039 0.074316904 -0.11005698 0.091302074
-0.42750713 -0.2945889 -0.38997456 -0.26750463 -0.3702842 0.1672539 -0.29657418 -0.24102928
0.22450714 -0.15040633 -0.20584019 -0.010667531 0.22813646 0.041673213 -0.28764915 0.012665461
0.25837886 -0.15097098 -0.032897208 -0.18235818 0.56536204 -0.3799008 -0.1234194 0.4302356
-0.013785424 0.028818859 -0.02764058 -0.14339373 -0.08955575 -0.20947038 -0.033785373 -0.07784252
-0.30149418 -0.17647846 -0.14678007 -0.28048083 -0.2612268 -0.15396996 -0.25015387 -0.015868288
0.045814976 -0.09945142 -0.10887921 -0.058423366 -0.008716671 -0.05955674 -0.40645802 -1.073412
-0.04897049 -0.80280566 0.6537911 0.18530908 -0.02586088 0.0677847 0.0016589363 -0.06360889
0.062216096 0.058107316 -0.14705521 -0.0026897213 0.0039092773 0.12506199 0.06620896 0.0443826
-0.091355935 -0.010145389 -0.008603593 0.046874754 -0.0568511 0.023015745 0.019014545 0.011572434
-0.066312104 0.17580642 0.022609234 -1.2862805 0.08982912 0.09836495 -0.11831108 -0.022023212
-0.097990654 -0.1371529 -0.21026163 -0.034625005 -0.17047177 -0.027101088 -0.0043989997 -0.09645631
0.036394652 -0.13513467 -0.21976146 0.031175219 -0.20359468 -0.17092359 -0.236122 -0.21776047
-0.14543138 -0.22155604 0.6974894 0.046153866 -0.038260996 0.027660502 -0.7162295 0.12939519
0.053343974 0.1057816 0.04969651 -0.01156349 0.1467842 -0.084192015 0.10608685 -0.054413054
-0.070838995 0.03025341 0.15851739 -0.1000436 -0.10543825 -0.11571473 -0.13847458 -0.17424455
0.042779654 -0.11381171 -0.1275237 0.114322715 -0.15117782 -0.66052943 -0.73165274 0.21141191
0.16858368 -0.47241697 -0.14686826 -0.10961286 -0.11200439 -0.046756934 -0.0012114993 -0.13885494
-0.03931745 -0.11896563 -0.14911465 0.057656407 -0.11972399 -0.10314222 0.1697798 -0.12879404
0.08427886 -0.0027083913 -0.13325092 -0.1837279 0.08633383 0.2289571 0.38122556 0.0057945712

linear1_q2.bias f4 [256]
00000000: 9e31 383f 6dc1 fb3d 3365 873e 9927 d1bc
00000010: 200d fa3d d66e f83d 0df1 ed3e dde1 373d
00000020: 518a 243f 7025 b13d 49a1 813e 4ea5 533f
00000030: f5f3 55be 0af6 28bf 4a51 16be 5feb 39bd
00000040: a315 2cbe 62ef 923e 4270 b1be 68ef 1e3e
00000050: 2577 623f ac90 283f 5ca5 4b3f 5a02 643c
00000060: 76cb 74bd 2ce6 d93d fa1d a73d 9191 4b3f
00000070: 2240 083f 4293 ffbe 583e b13d 3ac1 623f
00000080: 6ddb 4b3f 78c1 17bf 6b7c 343c 2c78 64bd
00000090: 0c4d cdbe b425 453f 96b6 67bf 9337 733d
000000a0: 5bff 9bbd 05d3 51bf 7d72 3ebf 0052 973e
000000b0: 4a3f 22bf 86d6 f1be 8a53 2d3f 0314 4a3f
000000c0: 96ca 083f 64b3 b83e 5028 0e3e 7c15 113f
000000d0: a4ce ebbe 7b7b 103f 042c 4d3f 868e 5e3f
000000e0: 0cfe 223d 5f5d 2a3e 4e07 713d 0cc9 93be
000000f0: a66c 2a3c 0a95 463f 7d99 38be a4c4 663f
00000100: b218 6a3e 5188 553f 08ab 1d3f 338f 833c
00000110: ce60 443f e6b9 0a3f 27ea 613f 1036 3fbf
00000120: feed 0fbf 9683 97be 5f07 363f 613b 0a3f
00000130: 2ebe 9cbd 43b9 b93e 4c98 133f 335d f63d
00000140: 6239 303f 12d5 623f d010 58be 5974 873f
00000150: ff32 d53d 1ac1 7f3d 2bda 03bf 6d44 da3e
00000160: 3fb6 e7be 949b 9dbc 98fa 663c 6b2f 633f
00000170: 0dbf 293f e256 453e e0b3 043f f9c7 60bf
00000180: 565f 473f f201 f1bd 33da 2a3f ad1b 503f
00000190: a041 193e 0fae 2abe 0973 213f e85d fa3e
000001a0: 6c7a 043e e2be 1dbe 1d30 e03e 73b6 b4bc
000001b0: dfa2 773f 247d 853e 4acc 453e 06d2 253f
000001c0: ec7d 8e3e dd31 39be e714 663f 6d3e 59bf
000001d0: 1a6d 6cbe 7e29 59bf bacd 583f 2e42 2c3f
000001e0: c960 cc3e 05ae 1c3f 48ad 883e 002d 23bf
000001f0: 7f03 9d3d 3a3a 5f3f d90b 2b3f 7d77 cd3e
00000200: f9c2 8b3e d2c7 4e3f a3d0 2bbf 576e 17bc
00000210: 99b0 08bf 8221 d43c ae84 443f f3b3 6d3f
00000220: 4144 983d 183d 3e3f a4a3 0abf 6231 6dbd
00000230: 4b75 5a3f c044 833d 6964 503f e07e 413f
00000240: f3eb 00bf 9815 66bd 3661 89bd f48c 4b3e
00000250: f20f 38bd 0b77 53bf 082d 0a3f c38f 313f
00000260: 2ddf 933d 8a90 5dbd 7184 323f bc90 dc3b
00000270: 9c9b b33e c94c b6be 0b83 473f 54df 4c3f
00000280: 3bcf 333e d41d 23bf 59d6 5a3f cf1c 893f
00000290: 1414 103f 6b70 9d3d 212d ef3c 2042 57bc
000002a0: 51cc 823f 1b86 4e3f a0e1 d83e 3a6c 673f
000002b0: 86a6 33bd 9b7f 473f a731 0c3f c310 173f
000002c0: 3647 ed3e 73dc 2cbd 3f76 3fbf fb68 013f
000002d0: 168b 50bd f42c 453f a2aa acbe 5dca 533f
000002e0: 7929 363f 06e1 a23e 703e 6ebc 8f48 623f
000002f0: 8ee7 b33e 5bb7 0f3d 925a 2b3f 74cf 453e
00000300: bbb9 b5bc 9245 1bbe 0fa4 c33d ea35 983e
00000310: 8f51 0abf 008e 133f 3030 acbe 4e6b f0be
00000320: 0e60 86bd 9517 413f 1246 2abe 271c 023f
00000330: aed6 0ebf 8b8a 623f 0712 353d 3b58 153f
00000340: f635 3abd 288d cabc aa45 c23e 99c1 17bf
00000350: de54 cebc b1cf b13d ef82 cf3d ba78 353f
00000360: a8b0 edbe c8a9 29bf 12ae 833f 08bf 4b3f
00000370: 3e1d b2be 6b6f 4d3f 56c4 843e f936 7d3f
00000380: 6307 3d3f df03 34bd a871 0e3e 3856 803d
00000390: 3221 253d 71f8 7dbf d656 54bf 2a2d 2d3f
000003a0: 6c04 32bb 15c5 273d 3923 833f 3638 d4be
000003b0: 84c4 c63d 0f34 50bd 11c4 463f 007b 4cbe
000003c0: 4dd7 1e3f 38d0 153f a140 87be 07f5 153f
000003d0: 06fd 4a3f c711 813f 11f2 3e3e 744b c23e
000003e0: 5c3a 633b 0688 e53e 8d83 503f 7012 32bd
000003f0: c814 40bf d244 163f aa6b 033c 975c 3e3e
0.7195071 0.122927524 0.26444396 -0.025531577 0.12209535 0.12130515 0.4647297 0.044893134
0.64273554 0.08649719 0.25318363 0.8267411 -0.20893843 -0.66000426 -0.14679447 -0.045390483
-0.16805129 0.2869826 -0.34655958 0.15521014 0.8846305 0.6584575 0.79549193 0.013916576
-0.059764348 0.10639605 0.081600145 0.7951899 0.5322286 -0.49917036 0.08654469 0.8857609
0.7963169 -0.59279585 0.011015992 -0.055778667 -0.40097845 0.77010655 -0.9051298 0.05937917
-0.076170646 -0.81962615 -0.74393445 0.2955475 -0.6337782 -0.4723398 0.67705595 0.78936785
0.5343412 0.36074364 0.13882565 0.5667341 -0.46056092 0.56438416 0.8014529 0.86936224
0.03979306 0.16637181 0.058844857 -0.28864324 0.01040188 0.77571166 -0.18027301 0.901438
0.22860983 0.8341113 0.615891 0.016059494 0.7671021 0.5418991 0.88247913 -0.7469187
-0.5622252 -0.2959258 0.71105 0.53996855 -0.076534614 0.36274156 0.5765426 0.12029495
0.6883756 0.8860637 -0.21100163 1.0582381 0.10410117 0.062440015 -0.5150477 0.4263033
-0.4525623 -0.019239224 0.014097832 0.8874423 0.66307145 0.19271424 0.5183697 -0.87805134
0.77879846 -0.11767949 0.66739196 0.8129223 0.1496644 -0.1666796 0.63066155 0.4889977
0.12937325 -0.15404847 0.43786708 -0.022059655 0.96732897 0.26072037 0.19316211 0.64773595
0.27830446 -0.18085428 0.89875644 -0.8486088 -0.23088494 -0.8482894 0.84688914 0.6728848
0.3991759 0.6120303 0.26694703 -0.6374054 0.076666825 0.8719822 0.66814953 0.40130225
0.2729719 0.8077365 -0.6711523 -0.009242616 -0.53394467 0.025894884 0.76764953 0.92852706
0.074348934 0.7431197 -0.54155946 -0.057908423 0.85335225 0.064095974 0.81403214 0.7558422
-0.5036003 -0.056172937 -0.06707995 0.19877988 -0.04493708 -0.8260352 0.5397496 0.6935999
0.07220302 -0.05409292 0.6973334 0.006731121 0.35079658 -0.35605457 0.7793433 0.8002827
0.17559521 -0.6371739 0.8548332 1.0711917 0.56280637 0.07687458 0.029196324 -0.013138324
1.0218602 0.8067338 0.42359638 0.90399516 -0.04385998 0.77929085 0.54763263 0.5900995
0.46343392 -0.042202424 -0.74789804 0.5055081 -0.050913893 0.7702172 -0.33723933 0.82730657
0.7115703 0.31812304 -0.014541253 0.88391966 0.351376 0.03508697 0.66935074 0.19317418
-0.02218329 -0.15163258 0.09552776 0.29728633 -0.540307 0.5763855 -0.33630514 -0.46956867
-0.0656129 0.7542661 -0.16628292 0.5082421 -0.55796325 0.8849265 0.044206645 0.58337754
-0.045461617 -0.024725512 0.37943774 -0.5927978 -0.025186952 0.08682192 0.101323955 0.7088734
-0.4642384 -0.6627469 1.0287497 0.79588366 -0.34787935 0.80248135 0.25931042 0.98912007
0.73839396 -0.043949004 0.13910544 0.06266445 0.04031486 -0.99207217 -0.82945 0.6764704
-0.002716328 0.040959436 1.0245124 -0.41449136 0.09705451 -0.050830897 0.77642924 -0.19968796
0.6204727 0.5852084 -0.26416495 0.5857701 0.79292333 1.008355 0.18647029 0.3794819
0.0034672236 0.4483034 0.8145073 -0.043474615 -0.7503171 0.5869876 0.008021275 0.18590008

linear2_q2.weight f4 [256, 256]
00000000: 07ca a63d 66e9 cebe b897 7c3e 38cf fdbd
00000010: fba0 b13e a788 0d3f c44e 74bb 3d86 d0be
00000020: e54d e5bd f190 89b9 9765 093f 627b e4bd
00000030: f0f7 ab3f 466f 4c3e 58ba c9be d0d7 a93e
00000040: fc5d 863e b1c0 99be acdc 3c3e 7e93 8c3e
00000050: 86af 4a3d cd21 b63d 448b bd3c afa7 adbe
00000060: 3610 133f 8ed0 873d 9399 ae3e 63ba 1b3e
00000070: 27d5 84bf a5dc 843d 4c1f 903d 22ec 11be
00000080: 3267 4ebd dd98 15bf 9d71 cc3e 9bfd 29bc
00000090: d48f 3abe ddd3 0fbc 3fde 08be 9947 8d3e
000000a0: 253b 00be 53ac 8dbe 5e40 72bf 8e1a a43e
000000b0: 7421 273d 83cc 133e 3949 ff3a 8aa4 193f
000000c0: dec2 8d3c 5cab 3b3e 6fad 23bd 2dd5 363d
000000d0: 161f 313e 2070 5d3d eec9 003e 5ce9 6e3d
000000e0: 750f 02bf 9c1c b83e ba56 d13d 589f 0abd
000000f0: 1e97 963d e8a7 563e 618c 373d 3120 ba3c
00000100: f97d 663e 0d5b 3cbe e676 033e 5f39 85be
00000110: e26e 353d b6a1 9ebc 428f 9dbd 9fec 16bf
00000120: 62cd 10bf f614 6c3d 10c4 03bd d229 813d
00000130: 3949 593e 171f 06bf 9a63 153e a880 d83d
00000140: 3658 e4be ae11 32be d2d2 81bf 28cb 503e
00000150: 260d cc3e 1db8 a13e dff1 50bf d384 f93b
00000160: d3b4 913d bc5a df3e 93a1 9bbe 8e87 0e3e
00000170: d681 843d 1179 bbbe 2e34 0e3e 3a2d c53d
00000180: 5e21 27bd b7b5 bcbd 40dd e6bb b9d1 30be
00000190: f78a d13d 7f71 60be 8b85 77bd 2301 ebbe
000001a0: 363f 29bf 055d 9a3e 89fd d1be 12af c5bd
000001b0: 9783 96bd 546d 81bf cad5 633d 021b 863d
000001c0: 3011 41be 1c9c 003e 2c3f aabb e6af f9be
000001d0: f40f 74bf 7ad3 dabd 69a1 c43d 25c9 6abf
000001e0: 74a6 a13d 2393 12be a147 08bf d006 343e
000001f0: c923 12bf 81e4 963e ebe1 333e 5ee3 3cbf
00000200: 9728 1c3f e05c 35bd c5cd c43d 19b7 af3e
00000210: 84dc eb3c 14e0 1f3f f4bf 243e 9051 6dbe
00000220: 9a14 ecbe 31af 503d 74dd 4c3e c701 043d
00000230: 9da0 e73d d6b7 66bd 2ea4 ca3d e054 1ebd
00000240: b7a1 ffbd 9402 aeb8 daec 253d bfda e7bd
00000250: 9a86 653d bdd1 cd3c 984f 093e 5d78 913e
00000260: 96ee 213d 603f 81ba d30d 9abd a8ec 063f
00000270: b37e ccbe 249b 663e 7b8f 0b3e b951 4abd
00000280: 7ade 18be 813a 1d3e ce2f 39bc d6aa 65be
00000290: 4dc7 58be aabd ea3e f449 0abe d235 58bd
000002a0: 8b29 1bbe 6cb3 12bf fa50 273d 6b59 683e
000002b0: 8624 cfbd 15a0 7f3e ebc0 80be 8c5e d6be
000002c0: 1361 883e 3ca1 bb3e 4193 dd3d 8651 823c
000002d0: 6090 acbe 8a19 8bbe ec63 f3bd c914 16be
000002e0: bb86 2fbc 0c7b cdba e1ba 873e 4b92 a7bd
000002f0: 8471 40be d3b9 96be d2ba 253c 7799 62be
00000300: 1825 6d3e b23c 833d 8c48 f43e b352 f73c
00000310: a44b 4fbd fb32 603e 8170 8abd 3935 8c3e
00000320: 950c 3ebe 4df3 07bd 7cb2 383e 7443 8dbc
00000330: 88fe a23e 69be 35be 7fb1 193f 7784 54be
00000340: c1be 96be 5cc6 dfbd da34 3fbe 53f7 c6bd
00000350: 7753 683e 30c8 e43e c057 073f 3fd7 8f3d
00000360: 4e70 63bd 2674 52bc f85a ef3c 5646 803c
00000370: fc1c cdbe d90a 583d f0fa cbbc ab5f 963d
00000380: 39c7 a739 b444 86bc e236 ea3d d17e 603e
00000390: e969 dc3d 1836 dfbe 08ce 5f3e df1b 553e
000003a0: 6154 ecbc d610 9f3d 3e7c 533d 0116 60bd
000003b0: e9f5 27be a0f4 8fbd d8cb cabd 1383 903c
000003c0: da58 493e f1c8 a0bd 321f 253e 043c 073e
000003d0: 2ad6 143e 4bcd 093e 014e 94bf 8005 cebc
000003e0: 000c 09bd 3c9c 98bd 2572 b93e d204 d23c
000003f0: 5b52 adbe 3909 0cbe e7c5 e13d c7db 093f
0.081440024 -0.40412444 0.24667251 -0.123930395 0.3469313 0.5528664 -0.0037278393 -0.40727416
-0.11196498 -0.00026238666 0.5367064 -0.11156346 1.343504 0.19964322 -0.39399981 0.33172464
0.2624358 -0.30029824 0.18443555 0.27456278 0.0494838 0.08893166 0.023137696 -0.33916995
0.5744661 0.066315755 0.34101543 0.1520782 -1.0377549 0.06487397 0.070372194 -0.14250234
-0.050391383 -0.58436376 0.3993043 -0.010375406 -0.18218929 -0.0087785395 -0.1336603 0.27593687
-0.12522562 -0.27670535 -0.94629467 0.3205151 0.040803388 0.14433484 0.0019476778 0.6001669
0.017304834 0.18327087 -0.03996032 0.044636894 0.17297015 0.05406201 0.1257703 0.058328018
-0.50804836 0.35959327 0.1022162 -0.03384337 0.07353042 0.20962489 0.04481161 0.022720428
0.22508992 -0.18394108 0.12838325 -0.26020333 0.0442952 -0.01936422 -0.0769334 -0.58954805
-0.5656339 0.057637177 -0.0321694 0.06306805 0.21219338 -0.5239119 0.14588776 0.10571414
-0.4459855 -0.17389557 -1.0142462 0.20389998 0.3985378 0.3158578 -0.81619066 0.007614711
0.071145676 0.43623912 -0.3039671 0.13918898 0.06470077 -0.36615804 0.13887092 0.09627767
-0.040803306 -0.09214347 -0.007045418 -0.17267503 0.102315836 -0.21918295 -0.06043009 -0.45899305
-0.6611208 0.30149093 -0.41013744 -0.09652533 -0.073493175 -1.0111489 0.055623807 0.0654812
-0.18854213 0.12559551 -0.005195519 -0.48767012 -0.9533684 -0.10684867 0.09601099 -0.9171317
0.078930765 -0.1431394 -0.532343 0.17580724 -0.57085854 0.2947121 0.1756665 -0.73784435
0.60999435 -0.044278026 0.0960956 0.3431938 0.028791673 0.6245129 0.1608885 -0.23175645
-0.46109468 0.050948326 0.20006353 0.032228258 0.113099314 -0.056327663 0.09894596 -0.03865516
-0.124820165 -8.297447e-05 0.040509082 -0.113210194 0.05603657 0.025124425 0.13409269 0.28412142
0.039534174 -0.0009860806 -0.07522168 0.5270486 -0.39940414 0.22520119 0.13628952 -0.049394343
-0.14928618 0.15354349 -0.011302901 -0.2242845 -0.21169777 0.45847827 -0.13504773 -0.052785702
-0.15152566 -0.57305026 0.04084871 0.2269036 -0.10114388 0.2496341 -0.25147185 -0.4186901
0.26636562 0.3664645 0.10819102 0.015908014 -0.337039 -0.27167922 -0.11884293 -0.14656366
-0.010713275 -0.001567693 0.26509765 -0.081822 -0.18793303 -0.29438648 0.010115342 -0.22128855
0.23158681 0.06408061 0.477116 0.030190801 -0.050609246 0.21894448 -0.0675974 0.27384356
-0.18559487 -0.033191014 0.18036836 -0.017244078 0.31834817 -0.17748417 0.6003646 -0.20753656
-0.2944241 -0.10926506 -0.18672505 -0.09715142 0.2268809 0.4468398 0.5286827 0.07023477
-0.055527024 -0.012845075 0.029218182 0.015658539 -0.40061176 0.05274472 -0.02489993 0.07342466
0.00032001155 -0.016390182 0.11436249 0.21923377 0.10762388 -0.43595958 0.21855938 0.20811413
-0.028848829 0.07766883 0.05163216 -0.054708485 -0.16402401 -0.070290804 -0.09902161 0.017640626
0.196628 -0.078508265 0.16125181 0.13206488 0.14534822 0.1345722 -1.1586305 -0.025149107
-0.03345871 -0.07451674 0.36219898 0.025637064 -0.33851895 -0.13675393 0.11024075 0.5385098
