hydrone_aerial_underwater_ddpg/scripts/Models/sac_stage_1_sub2D_tanh_3layers/560_value_net.pth (torch_old, 585563 bytes, 10 tensors)

linear1_q1.weight f4 [256, 26]
000000 35 7d 5e 3d 54 0f 4d bd a2 eb 05 be 27 56 2a be
       0.054318625 -0.050063446 -0.13078168 -0.16634427
000010 06 2f 42 3d 73 ae 82 3d 4a 4c a4 bd a1 67 02 bd
       0.047408126 0.0638093 -0.080223635 -0.03183711
000020 37 48 27 be d0 39 2e be 8b f2 af bd b0 d3 3d bd
       -0.16336142 -0.17014241 -0.08591183 -0.04634446
000030 6a 74 86 3d 71 10 43 be a8 35 ff bd 50 c8 c1 39
       0.06565173 -0.1904924 -0.12461406 0.00036961073
000040 76 87 36 be 7f 28 3c be f0 40 8e 3e ab 3e 36 3e
       -0.17825112 -0.18374823 0.27783918 0.17797343
000050 21 e8 48 3e 7a 69 83 3e 71 fc 85 3e 82 26 21 3f
       0.196198 0.2566641 0.2616916 0.62949383
000060 b4 ac cc 3e 4b 09 14 3e 76 69 d4 be cf 26 c8 be
       0.39975512 0.1445667 -0.4148671 -0.3909211
000070 52 e0 84 3d 9f b3 f2 3d c0 07 ba bd e4 4d a0 3d
       0.06488098 0.11850666 -0.090835094 0.078273565
000080 b4 db 00 be 9f 00 68 bd 50 ca ed 3d df 46 fe bd
       -0.1258381 -0.056641217 0.11610854 -0.12415861
000090 fd 0b b4 bd 1f 98 d5 3c e4 97 7a be c7 4b 9c bd
       -0.08791349 0.026073514 -0.24472004 -0.07631641
0000a0 22 7c 86 3c 08 8f 93 ba a6 bd fa 3d 78 b6 73 3d
       0.016416613 -0.0011257837 0.12243204 0.059500188
0000b0 ee ef e7 bd dc f7 6f be dd c3 41 be c5 6a d5 3e
       -0.1132506 -0.23434395 -0.18922372 0.4168302
0000c0 7d 86 92 be 07 3b fa 3e 30 4b 4c be 51 61 6f be
       -0.2861823 0.4887316 -0.19950557 -0.23376967
0000d0 eb f2 76 be 1e 4f 86 be fa a7 2b be 09 ef d7 bd
       -0.24116103 -0.26232237 -0.16763297 -0.10543639
0000e0 e6 41 28 be 29 7c 27 be 53 54 85 be 5b 26 70 be
       -0.16431388 -0.16355957 -0.26040897 -0.23452131
0000f0 d7 df 19 be 93 3f 3a be 75 9a cd 3c c4 ab 28 be
       -0.15026794 -0.18188314 0.025098065 -0.16471773
000100 95 fc 70 be 3f 84 71 be 2c 19 8a 3d 9e 07 e3 bb
       -0.23533852 -0.23585604 0.067430824 -0.0069283983
000110 a4 ea d0 3d 0b 43 8d be a2 3e 63 3d 7d c4 fc 3d
       0.10201004 -0.27590212 0.055479653 0.12342165
000120 4b 1b 25 3f 99 39 29 3f 3b c7 4d be fd 04 8f 3e
       0.6449477 0.6610351 -0.20095532 0.27933493
000130 86 cb 0c 3f e2 44 00 be b2 e8 0b be c1 2f a2 3d
       0.5499805 -0.12526277 -0.13662985 0.079192646
000140 0d 1b 37 3d be f5 86 3d 72 97 a7 3c b0 ef a5 3d
       0.044703532 0.0658984 0.020457957 0.081023574
000150 79 11 0b be d9 d5 4b bd ac 23 b0 bd 3e 8d 17 be
       -0.13580884 -0.049764488 -0.08600554 -0.14799973
000160 74 cb c2 3d 35 52 0d bd 34 16 7b 3d 32 4d 75 bd
       0.09511462 -0.034502227 0.06130047 -0.059888072
000170 a8 6b db 3d 1a eb 93 bd 1d 86 72 3c b1 70 11 be
       0.10713893 -0.072225764 0.014802483 -0.14203145
000180 48 af e4 3c ac 47 28 3e 8a a7 be 3e 09 74 00 bf
       0.027915612 0.1643359 0.37237197 -0.50177056
000190 81 df 1e 3e 1d 68 5f be b9 98 4f 3e c7 e9 68 3e
       0.15514947 -0.2181706 0.20273103 0.22745429
0001a0 55 31 d9 bd 9b c7 87 bc cc 69 07 be 97 b6 b4 bd
       -0.106051125 -0.016574671 -0.13223952 -0.08823889
0001b0 e4 7d 0d bd f0 1c 48 bd a8 c9 8a 3d ba 85 1a be
       -0.034543887 -0.048855722 0.06776744 -0.15090075
0001c0 67 08 5e be e9 9d 4e be 60 c6 7c be fc 23 02 bd
       -0.21682893 -0.20177425 -0.24685049 -0.0317726
0001d0 ec 88 63 be c1 45 a1 be 0a f9 76 be ca b0 cf be
       -0.222202 -0.3149853 -0.24118438 -0.40564567
0001e0 8f dc bf be 3f cc f9 be 36 c4 ee be ed 62 11 be
       -0.3747296 -0.4878864 -0.46634072 -0.14197893
0001f0 d6 07 af 3e 42 f1 96 be f1 68 09 3f 2b 41 03 bf
       0.34185666 -0.2948094 0.5367575 -0.51271313
000200 03 92 dd bd f3 3e 64 bf 5a b7 a0 be dd 50 91 be
       -0.10818865 -0.8915855 -0.31389886 -0.28382006
000210 03 d4 81 be db f4 8a be 00 11 1b be 82 09 af bd
       -0.25357065 -0.27139935 -0.15143204 -0.08546735
000220 e6 38 8f be 4c 55 a4 be 12 bd a6 bd 6a a0 cc be
       -0.27973098 -0.32096326 -0.08141531 -0.39966136
000230 37 a5 bb be 9f 45 65 bd 3a 49 78 3e 25 76 bb be
       -0.36649486 -0.0559746 0.24246684 -0.36613575
000240 30 f1 5f be 59 93 8a be a5 8c cc be 59 bc 8a be
       -0.2186935 -0.27065542 -0.39951053 -0.27096823
000250 a0 b9 90 be e1 4e 7c be 17 06 13 bf b8 3b d4 3e
       -0.2826662 -0.24639465 -0.5743117 0.41451812
000260 06 9b 53 be 9d 61 6f be 51 4d 45 bf 7f e4 7e 3e
       -0.20664605 -0.2337708 -0.770711 0.24891852
000270 03 cc 5b be 30 88 f4 bd c4 9a 9a bb dd 63 ec bd
       -0.21464543 -0.11940038 -0.0047181565 -0.11542485
000280 95 bd 53 be 52 03 03 be a1 d6 b6 bd fc c4 d2 bd
       -0.20677789 -0.12794235 -0.08927656 -0.10291478
000290 ff 42 78 3d 59 c2 11 bd 7f 07 33 be a0 da 03 3e
       0.060610767 -0.035585735 -0.17483328 0.12876368
0002a0 2d 42 00 be 18 f3 9d bd 97 cc 09 3e 08 5f b4 3c
       -0.12525244 -0.07712382 0.13456951 0.02201797
0002b0 30 59 28 be 0e 4a b5 bd 20 88 84 be f7 e1 69 be
       -0.16440272 -0.088520154 -0.25885105 -0.22840105
0002c0 ac d4 0b be 98 99 bd 3f bb af 68 3c 71 9a 75 be
       -0.13655347 1.4812498 0.014202054 -0.23984696
0002d0 d4 b7 84 3e 93 48 4c be e2 46 c0 3d 3c 04 ae be
       0.259215 -0.1994956 0.0938852 -0.33987606
0002e0 02 82 b0 be 2e 2f 26 be bb 69 40 be 90 63 8f be
       -0.34474188 -0.16228935 -0.18790333 -0.28005648
0002f0 41 99 7b be 93 65 8a be 2c 02 93 be 39 03 f7 bc
       -0.2457018 -0.2703062 -0.28712595 -0.030152904
000300 39 54 85 be 75 8a 39 be 69 bf 7f be 6f d9 99 be
       -0.2604082 -0.18119223 -0.24975361 -0.300487
000310 94 55 02 be b3 66 07 be 56 4a e2 bd 4b c5 58 be
       -0.12727958 -0.1322277 -0.11049335 -0.21169011
000320 97 c3 b0 be a8 59 ac be ba 4f 8c bd 1f c8 72 3e
       -0.34524223 -0.33662152 -0.06851144 0.23709153
000330 52 19 c7 3d e3 9b c8 bd d4 4c 3c bf c6 27 bd be
       0.09721626 -0.09795358 -0.7355473 -0.36944407
000340 41 09 df 3d 79 09 ae 3e 16 33 6b bd ff 6f 30 39
       0.10890437 0.33991602 -0.057421766 0.0001682639
000350 6b 04 b9 bd 9d 52 27 be 77 2e 9c bd 67 0d 26 be
       -0.09034046 -0.16340108 -0.0762605 -0.1621605
000360 10 cb 4f be ae cd d7 bd b3 8f 02 bd 31 56 a8 bd
       -0.20292306 -0.10537277 -0.031875324 -0.08219565
000370 f6 c3 5b 3c 40 7b 5d be df 35 30 be 81 7c a7 bd
       0.01341342 -0.21629047 -0.1720805 -0.08178044
000380 9a 15 0d be 00 48 d8 bc 7d a4 5c bd 64 a6 85 bd
       -0.13777772 -0.02640152 -0.053867806 -0.06525877
000390 13 dc 7d 3e 4d 1f 1e 3f c2 43 f2 3e dc 7f 44 3e
       0.24790983 0.6176651 0.4731732 0.191894
0003a0 0c 85 b1 3e 24 4c 7d bd 24 9f 48 bd d0 8c 22 be
       0.3467182 -0.06184019 -0.048979893 -0.15874028
0003b0 64 71 5a bd 46 eb 1f be f0 a2 d2 3d 12 02 c1 bd
       -0.053330794 -0.15617093 0.10284984 -0.09424223
0003c0 d2 76 69 3c f0 f8 01 3e 8d 89 87 3d b0 0b b6 3d
       0.01424952 0.12692618 0.066180326 0.08888948
0003d0 81 85 94 3d db ee 83 bd 49 da 97 3d 31 73 16 3d
       0.07252026 -0.064420424 0.074146815 0.03673095
0003e0 d1 09 1c 3e 65 5e 15 3e b0 f1 81 bd a3 eb ed 3d
       0.1523812 0.1458679 -0.06344926 0.1161721
0003f0 b9 8b 33 bd f4 d2 d7 bd e1 79 4f be fb b5 0d bd
       -0.04383442 -0.10538283 -0.20261337 -0.03459738

linear1_q1.bias f4 [256]
000000 6b d4 6f 3e 6c 27 09 3f 77 7f 9b be ad ca 69 3f
       0.23420875 0.5357578 -0.30370685 0.91324884
000010 c0 45 01 3f c6 a0 a3 3e 66 f1 08 bf 99 d0 fe 3c
       0.50497055 0.31958598 -0.53493345 0.031105326
000020 6d d2 7c 3e c1 9b 5d 3f c4 40 80 3d e6 26 a5 3e
       0.24689646 0.86565787 0.06262353 0.3225624
000030 98 6f 50 bf 41 88 2f 3f 78 29 2b 3f 08 f8 5b 3f
       -0.8142028 0.6856728 0.6686015 0.8592534
000040 d5 db 13 3f ff 9a 12 3f 0d 8e c1 bd 13 2a 59 3f
       0.5775731 0.57267755 -0.09450922 0.84829825
000050 bb b0 45 3f 8e bc 81 3e c0 84 a7 3e 2f aa 4f 3f
       0.77222794 0.25339168 0.32718468 0.81119055
000060 f3 e1 30 3f 91 e9 63 3f 97 91 d8 be f5 7f 49 3f
       0.6909477 0.8902827 -0.42298576 0.7871087
000070 d4 9e 32 bf 95 3b 51 bf 23 6c 51 3f 03 93 14 be
       -0.697736 -0.8173154 0.8180563 -0.14509206
000080 ae 3d 6a bf 77 b1 52 bf b6 32 1e bf bd ec 55 3f
       -0.91500366 -0.8230204 -0.6179613 0.8356436
000090 13 6d ec 3e 7e 2a 64 3f 8a f9 6a bd 61 1a 88 3e
       0.46176967 0.8912734 -0.057366885 0.26582626
0000a0 e0 00 1a 3e 96 18 4c 3f 9a 1f c7 bc 2e 49 7d 3e
       0.15039396 0.79725015 -0.024307061 0.24734947
0000b0 8a 5f 3b 3f a9 76 2f 3f 9a 3d 0c 3f ba 39 28 bd
       0.73192656 0.68540436 0.54781497 -0.041070677
0000c0 bb 26 7f 3f 9f 07 6b 3f 1c 89 43 3e 90 08 68 3f
       0.99668473 0.91808504 0.19095272 0.90638065
0000d0 a1 57 49 3f d7 5d f0 3d 1a 93 56 3e f3 6f 12 be
       0.78649336 0.117366485 0.20954552 -0.14300518
0000e0 0b c3 65 3d 55 86 4a 3f 9b 9e 94 bd 59 1b 1c bf
       0.05609421 0.79111224 -0.07256814 -0.6097923
0000f0 21 b0 87 3f 09 be 39 3f 53 cc ac 3e 4e 9b b7 3e
       1.0600625 0.72555596 0.33749637 0.35860676
000100 2d 84 57 3e 34 5b 2b 3f 59 c3 30 bf 5c 88 4b 3f
       0.21046515 0.6693604 -0.69048077 0.7950494
000110 40 63 3b 3f ac e8 22 bf b0 06 67 bf 48 6e ee be
       0.7319832 -0.6363628 -0.9024458 -0.46568513
000120 56 78 03 bf 07 43 48 bc fc bb 63 bf dc 3a 52 3f
       -0.51355493 -0.012223012 -0.88958716 0.8212106
000130 8c 50 55 be 4d 17 6f 3f 9d 93 4b 3e dc d6 19 3f
       -0.20831507 0.9339493 0.19880529 0.60093474
000140 ea 90 6a 3f 57 ce 16 bf a4 c7 da be 56 21 9d bd
       0.9162737 -0.589086 -0.4273044 -0.07672374
000150 7c 33 70 bd 1f 87 f5 bd fe d1 14 bd 28 37 81 3d
       -0.05864285 -0.11988663 -0.036333077 0.06309348
000160 6e b7 1c 3f 38 4b 3c 3f 0e 6c b3 3e 5c df e7 3d
       0.6121739 0.73552275 0.35043377 0.11321899
000170 b9 00 39 bf f7 04 53 bd 9b 29 2a bf 00 2c a8 be
       -0.7226673 -0.051518407 -0.66469735 -0.3284607
000180 9b 3f 08 3f 49 8f 54 3f 3a d1 93 bd a4 43 a0 bd
       0.53222054 0.83031136 -0.07217641 -0.078254014
000190 54 1f 11 3f fa 7a 80 bc 09 23 7e 3c 18 6f 46 3e
       0.5668843 -0.01568364 0.015511283 0.19378316
0001a0 13 73 e9 3e 66 e3 98 3d 3a b6 56 be ac e2 75 3d
       0.45595607 0.07465248 -0.20967951 0.060030624
0001b0 bf 42 4a bd 91 c7 d2 be 59 67 2e 3f 37 f1 09 bd
       -0.04938006 -0.41167882 0.68126446 -0.033677306
0001c0 85 2b 22 3f 05 e6 82 3f 33 9f 3f 3d b7 ff 1b 3d
       0.63347656 1.0226446 0.046782684 0.038085666
0001d0 d2 54 96 3f 09 39 d4 3e 66 4f 14 3f 13 58 0c 3f
       1.1744635 0.41449764 0.5793365 0.5482189
0001e0 3b 8a c3 3d a6 89 05 bf b9 0e b3 3e 00 b5 d9 be
       0.0954785 -0.5216316 0.3497217 -0.42520905
0001f0 28 a9 56 bf 6c 84 e0 3d 3a 4f 8f 3e 72 bf 51 3f
       -0.8385186 0.109627575 0.27990133 0.8193275
000200 ec ae a0 3e f3 d3 d8 3b df f8 42 3f 9d f2 f4 bc
       0.31383455 0.006617063 0.76161 -0.029900843
000210 39 17 b2 be c0 54 2f 3f e9 02 3b bc 87 b5 58 3f
       -0.34783342 0.68488693 -0.011414268 0.8465199
000220 47 ec f0 bd 04 04 3b 3f d5 90 48 3f f1 a3 13 bf
       -0.11763816 0.73053 0.78345996 -0.5767203
000230 b0 4f 7f 3f 63 ea 4f 3f e3 17 b0 3e ff 02 51 3c
       0.9973097 0.8121702 0.34393224 0.012757062
000240 2b db 5a bf 94 46 a5 3d 2d e3 cc be e6 6c 20 bd
       -0.85490674 0.08070102 -0.4001707 -0.039166354
000250 2e 88 5d 3f 65 5d 61 3e 01 46 ca bd 92 5c 21 3f
       0.8653592 0.22008283 -0.098766334 0.63031876
000260 44 e8 1c bf 64 c6 1d 3e 6a 3f 42 3f e7 61 4d 3e
       -0.6129191 0.15407711 0.7587801 0.20056878
000270 49 46 5a 3f 13 20 28 3f b0 3c 0d 3e 54 05 d8 bd
       0.85263497 0.6567394 0.13792682 -0.10547891
000280 50 6f c1 3c 9f e4 59 bf 1d b5 75 3f 54 27 7b 3e
       0.023612648 -0.85114473 0.9597948 0.24526721
000290 c0 30 68 3f 5a f9 b3 3d 28 f6 1b 3f d1 cf 21 3f
       0.90699387 0.087877944 0.6092248 0.6320773
0002a0 36 b6 62 3f 5c 46 65 bf 21 b8 48 3f 14 08 47 bf
       0.8855928 -0.89560485 0.7840596 -0.777467
0002b0 e1 22 c0 bd ef 09 50 3f 21 92 34 3e 41 23 60 3f
       -0.093816526 0.8126516 0.17633869 0.87553793
0002c0 be b7 2a bf d2 c7 69 3f 9e c2 43 3e b1 f7 3e 3f
       -0.6668662 0.91320527 0.1911721 0.745967
0002d0 af 1e eb 3d 8d df f1 bc c0 17 4e 3f e1 b6 03 bf
       0.11480462 -0.029525543 0.8050499 -0.51450926
0002e0 4e 9a 6f bd 6c 42 fa 3c c6 2a 41 3f 87 9b 23 3f
       -0.058496766 0.03054925 0.7545589 0.6390919
0002f0 9e a2 ea 3e 76 a3 19 bf 03 64 8e 3e 17 13 05 be
       0.45827192 -0.60015047 0.27810678 -0.12995563
000300 d9 ff 5e 3f a5 d4 7f bd b4 52 16 bf 13 ef 00 3e
       0.8710914 -0.062458653 -0.58719945 0.125912
000310 e1 11 05 bf f4 42 9c 3d 63 b2 ec 3e 03 74 5c 3f
       -0.51980406 0.07629958 0.46229848 0.8611452
000320 4a 60 07 3f b4 84 4a 3f 9e 42 32 3f d3 9c 4d 3e
       0.528813 0.7910874 0.696329 0.20079355
000330 61 1e 69 3e d5 db 14 bd fd 43 4c bf d7 5c 16 bf
       0.22765495 -0.03634246 -0.7979124 -0.5873541
000340 32 d8 07 3f 85 eb 21 3f 8b 7e 84 3f 72 17 54 bf
       0.5306426 0.6325 1.0351118 -0.82848275
000350 ae 6d 4e 3f 23 18 2c bf 47 5b 4f 3e 89 cc 08 bf
       0.8063611 -0.6722433 0.20249663 -0.53437096
000360 43 20 92 3e 6c 05 2b 3f 60 1e cc 3e ed 87 6e 3f
       0.2854024 0.6680515 0.39866924 0.93176156
000370 6a 52 0a 3f 50 13 0e 3e 00 92 2c 3f 9d 71 ba 3e
       0.54032004 0.13874555 0.6741028 0.36414805
000380 e6 69 54 3f ad c2 85 bd b1 5f 31 3f e2 06 90 be
       0.8297409 -0.06531272 0.6928664 -0.2813025
000390 88 46 01 3f f1 01 33 be bb ae 75 bd ec 7d 3d 3f
       0.5049825 -0.1748121 -0.05998109 0.74020267
0003a0 d4 34 c7 bc 4a b3 52 bf f0 2a 48 3c 81 ac 28 bf
       -0.024317183 -0.82304823 0.012217268 -0.6588822
0003b0 ca 0a 4c bd b0 54 97 3f 4e 8e 99 3f 9a a6 81 3e
       -0.049814977 1.182272 1.1996553 0.2532242
0003c0 ad 64 12 3d f8 d8 3b 3f 1a b9 0e bf fa fb 1a bf
       0.035740543 0.73377943 -0.5575119 -0.60540736
0003d0 22 08 34 3f 81 6a 51 bf a7 23 02 bf 8e 6d 36 3e
       0.7032491 -0.8180314 -0.5083565 0.1781523
0003e0 69 e1 b6 be 67 7b 2a 3f b4 71 32 3f 76 6d 60 3f
       -0.3571885 0.6659455 0.6970475 0.87667024
0003f0 07 3f fd 3d a8 c8 23 3f 81 f2 95 3f 01 61 40 bf
       0.12365537 0.6397805 1.1714631 -0.75148016

linear2_q1.weight f4 [256, 256]
000000 08 a6 19 bf 5d d8 6e bd 81 ec 62 be 29 33 80 3d
       -0.6001897 -0.05831181 -0.22160532 0.06259758
000010 b8 bc a1 3e 3c e2 9b bd 35 5c 80 bf fd a4 0d 3f
       0.31589293 -0.0761151 -1.0028139 0.5532988
000020 ad 0c 60 3e 05 e2 94 3d 1b 72 d2 bb d0 20 04 be
       0.21879835 0.07269672 -0.006422294 -0.12903142
000030 a1 44 41 be 8c 52 e4 3e 95 49 00 3d ec 41 1b 3e
       -0.18873836 0.44594228 0.031320173 0.15161866
000040 cf 74 89 bf 2b 53 ba bd 1a 48 61 3e dc 7a 15 3e
       -1.0738772 -0.09097894 0.22000161 0.14597648
000050 03 b4 78 3e fd cd 7d be 88 1b 05 be fc ad b0 3e
       0.24287419 -0.2478561 -0.12998784 0.3450774
000060 2e 98 bf 3c 4c 06 25 bd 06 79 2e 3e 70 5b 22 be
       0.023387995 -0.04028921 0.17038354 -0.15855193
000070 8c 2f cc be 47 00 6b bd c5 b8 d6 3e f2 3e 1b 3f
       -0.39880025 -0.05737331 0.41937843 0.6064292
000080 8f 96 fc 3c 88 32 95 be 71 a5 89 be 21 ee ae 3d
       0.03083351 -0.29140115 -0.26884034 0.08541513
000090 5c 10 00 be 49 6e db 3e 3a 2e 46 3e 85 dc 0c 3f
       -0.1250624 0.42857578 0.19353572 0.55023986
0000a0 33 37 fc be 70 00 b8 bd ca 65 e6 3e bb fc 00 bf
       -0.49260864 -0.089844584 0.44999534 -0.50385636
0000b0 e9 c5 e7 bd 70 3b c3 be 6e b8 8f 3d 62 6e c0 3e
       -0.11317045 -0.38131285 0.07017599 0.37584215
0000c0 2a 12 41 3c 1a 15 ae 3e 52 f3 24 bf 2d a3 2e be
       0.011784116 0.34000474 -0.6443378 -0.17054434
0000d0 e7 bf c1 3d aa 3b a0 be d0 dd b4 be fd 7f ea be
       0.094604306 -0.3129552 -0.3532548 -0.45800772
0000e0 cb 2f ff be 25 5d 05 3f 49 d2 a3 3d 8e ed fb 3c
       -0.4984115 0.5209525 0.07999093 0.030752923
0000f0 0c 0b f2 3d 59 2b 4d 3e bb 7e f4 be 19 58 b3 be
       0.11818513 0.20036067 -0.47752938 -0.3502815
000100 21 4c d2 3d 04 71 0f be fc 24 b6 be 13 3a fa bc
       0.10268427 -0.14007956 -0.35575092 -0.03054527
000110 c8 e4 88 3e ba 7b 39 bd ff a5 ef bc 3a 74 22 be
       0.26737046 -0.04528401 -0.029253958 -0.1586465
000120 6f 00 25 be 94 a7 f6 3e 77 7b 4e be af 8c 3f bd
       -0.16113447 0.48174727 -0.20164286 -0.046765026
000130 42 77 c1 be 42 d4 87 3e 3f 4e a2 3d cd 98 25 bb
       -0.377863 0.26529127 0.079250805 -0.0025268078
000140 e3 77 c8 3d 2a 89 68 be 3b 34 86 be 2c a5 03 bd
       0.097884916 -0.22708574 -0.26211724 -0.032139942
000150 74 01 ae 3e 72 1e 36 be ff 21 70 3e 0d 4e 35 3e
       0.33985484 -0.17785051 0.23450468 0.17705555
000160 67 ae e0 be 9e 83 d3 3e ee f8 66 bf 12 4c 1d be
       -0.43883058 0.41311353 -0.90223587 -0.1536105
000170 36 e8 3e be 5a f9 48 bc bc 08 1e be 98 6f e9 3e
       -0.18643269 -0.012266481 -0.1543302 0.45592952
000180 b2 49 48 3e 15 e1 2f 3e 7a b5 9f 3e 0d ce b6 3e
       0.19559363 0.17175706 0.31193143 0.3570408
000190 86 bc 0b bd b5 2f 8d be 93 44 8d be 9b e1 6e 3d
       -0.034115337 -0.2757546 -0.2759138 0.058320623
0001a0 2c 8f 62 3e 36 37 a9 3d 0c 03 66 be 9d 0b 92 3d
       0.22124928 0.08262484 -0.224621 0.07131121
0001b0 b1 52 9b bc 00 79 f8 3d 75 05 05 3f 32 27 dd 3d
       -0.018960329 0.12132454 0.5196145 0.107984915
0001c0 45 81 6f be 17 d4 2e be ac b1 c7 3e c6 03 a2 be
       -0.23389156 -0.17073093 0.3900274 -0.31643504
0001d0 6a bf 82 3d ac 7b b5 3e 3c a4 28 3e 86 64 f5 3e
       0.063841656 0.35445917 0.164689 0.47928256
0001e0 16 2b ac 3d d6 4e cb be fa 3b c4 3c 25 14 54 be
       0.084066555 -0.39708585 0.02395438 -0.2071081
0001f0 e6 2a c1 3c 94 1b 77 be 19 bb bd be f6 cd a1 bf
       0.023580026 -0.24131614 -0.37056807 -1.2640979
000200 5e 8e 91 be ab 5d ae 3c 2d 21 85 3e 2a f2 19 3f
       -0.2842893 0.021284899 0.26001874 0.6013514
000210 26 4c 80 3e 97 08 6a bc 21 97 06 3e aa 42 8a 3e
       0.25058097 -0.014284275 0.13143589 0.27003986
000220 20 5e eb be 64 d7 1d be 5f 91 6e 3d d6 28 a9 be
       -0.4597025 -0.15414196 0.058244105 -0.33038968
000230 9e 11 48 3d 52 ab fe be 62 b4 13 bf c4 d0 95 3c
       0.048844926 -0.49740082 -0.5769712 0.018288024
000240 a5 16 8a be f1 7e a5 be b4 be f4 3e 63 39 c5 3c
       -0.269704 -0.3232341 0.47801745 0.024075216
000250 0a 78 f1 bd f3 0c 27 bf 96 64 36 be a5 76 f7 3e
       -0.11790474 -0.65254134 -0.17811808 0.48332706
000260 ac 4d 16 3d 91 a0 39 3d e0 d0 92 bf 29 fc 74 3c
       0.036695167 0.045319144 -1.1469994 0.014952698
000270 21 e9 8e 3e cc 2d 41 3e 58 d4 1d 3e 48 b7 c1 3e
       0.27912238 0.18865126 0.15413034 0.37835145
000280 3f 95 7f 3e 32 7e 32 be e2 b1 48 3e 15 20 42 3e
       0.24959277 -0.17430952 0.19599107 0.18957551
000290 cc f6 7d bf 5b 41 82 3e f8 ab c5 bd 44 b5 32 3f
       -0.9920471 0.25440487 -0.09651941 0.6980784
0002a0 22 0f 36 3e fd 61 1d bd 73 47 b8 be 75 ae 80 bd
       0.1777921 -0.038423527 -0.3599201 -0.06283275
0002b0 41 70 99 3d 0e 6c 15 be e9 ae d3 be 97 41 19 3d
       0.07492114 -0.14592001 -0.41344383 0.037416067
0002c0 39 81 79 bd 90 22 79 bb 4c d7 e8 be 39 f2 74 3c
       -0.060914252 -0.0038014986 -0.45476758 0.0149503285
0002d0 eb 42 90 bf 03 d3 ff 3e 42 10 04 3e 70 e9 51 bc
       -1.1270422 0.49965677 0.12896827 -0.0128120035
0002e0 4d aa b0 3d 25 d6 0b 3f 37 95 bd bd 71 00 15 3e
       0.08626232 0.54623634 -0.09256976 0.1455095
0002f0 32 44 e2 3e d5 6e 97 3d bb 24 e5 3e ce 46 00 3f
       0.44192654 0.073941864 0.44754586 0.5010804
000300 e8 05 04 3e 88 54 53 bf f0 52 d5 bd 6e 16 d9 be
       0.12892878 -0.8255086 -0.1041621 -0.42399925
000310 cb 80 22 3f 33 74 a8 3e bc 88 23 bc 4d 3e f9 3e
       0.6347777 0.32901153 -0.0099813305 0.48680344
000320 ff 81 13 3e bd 88 4f 3d 71 83 92 bf 4b 84 6c 3d
       0.14405058 0.050667513 -1.1446363 0.057743352
000330 e8 9f 80 bd 55 fb c1 3e ce 13 c3 bd 81 ab 7b 3d
       -0.062805 0.37887064 -0.09525262 0.061442856
000340 c8 e8 93 be 34 e8 ca bd d4 e9 07 be a5 d4 1d 3c
       -0.28888535 -0.099075705 -0.13272792 0.009633218
000350 54 13 c6 bd 43 6d 87 3c c4 db 4d be c0 88 70 3e
       -0.09671655 0.016531592 -0.20103365 0.23489666
000360 99 49 0e be a1 c4 a0 3e 74 7e 8a 3e e4 13 21 3d
       -0.13895263 0.31400016 0.270496 0.03932561
000370 7a c2 e8 be d7 a3 8b 3d 23 62 ab 3d 1e f7 59 be
       -0.45460874 0.06818359 0.083683275 -0.21285674
000380 a2 f0 56 3e c4 31 4c be 95 86 53 be 2f 15 cf 3e
       0.20990232 -0.19940859 -0.20656808 0.4044585
000390 4c 47 79 bf 83 f5 a5 bd f9 a7 19 3e 04 ad 4f 3f
       -0.97374415 -0.08103468 0.15005483 0.81123376
0003a0 fd 00 5a bd d0 61 51 be 30 ae b4 bd b6 94 11 be
       -0.0532236 -0.20447469 -0.08822286 -0.14216885
0003b0 b2 5b 8d be ca 55 6c 3e 3e f3 f2 3d 95 e5 24 bf
       -0.2760902 0.23079601 0.11862801 -0.64412814
0003c0 ed da 00 be ea d0 5d 3e e7 11 95 be a8 a9 ed bd
       -0.12583514 0.21661726 -0.2911522 -0.11604625
0003d0 71 66 80 3e ea 1d db bd 11 83 f4 bd da df 26 3f
       0.25078157 -0.10699065 -0.119390614 0.6518532
0003e0 b3 16 d0 3e 39 a0 4f 3e ec 3e 11 3e c0 ca da 3d
       0.40642318 0.20275964 0.14184159 0.10683203
0003f0 af fe c9 3b f4 92 3d bf 9f cf 27 3e b2 dd a9 bc
       0.006164394 -0.7405236 0.16387795 -0.020735595

linear2_q1.bias f4 [256]
000000 94 a1 f5 be c7 40 ba bd 3e 6f a2 be 75 f4 73 3f
       -0.47974837 -0.090943865 -0.31725496 0.95294887
000010 a3 4a c2 bd d1 fb 11 bd 02 d6 70 3f 63 12 eb 3e
       -0.09486892 -0.03564054 0.9407655 0.45912465
000020 90 55 66 3f 8f e4 fb bd 6a 43 1b bd fa 68 d1 be
       0.8997431 -0.122994535 -0.037906088 -0.40900403
000030 cf 91 4e 3e 94 90 0f bd ae 50 88 3f 2b a5 09 bd
       0.20172809 -0.03504999 1.0649621 -0.033604782
000040 58 1f 2f bd a6 61 1f bf 61 a5 f8 bc 4e 95 1a 3f
       -0.0427545 -0.62258375 -0.030352296 0.6038407
000050 6b d2 ac bd 4d 9f 54 be a7 e1 72 3f cf e3 67 3f
       -0.084385715 -0.20763893 0.9487557 0.90581983
000060 9c 70 71 3f 3c 17 d0 bc 17 a4 13 bd ae 15 f6 bd
       0.94312453 -0.025401704 -0.03604516 -0.12015854
000070 0c b2 3a 3f b7 c4 ee bc 41 df 22 3f 23 9e af be
       0.7292793 -0.029146535 0.6362191 -0.34300336
000080 9b 56 43 bd b9 2f 1e bf 86 74 6e 3f ad 66 80 be
       -0.047690015 -0.6179157 0.9314655 -0.25078335
000090 00 72 5b 3f b3 ba 70 3f 79 ca 66 3f 8a 59 9d be
       0.85720825 0.9403488 0.901527 -0.30732375
0000a0 f5 87 54 3d ac f7 12 bd e6 ee 82 3e 40 fd ed ba
       0.05188747 -0.03588073 0.2557289 -0.001815714
0000b0 3d bc 9f be 55 de 28 bf 81 de ad be 51 c7 07 be
       -0.31198302 -0.6596425 -0.3395882 -0.13259627
0000c0 66 12 3c be ff a6 14 3f 25 93 93 bc ce 87 67 3f
       -0.18366393 0.58067316 -0.0180145 0.90441597
0000d0 d9 cf 6a 3f 26 83 6e 3f eb e4 2d bd 45 c2 a0 bc
       0.917234 0.93168867 -0.04245464 -0.019623885
0000e0 45 d9 00 bd 7e a4 f9 bc bd 5e 8d 3e 6b b6 74 3f
       -0.031457204 -0.030473944 0.27611342 0.9559085
0000f0 41 c0 3a 3f c0 1b 78 3f 1b 6c af bd 2d ec 9d 3d
       0.72949606 0.96917343 -0.08565541 0.077110626
000100 c1 c4 b7 3e 5f 16 cf be fd 02 32 bf e0 57 f8 be
       0.358923 -0.40446755 -0.6953581 -0.48504543
000110 25 53 d2 be b5 42 3c bf 6a 5e 2e bf bc b9 89 be
       -0.4107906 -0.73539287 -0.68112814 -0.26899517
000120 10 a5 c6 be 13 ab 0b bf ec cf 6f 3f d2 f8 c4 be
       -0.38797808 -0.54557914 0.9367664 -0.38471085
000130 1b 7d 65 3f ef c4 42 3f 61 5c 08 bf 4f 82 de be
       0.8964402 0.76081747 -0.5326596 -0.43458793
000140 72 54 83 3b 4c 69 15 bf 19 1c 38 bd 48 b6 11 bf
       0.0040078694 -0.58363795 -0.04494867 -0.56918764
000150 f3 bd 5c be cc 06 91 3d 02 6e 3e bd 3e f1 26 bd
       -0.21556835 0.070813745 -0.04649163 -0.04075741
000160 cc b1 da 3d fa ac 30 be e3 f2 57 3f 68 26 16 bf
       0.10678443 -0.17253485 0.8435499 -0.58652353
000170 59 e9 4d 3f 5d 4e 9e be 24 27 d7 be ee 5c 74 be
       0.80434185 -0.3091916 -0.4202205 -0.23863575
000180 ae 9e 6b 3f db d3 4e bf 62 66 28 3f 06 8c 00 bf
       0.92039 -0.80792016 0.65781224 -0.5021366
000190 c9 02 4e 3f b5 3d 04 be ac 0d 2a be da ba 40 3f
       0.80473 -0.12914164 -0.16606778 0.7528511
0001a0 d6 24 a6 bc aa 63 b1 bd c1 08 a6 be 90 d9 14 3e
       -0.020281237 -0.086615875 -0.32428554 0.14536119
0001b0 09 e6 81 be aa bc a7 be 4b 37 a9 3e 6a 0f fd be
       -0.25370815 -0.32761127 0.33049998 -0.49425822
0001c0 24 00 60 be eb b4 c8 bd 35 56 42 3e 4a 18 6b 3f
       -0.21875054 -0.09800132 0.18978198 0.9183394
0001d0 d1 ad 87 3f ee 67 02 bd b4 8b 2a bd 25 53 ec bc
       1.059992 -0.031837396 -0.041637138 -0.02884824
0001e0 17 ae b0 3a 67 43 86 3e f0 58 d6 3e 49 de 82 bd
       0.0013479617 0.262233 0.4186473 -0.06390054
0001f0 b8 33 a4 bd 8a d8 11 3d e8 b1 24 bd f0 38 7a 3f
       -0.08017677 0.0356069 -0.040208727 0.9774313
000200 6d 3a 1b be 9c 67 c2 be 70 2f d5 be e9 af 70 3f
       -0.15159006 -0.37969673 -0.41637754 0.9401842
000210 75 58 89 be 30 55 b1 3d 54 49 ff bd fb 91 19 3f
       -0.268253 0.08658826 -0.12465158 0.59988374
000220 bf ad f3 3d aa 98 21 bd cf c8 c4 bc 9f 3b 70 3f
       0.11898374 -0.039452232 -0.024021534 0.93840975
000230 a9 6f 2d 3f 5c 09 c0 be 28 c6 76 3f 55 77 07 bf
       0.67748505 -0.3750714 0.9639611 -0.5291646
000240 57 63 03 3f 25 80 55 3f 4d 95 5d 3e 2e 3e cd bc
       0.51323456 0.8339866 0.21638985 -0.025054064
000250 5e a2 af be 37 f5 70 3f a8 93 69 3f 9d 2e 13 bd
       -0.34303564 0.9412417 0.9124093 -0.035933126
000260 22 51 75 3f 23 48 b2 ba dd 2a 70 3f 96 60 37 bf
       0.95826924 -0.0013601821 0.93815404 -0.71631753
000270 5c 55 70 3f 1d ae 56 3f 1f 42 f9 be 0e 9e 6e 3f
       0.9388025 0.83859426 -0.4868326 0.9320992
000280 77 ce e3 bc 8c 9e 9a 3d 64 cd e6 bc 23 14 31 bf
       -0.027808411 0.07549772 -0.02817411 -0.6917135
000290 1e cf 40 3f 4a c9 6f 3f f7 b3 6d 3f 0a 48 6c 3c
       0.75316036 0.9366652 0.9285273 0.014421472
0002a0 cf 47 6b 3f 6f 9c 62 3f 0f ae 48 bd 98 67 98 be
       0.91906446 0.8851995 -0.04899412 -0.29766536
0002b0 e5 15 f4 be 42 51 80 be 87 05 77 3f d3 fd 6d 3f
       -0.47672954 -0.25061995 0.9649281 0.9296543
0002c0 4d 08 aa 3e 00 c6 56 bc 7a 88 7a bc 86 59 1f bf
       0.33209458 -0.01310873 -0.015291328 -0.62245977
0002d0 ba 61 6e 3f 5b b9 1a 3e e9 d4 15 3f 56 47 c7 bc
       0.9311787 0.1510977 0.58528 -0.024326008
0002e0 7e d7 70 3f 30 41 55 3f e9 8f ff 3d 28 26 5d 3f
       0.94078815 0.83302593 0.124786206 0.86386347
0002f0 f4 cf f7 be e3 cf 60 3f 1d 2f 74 3f 0e 8c 03 3e
       -0.48400843 0.8781721 0.9538439 0.12846395
000300 00 85 80 bc 4f d4 37 3f 3e 75 61 3f 1f 92 0a be
       -0.01568842 0.7180833 0.8806952 -0.13532303
000310 f6 20 c5 be c3 69 95 3d 2c 98 45 3f 80 c8 71 3f
       -0.3850171 0.07295563 0.7718532 0.94446564
000320 6b 7f 7a 3f ff 77 e0 3a 17 c6 2b be 17 9a 5e bd
       0.97850674 0.0017125605 -0.16774784 -0.05434617
000330 f8 2e 6e 3f 80 1c 0d 3f 68 06 4c 3f 5f 96 6b 3f
       0.9304042 0.5512161 0.79697275 0.92026323
000340 fa e3 18 bd 5d 2b 8e 3e e0 68 26 3e d9 54 40 3f
       -0.03732679 0.2776746 0.16250944 0.7512947
000350 c2 50 21 bf a6 29 6a 3f cc da 0d bc 6b 62 bb 3e
       -0.6301385 0.914698 -0.008658122 0.36598524
000360 6b 87 d8 bd b7 5d cc 3e 71 9f ef bc 92 19 1b be
       -0.10572704 0.3991525 -0.029250832 -0.15146473
000370 1a 81 5b 3f 8c 59 26 bf d7 87 23 3f f6 25 64 3f
       0.8574387 -0.6498039 0.6387915 0.89120424
000380 bb 44 2d be 3f fa 16 3f c2 6d 9e 3e f5 8a 96 bd
       -0.1692075 0.58975595 0.30943114 -0.07350723
000390 a7 f6 44 bf 60 23 cc bc ab 58 21 3f 9f 1f 83 be
       -0.7693886 -0.024919212 0.6302592 -0.25610062
0003a0 60 f8 37 be 71 f9 86 bc 60 da 0c bf 07 6d ac be
       -0.17965841 -0.016476365 -0.55020714 -0.3367693
0003b0 6a 4a 46 bd a5 b0 1d 3f 7d 57 10 bd c2 51 2b be
       -0.04841081 0.61597663 -0.035239685 -0.16730407
0003c0 0b fc 60 3f 7c 8b 4c 3f fb 4a 16 3f 9f 05 36 3f
       0.8788459 0.79900336 0.5870816 0.7110233
0003d0 41 73 13 bd ab f9 d3 be fa 6f 36 bf b6 10 76 3f
       -0.035998587 -0.4140142 -0.7126461 0.9611925
0003e0 b3 8f a5 be 91 84 2b 3f 7c 9b 63 3f 86 5c a0 be
       -0.32336196 0.66999155 0.88909125 -0.3132059
0003f0 3d 2f 17 bd 03 4c 70 3f 4a c7 04 bf 13 1f 0a bf
       -0.036910284 0.93865985 -0.5186659 -0.53953665

linear3_q1.weight f4 [1, 256]
000000 17 db d7 bf 08 07 03 3f 37 6e cb be dc e5 f1 3e
       -1.6863736 0.51182604 -0.39732525 0.4724568
000010 5d b8 b5 be fd cc ad bc 6c 24 b1 3f fb a4 91 3f
       -0.3549222 -0.02121591 1.383924 1.1378473
000020 1a 57 2c 3f a8 41 2f bf 06 d3 8f 3d 20 8c de bf
       0.67320406 -0.6845956 0.070226714 -1.7386513
000030 5e 70 5c 3f 1f ef 34 bf f1 80 97 3f ab 35 a6 3d
       0.8610896 -0.7067737 1.1836225 0.08115705
000040 87 ec c8 3e ba af 97 be f4 dc 31 b9 83 79 20 3f
       0.39242956 -0.29626256 -0.00016962347 0.6268541
000050 be 70 be bf 83 78 b3 bf f7 11 fe 3e eb d1 a4 3e
       -1.4878156 -1.4021152 0.4962308 0.32191405
000060 73 e6 6b 3e d9 a6 a1 3d fc 06 c7 3f a5 cf d2 be
       0.23037128 0.07893152 1.5549006 -0.41174045
000070 9f 59 05 3f e6 b2 1a bf 56 7d fc 3e 16 ff 09 c0
       0.52089876 -0.6042923 0.49314374 -2.1561942
000080 70 a4 ae bf 44 d5 21 bf 05 09 7b 3e e9 11 ea be
       -1.3643932 -0.6321604 0.2451516 -0.4571679
000090 cc 39 8f 3f 66 0a 05 3f 67 84 72 3f b7 41 2a c0
       1.1189513 0.5196899 0.9473328 -2.660261
0000a0 ca 95 08 c0 13 ee 63 3d 65 cc a7 3f c5 30 a7 be
       -2.1341424 0.055646967 1.3109251 -0.32654396
0000b0 9d 73 30 bf 29 c4 d0 be a6 71 9e bf 5e 98 84 bf
       -0.6892641 -0.40774658 -1.2378433 -1.0358999
0000c0 d7 b1 89 3f b5 92 07 3f f7 7f 95 3b 89 7f 11 3f
       1.0757397 0.5295823 0.0045623737 0.5683523
0000d0 8b 36 1e 3f 3a 8b 94 3e dd 67 c7 3d 38 73 91 bd
       0.61801976 0.2901247 0.09736607 -0.07102054
0000e0 9f f1 e6 bd d2 34 13 bb 30 7d 0c 3f 9a d3 31 3e
       -0.11276554 -0.0022461903 0.5487852 0.17365876
0000f0 ed 65 03 3f 71 87 9d 3f 30 70 06 bf 23 35 fe bf
       0.513274 1.2306958 -0.52514935 -1.9859966
000100 cc 27 67 3f 1a 49 e0 bf 79 77 d2 be 7c 14 3b bf
       0.902951 -1.7522309 -0.41106775 -0.7307813
000110 cb 1e 0f bf 89 b1 24 bf 8d d1 16 bf d8 e0 0c bf
       -0.5590636 -0.643334 -0.589135 -0.55030584
000120 b9 62 02 c0 d8 87 c4 be 63 be 5a 3e 93 07 6b bf
       -2.0372756 -0.3838489 0.2136169 -0.9180843
000130 b2 61 ea 3e cd aa aa 3f 39 5d 0f bf 46 74 c1 be
       0.4577766 1.3333374 -0.5600162 -0.37784022
000140 94 ca 3c bf 9b 13 1f bf 1b c7 66 bb 95 ff 7e bf
       -0.7374661 -0.6213929 -0.003521389 -0.9960874
000150 ad da b8 be a0 3c 94 3f 24 a5 83 3d fe 3c 88 3d
       -0.36104336 1.1581001 0.064279824 0.06652258
000160 2d b5 ba 3f 22 7a 6a be 79 48 24 3f 9b 88 aa be
       1.458654 -0.22898152 0.64173084 -0.33307347
000170 6a 17 d8 3e b9 6f a8 be a9 1b 1b c0 a4 8b 53 3f
       0.42205364 -0.32897738 -2.4235632 0.8263495
000180 e6 39 a6 3e 8b 5c 86 be e3 ad 85 3f 87 f6 d5 bf
       0.32466048 -0.2624248 1.0443691 -1.6715859
000190 4c be 06 3f 86 8f 06 bf 45 2d 26 bf 88 65 30 40
       0.5263412 -0.5256275 -0.64912826 2.756197
0001a0 7f 45 ad bd fe a8 02 bf 90 5a a8 be fb 51 51 3f
       -0.08460521 -0.5103911 -0.32881594 0.8176572
0001b0 d2 bb 99 bf c9 ad c3 bf 25 ad 20 40 cb 9f ea be
       -1.2010443 -1.528741 2.510568 -0.45825037
0001c0 da 28 1d c0 e7 49 9c bf 46 a9 33 c0 1b 21 65 3e
       -2.4556184 -1.2210053 -2.8072066 0.2237591
0001d0 2a 65 ab 3f cd c7 38 c0 02 ce ae 3d aa 32 74 3b
       1.3390248 -2.8871949 0.085353866 0.0037261643
0001e0 27 d4 30 3f e5 37 b9 3f cd f2 98 3f c0 3f 0c c0
       0.6907372 1.4470183 1.1949097 -2.191391
0001f0 79 e7 28 bf dd ce d1 bf 72 35 90 3f 51 55 91 3f
       -0.659782 -1.6391255 1.126631 1.1354162
000200 53 15 b1 bf b5 d4 1c c0 b3 41 d7 bf 7d 06 46 3e
       -1.3834633 -2.4504826 -1.6816925 0.19338413
000210 1a e8 fb bf 72 ce b6 bf 55 90 a6 bf 5c e1 14 3f
       -1.9680207 -1.4281752 -1.3012797 0.5815637
000220 21 7b 4a 3f 83 db 99 be 45 bc 9c 3d 28 9a 5c 3e
       0.7909413 -0.30050287 0.07653097 0.21543181
000230 b4 9a 06 3f f8 2a 95 be 79 cf 78 3e ae 91 3c bf
       0.5257981 -0.29134345 0.24297895 -0.7365979
000240 bf 39 13 40 f2 ec 06 3f d7 33 98 3f 4b 95 a7 be
       2.3003995 0.527053 1.189082 -0.3273109
000250 f6 7b b6 bf 51 03 98 3e 11 94 a3 3e 99 57 9a bb
       -1.425658 0.2969003 0.31948903 -0.0047101495
000260 d0 fd fb 3e be 50 dc 3d 17 30 5d 3e e0 c0 b7 be
       0.4921708 0.10757588 0.21600376 -0.3588934
000270 1b f9 1d 3e 64 7c a6 3e 5a b9 2a bf 2c 10 37 3f
       0.15427057 0.32516778 -0.66689074 0.7150905
000280 c5 f0 80 ba a0 6a ff bf 74 1e 8a 3d 94 4d 47 3f
       -0.000983738 -1.9954414 0.0674409 0.7785275
000290 14 6b 0f 3f bc 83 6a 3e 45 6c 11 3e 52 1d 02 c0
       0.56022763 0.22901815 0.14201458 -2.0330396
0002a0 bb 99 92 3e 33 bf 1c 3f 22 55 80 3d bc 46 55 be
       0.28632912 0.61229247 0.06266238 -0.20827764
0002b0 6a 48 f0 be dd 25 0b c0 f2 27 1f 3e fe 54 42 3e
       -0.46930248 -2.174186 0.15542582 0.18977734
0002c0 3f d4 b6 bf 17 51 0b be 35 10 c8 3d 18 a5 ad bf
       -1.4283522 -0.13605152 0.09768716 -1.3566008
0002d0 88 22 9e 3e 3b 1d 72 3f f4 0a 6e 3f e3 d2 a4 3c
       0.3088572 0.9457585 0.92985463 0.02012009
0002e0 80 26 2b 3f c2 73 2b 3f e0 1a 73 3f 41 ed b5 3e
       0.6685562 0.6697351 0.94962883 0.35532573
0002f0 83 34 74 bf b2 06 fd 3e 1d 7b 63 3e 8f fe 13 3f
       -0.95392627 0.4941917 0.22214933 0.578103
000300 3d b8 0d bd 16 4b 3b 3f ed ee ba 3e d9 fd 3b bf
       -0.03459953 0.7316145 0.3651041 -0.73434216
000310 ae 75 d9 bf 2f 6b 6b 3f 6c af d4 3e f9 6f 4c 3e
       -1.6989038 0.91960424 0.41540086 0.19964589
000320 2d 6b 1e 3e e2 f9 6d 3f ca 18 c1 bf e2 f7 50 3f
       0.15470572 0.92959416 -1.508569 0.8162824
000330 8e 78 13 3f 8a ea 0b 40 d0 43 40 3f bc 64 31 3f
       0.57605827 2.1861901 0.75103474 0.69294333
000340 70 4f b8 3c 93 d7 95 3f 76 0c 8f 3f d0 81 eb 3e
       0.022498816 1.1706413 1.1175678 0.45997477
000350 4b a6 d4 be 00 ed 85 3e 90 df d9 bf d9 7c 17 3f
       -0.4153312 0.2615738 -1.7021351 0.5917488
000360 d6 c8 8c bf 63 db d1 3f 21 ef f8 3d 49 62 56 bf
       -1.099879 1.6395077 0.12154985 -0.8374372
000370 4d 3c 3f 3f ba c1 82 bf d7 6d 64 3f f4 c2 b6 3e
       0.74701387 -1.0215371 0.892301 0.35695612
000380 e4 32 d2 be 0b 14 e6 3e 76 b8 c5 bf a4 14 b3 bf
       -0.4105445 0.44937167 -1.5446918 -1.3990674
000390 60 d9 54 be 7a a1 de 3d 4a 21 24 3f 15 6e fa be
       -0.20786047 0.10870643 0.64113295 -0.4891211
0003a0 1f 71 e6 bf 2e 1a 97 be 0f 01 96 bf 65 9e 34 bf
       -1.8003272 -0.2951216 -1.1719073 -0.7055419
0003b0 0f 32 d2 bd 80 ca 57 3f 8c ee 18 bf ba 1e 03 c0
       -0.10263454 0.84293365 -0.59738994 -2.0487504
0003c0 73 ea 80 3f e6 b2 3a 3f d9 03 85 3f f1 63 3d 3f
       1.0071548 0.7292923 1.0391799 0.73980623
0003d0 5e ad b0 ba 0e 2c 5f bf 6b 82 fa be 64 29 6e 3e
       -0.0013479402 -0.871766 -0.48927626 0.23257977
0003e0 03 aa f4 bf 3c e2 86 3f 4d 1a 00 3f c7 b9 d5 bf
       -1.9114383 1.0537791 0.5004013 -1.669732
0003f0 06 6b 0e bf 29 44 4f 3e 92 b0 70 bf f1 1c 3c bf
       -0.55632055 0.20240845 -0.94019425 -0.7348166

linear1_q2.weight f4 [256, 26]
000000 b7 e9 13 3c 54 96 c3 bd 99 33 cd bd fd df d4 bd
       0.00902789 -0.09550157 -0.10019607 -0.10394285
000010 40 ea 0f bd 79 48 1a be de 99 09 3e 64 6f 3b 3c
       -0.035135508 -0.15066709 0.13437602 0.011440132
000020 9d 79 ba 3c b7 a1 85 3d 59 99 c6 3d 4f 8b a2 bc
       0.022763068 0.06524985 0.096972175 -0.019841818
000030 7a f2 43 3d ce 5e d9 3d e9 f3 41 3d 33 ce 46 bd
       0.047838666 0.10613786 0.04735175 -0.04853649
000040 0c e7 1a bd 19 a7 b7 bd ab 67 02 be d5 27 10 3e
       -0.037818 -0.08967418 -0.12734859 0.14077695
000050 75 16 23 be 35 28 92 3d 09 ae 35 3e ab 93 18 3e
       -0.15926535 0.07136575 0.1774217 0.14900081
000060 1f 40 66 3e a0 e2 0c bf 12 82 ac 3c 48 69 92 3d
       0.22485398 -0.550333 0.021058116 0.07148987
000070 51 d6 bf bd b1 00 fb 3d c7 1c 93 3d ef a8 80 3c
       -0.093670495 0.12255991 0.07183223 0.015705554
000080 a2 6f 10 3e 4c 65 11 3e aa ea 5a 3d d4 98 27 3e
       0.14105085 0.14198798 0.05344645 0.16366893
000090 ba 3b 4a bc a7 e0 b4 3d a2 03 cd 3d 2b d1 2d 3d
       -0.0123433415 0.088319115 0.100104585 0.042435806
0000a0 20 d4 e3 bb 0d 57 37 3e 24 49 97 bd c0 aa 1a be
       -0.0069527775 0.17904301 -0.07386997 -0.15104198
0000b0 42 cd 36 3d 45 c2 5a be 65 c3 05 bf 2f b2 97 3f
       0.044629343 -0.2136317 -0.52251273 1.1851252
0000c0 d8 ef 71 bf 69 da 6c be b3 49 a4 be 4d b0 32 bf
       -0.945066 -0.23130192 -0.32087478 -0.69800264
0000d0 00 22 23 be b9 28 c6 be c7 6b 97 be 00 59 92 be
       -0.15930939 -0.38702944 -0.29574415 -0.28583527
0000e0 a0 12 b6 be 3f ff 8e 3e b1 c9 84 be 5e cf e3 bd
       -0.35561085 0.27929112 -0.25935128 -0.111235365
0000f0 82 30 1f be 91 6b a5 be 38 44 65 be e3 7f 09 be
       -0.15545848 -0.3230863 -0.22389305 -0.13427691
000100 50 1f 80 be b6 12 68 be 0d c6 3e 3e 7f ed f5 3d
       -0.2502389 -0.22663388 0.18630238 0.120081894
000110 e3 5b 93 3d 0d 06 f2 3d 67 8c 99 bd 76 3d ff bd
       0.071952604 0.1181756 -0.07497483 -0.124628946
000120 53 c9 d0 be 20 cd 0d bb 9f bd 4d bf 2d b6 d3 bd
       -0.40778598 -0.0021637157 -0.80367464 -0.10337482
000130 8f 50 37 bf a8 ad 08 be 1a f4 35 be 37 72 54 be
       -0.716073 -0.13347495 -0.17768899 -0.20746695
000140 96 bf f0 bd 58 27 29 be 02 23 fd bd 1e c0 7c bc
       -0.11755292 -0.16518915 -0.12360193 -0.015426664
000150 33 af 30 be 0e 5a b6 bd c2 65 60 be 74 94 2d bb
       -0.17254333 -0.08903895 -0.21913818 -0.002648619
000160 a3 b1 5a be ac 33 50 3d cf 32 c2 3c f8 e5 78 be
       -0.21356826 0.05083053 0.023705868 -0.24306476
000170 69 51 0d 3d 19 62 2e be ab be 54 be 5a 82 ea bd
       0.034501467 -0.17029609 -0.20775859 -0.11450644
000180 fb e4 0d be 7f f4 d7 bd 49 5b 8c 3e 98 1a 9c be
       -0.1385688 -0.10544681 0.27413395 -0.3048904
000190 21 ab 6c bd 76 33 98 3d 8e 65 e1 bd 95 fc ba 3d
       -0.05778039 0.074316904 -0.11005698 0.091302074
0001a0 7d ca e2 be 0f 52 9d be 6b 9e ca be 28 3e 8b be
       -0.4429511 -0.30726668 -0.39573988 -0.2719586
0001b0 6a 54 bd be a7 4b 6e 3e 5b a7 92 be f2 dc 68 be
       -0.36978465 0.23271047 -0.28643307 -0.22740534
0001c0 08 69 5d 3e 99 05 00 be 5b 75 19 be 6f 8c 24 3d
       0.21622097 -0.12502135 -0.14986174 0.04017299
0001d0 e3 cc 9b 3d 9d 29 40 bd 86 fe 83 be 95 16 a4 3d
       0.076074384 -0.046914686 -0.25780123 0.0801212
0001e0 4e e4 99 3e 74 34 2c be 8f 74 b3 bd c1 dc 82 be
       0.30056995 -0.16816884 -0.08762466 -0.25559047
0001f0 f2 91 f2 3e 89 90 b8 bd 5f be 4d be 1e 28 a7 3e
       0.47376972 -0.09011943 -0.20092152 0.32647794
000200 58 11 b2 3d 97 88 e9 bc 7f 6e e2 bc ce d5 12 be
       0.08694714 -0.028507514 -0.02764058 -0.14339373
000210 01 69 b7 bd 67 7f 56 be 88 62 0a bd e6 6b 9f bd
       -0.08955575 -0.20947038 -0.033785373 -0.07784252
000220 72 5d 9a be c5 b6 34 be 84 4d 16 be 2f 9b 8f be
       -0.30149418 -0.17647846 -0.14678007 -0.28048083
000230 85 bf 85 be 4d aa 1d be 2b 14 80 be 36 fe 81 bc
       -0.2612268 -0.15396996 -0.25015387 -0.015868288
000240 7c a8 3b 3d 30 ad cb bd 10 fc de bd 57 4d 6f bd
       0.045814976 -0.09945142 -0.10887921 -0.058423366
000250 5e d0 0e bc c5 f1 73 bd 44 1b d0 be 90 65 89 bf
       -0.008716671 -0.05955674 -0.40645802 -1.073412
000260 48 95 48 bd ac 84 4d bf db 5e 27 3f aa c1 3d 3e
       -0.04897049 -0.80280566 0.6537911 0.18530908
000270 9a ed 01 bd 88 d5 61 3d 0e 6f 4c bb 4e 1c 80 bd
       -0.031720735 0.05513528 -0.0031194123 -0.06255399
000280 a7 6b 78 3d 79 e4 96 3d 5b 3c 07 be 2e 45 46 3c
       0.06064954 0.073677965 -0.13206618 0.012101455
000290 29 a1 8b 3c 2a 52 11 3e b3 86 a6 3d 7e 40 59 3d
       0.01704462 0.141915 0.081311606 0.05304002
0002a0 00 4c b1 bd 1b cd 0a bc 20 fc 55 bb 40 8b 40 3d
       -0.08657074 -0.0084717525 -0.00326515 0.0470078
0002b0 8f 03 5b bd c3 5c cd 3c e7 f8 b3 3c 7e 02 d5 3c
       -0.05347019 0.025068646 0.021969272 0.026002165
0002c0 01 87 4d 3c f0 02 22 3e fb f5 ec 3d b8 46 ca bf
       0.0125443945 0.15821433 0.115703546 -1.5802832
0002d0 14 c9 d3 3c 8a c2 38 3e af e8 02 be 9b 3d 01 bd
       0.025852717 0.18042961 -0.12784074 -0.031552892
0002e0 9f 33 dc bd f3 33 16 be f7 10 61 be 8d db 34 bd
       -0.107520334 -0.14668255 -0.21979128 -0.044154692
0002f0 4a 52 38 be 25 0a 16 bd 21 35 64 bc 2e 0f d9 bd
       -0.18000141 -0.03663077 -0.013928683 -0.105985984
000300 ea 13 dc 3c e2 22 14 be 4a cb 6a be dc 51 b1 3c
       0.026864965 -0.14466432 -0.22929111 0.021645479
000310 44 3d 5a be bc c8 38 be 1b 8c 7b be be be 68 be
       -0.21312433 -0.18045324 -0.24565165 -0.22729012
000320 1b ae 1e be bb a1 6c be 24 1e 30 3f 74 14 64 3d
       -0.15496103 -0.2310857 0.6879599 0.055683568
000330 36 c0 43 bd f7 86 94 3c 4b ea 34 bf 0b 7c f5 3d
       -0.04779073 0.018130763 -0.7067 0.1198655
000340 a5 27 38 3d 3d 7d de 3d 48 dc 7a 3d 27 cd 63 bc
       0.044959683 0.10863731 0.061245233 -0.013903893
000350 99 48 28 3e 43 d7 c7 bd ac 8f ae 3d b8 bb a6 bd
       0.16433944 -0.09757855 0.08523497 -0.08141273
000360 42 2a d7 bd 02 b7 00 bc 2d 2f ff 3d 45 72 08 be
       -0.10506107 -0.007856132 0.1246017 -0.1332484
000370 9c 01 08 be 19 d6 0b be 66 9a 1e be 5b 96 3d be
       -0.13281864 -0.1365589 -0.15488586 -0.18514387
000380 2f ad 00 3d 3a 0c f5 bd 25 e0 01 be de 24 f2 3d
       0.03141516 -0.11965223 -0.1268316 0.11823438
000390 01 2a 18 be ac f2 3c bf 53 9e 74 bf 60 43 98 3e
       -0.14859773 -0.7380779 -0.95554084 0.29738903
0003a0 a2 67 63 3e c2 f1 c2 be 05 9c 21 be fd 03 c7 bd
       0.22207502 -0.38075072 -0.15782173 -0.097175576
0003b0 df ff a9 bd 11 83 d2 bc dc 13 11 bc 04 87 ec bd
       -0.08300757 -0.025697263 -0.0088548325 -0.1154919
0003c0 d6 ab 45 bc 93 d6 d3 bd 06 e5 02 be 94 33 d1 3d
       -0.012064895 -0.10343661 -0.12782678 0.10214916
0003d0 b7 9c cf bd 5a 94 ac bd f1 0c 38 3e 86 7a d9 bd
       -0.10137313 -0.08426733 0.17973687 -0.106190726
0003e0 f3 74 23 3e 00 19 d7 3c 4e 3e fd bd c1 4b 2a be
       0.15962581 0.026257038 -0.12365399 -0.1663046
0003f0 31 00 78 3d bc e9 75 3e e3 3e 01 3f 3c f4 9c 3d
       0.060547058 0.24014944 0.5048658 0.076637715

linear1_q2.bias f4 [256]
000000 73 dd 49 3f 7d ad 1e 3d cf 9e 85 3e 99 27 d1 bc
       0.7885353 0.03873967 0.26097724 -0.025531577
000010 5e fc 1f 3d d6 6e f8 3d 4c ad f1 3e 3f d9 10 3d
       0.039059035 0.12130515 0.47202528 0.035363432
000020 3d 7c 25 3f 64 32 01 3e 75 d5 82 3e c1 16 57 3f
       0.646427 0.12616879 0.2555348 0.84019095
000030 7f 8a 56 be e4 08 3c bf 66 e4 2e be d7 3b b7 bc
       -0.2095127 -0.73451066 -0.17079315 -0.022367401
000040 74 60 33 be 42 a0 95 3e 97 86 9e be f3 5b 11 3e
       -0.17517263 0.2922383 -0.3096206 0.14195232
000050 70 22 68 3f ee c6 35 3f d6 b3 57 3f 7a 6f 2e bd
       0.9067755 0.7100667 0.8425878 -0.04258678
000060 a5 1e a1 bd d8 54 67 3e 84 d1 07 3e 70 9b 46 3f
       -0.07867173 0.22590959 0.13263518 0.7758093
000070 8e f7 1a 3f 8c 7c 09 bf 37 8c 86 3d a7 bc 71 3f
       0.6053399 -0.5370567 0.065697126 0.94428486
000080 18 b2 5e 3f e3 a3 15 bf 1c ce c2 3a 2c 78 64 bd
       0.869905 -0.58453196 0.0014862451 -0.055778667
000090 00 0a f3 be 30 a5 4c 3f fb 11 7f bf 96 f4 be 3c
       -0.47468567 0.79939556 -0.9963681 0.023309987
0000a0 f4 29 c5 bd 0e b3 64 bf a9 26 56 bf aa dc b0 3e
       -0.096271425 -0.89335716 -0.8365274 0.34543353
0000b0 08 82 1a bf 00 f3 0d bf d5 ed 39 3f 79 a9 55 3f
       -0.6035466 -0.55448914 0.7262853 0.8346172
0000c0 f7 73 13 3f 73 5f 9a 3e 48 07 b3 3d 9c 3f 31 3f
       0.57598823 0.30150947 0.08741623 0.69237685
0000d0 a7 5d 09 bf 75 e3 1f 3f a3 59 58 3f 94 fc 6c 3f
       -0.5365853 0.62456447 0.84511775 0.92572904
0000e0 63 cb fd 3c 9a b4 6d 3e 44 5c a6 3d f6 d1 be be
       0.030980771 0.23213425 0.08123067 -0.37269562
0000f0 36 d4 35 3c 59 4f 59 3f 9c 72 62 be 65 b5 78 3f
       0.011097958 0.848867 -0.22114033 0.97151786
000100 4f ed 55 3e c5 1e 6a 3f 08 58 20 3f b6 91 e3 3d
       0.20891307 0.914532 0.62634325 0.111117765
000110 20 4b 46 3f a3 1e f6 3e 23 a9 75 3f 07 fa 4b bf
       0.7745838 0.4807025 0.9596121 -0.79678386
000120 7a 46 15 bf 7c b4 b2 be 55 d2 3f 3f ac df 20 3f
       -0.58310664 -0.34903324 0.74930316 0.62841296
000130 0d 5d 87 3b 31 54 a1 3e bc f4 20 3f 33 5d f6 3d
       0.0041309656 0.31509545 0.62873435 0.12029495
000140 bd a1 39 3f c8 db 77 3f de fe 57 be a7 2d 8b 3f
       0.7251242 0.96819735 -0.21093318 1.0873307
000150 16 11 f5 3d 1a c1 7f 3d a1 22 00 bf e2 26 b2 3e
       0.119661495 0.062440015 -0.5005284 0.3479529
000160 30 b1 f1 be 78 46 18 3d 98 fa 66 3c 62 c6 67 3f
       -0.47205496 0.03717658 0.014097832 0.90537083
000170 75 31 33 3f 67 d4 64 3e be b0 1c 3f 50 7b 7f bf
       0.6999734 0.2234665 0.6120719 -0.99797535
000180 0d 84 44 3f 68 d1 8d bd 3f 1a 33 3f 31 6b 65 3f
       0.76763994 -0.06924707 0.69961923 0.89616686
000190 8c fb 1c 3e 72 c9 cd bd 25 ca 18 3f 2b ec 01 3f
       0.15330333 -0.10048188 0.5968345 0.5075099
0001a0 6c 7a 04 3e c7 f7 12 be 0e 96 fe 3e 73 b6 b4 bc
       0.12937325 -0.14352332 0.49723858 -0.022059655
0001b0 7f 98 82 3f 49 17 b0 3e 1e 9b 37 3e 19 d9 2f 3f
       1.0202788 0.34392765 0.17930266 0.6869064
0001c0 bc ae 79 3e f8 5f 30 be 50 15 83 3f 94 9d 63 bf
       0.24383062 -0.17224109 1.0240879 -0.8891232
0001d0 a1 38 4c be bd 84 71 bf 9c 0c 6a 3f 1c c4 36 3f
       -0.19943477 -0.9434317 0.9142549 0.7139299
0001e0 88 79 c3 3e 54 2d 2c 3f 32 8a 9c 3e 8b ba 2b bf
       0.38178658 0.67256665 0.30574185 -0.67081517
0001f0 7e b6 cd 3d 92 c6 6e 3f e2 42 28 3f cb 3f c8 3e
       0.10044573 0.93271744 0.65727055 0.3911117
000200 cf 82 9b 3e 2b 1c 5f 3f 57 72 37 bf 10 22 cc 3d
       0.30373237 0.87152356 -0.71658844 0.099674344
000210 0f 69 11 bf bc f0 ee 3c d5 71 52 3f 24 94 82 3f
       -0.5680093 0.029167525 0.82204944 1.0201459
000220 41 44 98 3d e6 c5 3f 3f 85 25 1a bf 62 31 6d bd
       0.074348934 0.74911344 -0.602135 -0.057908423
000230 1f 5c 71 3f 8f f0 a9 3d c7 b0 5e 3f c4 0d 4c 3f
       0.9428119 0.08297836 0.8698849 0.79708505
000240 a8 82 29 bf c0 fd 97 bd 1c 69 61 bd 7d 44 65 3e
       -0.6621499 -0.07421446 -0.05503188 0.22389407
000250 21 89 81 bc 0e 70 63 bf 4e e0 04 3f 7f 45 41 3f
       -0.015812458 -0.88842857 0.5190476 0.7549667
000260 2c e9 d8 3d de 6c 8c bd 74 3d 39 3f c6 47 89 3c
       0.10591349 -0.06856702 0.72359395 0.016757857
000270 a5 62 9f 3e c9 00 d3 be 01 5c 61 3f 2d 01 5a 3f
       0.31129947 -0.41211537 0.8803101 0.85158044
000280 ce 0f a2 3e 57 11 2b bf 13 5e 69 3f 4f 4f 8d 3f
       0.31652683 -0.66823334 0.9115917 1.1039828
000290 0e 14 15 3f 2a 96 d3 3d 0b 99 f1 3d 20 42 57 bc
       0.58233726 0.10331376 0.11796769 -0.013138324
0002a0 80 67 8b 3f b6 40 51 3f 69 1e d1 3e e7 a9 6d 3f
       1.0890961 0.81739366 0.40843514 0.92837375
0002b0 86 a6 33 bd a6 ab 54 3f 0d be 1e 3f 56 3f 19 3f
       -0.04385998 0.83074415 0.62008744 0.5986227
0002c0 fe ee fd 3e 41 74 cd 3c 61 d7 49 bf c0 64 fb 3e
       0.495964 0.025079848 -0.7884427 0.49100304
0002d0 1f 05 e1 3d 6a cf 4b 3f 64 40 da be 68 f6 67 3f
       0.10987305 0.79613364 -0.4262725 0.9061036
0002e0 c5 54 56 3f 58 e7 a1 3e 97 45 bc 3c d9 33 73 3f
       0.837231 0.31621814 0.022982402 0.9500099
0002f0 56 42 ab 3e 89 9a 60 3d 18 ab 33 3f 41 53 8b 3e
       0.33449048 0.054834876 0.70182943 0.27211955
000300 f6 42 bc 3c 58 18 23 be ae d2 53 3d 1f f9 9e 3e
       0.022981148 -0.15927255 0.05171459 0.3104944
000310 fd d9 18 bf 23 7d 1d 3f 07 d5 9f be de ac 8f be
       -0.59707624 0.6151907 -0.31217214 -0.28061575
000320 0e 60 86 bd 93 39 5a 3f c7 73 fb bd 60 0d de 3e
       -0.0656129 0.852441 -0.12277942 0.4336958
000330 cc 1a 2f bf 72 4f 77 3f d8 c0 d4 3d 4e 85 1a 3f
       -0.68400264 0.966056 0.103883445 0.60359657
000340 49 8f 3a bd 28 8d ca bc d8 30 a7 3e 37 61 20 bf
       -0.045546804 -0.024725512 0.32654452 -0.6264834
000350 de 54 ce bc eb c8 34 3e 3b c3 d5 3d d4 aa 35 3f
       -0.025186952 0.17654769 0.10437628 0.7096379
000360 b0 ed 02 bf e7 36 38 bf d1 1f 8d 3f c3 f3 5a 3f
       -0.5114393 -0.71958774 1.1025335 0.855282
000370 f7 65 e5 be aa 00 58 3f c8 d5 85 3e e2 92 82 3f
       -0.44804356 0.84376013 0.26139665 1.0201075
000380 44 35 49 3f df 03 34 bd 98 cd 49 3e ef 34 d2 3c
       0.785969 -0.043949004 0.19707334 0.025660006
000390 fb 74 fa 3d ed ac 86 bf b1 d0 61 bf 90 db 39 3f
       0.122293435 -1.0521523 -0.8820906 0.7260065
0003a0 c9 01 fb bc 15 c5 27 3d bb 2d 8b 3f 19 b6 df be
       -0.0306405 0.040959436 1.0873331 -0.43693617
0003b0 ce f3 ff 3d 0f 34 50 bd 8f 02 4d 3f a8 dd 82 be
       0.12497674 -0.050830897 0.8008203 -0.25559735
0003c0 f4 d7 18 3f f3 df 1b 3f d0 b8 e0 be 31 d8 20 3f
       0.5970452 0.60888594 -0.43891 0.6282988
0003d0 fc e2 59 3f 62 6c 87 3f 11 f2 3e 3e 2c 66 d8 3e
       0.85111976 1.0579951 0.18647029 0.4226545
0003e0 5c 3a 63 3b 19 75 06 3f a8 c2 5f 3f 70 12 32 bd
       0.0034672236 0.52522427 0.87406397 -0.043474615
0003f0 ab fa 4c bf bf 23 23 3f 2d cb 8f bb 11 01 fc 3d
       -0.8006999 0.6372642 -0.004388234 0.12304891
