hydrone_aerial_underwater_ddpg/scripts/Models/sac_stage_1_sub2D_tanh_3layers/860_value_net.pth (torch_old, 585563 bytes, 10 tensors)

linear1_q1.weight f4 [256, 26]
00000000: 6d8b 6f3e 3d4e ee3d f6de 2d3d e7a5 37bd
00000010: e9c6 193e 106f 023e f181 27bd fd7b debc
00000020: 51fe 42be 9d02 6cbe ee58 30be 7827 14be
00000030: 2132 9dbc cb0e a2be 3bd0 86be 84f5 0bbe
00000040: 9f6c b1be 9421 aebe e728 143e d12f b93d
00000050: b47b 0a3e 7791 0b3e 5e36 853e a0f0 573f
00000060: ac8d 963e e29e 093e c733 8bbe 185e 91be
00000070: 2722 013d 27b1 0c3e 22ff 02be 3c15 fb3d
00000080: a168 aebd 8ba4 fbbd 4da8 103e 9440 28be
00000090: 8037 e0bd 5e7e 61bd 01f7 90be 73d9 a5bd
000000a0: 958c e0bc ee64 333c 6316 253e c820 93bc
000000b0: 961b 953b ed6f 5ebe 6463 0dbf 0635 733d
000000c0: 58e2 22bf b3eb e53e 91dd e43c c020 5ebe
000000d0: 5c63 27be a43f 48be 0865 b9bd 9bfa e0bd
000000e0: a9ab 1bbe 0733 b8bd 2af4 56be 04ee 39be
000000f0: bcfa 72be ce3a 21be 59a2 933d 6a60 04be
00000100: 6919 66be fe1e 8dbe 0da6 763b 30ff 48bd
00000110: fa4d 49bd 3e3f 91be a198 e13d 15f4 603e
00000120: b048 8a3f 55fe 5e3f c210 90be 1e51 893e
00000130: 0a96 893e d6dc 8e3d bca9 03be 44fa e43d
00000140: 7fc0 733d 5368 9a3c 6f2f 93bc 3125 a13c
00000150: b2d5 21be 9125 7abd 0453 a3bd 99b3 2dbe
00000160: f23f 3b3d a29e aebd f641 f43b b4ce babd
00000170: 5966 ce3d 3bc9 d8bd 9a7d 11bb 93d5 d7bd
00000180: 4fc1 843d e8bc 333e 9e9f 8f3e 206f 32bf
00000190: ab91 cb3d 837b f4bd 4009 bf3d f19d ab3c
000001a0: 5531 d9bd 9bc7 87bc cc69 07be 97b6 b4bd
000001b0: e47d 0dbd f01c 48bd a8c9 8a3d ba85 1abe
000001c0: 6708 5ebe e99d 4ebe 60c6 7cbe fc23 02bd
000001d0: ec88 63be c145 a1be 0af9 76be cab0 cfbe
000001e0: 8fdc bfbe 3fcc f9be 36c4 eebe ed62 11be
000001f0: d607 af3e 42f1 96be f168 093f 2b41 03bf
00000200: 0392 ddbd f33e 64bf 5f38 9abe f0eb 8bbe
00000210: d150 7abe 8b69 87be 5a54 15be 0c23 a7bd
00000220: 83eb 8dbe c24e a3be 6124 a8bd 6746 cdbe
00000230: 08ce bcbe bb7f 72bd 48cf 673e 2ded bebe
00000240: 16eb 67be c852 8fbe 5663 d2be 637c 91be
00000250: e07e 98be 0c60 87be 8e41 26bf 3db9 cf3e
00000260: e0e5 6dbe 7d33 7cbe 8835 3fbf 8949 4d3e
00000270: 8fa7 5abe 9e6c f4bd 962c babb 2c82 f0bd
00000280: ce9f 56be a127 06be 4408 bebd 7a36 dbbd
00000290: 0ce7 643d 501e 27bd 81e1 38be a996 083e
000002a0: d942 07be 7be6 a9bd f45a 063e 731e b63c
000002b0: f6ab 2dbe 075e bfbd cc1d 87be 5f09 6fbe
000002c0: e630 c5bd c663 be3f 653c 18bb 224d 6cbe
000002d0: ac17 863e d589 45be 91c2 ac3d 4ae5 b2be
000002e0: 0f63 b5be 4df1 2fbe da2b 4abe 9d44 94be
000002f0: adad 82be a046 8fbe 39e3 97be 0d8a 22bd
00000300: 4435 8abe 914c 43be bfc0 84be 7aba 9ebe
00000310: b017 0cbe cf28 11be 8dce f5bd 6787 62be
00000320: a2a4 b5be b43a b1be f396 71bd 368a 7c3e
00000330: 0695 b33d 2020 dcbd 4fdc 39bf bc46 b8be
00000340: 3819 3e3e 3e81 cf3e 0a09 dc3c 735b 223d
00000350: 2c82 d73c 470a c2bd e344 e63c 9f79 b6bd
00000360: 4b4c 17be e15a b5bd 716c 77bc 53aa 96bd
00000370: 1edb bf3a 8603 79be a4c9 3cbe 9b35 e3bd
00000380: f6af 26be 2e7b 28bd fb1c 9bbd a4f5 efbd
00000390: 078b 383e a11a d03e 078c 073f af1f a73e
000003a0: 2372 253e 3eba 54be 9abd 4bbd 7f00 0dbe
000003b0: 99c5 81bd bac1 3bbe 858c cc3d e3ac c6bd
000003c0: fa3f b13b 1a6b 083e 8bf4 b33d 659e b23d
000003d0: d3f3 473d c675 9fbd 51fc 3d3d d1b9 843c
000003e0: beda 213e b1ec 0e3e c4b6 56bd fe87 0d3e
000003f0: a496 2abd 79cd e4bd 87f7 73be ac8d b63d
0.2339303 0.116360165 0.04244896 -0.04483595 0.15017284 0.1273768 -0.040895406 -0.027158732
-0.19042327 -0.23047872 -0.17221424 -0.14468181 -0.019188942 -0.3165191 -0.26330742 -0.13667876
-0.34653184 -0.34009993 0.14468728 0.090423234 0.13523751 0.13629709 0.2601804 0.8435154
0.29404962 0.13439515 -0.2718794 -0.283921 0.03152671 0.13739453 -0.12792638 0.122599095
-0.0851605 -0.122872435 0.14126702 -0.16430885 -0.10948086 -0.055052154 -0.2831345 -0.08098116
-0.027410785 0.0109493565 0.16121821 -0.017959967 0.0045504076 -0.21722384 -0.55229783 0.05937674
-0.63626623 0.44906387 0.027937682 -0.2169218 -0.16346496 -0.19555527 -0.09052473 -0.10985299
-0.15202202 -0.08994108 -0.20991579 -0.18157202 -0.2372846 -0.15745088 0.072087 -0.12927404
-0.2247063 -0.27562708 0.0037635595 -0.04907149 -0.04914663 -0.28368562 0.1101544 0.2196811
1.0803432 0.8710683 -0.28137785 0.268197 0.26872283 0.06975715 -0.12857717 0.11180547
0.05950975 0.018848574 -0.017966954 0.019671055 -0.15804175 -0.061070982 -0.07974818 -0.16963042
0.04571528 -0.085263506 0.007454152 -0.09121457 0.10078115 -0.10585257 -0.0022200109 -0.10538783
0.06482183 0.17552531 0.28051466 -0.69700813 0.09939893 -0.119376205 0.09327936 0.020949336
-0.106051125 -0.016574671 -0.13223952 -0.08823889 -0.034543887 -0.048855722 0.06776744 -0.15090075
-0.21682893 -0.20177425 -0.24685049 -0.0317726 -0.222202 -0.3149853 -0.24118438 -0.40564567
-0.3747296 -0.4878864 -0.46634072 -0.14197893 0.34185666 -0.2948094 0.5367575 -0.51271313
-0.10818865 -0.8915855 -0.30121133 -0.27328444 -0.24444892 -0.2644771 -0.14582959 -0.081609815
-0.27718744 -0.31896025 -0.08210064 -0.40092775 -0.3687594 -0.059203845 0.22637665 -0.37290326
-0.22648272 -0.27992845 -0.41091412 -0.28415212 -0.29784298 -0.26440465 -0.6494378 0.40571013
-0.23232222 -0.24629016 -0.7469106 0.20047583 -0.21352981 -0.119347796 -0.0056815846 -0.11743578
-0.20959398 -0.13101055 -0.0927892 -0.1070375 0.055884406 -0.040800393 -0.18054773 0.13338722
-0.13209094 -0.08295914 0.13120633 0.022231316 -0.16960129 -0.09344106 -0.2638992 -0.23343419
-0.09628467 1.4874198 -0.0023229357 -0.23076299 0.26189935 -0.1929086 0.08435548 -0.3494056
-0.35427138 -0.17181893 -0.1974329 -0.28958598 -0.2552313 -0.2798357 -0.29665545 -0.039682437
-0.26993763 -0.19072177 -0.25928304 -0.31001645 -0.13680911 -0.14175723 -0.12002287 -0.22121964
-0.35477167 -0.346151 -0.058981847 0.24662098 0.08768658 -0.10748315 -0.7260179 -0.35991466
0.18564308 0.4052829 0.026859779 0.039637994 0.026307188 -0.094746165 0.02810902 -0.08909916
-0.14775197 -0.088552244 -0.015101538 -0.073567055 0.0014637446 -0.2431775 -0.18436295 -0.11094209
-0.16278061 -0.0411331 -0.07573887 -0.11716774 0.18021785 0.40645316 0.5294804 0.3264136
0.16156821 -0.20774171 -0.049741365 -0.1376972 -0.06336517 -0.1833562 0.099877395 -0.09700944
0.005409238 0.13322106 0.08786877 0.087216176 0.048816513 -0.077861354 0.046383206 0.016201885
0.158061 0.13957478 -0.052420393 0.13821408 -0.04164757 -0.11172003 -0.23824893 0.089137405

linear1_q1.bias f4 [256]
00000000: a949 913e 3365 403f 81c3 75be 8405 923f
00000010: c045 013f 0a64 9b3e dcb1 07bf 7fbf b03c
00000020: af5f 853e 72e2 793f 0e00 643d 9788 b03e
00000030: 760e 4dbf ee93 5e3f fc34 503f d8c1 833f
00000040: 01a5 273f b260 fb3e 0d8e c1bd 4c1f 6c3f
00000050: 1cf5 7c3f b4c8 6b3e 685c bb3e 0a46 693f
00000060: 53f0 5c3f 9d1a 883f cec8 e4be 5f17 4c3f
00000070: 50d6 5dbf 5e3b 63bf 700f 3e3f 0393 14be
00000080: d38d 87bf c99f 80bf 6e07 67bf df55 853f
00000090: b9a8 203f 08a7 863f 8af9 6abd c1f5 c73e
000000a0: 815c fb3d 9b26 833f 9a1f c7bc fa90 9b3e
000000b0: 35d6 583f c459 333f 8823 f43e ba39 28bd
000000c0: 670b 983f fb3e 933f 2642 7e3e 7919 6a3f
000000d0: fa9f 433f d870 583d 2697 7d3e d53c 77bc
000000e0: 9f66 d83d 1e8e 7a3f 9b9e 94bd d23b 2ebf
000000f0: 4bf5 a93f 250d 503f 1af4 083f 4bc2 8b3e
00000100: f0aa 2f3e ee5e 313f ef2a 5ebf 62f7 8c3f
00000110: c4b2 593f ccd3 40bf bec5 9abf 16de 05bf
00000120: af28 6abf 6f70 f1bc f5b7 85bf 9d5c 5a3f
00000130: 8147 f7be e9cf 983f 6d8f 9f3e b313 3d3f
00000140: 4adf 873f 148b 56bf 01f5 03bf 9525 fbbd
00000150: e420 8f3d 612f b9be fed1 14bd 2837 813d
00000160: e814 1c3f 7882 503f a8d0 c73e 81e8 843d
00000170: 7fd8 7bbf f704 53bd fef9 75bf fb19 1cbf
00000180: a5de 393f 36c3 7c3f f4dd 61bd a443 a0bd
00000190: 7aa8 463f 77a5 c7bd ff69 153e decb 613e
000001a0: 7184 0d3f bc8e 9f3d 657b a4bd c170 d8bd
000001b0: 9426 403d d590 59bf f4da 453f 37f1 09bd
000001c0: f494 253f eb85 983f 7450 7c3d 3994 7b3d
000001d0: df1f b93f a088 213f b1bd 323f 89ee 293f
000001e0: 0b2f 9f3e 62c7 21bf e0dc d53e 5c59 0cbf
000001f0: 4118 74bf 32dd 3f3e 2a91 883e 586a 523f
00000200: bb29 0d3f 7003 c9bc 5317 7f3f e289 d53b
00000210: 0549 dbbe df2f 623f e902 3bbc 4879 803f
00000220: 6746 a9bd 377b 383f 3491 6d3f 0fb4 44bf
00000230: d65b a63f bf9b 523f 485b c03e 32e0 05bd
00000240: f375 5bbf 9446 a53d 4b83 d6be 94a1 48bd
00000250: 9d99 7e3f c090 723e 00d9 01be 40aa 463f
00000260: 4f94 16bf 6360 313e 6e79 4a3f e761 4d3e
00000270: b6ce 8a3f 5875 523f cf4f 463e 8237 583e
00000280: 7fbc 663c 9aef 8ebf dbab 993f 6d05 2c3e
00000290: a911 623f 5d9b 6b3d e59a 1c3f 3b61 3f3f
000002a0: 12df 813f cf84 90bf deaf 413f 5eb5 56bf
000002b0: e122 c0bd e32c 733f 6247 183e cc12 8d3f
000002c0: c751 71bf d019 8f3f 0367 823e b60d 7c3f
000002d0: 8d8a 633d ed53 19be 967c 763f 95a4 36bf
000002e0: 4e9a 6fbd bb8f c4bc 7951 593f 7f70 4a3f
000002f0: 79af 263f 1394 1dbf db26 933e 0cd1 0abe
00000300: 3b34 843f 6f9a 49bc 19c8 61bf 97df 6f3e
00000310: 5316 27bf 5420 2c3e 8c8e e13e a410 813f
00000320: 159a 123f d70f 733f 484b 3a3f 21bf 6a3e
00000330: 5fab a83e efda 65bd 975e 8abf 5dcd 16bf
00000340: e3e0 4c3f 8f3a 373f cf65 9c3f 0fb5 79bf
00000350: ed2a 5e3f 69cd 46bf a188 a73e 755e 00bf
00000360: 1919 803e 72b8 493f 7ac8 f43e 3703 893f
00000370: 66ea 143f 90f9 6e3e 6d6d 4d3f b0ab e13e
00000380: deb8 7d3f 9c84 d7bd e33d 4f3f a4b3 75be
00000390: dc5f 183f d6ed e0bd a329 afbd 3f0d 2e3f
000003a0: 455a 023c 7729 80bf d203 b03d 5ce8 5dbf
000003b0: b453 28be 4b4c c73f 3309 a83f 0d3c ca3e
000003c0: 3199 193e a522 6f3f d43d 31bf f635 12bf
000003d0: a499 5a3f c18e 74bf dad7 09bf 264d b43e
000003e0: cc5c 3d3f f097 573f 7731 5d3f 66ae 763f
000003f0: 8ce4 6b3e e8c0 2b3f e213 9f3f 7563 74bf
0.2837651 0.7515442 -0.2400036 1.1407933 0.50497055 0.3034976 -0.53005767 0.021575687
0.26049563 0.97611153 0.055664115 0.3447921 -0.8010019 0.8694447 0.8133085 1.0293531
0.6548615 0.4909721 -0.09450922 0.92235255 0.9881151 0.23025781 0.36593938 0.91122496
0.86304206 1.0633122 -0.44684452 0.7972316 -0.8665514 -0.8876246 0.74242306 -0.14509206
-1.0590156 -1.0048763 -0.9024571 1.0416831 0.6275745 1.0519724 -0.057366885 0.39054683
0.12273503 1.0246156 -0.024307061 0.30384046 0.84701854 0.70058846 0.47683358 -0.041070677
1.187848 1.1503595 0.24829921 0.9144512 0.7641598 0.05284199 0.2476469 -0.015090187
0.105664484 0.97873104 -0.07256814 -0.6806003 1.3277982 0.81270057 0.5349747 0.2729667
0.17155051 0.69285476 -0.8678426 1.1012995 0.850384 -0.75323176 -1.2091596 -0.52292
-0.9146833 -0.029472558 -1.0446764 0.85297567 -0.4829674 1.1938449 0.31164113 0.73858184
1.0615017 -0.83805966 -0.5154572 -0.122630276 0.06988695 -0.3616896 -0.036333077 0.06309348
0.609694 0.8144908 0.3902638 0.06489659 -0.9837722 -0.051518407 -0.9608458 -0.60977143
0.72605354 0.9873537 -0.05514331 -0.078254014 0.77600825 -0.09748357 0.14591216 0.22050425
0.55280215 0.07790896 -0.08031348 -0.10568381 0.04691179 -0.8498662 0.7728722 -0.033677306
0.6468041 1.1915869 0.061600164 0.061420653 1.4462851 0.630991 0.69820696 0.663796
0.31090578 -0.6319486 0.41770077 -0.5482385 -0.9534951 0.18736723 0.2667325 0.8219352
0.551418 -0.024537772 0.99644965 0.006516681 -0.42829147 0.88354295 -0.011414268 1.0037012
-0.08265381 0.7206301 0.9279969 -0.7683725 1.2996776 0.822689 0.37569642 -0.032684512
-0.8572685 0.08070102 -0.41897044 -0.048982218 0.99453145 0.2368803 -0.12680435 0.7760353
-0.5882005 0.17321925 0.79091537 0.20056878 1.0844333 0.822103 0.19366382 0.21114925
0.014083027 -1.116687 1.2005571 0.16798945 0.883082 0.057521213 0.6117385 0.74757737
1.0146201 -1.129053 0.7565898 -0.83870494 -0.093816526 0.94990367 0.1487098 1.1021361
-0.9426541 1.1179752 0.25469217 0.9845842 0.055552054 -0.14973421 0.96283853 -0.7134488
-0.058496766 -0.023994317 0.8488994 0.79077905 0.651115 -0.6155407 0.28740582 -0.13556308
1.032844 -0.012304886 -0.8819595 0.23425137 -0.6526844 0.16809207 0.44054067 1.0083203
0.5726636 0.94946045 0.7277112 0.22924472 0.32943246 -0.056116994 -1.0810117 -0.5890711
0.8003065 0.7157373 1.221857 -0.975419 0.8678425 -0.7765718 0.32721427 -0.5014413
0.25019148 0.78797066 0.478092 1.0704106 0.58170164 0.23337388 0.80245095 0.440763
0.9911021 -0.1052334 0.80953807 -0.23994309 0.5952127 -0.109828636 -0.085528634 0.6798896
0.007956092 -1.0012654 0.08594479 -0.8668268 -0.1643818 1.5570158 1.3127807 0.3949894
0.14999844 0.9341224 -0.6923497 -0.5711359 0.85390687 -0.95530325 -0.5384499 0.3521511
0.7396972 0.84216213 0.864036 0.9635986 0.23036402 0.67091227 1.2427943 -0.9546426

linear2_q1.weight f4 [256, 256]
00000000: 058e 7abf 7b47 d7be 81ec 62be d8a3 383e
00000010: b8bc a13e 3ce2 9bbd 7a08 79bf fda4 0d3f
00000020: 01f7 56bd f95a 093e 267d 10be 7b57 56bc
00000030: 2b0d 61be 4b8c 183f e8c7 a23d c2fa 673e
00000040: 099b 95bf 3f6a a8be 1a48 613e cbfe c33e
00000050: 714f 853e fdcd 7dbe 87d0 c3bd 1761 623f
00000060: 2bdf dc3d ee33 253e bca3 773e 4e99 cabd
00000070: 21f4 debe 60d0 3bbc 56cd 243f f23e 1b3f
00000080: c8c0 4fbd 3130 eebe de3d 06be 0c33 1ebd
00000090: ad12 1cbe f443 be3e 3a2e 463e 0a69 f53e
000000a0: dd54 56bf 13a4 5b3e ca65 e63e c1a4 2fbf
000000b0: 7fc2 883e 0e77 a7be e7d0 4c3e 626e c03e
000000c0: 1b5b 603d e2c5 d63e 4e52 14bf e404 a2bd
000000d0: 7970 2ebe 235c cbbe 1f0f c7bc 3976 15bf
000000e0: f26e 1abf 4035 8c3f 49d2 a33d bc33 f4bd
000000f0: 2448 573e 9b0a f23e 5f06 41bf ba2b 9dbe
00000100: 461c 0abd d63d 34be 5b40 40bf c738 883e
00000110: aee4 9f3e fd6b 83be 9a43 0fbd b1f7 66be
00000120: 965e e6bd 94a7 f63e dc6d afbe 9752 bebc
00000130: 3330 35be 78b5 bb3e 7a64 2dbe 3577 5f3e
00000140: 1f13 673c 2415 a0be 0156 eebe 4431 85bd
00000150: 3788 e03e ff9d 2f3e ff21 703e 0d4e 353e
00000160: 705c 21bf 1cb9 163f b6b2 5ebf 124c 1dbe
00000170: 7cdd b9be 5af9 48bc 9eee aabd 0e85 303f
00000180: a11c 673e bfe1 983e 4545 853e 0dce b63e
00000190: bb2d 3b3d aa2f abbe 0bce 03bf bfdb 1ebd
000001a0: c492 0b3f f4da 90bd 43d1 57be e12a d8be
000001b0: 17db f2bd 2337 a33e 7d9a 553f 3227 dd3d
000001c0: d009 61be 56a3 b0bd 0288 8b3e 8993 02bf
000001d0: 7a1b b33e c3d1 2c3e 0f34 1ebe 8559 4b3f
000001e0: 85a4 963e db89 4dbf 5ebc 9cbd 193d 7abe
000001f0: 94be a6bd 7df5 26bf 19bb bdbe 207a 95bf
00000200: 9829 52bf 6503 85bc 97b1 b13e 2464 eb3e
00000210: aa19 b63e cec6 d43b 2197 063e 6539 983e
00000220: 5e4b f1bd 640d 35bd 780b 203e a80c ccbe
00000230: b1db 483e ee52 eebe 20a9 44bf 2888 e6bc
00000240: f42f 32be f17e a5be 41e4 383e 6339 c53c
00000250: 1811 d8bd d771 02bf f7cb 88be 7bdc 1a3f
00000260: b5a5 bebd 2aca 84bd 3a1a a8bf 29fc 743c
00000270: 1cb6 0e3f f595 b73e 39ad 4a3d 49fa a43d
00000280: 3f95 7f3e 525a 33be 42fd 873e f46c 1d3e
00000290: 0411 5fbf 94df dcbc d3a4 47bd 43c5 513f
000002a0: 0325 e73e 5eb3 25be cd5b c9bd 51e8 f4bd
000002b0: 4170 993d f29a 6dbd 921a d2be 4cdd 3c3d
000002c0: bfe9 25be d0c7 d83d c6e7 b2be 05fe 9a3d
000002d0: 2342 45bf 07e1 113f af88 af3c ccd4 1cbf
000002e0: 4daa b03d 8cb4 f63e 3a95 f93c 8bc3 853e
000002f0: 3244 e23e 3ed1 66bd 2cad b73f 882d 663e
00000300: e3c2 e53e 3b4b 78bf 98e2 0ebe 78ad 27bf
00000310: dd31 de3e f3c6 7c3e bc88 23bc 7c58 243f
00000320: bbf1 b43d 897f b6be 4037 aabf 9f73 9abe
00000330: 1b64 aabe 55fb c13e 7fa5 0ebe 4113 b3bd
00000340: 978a e6be 7f7f 243e 6fb1 2c3e 3ece 33be
00000350: f7f8 c03d eca5 abbe e5aa 923e b42b 7b3e
00000360: 1454 ecbe 5f35 d23e 2a9a 2d3f a105 013e
00000370: 1f14 23bf 6cad b4be 7a1d 1a3e f30e 39be
00000380: 235c 153f 6aba a6bc 4ba8 bebc 545a 0f3f
00000390: 3d94 5bbf 0d16 02be 22f4 183b ca36 003f
000003a0: 3886 1fbe 638f f2be 5f85 fbbe ced3 d1be
000003b0: b25b 8dbe 575a 073f 1849 c73e 1867 30bf
000003c0: 71d6 73be 857c 973e 2a22 e5be a15f b4be
000003d0: bb0f f43e da6c 01be 6332 c8be 922c 943e
000003e0: d889 d6bb ab73 9b3e f59b 893e 2809 863e
000003f0: f13a e03d 9879 5fbf e415 cd3e 145a 30be
-0.97872955 -0.42046723 -0.22160532 0.18031251 0.31589293 -0.0761151 -0.9727856 0.5532988
-0.052481655 0.1341361 -0.1411024 -0.01308238 -0.2197768 0.5958907 0.07948285 0.2265425
-1.1687938 -0.3289356 0.22000161 0.3828033 0.2603717 -0.2478561 -0.09561258 0.884294
0.107847534 0.16133091 0.24183553 -0.09892522 -0.4354563 -0.011463255 0.6437582 0.6064292
-0.05072096 -0.46521142 -0.13109538 -0.0386229 -0.15241499 0.3716122 0.19353572 0.479317
-0.8372324 0.21449308 0.44999534 -0.6861077 0.2671089 -0.3270802 0.20001565 0.37584215
0.054774385 0.41947848 -0.57938087 -0.07911089 -0.17035092 -0.39718732 -0.024299202 -0.5838352
-0.6032554 1.0953751 0.07999093 -0.1192393 0.21023613 0.47273716 -0.75400347 -0.30697423
-0.03371837 -0.17601714 -0.750982 0.26605818 0.31229156 -0.25668326 -0.03497658 -0.22555424
-0.112485096 0.48174727 -0.34263504 -0.023232741 -0.17694168 0.36661887 -0.1693286 0.21822818
0.01410368 -0.3126613 -0.4654999 -0.06503537 0.43853924 0.17150114 0.23450468 0.17705555
-0.63031673 0.58876204 -0.8699144 -0.1536105 -0.36301792 -0.012266481 -0.08346294 0.68953025
0.22569515 0.2985973 0.2602941 0.3570408 0.04569791 -0.33434802 -0.5148627 -0.038783785
0.5452082 -0.07073012 -0.21075921 -0.42220214 -0.11858194 0.31878003 0.83438855 0.107984915
-0.219764 -0.08624904 0.27252203 -0.5100637 0.349819 0.16876893 -0.15449546 0.7943347
0.29422393 -0.80288476 -0.07653116 -0.2443737 -0.08141819 -0.65218335 -0.37056807 -1.1677895
-0.8209472 -0.01623697 0.34705803 0.4597484 0.35566455 0.006493426 0.13143589 0.2973129
-0.11781953 -0.044202223 0.15629375 -0.39853406 0.19615056 -0.46547645 -0.76820564 -0.028141096
-0.17401105 -0.3232341 0.18055822 0.024075216 -0.105501354 -0.50954956 -0.26718113 0.60492676
-0.0930895 -0.06483872 -1.3133004 0.014952698 0.55746627 0.35856596 0.049481604 0.080555506
0.24959277 -0.17514923 0.26560408 0.15373594 -0.8713534 -0.02696208 -0.048741173 0.8194162
0.45145425 -0.16181704 -0.09831963 -0.11958373 0.07492114 -0.058009095 -0.41035897 0.046109483
-0.16202448 0.10584986 -0.34942454 0.07567982 -0.7705404 0.5698399 0.02142748 -0.612622
0.08626232 0.4818462 0.030466665 0.2612575 0.44192654 -0.056351893 1.4349723 0.22478306
0.4487525 -0.9698979 -0.13953626 -0.6549907 0.43397418 0.24685268 -0.0099813305 0.64197516
0.08835169 -0.35644177 -1.3298111 -0.30166337 -0.332795 0.37887064 -0.13930319 -0.08743907
-0.4502761 0.16064261 0.1686456 -0.17559144 0.09422486 -0.33525026 0.28646007 0.2452839
-0.46157897 0.41056344 0.6781336 0.12599804 -0.6370258 -0.3528856 0.15050307 -0.18072109
0.58343714 -0.020352561 -0.023273608 0.55997205 -0.8577307 -0.12703724 0.0023338874 0.500836
-0.15578544 -0.4737502 -0.49125192 -0.40981907 -0.2760902 0.5287222 0.38922954 -0.6890731
-0.23812272 0.29587188 -0.44752628 -0.3522921 0.4766825 -0.1263918 -0.39100942 0.28940254
-0.006547194 0.30361685 0.26876798 0.2617886 0.10948742 -0.8729491 0.40055764 -0.17221862

linear2_q1.bias f4 [256]
00000000: e24c d1be 01ab 2bbd fc08 34be d0eb 8a3f
00000010: 950f 0ebe d1fb 11bd d331 853f 8213 8d3e
00000020: a200 7b3f d2e6 16be 6a43 1bbd f386 bdbe
00000030: 860c b13e 4bd3 01be ae4a a33f 2ba5 09bd
00000040: a9c4 e1bc b34b 65bf 9443 23bd 9c47 3b3f
00000050: c39d 3eba 149d 50bd 7a22 8b3f 4ec5 8a3f
00000060: 1233 983f 3c17 d0bc 24d9 a13c 010c ee3d
00000070: 6b1b 503f d4bb 41bd 0b28 553f 7573 c9be
00000080: 9b56 43bd 3c60 2dbf 5c99 8a3f 4757 84be
00000090: 17c1 813f 1fe3 8f3f a9f0 883f 61d5 5dbe
000000a0: 9e3c bdbc 4200 3abd 35cc 3d3e 40fd edba
000000b0: 2cd7 8ebe a204 49bf 1711 bdbe 2241 80be
000000c0: 1867 b9bd ea95 e23e 2593 93bc 58e3 773f
000000d0: ce2d 863f 76ee 923f ebe4 2dbd 45c2 a0bc
000000e0: 8fe0 27bd 7ea4 f9bc cd09 cc3e cd11 843f
000000f0: 3464 493f 4aac 8b3f d850 23be bab4 abbd
00000100: 3852 793e 10fa d6be 2836 32bf e876 f0be
00000110: 7802 e7be 5659 69bf 61f4 31bf f746 d9be
00000120: 0f8f aabe 6057 7bbf 55b3 903f f8e5 aebe
00000130: 1fac 813f d82e 4f3f 4bbf 55bf 9853 ccbe
00000140: ce02 b33d 64e5 ebbe 191c 38bd 1873 7bbf
00000150: 8753 dfbe d760 4b3e 026e 3ebd e8f8 4dbd
00000160: e588 a23d 83a3 bd3c c5e8 4d3f f176 2dbf
00000170: 8a63 523f dab7 a7be d4ff 8dbe 5864 48be
00000180: 0c68 7f3f 8d6c 79bf 9669 493f 73de 1dbf
00000190: 9d6c 833f 94cd 1fbd ed49 81be 505a 543f
000001a0: e735 f4bc 756c 6a3d c7e9 aabe a9d9 303e
000001b0: c2f8 6abe 03cf a6be 818c c53e 65af 5fbf
000001c0: ba0f 813d 4629 253d 82bf 3b3e 43fe 8c3f
000001d0: eded 9e3f 414c 633d b48b 2abd 2553 ecbc
000001e0: 8eeb 4a3e 6743 863e 451d e53e 0313 40bd
000001f0: b833 a4bd 65a0 d53c 99b6 0e3c db4f 923f
00000200: 495b 1cbe 7c24 8fbe 7ed9 96be 83b7 833f
00000210: f9bc 5cbe 3055 b13d fd36 08be 0535 1f3f
00000220: 1487 593e 7a1c afbd 166b 12bd a572 923f
00000230: 4b63 273f 00b7 cdbe 7014 863f 1a75 ffbe
00000240: aacc 1e3f 502a 4b3f 6dde b23e 2e3e cdbc
00000250: 4d0c a4be 4a1d 833f c42b 8d3f 9d2e 13bd
00000260: 5eb4 8c3f 2348 b2ba b6f2 8c3f 14c3 57bf
00000270: b027 8b3f 36b4 5c3f 1cc7 5ebf c4ed 8f3f
00000280: 77ce e3bc daa2 e4bd 64cd e6bc 4b0f 1fbf
00000290: aeb2 403f 7a53 823f 395f 853f 297c 903e
000002a0: 7722 8b3f 94c4 863f 0fae 48bd 9867 98be
000002b0: 143a 28bf 8401 9ebe b871 883f 03ff 853f
000002c0: 50dd bc3e 00c6 56bc 7a88 7abc 6a5c 3bbf
000002d0: b7ec 8e3f c701 0c3e 6cd2 2f3f 5647 c7bc
000002e0: b40d 553f 659f 6c3f a106 e4bd 463f 6f3f
000002f0: ae0c f3be 7436 423f 49aa 923f 3084 1d3e
00000300: 2da5 d8bc 1f93 4d3f 5a6a 823f bcda b4bd
00000310: bbc4 b0be ec35 973d a789 5e3f 51d6 913f
00000320: b14b 943f 3a8f 433d 4d7f 24be 179a 5ebd
00000330: 2c47 753f b056 2d3f a42a 4e3f 4553 8b3f
00000340: fae3 18bd e2dd 6c3e 91ac 133e fd96 6c3f
00000350: 68e0 2dbf 58bd 823f 8dfc c2bd b2c0 ea3e
00000360: eded 48bd 3ff4 e23e 719f efbc 5b73 2bbe
00000370: 7445 7b3f 04a5 3ebf 9943 433f f0d1 8d3f
00000380: 6e9a 49be 808a 2f3f 9294 ba3e 122d 1c3c
00000390: 4e23 75bf 6023 ccbc e803 383f 252d 61bc
000003a0: dacf 28be 71f9 86bc abe4 1abf c9dd b3be
000003b0: 6a4a 46bd 5812 103f 7d57 10bd d0d2 d0bd
000003c0: 4e59 863f 740d 793f 3c91 273f 36ba 2c3f
000003d0: 4173 13bd f372 a4be 3771 6dbf 3e95 8a3f
000003e0: 74d5 93be 6b47 2c3f 1f77 863f 8cf7 4ebe
000003f0: 3d2f 17bd aa92 863f de93 54bf 8d84 1ebf
-0.4087897 -0.04191113 -0.17581552 1.0853214 -0.13873132 -0.03564054 1.040583 0.27553946
0.9804784 -0.14736488 -0.037906088 -0.3701702 0.34579867 -0.12678258 1.2757165 -0.033604782
-0.027559595 -0.8956863 -0.03985937 0.7315614 -0.0007271433 -0.05093105 1.0869896 1.0841463
1.1890585 -0.025401704 0.019756861 0.11623383 0.81291837 -0.047298267 0.83264226 -0.393459
-0.047690015 -0.67724967 1.0828052 -0.25847837 1.0137051 1.1241187 1.0698444 -0.21663429
-0.023100194 -0.045410402 0.1853493 -0.001815714 -0.27898538 -0.78522694 -0.369271 -0.25049692
-0.09052867 0.44255 -0.0180145 0.96831274 1.0482728 1.1479023 -0.04245464 -0.019623885
-0.04098564 -0.030473944 0.39851227 1.0317932 0.7866852 1.0911953 -0.15948808 -0.0838408
0.2434777 -0.41987658 -0.69613886 -0.46965718 -0.4511907 -0.9115194 -0.6951352 -0.42436954
-0.3331227 -0.981802 1.1304728 -0.34159827 1.0130652 0.8093085 -0.83495015 -0.39907527
0.08740769 -0.4607345 -0.04494867 -0.98222494 -0.43618414 0.1986116 -0.04649163 -0.050286204
0.07936267 0.023149258 0.80433303 -0.67759615 0.82183135 -0.32757455 -0.27734244 -0.19569528
0.9976814 -0.9743126 0.78676736 -0.61667556 1.0267521 -0.039014414 -0.25251713 0.82950306
-0.029810859 0.05723234 -0.33381483 0.17270531 -0.22946456 -0.32579812 0.38583758 -0.87377006
0.06301828 0.040322565 0.18334773 1.1015095 1.2416359 0.055492643 -0.041637138 -0.02884824
0.1981642 0.262233 0.44748893 -0.04689313 -0.08017677 0.026077459 0.008710527 1.143062
-0.15269198 -0.27957523 -0.29462808 1.0290378 -0.21556462 0.08658826 -0.13302226 0.62190276
0.21242934 -0.08550353 -0.035746656 1.1441237 0.65385884 -0.4017868 1.0474987 -0.4989403
0.6203104 0.7936144 0.34935322 -0.025054064 -0.32040635 1.0243313 1.1028981 -0.035933126
1.0992544 -0.0013601821 1.101157 -0.8428204 1.0871487 0.8621248 -0.87022567 1.1244435
-0.027808411 -0.11163874 -0.02817411 -0.6213271 0.75272644 1.0181725 1.0419685 0.28219727
1.0869893 1.0528741 -0.04899412 -0.29766536 -0.6571362 -0.3086053 1.0659704 1.0468448
0.36887598 -0.01310873 -0.015291328 -0.7318789 1.116599 0.13672553 0.68680453 -0.024326008
0.83224034 0.92430717 -0.11134077 0.9345592 -0.4747061 0.7586434 1.1458217 0.15382457
-0.02644595 0.80302614 1.0188706 -0.08830783 -0.34525093 0.07383332 0.8692879 1.1393529
1.1585599 0.047744013 -0.16064186 -0.05434617 0.95811725 0.677104 0.80533814 1.0884787
-0.03732679 0.23131517 0.14421298 0.9241789 -0.6792054 1.0214033 -0.095208265 0.4585014
-0.04905503 0.4432697 -0.029250832 -0.16743223 0.9815285 -0.74470544 0.7627502 1.1079693
-0.19687817 0.6857071 0.36441475 0.00953223 -0.95756996 -0.024919212 0.7188096 -0.013743673
-0.16485539 -0.016476365 -0.6050517 -0.35130146 -0.04841081 0.5627799 -0.035239685 -0.10196459
1.0496004 0.9728615 0.65455985 0.67471635 -0.035998587 -0.3211895 -0.9275088 1.0826795
-0.2887379 0.67296475 1.0505103 -0.20211619 -0.036910284 1.0513508 -0.8303813 -0.61921006

linear3_q1.weight f4 [1, 256]
00000000: b56e 4ac0 53b5 6f3f e2f4 e5be d8e9 b03e
00000010: 419f 02bf fdcc adbc 01af a13f 772c 603f
00000020: e9eb 243f b708 68bf 06d3 8f3d 574f 71c0
00000030: e8c6 6b3f 09e8 1dbf aa93 913f ab35 a63d
00000040: 7526 a63e 6e0d febe 1c5b 193c 7b06 5c3f
00000050: 469c 08c0 e986 00c0 909f d33e 890e 903e
00000060: 6eb0 823e d9a6 a13d 14dc 1040 1a10 e7be
00000070: 3f0e ce3e 82d7 13bf fbd3 0f3f ef3e 31c0
00000080: 70a4 aebf faf6 1abf 7dc3 733e b0b2 5abf
00000090: acce 833f 7649 f53e 5459 5b3f 1144 93c0
000000a0: 137f 01c0 aee5 3c3d 3530 a73f c530 a7be
000000b0: 1b61 54bf 6cba 46bf bb53 c0bf 7262 a9bf
000000c0: b28d ac3f cf77 503f f77f 953b 4236 033f
000000d0: 94cf 0f3f f10a 8c3e dd67 c73d 3873 91bd
000000e0: 6a71 d3bd d234 13bb 3f63 2f3f 877e 043e
000000f0: a726 b93e 184c 913f 25b2 09bf a2b8 fbbf
00000100: 3e36 5d3f 7a55 5dc0 e415 0dbf fe80 92bf
00000110: e06d efbe f83a 28bf 89d1 6cbf defc 26bf
00000120: 1e11 75c0 32b5 0cbf 7806 5e3e 3b29 8ebf
00000130: bb50 b33e d882 d43f 6049 0abf 57b9 dbbe
00000140: e130 33bf 3d0e 73bf 1bc7 66bb 89a6 98bf
00000150: e1bd ffbe 04fe b73f 24a5 833d 1484 693d
00000160: 4644 ef3f 8ab3 41bf 83b2 223f c452 41bf
00000170: 7be5 133f d1d1 a2be 5aa1 34c0 aec1 723f
00000180: 2a23 7e3e 4ea5 2cbf af53 6c3f b3ac 0ec0
00000190: 4748 fa3e bf0e 6fbf ef89 18bf d31b 4040
000001a0: afc3 99bd 8a25 5cbf 8a79 a3be 89c7 863f
000001b0: f088 abbf 939d fbbf 3520 6740 efef 07bf
000001c0: 71eb 46c0 47e7 cebf 6389 28c0 3b99 553e
000001d0: f971 a23f f9b4 8dc0 02ce ae3d aa32 743b
000001e0: e326 333f e537 b93f 89fd be3f 00be 5cc0
000001f0: 79e7 28bf ca96 d0bf 0c59 a23f 37d4 853f
00000200: 66d4 0cc0 889b 90c0 348d 0ec0 3d08 063e
00000210: 95f3 2dc0 72ce b6bf d02e 0ec0 774e 073f
00000220: ff10 503f 9bec 57bf c6d8 663d b81f 723e
00000230: 12c9 0a3f 95a3 b4be f95a a93d 33df 86bf
00000240: e869 1b40 b986 ed3e b928 b43f 4b95 a7be
00000250: c087 2cc0 eee3 9a3e 474b 723e 9957 9abb
00000260: 80db c23e be50 dc3d d383 543e a2cc f4be
00000270: a7be 313e d322 a53e b163 4cbf a731 263f
00000280: c5f0 80ba a737 1bc0 741e 8a3d 887e 963f
00000290: e128 f83e 3a6a 3f3e f9aa 053e 44e7 33c0
000002a0: e6d1 683e 6028 063f 2255 803d bc46 55be
000002b0: d769 04bf 711c 05c0 197c 133e daad 493e
000002c0: e159 d1bf 1751 0bbe 3510 c83d c448 d0bf
000002d0: 5406 a13e ea99 923f 8c65 983f e3d2 a43c
000002e0: 687d 093f 8350 163f de0b 813f bdea c53e
000002f0: 6038 c8bf 5b60 413f 62b4 6b3e 1cdb 843f
00000300: 7d84 b6bc bcf7 743f 9567 aa3e 014c 6fbf
00000310: 55f3 6cc0 8277 953f 58a0 903e 9fb9 4e3e
00000320: 3882 183e 0a4a b33f 9e92 f3bf e2f7 503f
00000330: cd4e 333f f9d7 1540 1df9 2e3f fbbb 193f
00000340: 704f b83c 211c b43f 4d3f e43f de0c f23e
00000350: dba2 03bf 7c06 6d3e 8f8b 09c0 b551 783f
00000360: c529 f7bf 83d9 0740 21ef f83d 8d1c 51bf
00000370: ba7d 243f a0e8 0fc0 51af 413f dc5a eb3e
00000380: 04bd acbe 9c62 423f dc04 e5bf fc25 cfbf
00000390: fbec 96be 7aa1 de3d 3f2a 0c3f dc81 1bbf
000003a0: d963 6cc0 2e1a 97be c96d c9bf d4c1 6fbf
000003b0: 0f32 d2bd 4449 643f 8cee 18bf e5c8 43c0
000003c0: 4a04 653f 1c2f 253f c573 9b3f b6df 023f
000003d0: 5ead b0ba b6b6 9dbf cd3f 09bf 1c1d 383e
000003e0: b2ed 7cc0 67fc 853f d179 c43e 82c6 03c0
000003f0: 066b 0ebf 54fe f13d 4583 63bf 8c99 93bf
-3.163007 0.93636054 -0.44913393 0.3455341 -0.5102425 -0.02121591 1.2631532 0.8756785
0.6442247 -0.906383 0.070226714 -3.7704675 0.9210038 -0.6168218 1.1373188 0.08115705
0.32451215 -0.4961962 0.009360101 0.8594739 -2.1345382 -2.0082343 0.41332674 0.2813609
0.2552523 0.07893152 2.2634325 -0.45129472 0.40245244 -0.57750714 0.5618283 -2.7694662
-1.3643932 -0.60533106 0.23805042 -0.85428905 1.0297446 0.4790761 0.8568318 -4.602059
-2.023381 0.046117477 1.3061587 -0.32654396 -0.8296067 -0.7762821 -1.5025553 -1.3233168
1.3480742 0.81432813 0.0045623737 0.51254666 0.56176114 0.27352098 0.09736607 -0.07102054
-0.103243664 -0.0022461903 0.6851081 0.12938891 0.36162302 1.1351347 -0.5378745 -1.966572
0.8641089 -3.458342 -0.5511153 -1.1445615 -0.46763515 -0.6571498 -0.92507225 -0.65229595
-3.8291698 -0.5496398 0.21682155 -1.1106333 0.3502253 1.660243 -0.5401821 -0.4291484
-0.6999646 -0.949436 -0.003521389 -1.1925822 -0.49949554 1.4374394 0.064279824 0.057010725
1.869271 -0.7566458 0.6355364 -0.75516915 0.57772034 -0.31800702 -2.822348 0.9482678
0.24818102 -0.67439735 0.9231519 -2.2292907 0.48883268 -0.93381876 -0.5958547 3.0016983
-0.07508027 -0.8599478 -0.31928664 1.0529643 -1.3401165 -1.9657463 3.6113408 -0.53100485
-3.1081202 -1.616433 -2.6333854 0.20859234 1.2691032 -4.4283414 0.085353866 0.0037261643
0.6998121 1.4470183 1.4921123 -3.4490967 -0.659782 -1.6296017 1.2683425 1.0455388
-2.2004638 -4.5189857 -2.2273684 0.1308908 -2.717992 -1.4281752 -2.2216072 0.528541
0.81275934 -0.84345406 0.056359075 0.23644912 0.5421306 -0.35281053 0.08269305 -1.0536865
2.428339 0.46391848 1.4074928 -0.3273109 -2.6957855 0.30252022 0.23661529 -0.0047101495
0.3805809 0.10757588 0.20753412 -0.47812372 0.17357884 0.3225313 -0.79839617 0.64919513
-0.000983738 -2.4252717 0.0674409 1.1757364 0.48468688 0.18692866 0.13053502 -2.8109903
0.2273632 0.5240536 0.06266238 -0.20827764 -0.51724 -2.079861 0.14402808 0.19695225
-1.6355554 -0.13605152 0.09768716 -1.6272206 0.3145014 1.1453221 1.190599 0.02012009
0.5370698 0.587166 1.0081747 0.38655654 -1.5642204 0.7553765 0.2301803 1.0379367
-0.022279972 0.9569051 0.33282152 -0.9347535 -3.7023518 1.1677096 0.28247333 0.20187996
0.14893425 1.400697 -1.9029119 0.8162824 0.70042115 2.341307 0.68348867 0.6005246
0.022498816 1.4071084 1.7831818 0.47275442 -0.5142037 0.23147005 -2.149143 0.96999675
-1.9309622 2.1226509 0.12154985 -0.8168419 0.64254344 -2.2485733 0.75658137 0.45967758
-0.33737957 0.75931716 -1.7892108 -1.6183467 -0.29477677 0.10870643 0.5475196 -0.60745025
-3.6935942 -0.2951216 -1.5736629 -0.93655133 -0.10263454 0.89174294 -0.59738994 -3.0591366
0.8945967 0.6452501 1.2144705 0.51122606 -0.0013479402 -1.2321384 -0.5361298 0.17979854
-3.9520078 1.0467652 0.3837419 -2.058991 -0.55632055 0.11816087 -0.88872176 -1.1531234

linear1_q2.weight f4 [256, 26]
00000000: 44b5 50bd c66f 0fbe a1c1 0cbe 0c42 14be
00000010: b6c8 69bd 9c7e 22be 8b8c 0a3e d837 183d
00000020: e16b eb3c da62 983d fbf7 c33d f01d e93c
00000030: d108 593d 5b6b e33d 8fcb 1a3d d6b7 77bd
00000040: 6d63 18bd 052b 9ebd 41a6 0bbe 5dba 003e
00000050: 0062 e8bd a331 ec3b ff73 873b 20ed d23e
00000060: 1918 3f3e a5b2 febe e9dc 90bd de4b 86bc
00000070: 0801 51be 2035 83bc 92c4 62bd c4b0 dcbd
00000080: a1d4 0f3d e0e4 603c 2d51 84bc b7e6 163e
00000090: cd0f b4bd 71c2 093e 80fb a53d 304b 0b3d
000000a0: 7892 31bd 5b0d 1c3e 5b5a a1bd 2cae 34be
000000b0: 9c18 6f3b 5655 79be 0a5a 00bf 06e8 ac3f
000000c0: de3a 8bbf eb81 20be d500 ccbe 4d47 0dbf
000000d0: a33f 5dbe 7076 f2be 7208 bbbe 6000 b8be
000000e0: 5bd7 d2be 9264 943e 193f a2be d038 dbbd
000000f0: 23d6 49be e259 b6be 02ae 81be e545 2cbe
00000100: 15bd 92be a993 d5be a9bd 4a3e a85b 7cbd
00000110: e74f 043e 2a92 3a3d 5641 dc3b d792 ffbb
00000120: ca69 81be e02c 493e 69ea 40bf df51 28bd
00000130: 49d1 e2be 1e8c ddbe 5838 47be f079 65be
00000140: 154d 08be 54f1 39be 4188 10be 7b59 56bd
00000150: 1c86 4abe fc4c edbd 7405 79be a06f 9bbc
00000160: fffc 71be 0a19 803d a45f 503b c0dd 85be
00000170: 4c25 b43c 8a73 3dbe a065 62be 9977 00be
00000180: 8710 18be 3836 e7bd f69b 9a3e 7311 8cbe
00000190: af0a d7bc aab9 57bd 41f6 bdbd 01c9 ac3d
000001a0: e84a c8be 0e43 85be 9eee bebe 01cb 87be
000001b0: 0713 c4be e210 543e 79d2 b7be e395 b1be
000001c0: 3d62 d53e a203 7dbe 3b91 76be 4fb0 ee3d
000001d0: d3e7 d5bb a61b 1ebe d3de b8be 112e 513d
000001e0: 85f7 443e 7e0a 07be 9640 b4bd f8bd 9cbe
000001f0: c553 52bd f3b9 5cbe d8d3 16bf 08a9 ed3e
00000200: afda 573d da05 df3c 7f6e e2bc ced5 12be
00000210: 0169 b7bd 677f 56be 8862 0abd e66b 9fbd
00000220: 725d 9abe c5b6 34be 844d 16be 2f9b 8fbe
00000230: 85bf 85be 4daa 1dbe 2b14 80be 36fe 81bc
00000240: 7ca8 3b3d 30ad cbbd 10fc debd 574d 6fbd
00000250: 5ed0 0ebc c5f1 73bd 441b d0be 9065 89bf
00000260: 4895 48bd ac84 4dbf db5e 273f aac1 3d3e
00000270: 501f f5bc ab83 5b3d 9104 46bc cec4 33bd
00000280: 2020 753d ff5e 9f3d 527f f9bd 2a6d a53c
00000290: 5aee 923c bd4c 163e 450c b33d e51a d83c
000002a0: 1c97 a7bd c395 b6bb ceff 52bc 0cba 123d
000002b0: 940d 51bd ac3a d13c fca9 243d 0b08 d83c
000002c0: 8415 f53c 2563 333e c4c7 c03d c769 0cc0
000002d0: f3b6 2c3d cd7f 8b3d afe8 02be 9b3d 01bd
000002e0: 9f33 dcbd f333 16be f710 61be 8ddb 34bd
000002f0: 4a52 38be 250a 16bd 2135 64bc 2e0f d9bd
00000300: ea13 dc3c e222 14be 4acb 6abe dc51 b13c
00000310: 443d 5abe bcc8 38be 1b8c 7bbe bebe 68be
00000320: 1bae 1ebe bba1 6cbe 241e 303f 7414 643d
00000330: 36c0 43bd f786 943c 4bea 34bf 0b7c f53d
00000340: 2bcd 833c 8f1b 1f3e 0b84 e43d 3e8f 7a3c
00000350: d4eb 7c3e dc78 0dbd 0618 213e dcf4 1ebd
00000360: c835 8ebd a201 cd3c 0a56 1f3e a114 edbd
00000370: d24a f3bd cd47 ecbd 19f4 02be fe00 25be
00000380: daba 373d 20e6 ebbd 8f48 f7bd b8f7 003e
00000390: 22d3 5cbe 9c72 7fbf 4cb3 6abf a5dd c53e
000003a0: a9c9 083e f56a e5be bdcb 52bd e273 08bd
000003b0: b159 573d 75f1 0d3d 5ae7 5abc bf31 ecbd
000003c0: 8a4f 5ebd 4607 cebd de51 32be 11c0 ab3e
000003d0: 1016 ccbc a258 b2bd 6e62 ef3d 4125 17be
000003e0: c0cd 4e3d d6b2 fabc 8417 36be 0b74 63be
000003f0: 894c 2d3d 22b7 663e a2b2 163f 9b79 3ebd
-0.05095412 -0.14007482 -0.13745739 -0.1447832 -0.05707618 -0.1586861 0.13530175 0.03716263
0.028737964 0.074407294 0.09568783 0.028456658 0.052986924 0.11104461 0.037791785 -0.060478054
-0.037204195 -0.07723049 -0.1363764 0.12571092 -0.11346817 0.0072080656 0.004133701 0.41196537
0.18661536 -0.4974567 -0.07073385 -0.016393598 -0.2041055 -0.016016543 -0.055363245 -0.10775903
0.035114888 0.013726443 -0.016151989 0.14736448 -0.08792076 0.1345308 0.081046104 0.03400725
-0.043352574 0.1523947 -0.07878562 -0.17644566 0.0036483174 -0.2434896 -0.5013739 1.3508308
-1.087734 -0.1567456 -0.39844385 -0.5518692 -0.21606307 -0.47355986 -0.3652988 -0.35937786
-0.41179928 0.2898298 -0.31688765 -0.107041955 -0.19710593 -0.3561545 -0.2532807 -0.16823538
-0.28659883 -0.41714218 0.19798912 -0.061610848 0.12921105 0.04554955 0.006721656 -0.007799487
-0.25276023 0.19646025 -0.7535768 -0.041093703 -0.44300297 -0.43270963 -0.19455087 -0.22409797
-0.13310654 -0.18158466 -0.14114477 -0.05233143 -0.19777721 -0.11586949 -0.24318486 -0.018974125
-0.23631667 0.06254776 0.0031795288 -0.26145744 0.02199044 -0.18501106 -0.2210908 -0.12545623
-0.14850055 -0.11289638 0.30197114 -0.27357063 -0.026250212 -0.052667297 -0.09275485 0.08436776
-0.3911965 -0.2602772 -0.37291425 -0.26522067 -0.38295767 0.20709565 -0.35902765 -0.34684667
0.41676512 -0.24708417 -0.24078839 0.11654722 -0.0065278797 -0.15440235 -0.361075 0.051069323
0.19235046 -0.13187596 -0.08801381 -0.30613685 -0.05134942 -0.21555309 -0.58917 0.46418023
0.052698787 0.02722447 -0.02764058 -0.14339373 -0.08955575 -0.20947038 -0.033785373 -0.07784252
-0.30149418 -0.17647846 -0.14678007 -0.28048083 -0.2612268 -0.15396996 -0.25015387 -0.015868288
0.045814976 -0.09945142 -0.10887921 -0.058423366 -0.008716671 -0.05955674 -0.40645802 -1.073412
-0.04897049 -0.80280566 0.6537911 0.18530908 -0.029922158 0.053592365 -0.01208605 -0.04388886
0.05984509 0.07781791 -0.121824875 0.020193655 0.01793592 0.14677711 0.087425746 0.026380012
-0.08183119 -0.005572052 -0.012878371 0.03582196 -0.05103834 0.025540672 0.040201172 0.026371023
0.029917486 0.1751829 0.09413102 -2.1939561 0.04216666 0.068114854 -0.12784074 -0.031552892
-0.107520334 -0.14668255 -0.21979128 -0.044154692 -0.18000141 -0.03663077 -0.013928683 -0.105985984
0.026864965 -0.14466432 -0.22929111 0.021645479 -0.21312433 -0.18045324 -0.24565165 -0.22729012
-0.15496103 -0.2310857 0.6879599 0.055683568 -0.04779073 0.018130763 -0.7067 0.1198655
0.016089043 0.15537857 0.11157998 0.015292941 0.24699336 -0.03453909 0.1573182 -0.038807735
-0.06943852 0.025025193 0.15560165 -0.115762 -0.11879505 -0.115371324 -0.12788428 -0.1611366
0.04485593 -0.11518502 -0.12074386 0.12594497 -0.21564916 -0.99784255 -0.91679835 0.38645664
0.13358177 -0.44808164 -0.05146383 -0.03331364 0.05257577 0.0346541 -0.013360823 -0.11532926
-0.054275073 -0.10059981 -0.17414042 0.33544973 -0.024912864 -0.087083116 0.11688696 -0.14760305
0.050489187 -0.030602854 -0.17782408 -0.22212236 0.042309318 0.22530797 0.5886632 -0.04650269

linear1_q2.bias f4 [256]
00000000: e241 6d3f 5662 abbd 5edc 793e 119d 0fbd
00000010: bd54 893e d66e f83d 239b 0f3f 3fd9 103d
00000020: c887 e63e 8c6f ad3d dc0d 8f3e c5e2 613f
00000030: c1d4 febd abeb 7fbf ab3f 09be 0568 2b3d
00000040: ebcb 99be 471c a13e c60e a7be 8bde 4a3e
00000050: f8e4 783f e52c 443f 3234 6a3f 7a6f 2ebd
00000060: a51e a1bd 4fd9 653e b5bb ec3d aa11 593f
00000070: 4f03 123f d18b 23bf e116 d43d 3e29 683f
00000080: 2000 973f 25bc 31bf 1cce c23a 2c78 64bd
00000090: 008e 56bf 2133 733f a704 95bf 5724 e13d
000000a0: 4464 47be 47fe 8fbf 776d 91bf 0c7a d83e
000000b0: e5fb 25bf a20b 17bf 2897 453f bfa5 703f
000000c0: 7d9d 1c3f 3903 7d3e 9e4e 0d3e 11f5 4a3f
000000d0: 52ad 2ebf 902c 2b3f b369 7d3f e1e4 763f
000000e0: 3427 973c fba9 373e 4729 813e 0810 3ebf
000000f0: 994e adbd 12a6 803f e184 91be 0e36 9f3f
00000100: f9b8 1d3e 9650 983f 34b2 413f 8f85 0d3e
00000110: 3cc2 5c3f 2cef 043f 5234 9b3f 4908 8abf
00000120: 1685 4dbf fed2 ffbe d761 6a3f aa30 2a3f
00000130: 2ab9 843d 2ec3 c93e 0fbd 293f 8b56 923e
00000140: fac6 533f 9105 983f 89a0 04be 99a6 a13f
00000150: 7ebe c83d 1ac1 7f3d c6b7 24bf a8cd ef3e
00000160: c8c7 5cbf eeb6 483e 98fa 663c 4239 823f
00000170: 6c73 4f3f 0350 993e c083 4f3f 42e4 7ebf
00000180: 92b0 533f 0093 04be d965 613f 2659 893f
00000190: d9f2 833d e3de 7bbe b3d3 293f 7096 fa3e
000001a0: 6c7a 043e 33b1 b53c 5cdb 343f 73b6 b4bc
000001b0: 6d5a a03f f96c e83e cffe 333e dac0 3d3f
000001c0: cc4f b03e f7c9 0fbe 3d5c aa3f 8bbd 86bf
000001d0: 4dce 82be 3ac0 8fbf ec07 8d3f 24eb 3f3f
000001e0: f3c1 c13e 23c2 1e3f 03bc d53e ae58 2ebf
000001f0: f17a b43d 3a22 823f a8a9 fd3e 2b1c e13e
00000200: 983b b83e df71 913f c2c7 4dbf fe97 2a3e
00000210: 7f74 58bf f56e 3c3d 5a27 873f 0842 a03f
00000220: 4144 983d 20a3 5f3f e43f 44bf 6231 6dbd
00000230: efc1 883f 16a7 033e cb44 873f 76b4 523f
00000240: f59c 4dbf 0a87 cebd 9a1a d13d 4445 bd3e
00000250: 0d95 843d e544 7abf fa8d 0a3f a21b 653f
00000260: 5e12 d53d 2df1 9fbd dc66 643f 35b3 e9bd
00000270: 5e5c 833e 71df d5be 367a 913f 767f 5f3f
00000280: 9497 ae3e c8d1 6fbf dad4 853f 498f 963f
00000290: 5024 0c3f 0a97 e43d 1b0b 3d3e 2042 57bc
000002a0: 6bc4 9a3f db02 4b3f 42f1 d53e 03c8 8b3f
000002b0: 86a6 33bd 2ce0 773f 8436 593f 3871 4e3f
000002c0: 0418 df3e 28b8 453d d435 82bf 0162 043f
000002d0: 308d 403e 571f 4b3f 1f0e ebbe 5392 973f
000002e0: 45ef 903f 5a58 883e 9c3b 9d3d 5963 933f
000002f0: e795 f13e 3c26 d83c 50ef 263f 232e 943e
00000300: ccb4 de3a a1f4 1fbe 96d4 4ebc d6a2 b73e
00000310: b5d3 55bf b6bb 393f f0e2 efbe 2028 6bbe
00000320: 0e60 86bd 6598 803f c456 4fbd 1d29 1a3f
00000330: 004d 45bf 1f75 9e3f 74cf d43d b354 253f
00000340: 059e 333c 288d cabc 8f30 933e 2a46 5dbf
00000350: de54 cebc d4e9 643e 749b 4e3e 3c5c 443f
00000360: fabb 1cbf 6710 6bbf d38e b93f b79f 873f
00000370: 96e6 14bf f792 7b3f 4583 d43e 88f2 973f
00000380: c2b5 603f f80b 5bbd d744 513e e977 2c3d
00000390: d605 9d3e d0a5 a6bf afa8 92bf d722 4e3f
000003a0: 17ec 97bc b271 cebc 6b29 ac3f 411c febe
000003b0: 4648 6f3e 0f34 50bd e3ac 503f ece0 98be
000003c0: 8abc 353f 4ebe 2b3f 6e72 11bf a741 553f
000003d0: 9258 6a3f 2139 a03f 11f2 3e3e c3cb f73e
000003e0: 5c3a 633b 0d88 393f 53cf 893f 7012 32bd
000003f0: d950 82bf 8ebd 1a3f 4544 863a b951 ae3d
0.92678654 -0.083683655 0.2440047 -0.0350619 0.26822463 0.12130515 0.56096095 0.035363432
0.45025468 0.084685415 0.2794026 0.8823665 -0.12442923 -0.99968976 -0.13403194 0.041847248
-0.3003839 0.31466886 -0.3262846 0.19811456 0.9722438 0.76631004 0.91485894 -0.04258678
-0.07867173 0.22446178 0.1155924 0.8479258 0.570363 -0.6388522 0.10355926 0.9068793
1.1796913 -0.6942771 0.0014862451 -0.055778667 -0.83810425 0.9499989 -1.1642045 0.109932594
-0.19471842 -1.1249474 -1.1361531 0.42280614 -0.64837486 -0.59002125 0.7718377 0.9400291
0.6117781 0.2470826 0.13799521 0.7928019 -0.68233216 0.6686487 0.9898941 0.9644299
0.01845131 0.17935936 0.25226805 -0.7424321 -0.08462257 1.0050681 -0.2842169 1.2438371
0.15402593 1.1899593 0.7566254 0.1382048 0.8623388 0.5192745 1.2125342 -1.0783778
-0.802812 -0.49965662 0.9155554 0.66480505 0.0648063 0.39406723 0.66304106 0.28581652
0.8272549 1.1876699 -0.12951864 1.2628967 0.098019585 0.062440015 -0.64342916 0.4683659
-0.8624234 0.19601032 0.014097832 1.0173724 0.81035495 0.29943857 0.8106041 -0.99567044
0.826913 -0.12946701 0.8804603 1.0730331 0.06442804 -0.24596743 0.6633865 0.489429
0.12937325 0.022179222 0.70647216 -0.022059655 1.2527596 0.4539564 0.1757767 0.74122393
0.3443588 -0.14041887 1.3309399 -1.0526594 -0.2554802 -1.1230538 1.1018043 0.7496817
0.37843284 0.6201498 0.41745004 -0.68104064 0.08812512 1.0166695 0.495435 0.43966803
0.35982966 1.1362876 -0.8038293 0.16659543 -0.8455276 0.046004254 1.0558884 1.2520151
0.074348934 0.87358284 -0.7665999 -0.057908423 1.0684184 0.12856707 1.0567869 0.8230661
-0.8031762 -0.100843504 0.10210152 0.36966908 0.06473742 -0.97761375 0.5412289 0.8949529
0.10403894 -0.078096725 0.8921945 -0.11411134 0.25656408 -0.41772035 1.1365421 0.87303865
0.3410002 -0.93679476 1.0455582 1.1762477 0.5474291 0.11161621 0.18461268 -0.013138324
1.2091192 0.7930123 0.41785628 1.0920414 -0.04385998 0.96826434 0.8484881 0.8064151
0.4357301 0.04827133 -1.0172677 0.5171204 0.18803859 0.79344696 -0.4590921 1.184153
1.1323019 0.26629907 0.07677385 1.1514693 0.4718468 0.02638542 0.6520891 0.2894145
0.0016991138 -0.15620662 -0.012623927 0.3586642 -0.83526164 0.7255205 -0.46852827 -0.22964525
-0.0656129 1.0046507 -0.050619856 0.60218984 -0.7707062 1.2379493 0.10391131 0.64582366
0.010962968 -0.024725512 0.28747985 -0.86435187 -0.025186952 0.22354823 0.20176488 0.7670324
-0.6122433 -0.91821903 1.4496711 1.0595616 -0.58164346 0.98271126 0.415064 1.187089
0.8777734 -0.05347821 0.20436417 0.042106543 0.30668515 -1.3019352 -1.1457728 0.8052191
-0.018545194 -0.025200699 1.345014 -0.4963093 0.23367414 -0.050830897 0.81513804 -0.29859102
0.7099081 0.67087257 -0.5681523 0.833033 0.915414 1.2517434 0.18647029 0.48397645
0.0034672236 0.7247322 1.0766395 -0.043474615 -1.0180923 0.6044549 0.0010243735 0.08511681

linear2_q2.weight f4 [256, 256]
00000000: 8a51 6e3e b8dc b1be 65aa 013f 38cf fdbd
00000010: c184 cd3c a788 0d3f 53c6 acbe 3d86 d0be
00000020: d8a6 f83d f3b5 8f3c 5782 23be 6a6f 8b3e
00000030: ff2b a53f 58ad 7f3f b6ef a1bd bbb8 7a3e
00000040: b71f 683e d805 c23d 7e1d 683e 2a88 3a3e
00000050: 6ae0 4b3e 52d5 783e b87c 1a3e afa7 adbe
00000060: b09f 103f 1aa9 003e c329 d13e b0f9 c53e
00000070: e66d 24bf 5582 7a3d 45e8 163d 6a4f 603e
00000080: 839c a43d b72f cdbe 9090 c73e 9bfd 29bc
00000090: ec58 043e 3979 643d 4526 f33c 4d5e 4d3e
000000a0: 5dec fcbd 7fd9 08bf b6e3 6dbf 3a10 523e
000000b0: 1950 1ebe c905 873e e349 1abd 9f4f 573f
000000c0: c6de e9bd bf3c 413d e6e4 63be 01e0 453e
000000d0: 4b63 873e b461 0cbd fca7 1f3f 4a7e 303e
000000e0: f9b0 f8be 762a 933d 0a24 2e3d 17ea 4b3e
000000f0: 3111 693e 03d3 043f c8d9 0f3e 8957 a23e
00000100: 86a2 e53b e392 09bd f7d4 033f 1ba0 9bbe
00000110: bf96 4fbd 7a05 9f3e 9490 123e e814 59bf
00000120: 6c7c f2be 96c5 5d3d 5e40 cebe bdad de3e
00000130: 036a 2c3e 5b8e c7be f57b cd3d b71e 103e
00000140: b68a 8abe 0c12 833c 199b a3bf f965 013f
00000150: 30b5 e93e 1db8 a13e c7c2 81bf d26d a3bd
00000160: 810e 7c3e 9435 4e3f 93a1 9bbe 828a b43e
00000170: 82b9 d73d ef0b ecbc bd49 b73e 8253 8b3e
00000180: 858f 823e 92f6 b63e 071a a43e 78cb 1d3e
00000190: 57a4 213c 6e82 7c3e 47d6 023e ace5 9dbe
000001a0: 363f 29bf 5f40 4b3f ad83 afbb 12af c5bd
000001b0: dbcb 043e de09 31bf 89a3 243d aff5 cd3e
000001c0: 1525 18bf fd8f c23e 289e 0d3d 8b35 b3be
000001d0: f5a0 1bbf de24 12be 1b88 1c3e 4268 4dbf
000001e0: fece 37bd 9d57 0c3e 9d2d 84bf e592 e93e
000001f0: 7343 35bf 6cab a63e 8946 583e 5ecc 6dbf
00000200: 564c 1a3f d280 ce3d 6bb4 363f a431 053f
00000210: b05d 883e 0adf 6a3e 69bf 773e fe6a 403c
00000220: 9a14 ecbe e804 b33d 58d3 173f c701 043d
00000230: 3573 ae3e 203f a7bd e840 3c3e 5ddf 2f3e
00000240: 25c4 d13e 9402 aeb8 d225 2c3e f94b 823e
00000250: 213d 883e bc01 81bc e0ed 943e d0dc 0a3f
00000260: 40d9 663e 603f 81ba 6ace 003e 916b 013f
00000270: 647b f4be 125c 9c3e 883f bc3e 3472 c63d
00000280: c769 363f 0ebe fa3e 31f1 ae3d f24a 30be
00000290: 3984 973b d161 973e 43c3 71be d235 58bd
000002a0: bcf8 05bc 0d9d 82bf 290a b1bc 7971 003f
000002b0: 8624 cfbd 0521 be3e 70b3 8cbe f5d2 abbe
000002c0: 82e5 6e3e d41a 0b3f 1bbf 2e3e c9e4 3f3e
000002d0: e72f 643e 10d7 27bf ea6e d33e 5bbe 293b
000002e0: 2e86 5d3d 22ad f3be 63ba 993e 6e06 adbc
000002f0: 723d 1a3d 629d 9cbe 18bd df3d df39 cebe
00000300: 51e7 33be e94c c7bb 835b eb3e 9b70 bd3d
00000310: f87b 213e a236 84be e601 c63d 9b87 f33c
00000320: 950c 3ebe ccb9 e33c 0ce5 023f 3998 87bf
00000330: a14d a63e 9d5e 563e 4457 323f 88f2 85be
00000340: 9ba8 9abe 5cc6 dfbd fdc5 ddbe 114f 82be
00000350: 7753 683e e442 e43e a978 4a3f 5558 643e
00000360: 8dbe 3d3c be07 bdbd 4ae9 b23e c769 323d
00000370: 09da 0dbf bfbf 393f 3be7 833e cf03 8a3e
00000380: 62d2 6fbe b444 86bc 8875 28be 9c06 963e
00000390: 10a2 61bd d29a 83be 5be1 45be f148 ba3d
000003a0: 13a6 8b3e d610 9f3d f8bb 843e 6ffd a43e
000003b0: 070e 91bf a0f4 8fbd 2b93 8f3e b56c 9d3e
000003c0: 4f3e 8f3e 1a2a 713e 2756 403e 551c db3e
000003d0: ff1a 0b3e c0b4 4a3e 014e 94bf 3cec 903e
000003e0: 000c 09bd f90f 003d 1004 183f d204 d23c
000003f0: 5a71 3bbd afb6 bf3d 2328 ac3d 400c 9abd
0.23273292 -0.34738708 0.50650626 -0.123930395 0.025087716 0.5528664 -0.3374506 -0.40727416
0.12141198 0.017542815 -0.1596769 0.2723344 1.2904052 0.99873877 -0.07907049 0.24484532
0.22668348 0.09473771 0.226675 0.18216005 0.19909826 0.24300125 0.15086639 -0.33916995
0.56493664 0.12564507 0.40852174 0.3866706 -0.6423019 0.06115945 0.036842603 0.21905294
0.08037665 -0.40075466 0.3897748 -0.010375406 0.12924546 0.05577967 0.029681334 0.20055504
-0.1234977 -0.5345687 -0.92925584 0.20514002 -0.15460242 0.263716 -0.03766812 0.8410587
-0.11419444 0.047177073 -0.22255287 0.19323732 0.26442942 -0.034272864 0.623657 0.17235675
-0.4857252 0.07185833 0.04251484 0.19913517 0.22760464 0.5188448 0.1404792 0.3170741
0.0070078997 -0.033587348 0.51496834 -0.30395588 -0.050680872 0.31058866 0.14312965 -0.84797525
-0.4736055 0.05414351 -0.40283483 0.43491927 0.16837315 -0.38975796 0.100334086 0.14074217
-0.27058953 0.015999816 -1.2781707 0.5054622 0.45646048 0.3158578 -1.0137566 -0.07979931
0.24614908 0.80550504 -0.3039671 0.35261923 0.1053343 -0.028814284 0.35798445 0.2721215
0.25500122 0.35734993 0.32051107 0.15409648 0.009865842 0.2465913 0.12777053 -0.30839288
-0.6611208 0.793951 -0.005356273 -0.09652533 0.1296839 -0.6915568 0.04019502 0.40226504
-0.5943158 0.3800048 0.034574658 -0.35001788 -0.60792476 -0.14271876 0.15286295 -0.8023721
-0.044875138 0.13705297 -1.032642 0.45619884 -0.70806044 0.3255266 0.21120657 -0.92889965
0.6027273 0.10083164 0.71369046 0.5202887 0.26633978 0.22936645 0.24194111 0.011744259
-0.46109468 0.0874117 0.5930686 0.032228258 0.3407227 -0.08166337 0.18384135 0.1717505
0.4096996 -8.297447e-05 0.16811302 0.25448588 0.26609138 -0.015747897 0.29087734 0.54243183
0.22543812 -0.0009860806 0.1257874 0.5055476 -0.4775039 0.30538994 0.3676722 0.09689751
0.71255153 0.48973125 0.08542097 -0.1721609 0.0046239165 0.29566815 -0.23609643 -0.052785702
-0.008176979 -1.0204178 -0.02161129 0.50173146 -0.10114388 0.37134567 -0.2748065 -0.33559385
0.23329738 0.5433781 0.17065088 0.18739618 0.22283898 -0.65562534 0.41295558 0.0025900814
0.05408304 -0.47593027 0.30025014 -0.02112123 0.037656255 -0.30588824 0.10924739 -0.40278527
-0.17568709 -0.0060821665 0.45968255 0.092499934 0.15769947 -0.25822932 0.09668331 0.029727748
-0.18559487 0.027798556 0.5113075 -1.059333 0.324811 0.2093453 0.69664407 -0.261616
-0.3020676 -0.10926506 -0.43315116 -0.25450948 0.2268809 0.44582283 0.7909036 0.22299321
0.011581075 -0.09229992 0.3494361 0.04355791 -0.5541082 0.72558206 0.25762352 0.2695603
-0.23420098 -0.016390182 -0.16451085 0.29301918 -0.055086195 -0.25704056 -0.19324248 0.09095944
0.27275142 0.07766883 0.2592466 0.32224604 -1.1332406 -0.070290804 0.28041968 0.30747
0.27977225 0.23551217 0.18782865 0.42795053 0.13584517 0.19795513 -1.1586305 0.28305233
-0.03345871 0.031265233 0.593812 0.025637064 -0.045762397 0.09361016 0.08406093 -0.07521868
