hydrone_aerial_underwater_ddpg/scripts/Models/sac_stage_2_sub2D_tanh_3layers/1080_policy_net.pth (torch_old, 294219 bytes, 8 tensors)

linear1.weight f4 [256, 24]
0	0x3dda7b60	0.10668063
1	0xbcfabe35	-0.030608276
2	0xbd3e7ec8	-0.046507627
3	0xbcc3d13e	-0.023903485
4	0x3d833bcd	0.064078905
5	0x3df6451d	0.12024901
6	0xbda67195	-0.08127133
7	0xbe161223	-0.14655356
8	0xbc1a4a89	-0.009417185
9	0xbce0ca04	-0.027440079
10	0xbe0daa3f	-0.13834475
11	0xbca93a8b	-0.020657798
12	0xbdd142a9	-0.102177925
13	0xbe54fbde	-0.20799205
14	0x3c8db842	0.017299775
15	0x3cab34d9	0.020899223
16	0x3e0a66b2	0.13515738
17	0xb7ec8699	-2.819607e-05
18	0x3e0752a0	0.13215113
19	0x3d94e730	0.07270658
20	0x3e163a10	0.14670587
21	0x3e06db50	0.13169599
22	0x3fe7f3ad	1.8121239
23	0xbe81b5e0	-0.25334072
24	0x3cdb3f62	0.026763622
25	0x3ad15276	0.001597001
26	0xbc4a2125	-0.012337004
27	0x3dbb71a0	0.091525316
28	0x3c9c8149	0.019104617
29	0x3e9fa589	0.3118098
30	0x3e756403	0.23963933
31	0xbc2d489c	-0.010576393
32	0xbea71aba	-0.32637578
33	0xbd4e9b16	-0.05044087
34	0xbe211d6a	-0.15733877
35	0xbaf040bb	-0.0018329838
36	0xbe3b031e	-0.18262908
37	0xbe99751f	-0.2997217
38	0xbedb79dc	-0.4286641
39	0xbe0e183c	-0.13876432
40	0xbeafa9f3	-0.34309348
41	0xbe96d08e	-0.2945599
42	0xbe212893	-0.15738134
43	0x3c44ba18	0.012007259
44	0xbf4d94c8	-0.8030515
45	0xbe8ad5a5	-0.27116123
46	0x3f169648	0.5882306
47	0x3f6c59d4	0.92324567
48	0x3e3bffdd	0.18359323
49	0xbed8b81b	-0.4232796
50	0x3e8d0fea	0.27551204
51	0xbc104db0	-0.008807585
52	0xbd8ff5eb	-0.07029327
53	0xbe434d31	-0.19072415
54	0xbe3f2d6f	-0.18669675
55	0xbc8cc3c2	-0.017183188
56	0xbe9b0934	-0.3028046
57	0xbe699a38	-0.22812736
58	0xbdd11387	-0.10208803
59	0xbdc01f88	-0.09381014
60	0x3d18b67a	0.0372834
61	0xbdbe0dea	-0.09279998
62	0x3e1e86f8	0.15481174
63	0x3d204672	0.039129682
64	0x3db61b72	0.088919535
65	0xbd98854e	-0.07447301
66	0x3b8c6844	0.0042848904
67	0x3d6c5d3d	0.057706106
68	0xbe514686	-0.20437059
69	0x3f4f4cb0	0.8097639
70	0x3f13f2df	0.57792467
71	0xbecf1831	-0.40448144
72	0xbeba960b	-0.364426
73	0xbe981876	-0.29706162
74	0xbe30592d	-0.17221518
75	0x3da9fe42	0.08300449
76	0xbe61bb7f	-0.2204418
77	0x3bc500a8	0.006012041
78	0xbe3a46ae	-0.18191025
79	0xbdd1eaa5	-0.10249833
80	0xbb99e53c	-0.0046965163
81	0x3e066d29	0.13127579
82	0x3ae07be6	0.0017126768
83	0x3e6a867b	0.22902863
84	0x3d5663d1	0.052341286
85	0xbc888f24	-0.016669817
86	0xbe025cbc	-0.12730688
87	0xbe4d67c4	-0.20059115
88	0xbd5182e1	-0.051150206
89	0x3e55e4cc	0.2088806
90	0xbe759627	-0.2398306
91	0xbd91041c	-0.07080862
92	0x3edea12a	0.43482333
93	0xbf670bfe	-0.90252674
94	0xbecf15b6	-0.40446252
95	0xbe9246ae	-0.2856955
96	0x3db07817	0.08616655
97	0xbe124415	-0.14283784
98	0x3db15242	0.086582676
99	0xbde6e54e	-0.11274205
100	0x3db1914d	0.08670292
101	0x3d8b6911	0.06807149
102	0x3e785a1a	0.24253121
103	0xbe0436eb	-0.12911575
104	0x3e1e3d74	0.1545313
105	0x3d704390	0.058658183
106	0x3bac62bb	0.005260793
107	0x3e7b97d8	0.24569643
108	0x3e00070a	0.12502685
109	0xbe0ac20d	-0.13550587
110	0xbdbc64c5	-0.09198908
111	0xbe18d851	-0.14926268
112	0xbee245f2	-0.4419399
113	0xbe345c23	-0.17613272
114	0xbea04673	-0.31303748
115	0xbe57cd93	-0.21074514
116	0xbd5b9dc2	-0.053617246
117	0x3e91effa	0.285034
118	0xbfb0cd35	-1.3812624
119	0x3ec1d2b1	0.37856057
120	0x3e3df706	0.18551263
121	0xbb79d670	-0.00381222
122	0x3c1f5244	0.0097242035
123	0xbd16e29f	-0.036837216
124	0x3d9059ef	0.070484035
125	0x3d1f7e56	0.038938843
126	0xbdc6c42c	-0.097053856
127	0xbd7cdb1b	-0.061732393
128	0xbdcf6f04	-0.101285964
129	0x3de11cd2	0.10991825
130	0x3d521893	0.051292967
131	0x3d1674b0	0.036732376
132	0xbc76b79f	-0.015058427
133	0xbe48adf8	-0.19597614
134	0x3ce7441e	0.028230723
135	0xbdb54f45	-0.0885301
136	0xbe1e0022	-0.15429738
137	0x3d884108	0.06653029
138	0xbd1866ca	-0.037207402
139	0x3d6f1ffe	0.05838012
140	0xbe98c6f6	-0.29839295
141	0x3eeef44e	0.46670765
142	0x3f920a64	1.1409421
143	0xbec31580	-0.3810234
144	0xbd65f37f	-0.05614042
145	0xbcce5e6e	-0.025191512
146	0xbddd186e	-0.10795675
147	0xbcda9973	-0.026684498
148	0xbe3d4514	-0.18483382
149	0x3c9a6453	0.018846666
150	0xbd77225e	-0.06033551
151	0xbe6bac1a	-0.2301487
152	0xbe39b465	-0.18135221
153	0xbde3a42b	-0.11115297
154	0xbecb8a8a	-0.39754134
155	0xbe129bf4	-0.14317304
156	0xbdcb135c	-0.09915802
157	0x3e1dc36b	0.15406577
158	0xbdb4f517	-0.0883581
159	0x3d96415c	0.07336685
160	0x3e8e6be5	0.27816692
161	0xbdcb3ccc	-0.099237055
162	0x3dc1963c	0.09452483
163	0x3e88ea4d	0.26741257
164	0xbec475bb	-0.3837107
165	0xbebf6006	-0.37377948
166	0xbf362955	-0.7115682
167	0x3efbcf00	0.49181366
168	0xbd9370b7	-0.07199233
169	0x3e3468d7	0.17618118
170	0xbe348912	-0.17630413
171	0xbdb26323	-0.08710315
172	0xbd5de5ae	-0.054174118
173	0xbe12495c	-0.14285797
174	0xbe1bafd1	-0.15203787
175	0xbe69a726	-0.22817668
176	0x3dd099ea	0.10185607
177	0xbdea5401	-0.11441804
178	0xbe55d64a	-0.20882526
179	0xbd409eed	-0.047026563
180	0x3d5ec9a1	0.054391507
181	0x3e19b5fe	0.15010831
182	0x3e222a0c	0.15836352
183	0x3d7fb542	0.06242872
184	0xbd77d251	-0.060503308
185	0x3e0e9966	0.13925704
186	0x3c941b62	0.018079463
187	0x3e3f8116	0.18701586
188	0x3ef1c649	0.47221592
189	0x3f71d412	0.9446422
190	0x3f7d6c0a	0.9899298
191	0xbf175a87	-0.5912251
192	0x3e0134d8	0.12617815
193	0x3e37151c	0.17879146
194	0x3d445254	0.047930077
195	0xbde301d1	-0.11084331
196	0x3e0ab59f	0.13545845
197	0xbe55aa19	-0.20865668
198	0xbcd257d3	-0.025676643
199	0xbb63964d	-0.0034727037
200	0xbe055599	-0.13020934
201	0xbdd6a965	-0.10481528
202	0x3e944180	0.28956223
203	0x3bba3eeb	0.00568377
204	0x3ce747f3	0.02823255
205	0xbda632a6	-0.08115129
206	0x3deae7f7	0.11470025
207	0xbe34c115	-0.1765178
208	0xbe415559	-0.18880214
209	0x3d9c5da1	0.07635046
210	0x3de3b0dc	0.111177176
211	0xbdf52127	-0.11969214
212	0xbf5647d3	-0.83703345
213	0xbf7fd00b	-0.99926823
214	0xbe16aafc	-0.14713663
215	0xbecdac4b	-0.40170512
216	0xbc240f62	-0.010013433
217	0x3b11f88c	0.002227339
218	0xbd2daadc	-0.042399272
219	0x3a1c8f64	0.00059722946
220	0x3cd7eb29	0.02635725
221	0x3e1ffc4e	0.1562359
222	0x3c6325fd	0.013864038
223	0xbde5faba	-0.11229463
224	0x3d9515c7	0.07279544
225	0x3e0e095a	0.13870755
226	0x3e7dac1e	0.24772689
227	0xbdd51c06	-0.10405736
228	0x3db41818	0.08793658
229	0xbe8c296e	-0.27375358
230	0xbe5c13c4	-0.21491915
231	0xbe535e1b	-0.20641367
232	0x3d0a2b53	0.033732723
233	0xbdb1faae	-0.086903915
234	0x3e398b1c	0.18119472
235	0x3e0e119c	0.13873905
236	0xbd91126e	-0.07083593
237	0x3d913ebc	0.07092044
238	0x3e7c90fe	0.24664685
239	0x3f492640	0.7857399
240	0x3e98bc85	0.2983133
241	0xbdfa91c5	-0.122348346
242	0xbe0a5903	-0.13510518
243	0x3db0e98b	0.08638295
244	0xbe8619b7	-0.26191494
245	0xbddaaa27	-0.10676985
246	0xbdc3dd03	-0.09563639
247	0x3c506dc7	0.012721485
248	0x3e205903	0.15658955
249	0x3e5e2845	0.21695049
250	0xbdba4a47	-0.090961985
251	0x3e154557	0.14577232
252	0xbdd50d1e	-0.104028925
253	0x3da6dcbb	0.0814757
254	0xbe1655c5	-0.14681156
255	0xbd929782	-0.07157804

linear1.bias f4 [256]
0	0x3dab50e8	0.08365041
1	0x3f1049da	0.5636269
2	0xbcf4eb80	-0.029897451
3	0xbd4d8da5	-0.05018391
4	0xbe392e07	-0.18083964
5	0x3e0483f0	0.12940955
6	0x3efb3280	0.49061966
7	0x3e86376c	0.2621416
8	0x3e1fb7fe	0.15597531
9	0xbea3c5d2	-0.31986862
10	0x3d9cc699	0.07655067
11	0x3f289402	0.6585084
12	0x3e410a8f	0.18851684
13	0xbe01cde2	-0.12676194
14	0x3e7a1baa	0.24424616
15	0xbe1be2f5	-0.15223296
16	0xbea963cb	-0.33083948
17	0x3b22cf3f	0.0024842767
18	0x3f2dacb8	0.6784167
19	0xbe34b579	-0.17647351
20	0x3ec7a4cb	0.38992915
21	0x3cfd9a02	0.030957226
22	0xbb6b63ae	-0.0035917568
23	0xbefa92b3	-0.48940048
24	0x3e531c07	0.2061616
25	0xbe43b8c8	-0.19113457
26	0x3cb37758	0.021907493
27	0xbd56a107	-0.05239966
28	0xbd32bddb	-0.04363809
29	0xbd87f8e6	-0.066392705
30	0x3df9babe	0.12193821
31	0x3bda60d6	0.006664376
32	0x3f366e1c	0.71261764
33	0xbda9bf6e	-0.082884654
34	0xbd80c90f	-0.06288349
35	0x3ebf1f85	0.37328735
36	0x3e47109b	0.19439928
37	0xbc8afb73	-0.016965603
38	0x3db0904a	0.08621271
39	0xbdfcd278	-0.12344831
40	0x3f3c0fb0	0.7346144
41	0x3e427df7	0.18993364
42	0x3f06220f	0.5239572
43	0x3d5f1940	0.05446744
44	0xbda37844	-0.07981923
45	0xbd93682c	-0.071976036
46	0xbf178dde	-0.5920085
47	0x3f62a5b5	0.885341
48	0xbf3bf26e	-0.73416793
49	0x3dc3de15	0.09563843
50	0x3e3f5813	0.18685941
51	0xbd663edc	-0.05621229
52	0x3d15e26b	0.036592882
53	0xbee74d77	-0.45176288
54	0xbd163de8	-0.036680132
55	0xbee620a4	-0.44946778
56	0x3e2cc537	0.16872106
57	0x3dc4e036	0.09613077
58	0x3e39a4b0	0.1812923
59	0xbccf479d	-0.025302703
60	0x3e42dcc3	0.19029526
61	0x3c7146bc	0.014726337
62	0xbe959840	-0.2921772
63	0xbdd50076	-0.104004785
64	0x3e8da813	0.27667293
65	0xba02b5dc	-0.00049862056
66	0x3da16993	0.07881465
67	0x3dbeca87	0.09315973
68	0xbe4db061	-0.20086814
69	0x3ea60db4	0.3243233
70	0xbe5878c0	-0.21139812
71	0x3e193099	0.14959945
72	0x3e1c916c	0.15289849
73	0xbdb282c9	-0.087163515
74	0x3e9ea852	0.30987793
75	0x3ef1af92	0.47204262
76	0x3e29f388	0.16596806
77	0x3e5b7b1e	0.21433684
78	0xbe20a292	-0.15687016
79	0xbee10a4c	-0.43953168
80	0xbeeb2445	-0.4592611
81	0xbdf84bda	-0.121238425
82	0xbd818448	-0.06324059
83	0xbe269e33	-0.16271286
84	0x3d1a9ce5	0.037747283
85	0x3eaac1ff	0.33351132
86	0x3f10faf5	0.5663293
87	0xbeba21f8	-0.3635404
88	0x3c6e3b64	0.014540527
89	0x3d8ba51f	0.06818604
90	0xbed28b22	-0.41121775
91	0x3e913d8b	0.28367266
92	0x3b18ee1c	0.0023335284
93	0x3e2af38d	0.1669447
94	0xbcca2e68	-0.024680331
95	0x3e0131f0	0.12616706
96	0x3dece041	0.115662105
97	0x3f24c7d2	0.643674
98	0xbe753687	-0.23946582
99	0x3dc633bd	0.09677837
100	0xbdba0dbb	-0.0908465
101	0xbcdd6c36	-0.027029138
102	0xbe88a527	-0.266885
103	0xbda3b202	-0.07992937
104	0xbea05ef3	-0.3132244
105	0x3dd4f201	0.10397721
106	0x3e13dc3a	0.14439479
107	0x3d69e662	0.057104476
108	0x3e3b6214	0.18299133
109	0x3f26704b	0.65015095
110	0x3e53133f	0.2061281
111	0x3e923476	0.2855565
112	0x3e2a2678	0.16616237
113	0x3efff6d3	0.49993
114	0x3daef1a5	0.08542184
115	0x3e31eb55	0.17374928
116	0xbd8dcd55	-0.069239296
117	0xbe0661aa	-0.13123193
118	0xbd434604	-0.047674194
119	0x3d0bef77	0.03416392
120	0x3f129316	0.57255685
121	0xbddd98f6	-0.108201906
122	0xbeb0a567	-0.34501192
123	0x3c6eb074	0.014568437
124	0x3de344fd	0.11097143
125	0x3e485253	0.19562654
126	0x3e2216a4	0.15828949
127	0xbee70479	-0.451206
128	0xbef9053c	-0.48636806
129	0x3e99e4fd	0.30057517
130	0xbd4ebffb	-0.050476056
131	0x3e392875	0.1808184
132	0xbe05b0d2	-0.13055733
133	0xbde7093f	-0.112810604
134	0x3e9b2874	0.303043
135	0xbda2bbf8	-0.079460084
136	0x3dce47b7	0.10072272
137	0x3e3fdd93	0.18736868
138	0x3e236750	0.1595738
139	0x3cee94b1	0.029123636
140	0x3d932d2f	0.071863525
141	0xbccbac83	-0.024862533
142	0x3ce92434	0.028459646
143	0x3e83c781	0.25738147
144	0xbe953e6f	-0.29149196
145	0x3d08e7d3	0.03342421
146	0x3f10736d	0.56426126
147	0x3dc7660a	0.09736259
148	0x3ec7f2e2	0.39052492
149	0x3e16cf2f	0.14727472
150	0x3d99676c	0.07490429
151	0x3dd20465	0.102547444
152	0xbe272e4a	-0.16326252
153	0xbe173f66	-0.14770278
154	0xbe8c85e8	-0.27445912
155	0xbdaeb62c	-0.0853084
156	0xbd03da36	-0.032190524
157	0x3db1112b	0.08645853
158	0xbd4b023a	-0.04956267
159	0xbf3baf00	-0.73313904
160	0x3d580804	0.05274202
161	0x3f0fda19	0.56192166
162	0xbe600e38	-0.21880424
163	0x3d5991f6	0.053117715
164	0xbdb608e9	-0.08888418
165	0xbd9ff730	-0.07810819
166	0xbd0106da	-0.031500675
167	0x3ec285a3	0.37992582
168	0x3edd8647	0.43266508
169	0x3ccb5dd5	0.024825016
170	0xbe12b906	-0.14328393
171	0xbdaa92c5	-0.08328775
172	0xbecd00d3	-0.4003969
173	0xbdb256a9	-0.08707935
174	0xbd59f149	-0.053208623
175	0xbe900ff8	-0.28137183
176	0x3cd9d103	0.026588922
177	0x3d8abd9f	0.067744486
178	0x3e662e5b	0.2247862
179	0xbf1b4fb9	-0.6066852
180	0x3da79e92	0.08184542
181	0x3eab8d92	0.33506447
182	0x3d3614e1	0.044453505
183	0x3e69e78b	0.22842233
184	0x3ec047c1	0.37554744
185	0x3e9c0b4d	0.30477372
186	0xbf01e645	-0.5074199
187	0xbe304e5c	-0.17217392
188	0xbe580718	-0.21096456
189	0x3f1baa99	0.60807186
190	0x3e2fa8c0	0.17154217
191	0x3e6fff96	0.23437342
192	0x3e908839	0.2822893
193	0xbbef63e5	-0.0073056095
194	0x3e5665ad	0.20937224
195	0xbde7728a	-0.113011435
196	0x3e82c1c7	0.25538465
197	0x3e8d08db	0.2754582
198	0x3d8adcb1	0.06780375
199	0x3f05579e	0.5208682
200	0x3d007d47	0.031369474
201	0x3d5e377f	0.054252144
202	0x3e337569	0.17525257
203	0xbe8cebd1	-0.27523664
204	0xba1a7c9b	-0.00058932015
205	0xbd87ca34	-0.06630364
206	0x3f0727a0	0.5279484
207	0x3ec95c11	0.39328054
208	0x3dbd6826	0.0924838
209	0xbdaafc8c	-0.08348951
210	0xbe8c0125	-0.27344623
211	0xbe609762	-0.21932748
212	0xbd8c14ec	-0.06839928
213	0xbde224f0	-0.110422015
214	0x3cc5d3e0	0.024148881
215	0x3e70e46d	0.23524638
216	0xbecf5a65	-0.40498653
217	0x3da47217	0.080295734
218	0xbe4b4dbf	-0.19853877
219	0xbdce63a2	-0.10077597
220	0x3d053f5c	0.032531127
221	0xbf77ebb5	-0.96844035
222	0xbe762400	-0.2403717
223	0xbe84134b	-0.2579597
224	0x3eae9a65	0.3410217
225	0x3e6b1d8f	0.22960494
226	0x3f049eb0	0.5180464
227	0xbea416a5	-0.32048526
228	0xbc511d62	-0.012763353
229	0xbcf28858	-0.02960603
230	0x3e838b34	0.2569214
231	0xbe76f1d3	-0.24115686
232	0xbd552ed0	-0.052046597
233	0xbcfb8894	-0.030704774
234	0xbd2f34a6	-0.04277482
235	0x3d572886	0.05252888
236	0xbd809ca9	-0.062798806
237	0xbccdf017	-0.025138898
238	0x3f7359dd	0.95058995
239	0xbe6111ac	-0.21979398
240	0x3e4b7c8e	0.19871733
241	0x3e201b3e	0.15635392
242	0x3ce0e084	0.027450807
243	0xbe550c06	-0.20805368
244	0x3d24340f	0.04008871
245	0xbd9bede5	-0.07613734
246	0x3e04cb3d	0.12968154
247	0x3ca71648	0.020396367
248	0x3e18da8b	0.14927118
249	0x3da85734	0.08219758
250	0x3e729f31	0.23693539
251	0xbebff8b8	-0.37494445
252	0xbe94fb7f	-0.29098126
253	0x3e863e53	0.26219425
254	0x3e942688	0.28935647
255	0x3e0754c0	0.13215923

linear2.weight f4 [256, 256]
0	0x3e8e5bcc	0.2780441
1	0x3f45a626	0.7720665
2	0x3d9f6723	0.07783344
3	0x3dde9e07	0.10869985
4	0xbeff74ec	-0.49893892
5	0x3d706a1b	0.05869494
6	0x3eb84005	0.35986343
7	0x3e0aa6d6	0.13540205
8	0xbdafad5b	-0.08577987
9	0xbda84845	-0.08216909
10	0x3e1cb861	0.1530471
11	0xbf212e43	-0.62961215
12	0x3ecc1ce9	0.39865807
13	0xbea1d18b	-0.3160518
14	0x3ecea01c	0.4035653
15	0x3d151224	0.036394253
16	0xbee72dff	-0.4515228
17	0xbf08fce7	-0.535109
18	0xbe6864a7	-0.22694646
19	0xbf003c91	-0.50092417
20	0xbe958466	-0.29202574
21	0x3da31d88	0.07964617
22	0xbbc08823	-0.0058756038
23	0x3e9a7e96	0.30174702
24	0xbf6e3b27	-0.9305901
25	0x3de292f4	0.11063185
26	0xbee5d7df	-0.4489126
27	0xbd6f3843	-0.058403265
28	0xbcb16f64	-0.02165956
29	0xbe513b2f	-0.20432733
30	0xbdca938c	-0.098914236
31	0x3cab68ac	0.020923935
32	0xbdc238e4	-0.09483507
33	0xbe30a697	-0.17251049
34	0xbe427f56	-0.18993887
35	0xbef8c984	-0.48591244
36	0xbf77a1cf	-0.96731275
37	0xbed719dc	-0.42011917
38	0xbe32e1b2	-0.17468908
39	0xbf0a49d1	-0.54018885
40	0xbdab1fea	-0.083556965
41	0xbec3afaf	-0.38219973
42	0xbed6b3ff	-0.419342
43	0xbf1138a5	-0.5672706
44	0xbf05a0d4	-0.5219853
45	0xbdd815e6	-0.10551052
46	0x3e046956	0.12930807
47	0x3ecac174	0.39600718
48	0xbeedfb59	-0.46480826
49	0xbdee3937	-0.116320066
50	0xbe3a6e60	-0.18206167
51	0x3c587216	0.013210794
52	0x3df22cb4	0.11824933
53	0xbd612f5d	-0.05497681
54	0x3a1b8551	0.00059326465
55	0xbe9a455a	-0.30131036
56	0xbe05c93f	-0.1306505
57	0x3e1ddb51	0.15415694
58	0xbeaa09a1	-0.3321047
59	0xbe1e0a8c	-0.15433711
60	0xbef76545	-0.4831945
61	0xbda2ecbe	-0.07955311
62	0xbee03c27	-0.43795893
63	0x3e03dd3a	0.1287736
64	0xbe919de6	-0.2844078
65	0x3ba3cc22	0.0049986998
66	0x3e2533e1	0.16133071
67	0xbd223e8a	-0.039610423
68	0xbcf51116	-0.029915374
69	0xbe3c690e	-0.1839945
70	0x3ee26c79	0.44223383
71	0x3e152b8a	0.1456739
72	0xbe6dcbbe	-0.23222253
73	0xbdd39916	-0.10331933
74	0xbd818265	-0.06323699
75	0xbf344866	-0.7042297
76	0xbe074c9b	-0.13212816
77	0x3e0ab38a	0.13545051
78	0xbea18547	-0.31546995
79	0x3ee72c34	0.45150912
80	0xbf36dd2e	-0.71431243
81	0xbe67cb30	-0.22636104
82	0x3b73349f	0.0037110222
83	0x3ebdaa27	0.37043878
84	0x3d0cfa3b	0.034418326
85	0x3d420a76	0.047373258
86	0x3e8d9c9a	0.2765854
87	0xbda0a568	-0.07844049
88	0xbec263b4	-0.37966692
89	0x3e7db0b6	0.24774441
90	0xbe6bbf97	-0.23022304
91	0x3d1cfdff	0.038328167
92	0x3de36c1b	0.11104604
93	0xbd863daf	-0.06554734
94	0x3e15be15	0.14623292
95	0xbeae1070	-0.33996916
96	0x3bc5448f	0.0060201357
97	0x3eaae106	0.33374804
98	0xbca05b4b	-0.019574782
99	0x3eb8947c	0.36050785
100	0xbd9af9fb	-0.07567211
101	0xbe09b8f1	-0.13449456
102	0x3e4bb54d	0.1989338
103	0x3d82fdcc	0.06396064
104	0xbe340981	-0.1758175
105	0x3e0909d6	0.13382658
106	0xbf4a0a66	-0.78922117
107	0xbed0ee32	-0.4080673
108	0x3eb20a28	0.34773374
109	0xbe34bcf3	-0.17650203
110	0xbf6106ef	-0.87901205
111	0xbdbb2d3f	-0.091394894
112	0xbeba9469	-0.36441353
113	0xbe3451ed	-0.17609377
114	0xbe0944ac	-0.13405102
115	0x3ddbab83	0.10726073
116	0xbeac0584	-0.33597958
117	0xbbe4b1a4	-0.006979184
118	0xbce02662	-0.027362052
119	0xbe791bf1	-0.24327065
120	0x3dc97bc0	0.098380566
121	0xbdc4bb3a	-0.09606023
122	0xbdfe13c1	-0.124061115
123	0x3f109119	0.564714
124	0xbde1b8ba	-0.11021562
125	0xbeaae3cc	-0.3337692
126	0x3efe722c	0.4969648
127	0x3e4b9689	0.19881643
128	0xbe1b5a91	-0.15171267
129	0xbd2adff0	-0.04171747
130	0xbddd8697	-0.108166866
131	0xbd4a147d	-0.049335945
132	0xbea444a0	-0.32083607
133	0xbdfebcee	-0.12438379
134	0xbeb5a39a	-0.3547638
135	0xbe93cbb7	-0.2886636
136	0xbf1a6057	-0.6030325
137	0xbe6bcdb8	-0.23027694
138	0xbeac20fd	-0.33618918
139	0x3d8f585a	0.069992736
140	0xbf09313d	-0.53590757
141	0xbdb293dc	-0.08719608
142	0xbe88386b	-0.26605543
143	0x3e77bc5a	0.24192944
144	0xbe3feb97	-0.18742214
145	0xbc93a5a4	-0.01802332
146	0xbec77467	-0.38955995
147	0x3cd81d92	0.026381288
148	0xbe2ee518	-0.1707958
149	0x3eca1593	0.39469585
150	0x3e0ec012	0.13940457
151	0x3d6c4467	0.05768242
152	0x3dc00a2e	0.093769416
153	0x3d545bb6	0.051845275
154	0x3bf4bf02	0.007469059
155	0xbd0b05ad	-0.03394096
156	0xbeb234a5	-0.3480579
157	0x3e8ef669	0.2792237
158	0x3c21845f	0.00985822
159	0xbde512c2	-0.111852184
160	0xbcbf0cd9	-0.023321556
161	0xbc54c067	-0.012985325
162	0x3d12a203	0.035799038
163	0xbea1505f	-0.3150663
164	0xbe7e3bf3	-0.24827556
165	0x3ce1d51e	0.027567443
166	0x3d63707f	0.055527207
167	0xbe2869eb	-0.16446654
168	0x3edf0348	0.4355719
169	0xbdfda8c0	-0.12385702
170	0xbe22809b	-0.15869372
171	0x3dc167ad	0.09443603
172	0xbe033609	-0.12813582
173	0xbdb1da8e	-0.08684264
174	0xbe605837	-0.21908651
175	0x3e133421	0.14375354
176	0xbe9b9840	-0.30389595
177	0x3eae69da	0.34065133
178	0xbe8c9ec2	-0.27464873
179	0xbe74f70d	-0.23922367
180	0x3d0814c5	0.033222932
181	0x3f35b742	0.70982754
182	0x3ebae9b2	0.3650642
183	0xbf320473	-0.6953804
184	0x3d6fcf90	0.058547556
185	0xbed5c960	-0.417552
186	0x3e4a2395	0.19740136
187	0x3e84aacc	0.25911558
188	0xbca74097	-0.020416541
189	0x3e9684f7	0.2939832
190	0xbe8aacfd	-0.27085105
191	0xbda4c868	-0.08046037
192	0xbe0a6b19	-0.13517417
193	0xbe88b90a	-0.26703674
194	0xbcfcafb9	-0.03084551
195	0xbe544985	-0.2073117
196	0xbde82883	-0.11335852
197	0x3d3e6a1a	0.046487905
198	0xbf40caf1	-0.75309664
199	0xbe914e6c	-0.28380144
200	0x3d3961ef	0.045259412
201	0xbf6f5136	-0.93483293
202	0xbf7b46bd	-0.98154813
203	0xbed0bfb7	-0.40771267
204	0xbe9a9e2e	-0.30198807
205	0xbd1709a4	-0.03687443
206	0x3de43591	0.111430295
207	0x3e74a98b	0.238928
208	0xbe281f84	-0.16418272
209	0x3e47521d	0.19464917
210	0xbec9475b	-0.39312252
211	0xbe48c784	-0.19607359
212	0xbef068e8	-0.46955037
213	0xbf2830f7	-0.65699714
214	0x3c3c56f6	0.0114953425
215	0xbd94603f	-0.0724492
216	0x3d253c52	0.04034073
217	0xbe962853	-0.2932764
218	0x3c53d434	0.012929011
219	0x3e961015	0.29309145
220	0xbec14452	-0.37747437
221	0xbf1bf0ac	-0.6091411
222	0xbe10d652	-0.14144257
223	0xbd4f3b86	-0.050593875
224	0xbea83cff	-0.32859036
225	0xbc1841cc	-0.009293031
226	0xbe4d44cd	-0.20045777
227	0xbeb655b0	-0.3561225
228	0xbd03cf63	-0.0321802
229	0xbeaa5c0e	-0.33273357
230	0x3f0cbdd3	0.5497715
231	0xbc4ce9b3	-0.01250689
232	0xbe4511de	-0.19245097
233	0x3d9e5451	0.07730926
234	0x3e6553f1	0.22395302
235	0xbf31d533	-0.6946594
236	0xbef2ae00	-0.47398376
237	0x3e51b732	0.2048004
238	0x3e2e7a82	0.1703892
239	0xbeb09ad4	-0.34493124
240	0xbf30b5f7	-0.69027656
241	0xbf6af375	-0.91777736
242	0xbec3a1af	-0.38209292
243	0xbe9541dd	-0.29151812
244	0xbe178d85	-0.14800079
245	0xbe83646f	-0.25662562
246	0xbe9645f4	-0.29350245
247	0x3e27f92f	0.1640365
248	0x3dfb4c2d	0.12270389
249	0x3eebe2d0	0.46071482
250	0x3d3073a7	0.043079045
251	0x3d099dc9	0.03359774
252	0xbd95b5fe	-0.07310103
253	0xbf144354	-0.57915235
254	0xbf4cabe6	-0.79949796
255	0x3eacfd37	0.33786938

linear2.bias f4 [256]
0	0x3ed3a696	0.41338032
1	0xbce382be	-0.027772304
2	0xbdfcad4a	-0.1233774
3	0x3eb29330	0.3487792
4	0xbd3e50f5	-0.046463925
5	0xbe7c45a5	-0.24635942
6	0xbe2523cd	-0.16126938
7	0xbe1289ea	-0.14310423
8	0x3ed17945	0.40912834
9	0xbe23ccf9	-0.1599616
10	0x3e417dc5	0.18895634
11	0x3dbe3904	0.092882186
12	0xbd8b7044	-0.06808522
13	0xbde2a854	-0.11067262
14	0x3e8e0257	0.2773616
15	0x3f7f0acb	0.99625844
16	0xbd4a5a8a	-0.04940275
17	0x3e491786	0.1963788
18	0x3e0be23c	0.1366052
19	0xbe942096	-0.2893111
20	0x3ea3d009	0.31994656
21	0xbe042b53	-0.12907152
22	0x3e8b7ef3	0.27245292
23	0xbe89ea31	-0.26936486
24	0x3e9b0095	0.30273882
25	0x3db663fb	0.089057885
26	0x3d1e318f	0.03862148
27	0xbd39fd19	-0.04540739
28	0xbedd6b74	-0.43246043
29	0xbde7fee5	-0.11327914
30	0xbd9308db	-0.071794234
31	0x3d001161	0.031266574
32	0x3d4b27e3	0.049598586
33	0x3e5b4929	0.21414627
34	0x3e2934d1	0.16524054
35	0xbd7723f3	-0.06033702
36	0xbe0af815	-0.13571198
37	0xbea2b04e	-0.31775135
38	0x3e0c0651	0.13674285
39	0xbe3baf58	-0.18328607
40	0x3dcb07f2	0.09913625
41	0x3e2dd2ef	0.16974996
42	0x3ba49ef1	0.00502383
43	0xbdc0b14a	-0.09408815
44	0x3f05c782	0.5225755
45	0x3e4dc7e9	0.20095791
46	0x3cc27ad9	0.023740219
47	0x3c9d6f03	0.019217974
48	0xbe1d2830	-0.15347362
49	0xbd238c3c	-0.03992866
50	0x3d81459b	0.06312104
51	0x3cc427e2	0.023944799
52	0x3db5bb9a	0.08873673
53	0xbdff7771	-0.124739535
54	0x3e24964d	0.1607296
55	0x3e844261	0.25831893
56	0x3e97bfe9	0.29638603
57	0x3dc8c281	0.09802724
58	0x3e1cc293	0.15308599
59	0xbd232396	-0.03982886
60	0x3e2eeee5	0.17083319
61	0x3e73d52f	0.23811792
62	0xbef6354c	-0.48087537
63	0xbeb02219	-0.34401014
64	0xbd9948a3	-0.074845575
65	0xbd62a5eb	-0.055334013
66	0x3e3c450f	0.18385719
67	0xbd537772	-0.051627584
68	0xbe920911	-0.28522542
69	0x3c89b946	0.016811978
70	0x3dc1726a	0.09445651
71	0xbdbb669f	-0.09150433
72	0xbd86bf48	-0.06579453
73	0xbe2f56c6	-0.17122945
74	0x3e013348	0.12617218
75	0xbe40f700	-0.18844223
76	0x3fcb13e3	1.5865444
77	0xbceffb82	-0.029294733
78	0x3de0e2c6	0.109807536
79	0x3e53aef7	0.20672213
80	0xbedef80e	-0.43548626
81	0xbeb51ef4	-0.35375178
82	0x3dfe6abb	0.12422701
83	0x3f080b4e	0.5314225
84	0x3e70fbba	0.23533526
85	0xbe2211c2	-0.15827087
86	0x3eff92bb	0.49916634
87	0xbcded02c	-0.027198873
88	0xbe463265	-0.19355161
89	0xbe908e57	-0.28233597
90	0x3db2bb93	0.08727183
91	0x3e2d32c8	0.16913903
92	0x3f002d1c	0.5006883
93	0xbd89f86e	-0.06736837
94	0xbed23838	-0.41058517
95	0xbd8d90fe	-0.06912421
96	0xbe6c724f	-0.2309048
97	0x3cc6858c	0.024233602
98	0x3f8b9df3	1.0907577
99	0xbc289453	-0.0102892695
100	0xbe1d4944	-0.1535998
101	0x3e021bbb	0.12705891
102	0xbeeca32d	-0.46218243
103	0x3d640beb	0.05567543
104	0xbe837dc4	-0.2568189
105	0x3dbf488e	0.093400106
106	0x3d8240d0	0.06360018
107	0xbe8bb501	-0.27286533
108	0x3e12c1d4	0.14331752
109	0xbdcf91e1	-0.10135246
110	0x3ded25c4	0.11579469
111	0x3e7265f6	0.23671708
112	0xbb310e97	-0.0027016753
113	0xbe7986ea	-0.24367872
114	0xbe36f195	-0.17865594
115	0x3e0be674	0.1366213
116	0xbe8663c0	-0.26247978
117	0x3da63ee0	0.08117461
118	0x3d83d511	0.064371236
119	0xbe370cd8	-0.17875993
120	0xbdc063a2	-0.093940035
121	0xbea0ca25	-0.31404224
122	0xbdbda106	-0.092592284
123	0xbe4ac0d5	-0.19800122
124	0xbd97c063	-0.07409742
125	0xbeba8e69	-0.36436775
126	0x3e578159	0.21045436
127	0x3c0a44b8	0.008439235
128	0xbaaef827	-0.0013349102
129	0xbe9f1d28	-0.31076932
130	0x3e2e5939	0.17026223
131	0xbe9d4a3f	-0.30720708
132	0x3e4081ff	0.1879959
133	0xbe08a14b	-0.13342778
134	0xbe73e3ab	-0.23817317
135	0xbed5803f	-0.41699407
136	0xbef811db	-0.48451123
137	0x3e1b2171	0.15149476
138	0xbea4cd07	-0.32187673
139	0xbe025bf2	-0.12730387
140	0xbe0b8459	-0.13624705
141	0x3d2b1586	0.041768573
142	0x3df8258b	0.12116536
143	0x3c1710eb	0.009220342
144	0xbe1882e3	-0.1489368
145	0x3e17a3b1	0.14808537
146	0xbdc79650	-0.09745467
147	0x3e79b6d2	0.24386147
148	0xbe2b74f8	-0.16743839
149	0x3e5314ce	0.20613405
150	0x3dd3e89e	0.103471026
151	0xbdd520db	-0.10406657
152	0xbd7d4ec9	-0.061842714
153	0xbe1c5a04	-0.15268713
154	0xbe337dc6	-0.17528448
155	0x3ea459e0	0.3209982
156	0xbdff1400	-0.124549866
157	0x3fb3f18d	1.405809
158	0x3db20c10	0.08693707
159	0x3e9776f9	0.29582956
160	0x3d71ba4d	0.05901556
161	0x3dc5770c	0.09641847
162	0x3e2f27be	0.17105004
163	0x3e5246e5	0.20534857
164	0xbe142038	-0.14465415
165	0xbe610152	-0.2197316
166	0x3dfe15ed	0.12406526
167	0xbeb7b470	-0.3587985
168	0x3e19b701	0.15011217
169	0x3b6f3bc1	0.0036504122
170	0xbeabd236	-0.33558816
171	0x3e045802	0.12924197
172	0xbe2c79a7	-0.16843282
173	0xbdbad7e3	-0.091232084
174	0xbefacf5f	-0.48986337
175	0xbe50201e	-0.20324752
176	0xbeed1c59	-0.4631069
177	0xbe8939f7	-0.26802036
178	0x3e3a1f31	0.18175961
179	0xbe04439b	-0.12916414
180	0xbdbba346	-0.09162001
181	0x3e9d25cf	0.30692908
182	0x3e27d048	0.16388047
183	0x3daeedda	0.0854146
184	0xbdd471a8	-0.10373241
185	0xbe238580	-0.15968895
186	0x3dffdb07	0.12492948
187	0xbe9cbe10	-0.30613756
188	0x3e65dd08	0.22447598
189	0xbd704808	-0.058662444
190	0x3c77a05b	0.015113915
191	0x3eade915	0.3396689
192	0x3d0211f8	0.031755418
193	0xbdbd2fb3	-0.092376135
194	0xbf26f574	-0.6521828
195	0xbe704e9a	-0.23467484
196	0xbeb04e73	-0.34434852
197	0x3c7610f9	0.015018695
198	0x3d7fab48	0.062419206
199	0x3e8298b7	0.25507137
200	0xbd81a9b1	-0.06331194
201	0x3ee4d04d	0.4469017
202	0x3e2bcc86	0.16777238
203	0xbe8055cd	-0.2506546
204	0xbf041cc1	-0.51606375
205	0xbe00bcec	-0.12572068
206	0xbdd7abc1	-0.10530806
207	0x3f0a5ef0	0.54051113
208	0x3d8d843a	0.06909986
209	0xbdb85bfd	-0.0900192
210	0x3dffd5a2	0.12491919
211	0xbd8fe055	-0.0702521
212	0x3e8362c1	0.2566128
213	0x3d546c9a	0.051861383
214	0xbd3408bb	-0.04395364
215	0xbde8074c	-0.11329517
216	0x3f20b17f	0.6277084
217	0x3e2a6c74	0.16642934
218	0xbee3710f	-0.44422194
219	0x3ef737d7	0.4828479
220	0xbe743fb3	-0.23852424
221	0xbe1cb774	-0.15304357
222	0xbc3ac8c1	-0.0114004025
223	0xbe8861c6	-0.26637095
224	0x3e44f30b	0.19233339
225	0xbe9a6423	-0.30154523
226	0x3e62cdf6	0.2214888
227	0xbd534f62	-0.051589377
228	0xbf119ba8	-0.5687814
229	0xbc9112f1	-0.017709227
230	0xbda5e11b	-0.08099576
231	0x3ed970b9	0.42468813
232	0xbd9c81ce	-0.07641946
233	0x3d98d212	0.07461943
234	0xbda1d045	-0.079010524
235	0xbe15678b	-0.1459028
236	0xbe2b519c	-0.1673035
237	0xbd9d8432	-0.0769123
238	0x3e1d9da1	0.15392162
239	0xbc8d621f	-0.017258702
240	0xbe637238	-0.2221154
241	0xbceeeee0	-0.029166639
242	0x3f612da9	0.87960297
243	0x3de18cfd	0.110132195
244	0xbdd8b41a	-0.10581227
245	0xbe38dc09	-0.18052687
246	0x3e3ec97a	0.18631545
247	0xbc854cb6	-0.01627193
248	0x3c24cc4a	0.010058472
249	0x3deb50dd	0.11490033
250	0xbd42fe8d	-0.04760604
251	0xbd8e5d29	-0.06951363
252	0x3e1167fa	0.1419982
253	0x3d9e7771	0.077376254
254	0x3df56c43	0.1198354
255	0xbeac680d	-0.33673134

mean_linear.weight f4 [2, 256]
0	0x3cc7d4d4	0.024393477
1	0x3e8ec5bb	0.2788523
2	0x3e6c85c2	0.230979
3	0xbe478014	-0.19482452
4	0x3e4ce46a	0.20009008
5	0xbf854029	-1.0410205
6	0x3ef5dac3	0.48018464
7	0x3ef1a323	0.47194776
8	0x3f0ee877	0.55823463
9	0xbe53380b	-0.20626847
10	0xbd2b091a	-0.041756727
11	0xbef1e905	-0.47248092
12	0xbc651696	-0.013982436
13	0x3d9de555	0.07709757
14	0xbf522a60	-0.8209591
15	0x3dbdac04	0.09261325
16	0xbe2dda5d	-0.1697783
17	0x3ec9e285	0.39430633
18	0xbe07fefa	-0.1328086
19	0x3c94bfec	0.018157922
20	0x3f246625	0.6421836
21	0x3e2a3bcc	0.16624373
22	0x3ea66ebe	0.32506365
23	0xbe8a3471	-0.26993135
24	0x3f493e11	0.7861033
25	0x3eed865e	0.46391577
26	0xbec0365e	-0.3754148
27	0x3e89d02d	0.26916638
28	0xbb9f3b58	-0.0048593692
29	0xbdcf0996	-0.1010925
30	0xbe77115b	-0.24127714
31	0x3c27dffd	0.010246274
32	0xbe9e51e7	-0.30921862
33	0xbf1650bc	-0.5871694
34	0xbe8eebdf	-0.2791433
35	0x3ee3fdcf	0.44529578
36	0xbe17de59	-0.14830913
37	0x3d9bf9aa	0.07615979
38	0xbde3443e	-0.110970005
39	0xbe2d1800	-0.16903687
40	0xbde80136	-0.11328356
41	0xbef54261	-0.47902206
42	0x3d6067c2	0.05478645
43	0xbf105a6b	-0.56387967
44	0x3cdbadb5	0.026816228
45	0x3f15317c	0.5827863
46	0x3ef0f603	0.47062692
47	0xbcdd9b78	-0.027051672
48	0x3f3d641c	0.7398088
49	0x3f186f51	0.59544855
50	0x3da4e72b	0.08051904
51	0x3f003842	0.5008584
52	0x3f1bdb24	0.6088126
53	0x3e1e2c61	0.15446617
54	0xbecb1baf	-0.39669558
55	0xbdb7fd17	-0.0898382
56	0x3d0fa91a	0.035073377
57	0xbea22e27	-0.31675836
58	0x3ea1091a	0.31452256
59	0x3eb06702	0.3445359
60	0xbb32c094	-0.002727543
61	0xbe71b459	-0.23603953
62	0xbeb0921b	-0.3448647
63	0x3dbedc8e	0.09319411
64	0x3c6322ff	0.013863324
65	0x3fa757f3	1.3073715
66	0xbe9ea911	-0.30988362
67	0xbd75cec4	-0.06001164
68	0xbed9a421	-0.42508033
69	0x3e89e33d	0.26931182
70	0x3f395179	0.7238994
71	0xbd9cfa37	-0.07664912
72	0xbef3433c	-0.47512233
73	0xbe6e8642	-0.23293403
74	0x3f2f5f60	0.68504906
75	0xbe2fdd0d	-0.17174168
76	0x3e4156dc	0.1888079
77	0xbc3d54c9	-0.011555859
78	0xbd6406b9	-0.055670474
79	0xbf40ede6	-0.75363004
80	0xbe5b7600	-0.21431732
81	0xbdcc3b6a	-0.0997227
82	0x3dfe299e	0.124102816
83	0x3ef3444e	0.4751305
84	0x3dddc670	0.108288646
85	0x3ef79234	0.48353732
86	0xbe085eaf	-0.13317369
87	0xbf0e0f5b	-0.5549218
88	0x3f0c6e7d	0.5485609
89	0x3e023ed1	0.12719275
90	0x3e19b4f7	0.15010439
91	0x373404fb	1.0729996e-05
92	0xbe3484c1	-0.17628767
93	0x3e33f4a2	0.17573789
94	0xbe843a0c	-0.25825536
95	0x3de097d6	0.109664604
96	0xbf2abccc	-0.6669433
97	0x3e87a3f0	0.26492262
98	0xbf004a39	-0.50113255
99	0xbf91ea2b	-1.1399587
100	0xbed1e522	-0.40995127
101	0x3e7e2d9b	0.24822085
102	0xbea5200c	-0.32251012
103	0x3d46c84f	0.048530873
104	0x3dc7a7fd	0.09748838
105	0x3e94e0aa	0.29077655
106	0x3e4a366f	0.19747327
107	0xbe038af5	-0.12845977
108	0xbf05ac4b	-0.52216023
109	0xbdc58108	-0.096437514
110	0xbe9c231d	-0.3049554
111	0x3ecf6f88	0.4051478
112	0xbc9f7935	-0.019466976
113	0xbe3a7c69	-0.18211521
114	0xbf17030d	-0.5898903
115	0x3e78f1ac	0.2431094
116	0x3e8a4040	0.27002144
117	0x3c8e135f	0.017343221
118	0xbeab6446	-0.3347494
119	0xbee5b6ce	-0.4486603
120	0xbe9f0034	-0.31054842
121	0xbda149d1	-0.078754075
122	0x3ef04b20	0.46932316
123	0x3d4ba715	0.04971989
124	0xbe478c08	-0.19487011
125	0xbe5a4220	-0.21314287
126	0xbecea892	-0.40362984
127	0x3f871cc8	1.0555658
128	0x3dcfdaf7	0.10149186
129	0xbde8d6ab	-0.1136907
130	0x3f60985f	0.877325
131	0xbe8bfde5	-0.27342144
132	0x3ed26ff6	0.41101044
133	0x3eb473a9	0.35244492
134	0x3e387f58	0.18017328
135	0xbcc95953	-0.024578726
136	0xbd5e6c4c	-0.0543025
137	0x3f0a7655	0.5408681
138	0x3db850a0	0.08999753
139	0xbe45754e	-0.1928303
140	0xbe2c65d7	-0.16835724
141	0x3d201b26	0.03908839
142	0xbf196f25	-0.5993522
143	0xbe70e870	-0.23526168
144	0x3f0dadca	0.55343306
145	0xbe4c8119	-0.19971122
146	0xbd411ec5	-0.047148485
147	0xbde4cfe9	-0.11172468
148	0xbe4da76d	-0.20083399
149	0xbeb23bcd	-0.3481125
150	0x3e1994a6	0.14998111
151	0x3f1a53de	0.6028422
152	0xbc1fd919	-0.00975635
153	0xbe02c516	-0.12770495
154	0xbe1bb75b	-0.15206663
155	0xbd4b849f	-0.049687024
156	0x3f2fe58e	0.6870965
157	0x3eaad452	0.33365113
158	0x3d77c80f	0.060493525
159	0x3e9db81e	0.30804533
160	0x3e4ec4b6	0.20192227
161	0xbf1ba3e9	-0.6079698
162	0x3d64a242	0.055818804
163	0xbe68993e	-0.22714707
164	0xbddf406a	-0.10900958
165	0xbeaca822	-0.33722025
166	0xbed5dacb	-0.41768488
167	0xbf02d3c5	-0.51104385
168	0x3f895995	1.0730463
169	0x3d304bae	0.043040924
170	0xbd5a61fd	-0.053316105
171	0xbeb7c597	-0.35892937
172	0xbee9a247	-0.4563162
173	0x3e3b0fae	0.182677
174	0xbce34490	-0.027742654
175	0xbc3515ca	-0.011052558
176	0xbcd61ec5	-0.026137719
177	0xbf32a093	-0.69776267
178	0x3eea5856	0.4577052
179	0xbe4bd49f	-0.19905327
180	0xbecac615	-0.3960425
181	0x3ea67325	0.32509723
182	0xbf2e2b5f	-0.6803493
183	0x3f5a56c9	0.85288674
184	0x3ee03b3c	0.43795192
185	0x3e96a482	0.29422385
186	0xbf14de33	-0.5815155
187	0x3dce0096	0.100587055
188	0x3eb69637	0.3566148
189	0x3f597b6d	0.8495396
190	0x3e4e6fb5	0.201598
191	0x3e9cd5df	0.3063192
192	0xbf005a02	-0.5013734
193	0x3e3c30c2	0.18377975
194	0x3dbed63c	0.09318206
195	0xbf2aea50	-0.6676378
196	0x3f387b0c	0.72062755
197	0xbd0357c6	-0.03206613
198	0xbeed7739	-0.46380022
199	0x3e9e03b6	0.30862206
200	0xbf1c4f93	-0.6105892
201	0x3eb73ec1	0.35790065
202	0x3ec6a2d3	0.387961
203	0x3e1f7534	0.15572053
204	0x3e0b2149	0.13586916
205	0xbbb38e2e	-0.0054795956
206	0x3dfd516d	0.12369046
207	0x3f1b89d2	0.6075717
208	0x3f1face0	0.6237316
209	0x3bf6699c	0.007519914
210	0x3e385b02	0.18003467
211	0xbe2d50ef	-0.16925405
212	0x3f039cdd	0.5141123
213	0xbe820173	-0.2539173
214	0x3f2d9c3c	0.6781652
215	0xbebf21a1	-0.37330344
216	0x3f24742d	0.6423977
217	0xbe347af9	-0.17625035
218	0xbf4b6aff	-0.7946014
219	0xbc568f58	-0.013095699
220	0x3e7cd5b7	0.246909
221	0xbeb1c910	-0.3472371
222	0xbe8b64b3	-0.27225265
223	0x3f169109	0.58815056
224	0xbef85e50	-0.48509455
225	0xbe5c9a4c	-0.21543235
226	0xbeb7c20f	-0.35890242
227	0xbf316697	-0.69297165
228	0xbe3bd680	-0.18343544
229	0xbe2a52e2	-0.1663318
230	0xbe75b909	-0.23996367
231	0x3f458c4f	0.7716722
232	0xbf3f9f80	-0.7485275
233	0xbf05dc13	-0.5228893
234	0x3ece138b	0.40249285
235	0xbe9da928	-0.30793118
236	0xbe840ba3	-0.25790128
237	0x3e2f8def	0.17143987
238	0x3d0521dc	0.032502994
239	0x3db56e2b	0.088589035
240	0xbe92a67d	-0.28642645
241	0x3e82460f	0.25444075
242	0x3eae0234	0.33986056
243	0x3df9e30f	0.12201511
244	0xbed1f509	-0.4100726
245	0xbe6b2ccf	-0.22966312
246	0xbee43dcb	-0.44578394
247	0x3d9d8d7e	0.07693003
248	0xbeb0b8d4	-0.34516013
249	0xbf184077	-0.59473366
250	0x3f135db2	0.5756484
251	0xbe9fdae8	-0.312217
252	0x3ec486bf	0.38384053
253	0x3f0ab730	0.5418577
254	0x3edd78b9	0.43256167
255	0xbd2cc3b7	-0.042178836

mean_linear.bias f4 [2]
0	0x3dd8ac11	0.10579694
1	0x3d2b9372	0.04188866

log_std_linear.weight f4 [2, 256]
0	0xbc364038	-0.011123709
1	0xbc1b3d44	-0.009475056
2	0x3ec4af97	0.38415214
3	0x3d026640	0.031835794
4	0x3c275a4e	0.010214401
5	0x3ed2b05b	0.41150174
6	0x3e04ec33	0.12980728
7	0x3c6d92ee	0.014500363
8	0x3d8e75fa	0.06956096
9	0x3e26c920	0.1628766
10	0x3ca11512	0.019663367
11	0x3c837eee	0.016051736
12	0xbdae6e22	-0.085171
13	0xbba3e3fb	-0.0050015426
14	0x3cceb752	0.025233898
15	0xbf011297	-0.5041899
16	0xbaf6d37b	-0.0018831337
17	0x3e96184a	0.29315406
18	0xbcac8501	-0.021059515
19	0xbb47e25d	-0.0030499913
20	0x3e0e318b	0.13886087
21	0x3bf33988	0.0074226297
22	0x3d1aceee	0.037795
23	0x3d02be9f	0.03192007
24	0x3cfb6ba9	0.030690985
25	0x3df89e39	0.121395536
26	0xbd35bee4	-0.0443715
27	0x3d40820a	0.046999015
28	0x3cb2636c	0.021775924
29	0x3e041375	0.12898047
30	0x3c59e56d	0.013299328
31	0x3b83ff96	0.004028271
32	0xbca9b392	-0.020715509
33	0x3cf243dd	0.029573375
34	0x3d3fead9	0.046854828
35	0x3eccf722	0.40032297
36	0xbe1ce5f7	-0.153221
37	0xbc31e345	-0.010857408
38	0x3f84b9c6	1.0369194
39	0xbc29314d	-0.010326696
40	0xbb14f6d5	-0.0022730131
41	0x3e4e8270	0.20166945
42	0x3d3950de	0.045243137
43	0x3e12c996	0.14334711
44	0x3f174fd8	0.59106207
45	0x3d78d15e	0.060746543
46	0xbc8fd79e	-0.017558869
47	0x3bc6f62b	0.006071826
48	0x3e3b3ec4	0.18285662
49	0x3ec3728e	0.38173336
50	0x3c6a6786	0.0143069085
51	0xbc6332d1	-0.013867096
52	0x3eb56a73	0.35432777
53	0xbdecbef8	-0.11559862
54	0x3d243b31	0.04009551
55	0x3c9beb95	0.019033233
56	0x3b3d2fc8	0.0028867591
57	0x3e118a93	0.14213018
58	0x3eda6018	0.4265144
59	0xbd137d8c	-0.036008403
60	0x3f4cab5d	0.7994898
61	0xbd48f59d	-0.04906236
62	0x3c085406	0.008320814
63	0x3b64467d	0.0034832053
64	0x3b98b328	0.004660029
65	0x3eb7cfce	0.3590073
66	0x3e8b91fc	0.27259815
67	0x3d17f1d6	0.037095867
68	0x3d58b1a9	0.052903805
69	0xbb21d68b	-0.0024694528
70	0x3ea064f7	0.3132703
71	0x3bcac88b	0.0061884574
72	0xbcb3d896	-0.021953862
73	0x3f5c55e9	0.8606859
74	0x3d877997	0.06614988
75	0x3da460a3	0.080262445
76	0xbe8d8276	-0.27638596
77	0x3f1b5a07	0.60684246
78	0xbd87a604	-0.06623462
79	0x3e4eb6da	0.2018694
80	0x3ca12d7d	0.01967501
81	0x3c03afba	0.008037502
82	0x3e16e155	0.14734395
83	0xbbd6ae6a	-0.0065515535
84	0x3e12dabb	0.14341252
85	0xbd1d8509	-0.03845695
86	0xbd68410f	-0.05670267
87	0xbd0b5bc1	-0.03402305
88	0xbd1adb9e	-0.0378071
89	0xbcadf8c6	-0.021236788
90	0xbde6175f	-0.112349264
91	0x3c1a4bcb	0.0094174845
92	0x3b2d1fa2	0.002641656
93	0x3bde149f	0.0067773606
94	0x3dd833f7	0.105567865
95	0x3c56f0d5	0.013118942
96	0xbd223b6f	-0.03960746
97	0x3e4499a7	0.19199239
98	0xbf01d945	-0.5072215
99	0x3ee2e32f	0.44313952
100	0x3e0b78a0	0.13620234
101	0x3ed7e275	0.4216496
102	0x3cedf927	0.02904947
103	0x3e25068f	0.16115783
104	0x3c36bb4c	0.0111530535
105	0xbd93cb14	-0.072164685
106	0x3e7245d6	0.23659453
107	0xbc849bd0	-0.016187578
108	0xbd9a3664	-0.075299054
109	0x3d48c1ff	0.049013134
110	0xbb141ced	-0.002260025
111	0x3daaced3	0.0834023
112	0x3c7edd10	0.015555635
113	0x3b1dee7a	0.0024098442
114	0x3f0c359f	0.5476932
115	0x3c9be2a3	0.019028967
116	0x3ce222aa	0.02760442
117	0xbca294b7	-0.019846303
118	0x3eaca4de	0.33719534
119	0x3e9f2a06	0.3108675
120	0x3e8e15f6	0.2775113
121	0x3bb9ddcf	0.0056721936
122	0x3e86ce67	0.26329347
123	0x3c9d8b87	0.01923157
124	0xbc6d0b36	-0.014468005
125	0x3a38a803	0.00070440787
126	0xbd234428	-0.03985992
127	0x3e4f2754	0.20229846
128	0x3e29f67a	0.1659793
129	0xbda90915	-0.082536854
130	0xbba38436	-0.004990126
131	0x3baa2ba6	0.0051931916
132	0x3c0377f4	0.0080242045
133	0x3dbda011	0.09259046
134	0xbd329cb2	-0.043606468
135	0x3c15e71c	0.009149339
136	0x3d30ecdf	0.043194648
137	0x3e903a0c	0.28169286
138	0xbde2a851	-0.1106726
139	0x3e62c81e	0.22146651
140	0x3cd187b3	0.025577402
141	0xbd04d8b6	-0.032433234
142	0xbed2be9d	-0.4116105
143	0xbded6933	-0.11592331
144	0x3e73577f	0.23763846
145	0xbcd118d4	-0.025524534
146	0xbdb381c1	-0.08764983
147	0xbcb53d0e	-0.02212384
148	0x3b2313ec	0.00248837
149	0xbc61e201	-0.013786794
150	0x3c31095e	0.010805456
151	0x3f2f8305	0.68559295
152	0x3c9777fc	0.01848983
153	0x3daab128	0.08334571
154	0x3d96e752	0.073683396
155	0x3b92dda4	0.004481988
156	0x3ee72593	0.45145854
157	0x3def9938	0.11699146
158	0xbdb5af43	-0.08871319
159	0x3e3ca9d7	0.18424164
160	0x3b8ede7d	0.0043600188
161	0x3cb17a18	0.021664664
162	0x3e89e92d	0.26935712
163	0xbb0c2b4e	-0.0021388116
164	0xbbb278b9	-0.00544652
165	0xbd40d47a	-0.047077633
166	0xbda431c0	-0.080173016
167	0x3bb31a82	0.0054658065
168	0x3effb0a4	0.49939454
169	0xbc0c323a	-0.008556897
170	0xbc49e4d2	-0.012322621
171	0xbdec0629	-0.115246125
172	0x3e228680	0.1587162
173	0xbcabd8ef	-0.020977465
174	0x3c791418	0.015202545
175	0x3f063727	0.52427906
176	0xbd9becbb	-0.07613512
177	0x3e5a4162	0.21314004
178	0x3dfc8d53	0.12331643
179	0x3c44cc32	0.012011575
180	0x3c98b2f5	0.01864002
181	0x3d61e3b8	0.05514881
182	0x3dafcdcb	0.08584174
183	0x3e7faf1e	0.24969146
184	0x3dc02c48	0.09383446
185	0xbca244a3	-0.01980812
186	0x3e946dde	0.28990072
187	0xbbceb710	-0.006308444
188	0x3cb761c3	0.022385484
189	0x3eba0d20	0.3633814
190	0x3a80d6d6	0.0009829651
191	0x3f431114	0.76197934
192	0xbe29e4d3	-0.16591196
193	0xbcb34baa	-0.021886665
194	0xbbaf2b49	-0.005345736
195	0x3de4daea	0.11174567
196	0x3dac3026	0.08407621
197	0x3c048b56	0.008089861
198	0x3cd55769	0.026042657
199	0xbc44575c	-0.011983719
200	0x3d4564ab	0.048191708
201	0x3bf0d0fc	0.0073491316
202	0xbc80a62f	-0.015704243
203	0x3bc47b69	0.005996157
204	0x3b1e219e	0.0024128924
205	0x3ca12b99	0.01967411
206	0x3deea7ea	0.11653121
207	0x3e8fbba6	0.28072852
208	0x3db28418	0.08716601
209	0xbcdded4d	-0.027090693
210	0x3cae56a1	0.021281542
211	0x3d12536a	0.03572408
212	0x3ebdadef	0.37046763
213	0x3d65ea21	0.056131486
214	0xbbce3325	-0.006292718
215	0x3da86bed	0.0822371
216	0x3eb988f5	0.36237302
217	0x3cbfeb12	0.02342752
218	0x3ebd482b	0.36969122
219	0xbd1042f4	-0.0352201
220	0x3c142d66	0.009044027
221	0xbbe07cf3	-0.0068508326
222	0x3bcd2458	0.006260436
223	0xbce6e0a1	-0.028183283
224	0xbe02c9e4	-0.12772328
225	0x3e993657	0.2992427
226	0x3daf2134	0.08551255
227	0xbd8d66cb	-0.06904372
228	0x3dde13b0	0.10843599
229	0x3c2b7383	0.010464552
230	0x3d7e6d7f	0.062116142
231	0x3e5aceaf	0.21367906
232	0x3e05566f	0.13021253
233	0x3e20174b	0.15633886
234	0xbd20a80e	-0.03922277
235	0xbd0c14c8	-0.034199506
236	0xbc8211e7	-0.015877677
237	0xbc8b091c	-0.016972117
238	0x3d6357c7	0.055503633
239	0x3ef21fee	0.47289985
240	0x3e1309f2	0.14359263
241	0xbc16363f	-0.009168207
242	0x3e4d6900	0.20059586
243	0x3caaafd9	0.020835804
244	0x3d9b7e49	0.07592446
245	0xbc5ad307	-0.013355977
246	0x3ea6a137	0.32544872
247	0xbbaa7335	-0.005201722
248	0xbc4c9529	-0.012486734
249	0x3d78f6dc	0.0607823
250	0x3d83a087	0.064271025
251	0x3e62418d	0.22095318
252	0x3f037813	0.51355094
253	0x3f677823	0.9041769
254	0x3e1a5e5b	0.15075056
255	0xbc5dcc4b	-0.013537477

log_std_linear.bias f4 [2]
0	0xbf9332d9	-1.1499892
1	0xbfc140c1	-1.5097886
