hydrone_aerial_underwater_ddpg/scripts/Models/sac_stage_2_sub2D_tanh_3layers/160_policy_net.pth (torch_old, 294219 bytes, 8 tensors)

linear1.weight f4 [256, 24]
00000000: dbba 4d3d 6cd8 17be 1b7b 38bd 3891 0d3e
00000010: c24a 173e 51e2 2d3e b3f1 2bbe 820a 8cbd
00000020: 7079 943b 4a84 d23c 9b0d 43be 3145 90bb
00000030: 1a0d 4bbe 5c23 47be 7cd8 e9bc 6074 a7bb
00000040: de99 003e 63c4 c1bd b8ee d13d e8e7 febb
00000050: 67a2 223e f3e2 853c 49e9 0a3f 2cb6 653c
00000060: 88bb a53d b406 b73c 1176 b6ba 46c7 8fbd
00000070: 30f1 f2ba 4bb3 343e 688e 803d b8c0 3bbc
00000080: 94b9 aabe fa56 1dbe bd8d 51be 38f0 d7bd
00000090: 2c62 77bd 524d 12be 110c 86be 2352 cabc
000000a0: 2541 0cbe c033 60be 122b 35be 880f f1bc
000000b0: aff7 a6be fe7b 693e a204 a93c 1b3b 393e
000000c0: e6c8 b6bd 6d68 31be 5d0c 973d 0c0d 423d
000000d0: 6dda fa3d ce0c e8bd d439 bebd d171 a73d
000000e0: e8db 50be 97f4 9639 b3c6 73bd 7605 16be
000000f0: 0874 833d 314e 0cbe e1bc cd3d 1e34 313c
00000100: 2587 9c3d 929a 093d ec92 f03d 592b fe3d
00000110: a540 94be e477 083f feb3 913e d71b 35bc
00000120: aaab 27be 0e11 81be f4f0 ddbd b290 fc3d
00000130: 66aa ffbc c377 1d3e 2a1b f03a baba f4bc
00000140: fa63 bb3c 5ae1 bd3d 4af1 a9bc 3004 c23d
00000150: a3e8 43bc d317 523d d6ed a5bd 0a7d 9abd
00000160: 363d 3e3d 4b22 603d c841 713c 5b5a 9c3d
00000170: 5f44 e93e 4016 a5be 66da f0bd 891e d13d
00000180: 97a9 7c3d 6053 5bbd 3ccb 893c a36a a7bd
00000190: d565 0c3e ee3c d43d fe98 2c3d 3000 dfbd
000001a0: 76b9 d33d ff61 8fbc fad5 963d 7e88 0a3e
000001b0: 0051 2f3d 0378 8ebd 98a6 1f3d 059c 6dbd
000001c0: 45e9 87be 1f1f 37be 092a 36be 01d9 d5bd
000001d0: dca4 183e e19b e73d 191c 00bf fa4d df3d
000001e0: a528 113e d5af 0f3c 7751 a23d 26dd 6bbd
000001f0: cbac 873b 7f5f 64bd 5f0f bbbd e955 683d
00000200: 9b9c 47bd db96 f23d b84b 13bd 09aa 6b3d
00000210: 631c a63d 6e04 22be 08be de3d d206 0fbe
00000220: 097f f2bd 1d95 993d b533 9dbd 93a8 db3c
00000230: 4f66 b1be 6763 1cbe 1790 b43e f125 cfbc
00000240: 69d4 543d 87ac c7bd e7c4 1a3d 0549 2fbe
00000250: 7de9 0ebe 666d e53d 119e 1fbe dae8 bbbd
00000260: cd28 89bd 1fbb 6dbd c7c6 4cbe a635 fabd
00000270: 5d21 05be 53f3 b4bc 1242 11be c8a5 13be
00000280: 8814 4e3e f664 93bd a6e1 2c3d 4128 06be
00000290: afa3 3c3d f93c f3bd aab1 c3be 1d6d 053e
000002a0: 596b a7bd f686 c23d 5c39 efbd 6388 37bd
000002b0: f957 383c 789a 7a3c 1717 c0bd 5295 e4bd
000002c0: 0149 293d 37b4 f0bd 394c 3ebd 4c25 8abd
000002d0: b6ff 8a3d 7449 203d 8cd0 093e c4b2 703d
000002e0: ac84 bebd 27dc 193e 9fb0 a13d 894c 303e
000002f0: ccb5 89bd 7ab0 d43d 10c6 263f 2d40 35be
00000300: 77e5 4d3d 02ab 153e 85ac 873d 7f70 05be
00000310: 148e ab3d da4d 30be 34ab 6c3c bf4e ad3d
00000320: 64f1 8ebd 1be1 0cbe 8432 2f3e 59df 7a3d
00000330: bf71 c53d e8a9 2dbb bb43 f93d 9e5f c0bd
00000340: 8031 63be 8bec f0bd 5bf5 cabc 8fe2 dabd
00000350: 9194 ffbe 4db9 c8be c1fb acbd e641 13be
00000360: bfdf 4f3d 1211 38be 9418 8cbd d180 1ebd
00000370: 57d3 8a3d 598e 763d 2566 9a3d 6efd 49bd
00000380: edc1 2c3c 01a0 73bc 2f12 fa3d 281d 0abe
00000390: 2ddd 55bc 4844 63be 8fbf 93bd c9c2 89bd
000003a0: 8a2b bd3d d1f1 debd 8243 013e 40e2 6a3d
000003b0: a24c 88be a34f 56be 0704 433e ff3b c53e
000003c0: 5c60 403e f1d8 a8bd e5a2 e9bd 8af2 093c
000003d0: 261b e4bd 9821 dcbd 91b0 22be 6b4f 96bd
000003e0: 84e4 2f3d 496c 183d 0fb0 aa3c 1a8e 2f3e
000003f0: 0861 09be e78f 763c b3e4 a2bd 2378 85bd
0.050227027 -0.14828652 -0.045039278 0.13824928 0.14774612 0.16980864 -0.1679142 -0.06837942
0.004531078 0.025697846 -0.19048159 -0.0044027795 -0.19829217 -0.19447082 -0.02854561 -0.0051103085
0.12558696 -0.09461286 0.1025061 -0.00777911 0.15882264 0.01634357 0.54262215 0.014020484
0.08092409 0.022342063 -0.0013920685 -0.0702043 -0.0018535014 0.1764652 0.06277162 -0.011459522
-0.3334471 -0.1536521 -0.20464225 -0.10543865 -0.06039636 -0.14287308 -0.2618108 -0.024697369
-0.13696726 -0.21894741 -0.17692211 -0.029426351 -0.32610843 0.22801206 0.020632092 0.18088953
-0.08925037 -0.17324992 0.07375405 0.047375724 0.12248693 -0.11330567 -0.092883736 0.08176006
-0.20396388 0.00028792463 -0.059515666 -0.1465052 0.064186156 -0.13701703 0.100457914 0.010815648
0.07642964 0.033594675 0.11746773 0.12410612 -0.2895557 0.5330794 0.28457636 -0.011054001
-0.16374078 -0.25208324 -0.10836974 0.12332286 -0.031209182 0.15377717 0.0018318642 -0.029874194
0.022874821 0.09271498 -0.020744938 0.09473455 -0.01195732 0.05129225 -0.08102004 -0.075433806
0.046445094 0.054720204 0.014725156 0.076344214 0.45559976 -0.32243538 -0.11760406 0.10210902
0.06168517 -0.05354631 0.016820543 -0.08174636 0.13710721 0.10363184 0.042138092 -0.10888708
0.10338108 -0.017502783 0.073650315 0.1352863 0.042801857 -0.06956484 0.038977236 -0.05801012
-0.26545158 -0.17882966 -0.17789473 -0.10441781 0.14906639 0.113090284 -0.50042874 0.10903545
0.14175661 0.008769949 0.079256944 -0.05758395 0.0041404716 -0.055755135 -0.09133791 0.056722555
-0.048733335 0.1184518 -0.035960883 0.057535205 0.08110883 -0.15822002 0.10876089 -0.13967445
-0.11840636 0.07499144 -0.07675878 0.02681378 -0.34648368 -0.15272294 0.35266182 -0.025286647
0.051960383 -0.09749704 0.037785437 -0.17117698 -0.13956256 0.11202507 -0.15587641 -0.09175272
-0.06697235 -0.05803978 -0.19997703 -0.12217264 -0.13001008 -0.022088682 -0.1418536 -0.1441871
0.2012502 -0.07196991 0.042207383 -0.13101293 0.04605454 -0.11876864 -0.38221484 0.13029905
-0.08174772 0.09498398 -0.11680862 -0.044807803 0.011251443 0.015295617 -0.09379404 -0.11161293
0.041329388 -0.11753123 -0.04645941 -0.06745395 0.06787054 0.03913255 0.1345846 0.058764234
-0.09302649 0.15025388 0.07895016 0.17216696 -0.06724128 0.10385223 0.6514597 -0.17700262
0.050267663 0.14616016 0.06624702 -0.13031195 0.083767086 -0.17217198 0.014445115 0.08462285
-0.06979635 -0.13757746 0.17109114 0.061248157 0.09640836 -0.0026498977 0.12171122 -0.093932375
-0.22186852 -0.11763867 -0.024775198 -0.10687744 -0.49918035 -0.39203873 -0.08446456 -0.14380607
0.05075049 -0.17975262 -0.068406254 -0.038697068 0.06778591 0.060194347 0.07539014 -0.049313955
0.010544282 -0.014869691 0.122104995 -0.13487685 -0.013053221 -0.22194016 -0.07214271 -0.067266054
0.0923682 -0.108859666 0.12623408 0.057344675 -0.26620966 -0.20928816 0.19044505 0.38522336
0.18786758 -0.08244503 -0.11408023 0.008419642 -0.11137991 -0.10748595 -0.15887667 -0.073393665
0.04294254 0.037212644 0.020835904 0.17144051 -0.1341592 0.015048957 -0.07953777 -0.06517055

linear1.bias f4 [256]
00000000: 6730 693e e685 ca3d 7190 82bc cc46 843c
00000010: 2882 b33d 6f63 d13d 23de 5e3e 4652 863e
00000020: c6b4 74bd 695b 88bd f25c 823d b6b9 153c
00000030: a33c 383d c1bf 8bbc d509 f2bb 6d0e 27be
00000040: 314d 5a3e 4e70 a1bc 78a8 b33e f1b6 9cbc
00000050: 48f4 34bd 60ec fe3c 50b9 cc3b 02b9 f1bb
00000060: ac23 613c 78ac 0c3e faac 8cbd a9db 6abd
00000070: 60bf 0a3b 36b2 b1bc 8aab 2e3d 6330 18bd
00000080: 7c39 933e 2d69 16bd 0da3 d13a 9cbe b33d
00000090: dc42 dd3d c6c3 0d3e 7b5c c23c 6141 78bc
000000a0: dd40 0e3e dd5a b83d 331b e53d 7aee f8bd
000000b0: 7227 9cbd 19c5 ed3d 93d7 e7bd 7b40 193f
000000c0: 1b85 ba3d 0b76 ea3d c1a9 12bc 4aa1 e0bd
000000d0: b6cb 403d d6ee 09bd 5fba 3abd 1581 64be
000000e0: 9884 643d 69a9 903d 762a 533d 8a14 b0bd
000000f0: 395d 243e f6ca 23bd 206b bdbe 0afd af3d
00000100: c368 2f3e 9dc8 60bc 2dcc 43bc 378a e23d
00000110: 73b1 8e3c 35f5 1e3e 2ba5 283d 748a 5e3d
00000120: 6abb 693d 66de 14be d518 e33d bcd7 833d
00000130: 0bb2 453d 0a3f bf3e 192c bb3d a6bb 78bd
00000140: 8a69 a7ba cee8 90bd e834 cd3d 6190 d83d
00000150: 5cf0 8d3b 16a2 113e 70b7 b13e 5895 2f3c
00000160: afd9 4dbb 5d32 c73d ed31 9cbe a989 f83d
00000170: 93d5 293e f8b0 3e3e 38f1 fb3d 0d9c 333e
00000180: a270 303d 5918 793e a98d 1d3e 04f5 253d
00000190: cab6 b9bd 7adc 023d 32ec 073e 8650 c83d
000001a0: 3ea0 92bd ba62 133d de14 043e 60ad 103e
000001b0: 4e51 de3c bfb1 0e3e 8839 a43d d56a 853e
000001c0: bd0d 233d b9ab 863e 933f 6b3e 767e ffbc
000001d0: ddab 21be 6afa 54bd 0446 43bd f5d9 613d
000001e0: e32d 763e 66eb 36bd 7848 44be 9293 39bd
000001f0: 986b cb3d 4887 013e 025b cb3c 81e3 b93d
00000200: 031b cdbd ac0f 1b3e 8fd0 cfbc 3829 9c3d
00000210: e6b0 293d 59c1 95bd 1f73 d43d 7e0d 6fbd
00000220: c082 2b39 0225 b03c 83b0 3a3d 7fa3 f9bd
00000230: 521f a93c 2e89 7bbc 357b 4f3e 3856 a33d
00000240: eea3 49bc 2bd1 68bc 3fcf 393e 840b c93c
00000250: 1136 943d 2d1c 383e d2a2 c43c fd0c 423e
00000260: d1be df3c 1c4b a4bd b870 68be c820 a1bd
00000270: 9cc1 1c3d 6b61 ac3d 2a98 45bd d2ee fabd
00000280: 7d30 f8bc 54fa 1d3e 8010 0a3d b582 b2bd
00000290: be50 0bbe 3cb3 6fbd 634c 2d3e 6c63 7d3d
000002a0: 2034 c53e ec70 a63d 889e e7bd aeb0 7f3d
000002b0: 18ac 5fbd 6e77 b1bc 8543 d8bc c5b6 773e
000002c0: ce59 84bc df25 8abc b219 e03a 7283 4cbe
000002d0: 9627 e23d 05c4 923e 3a5f 63bd e9af 323c
000002e0: f2a3 9e3e f51b 853e 01a3 8a3e d0a7 44be
000002f0: fece 47bd 3bd1 573e a9e2 00bc 60d3 a73d
00000300: 63e0 c53d 7fcc a53d 57da 913d b483 5c3d
00000310: 4a3f a13d f5a8 02bc 6e75 023e 64b8 f53a
00000320: 3864 3a3d 4d94 2d3e 0127 ad3d 3054 bfbd
00000330: 1afa 96bc a5d6 23be 96ed 723e ec34 943e
00000340: 8e0a a43d d028 9abb c6b3 f9bd 6488 29be
00000350: 53b2 463b 82bb 473e d420 b03d 56fb d53d
00000360: 7ffc c1bd 32db 393b d8cc babd f99a 4ebc
00000370: 49cb c13d 7510 cabe 1410 35bc ad4c d7bd
00000380: e1d8 1a3e 3b7e 023e de2f a43e 1240 dfbd
00000390: 391e 2fbc bff3 0fbd d26a be3c 09a3 743d
000003a0: b6d6 59be 4fe4 c5bc 57e5 82bd 8a2f f73b
000003b0: 7ac7 e9bc 86a8 073e 245e aa3e 9031 aaba
000003c0: 7ae6 fc3d 143d cd3c aa83 b5ba 3b92 50be
000003d0: 2fcd 1abe 0258 d2bd 96fc b13d de9d e53d
000003e0: 07d8 eabc 0371 8b3c 3cd9 853e f7a2 6ebe
000003f0: c24b f6bd 18aa c6bb bf23 463e 9afc bfbd
0.2277237 0.0988882 -0.015938016 0.01614704 0.0876506 0.102240436 0.21764426 0.26234645
-0.05974271 -0.0665806 0.06365384 0.009138515 0.044979703 -0.017059209 -0.007386426 -0.16314097
0.21318509 -0.019706871 0.3508947 -0.019130202 -0.044178277 0.031118572 0.006247677 -0.007376791
0.013741415 0.13737667 -0.0686893 -0.05733839 0.0021171197 -0.021691423 0.04264406 -0.03715552
0.28754795 -0.036721397 0.0015994027 0.0877659 0.10803768 0.13844213 0.023725739 -0.015152306
0.13891931 0.09001706 0.111868285 -0.12154861 -0.07624711 0.11609859 -0.113204144 0.59864014
0.09107419 0.11448296 -0.008951605 -0.109682634 0.047069274 -0.033675037 -0.045587894 -0.22314866
0.055790514 0.070635624 0.051554166 -0.085976675 0.16051187 -0.03998848 -0.36995792 0.08593185
0.17129807 -0.013719705 -0.011950535 0.11061519 0.017418599 0.15523227 0.04117314 0.054331258
0.057063498 -0.14537963 0.11088721 0.064376324 0.048265498 0.37352782 0.0913927 -0.06072583
-0.0012772542 -0.07075654 0.10019857 0.10574413 0.0043316316 0.14221987 0.34710264 0.010716759
-0.0031410267 0.09726403 -0.3050684 0.121356316 0.16585378 0.18622196 0.12301868 0.17539997
0.043076165 0.24325694 0.1538607 0.04051687 -0.09068067 0.031948544 0.13273695 0.097809836
-0.0715947 0.035982825 0.12898585 0.14128637 0.027138378 0.13934992 0.08018786 0.2605807
0.039808024 0.2630289 0.2297347 -0.031188231 -0.15788217 -0.051996626 -0.047674194 0.0551395
0.24040942 -0.044658087 -0.1916827 -0.04530675 0.09932631 0.12649262 0.02482367 0.09076596
-0.10014918 0.15142697 -0.025368003 0.07625049 0.04142847 -0.07312269 0.1037352 -0.058362477
0.00016356539 0.021502022 0.04557849 -0.121893875 0.020644818 -0.01535253 0.20261844 0.07975429
-0.01230715 -0.014210026 0.18145464 0.024541624 0.07236875 0.17979498 0.02400342 0.18950267
0.027312668 -0.080221385 -0.22699249 -0.07867581 0.038270578 0.084170185 -0.048240818 -0.122525826
-0.030296559 0.15427524 0.033707142 -0.08716337 -0.1360502 -0.05852054 0.1692367 0.061862394
0.3851633 0.08127007 -0.11309534 0.062424354 -0.05460748 -0.021663394 -0.026399383 0.24190815
-0.016156103 -0.016863761 0.0017097502 -0.19972017 0.11042707 0.28665176 -0.055510737 0.010906198
0.30984455 0.25997892 0.27077487 -0.1920464 -0.048781388 0.21075909 -0.00786654 0.081946135
0.09661939 0.08095645 0.07121723 0.05383654 0.078733996 -0.007974853 0.12740108 0.0018746969
0.045505732 0.16951104 0.08454705 -0.09342229 -0.018429805 -0.15999849 0.23723444 0.28946626
0.08009826 -0.0047045723 -0.12192492 -0.16555935 0.0030318692 0.19505122 0.086000115 0.10448329
-0.09471988 0.002835941 -0.09121102 -0.012610191 0.09462602 -0.3946568 -0.011051197 -0.105126716
0.15121795 0.12743466 0.3206777 -0.10900892 -0.010688358 -0.035144564 0.023244295 0.059725795
-0.21273312 -0.024156718 -0.06391399 0.007543509 -0.0285375 0.1324788 0.3327495 -0.0012984741
0.123486474 0.025053538 -0.0013848443 -0.20368282 -0.15117334 -0.102706924 0.08690755 0.112117514
-0.028667463 0.017021662 0.261423 -0.23304354 -0.120261684 -0.006062757 0.19349574 -0.09374352

linear2.weight f4 [256, 256]
00000000: 5935 2a3e 759b 5fbe 3f76 6d3c 00a8 afbe
00000010: 7337 08be b84d dd3c 942a 633c cb3e 923e
00000020: 4f2f 86bd 93a9 00be fb4d fdbc f2a8 933c
00000030: a5f9 2d3c 0d3d c23c 8449 c83e 703f 483d
00000040: ed8f 833d 13c1 54bd 27bd 053e 154a 98bb
00000050: e795 0cbe cbe3 57bc 04a7 5bbe 43b8 b63d
00000060: 053b e23c 6102 273d 86c7 8abe a990 513d
00000070: e5d1 eb3d 4678 253e db77 aabe b855 243d
00000080: e29f 5cbe 3fe2 74bd 34cd 56be 3cd5 1abd
00000090: 5cc9 0bbe 0b07 913d 8131 d7bb c3ae 31be
000000a0: 686e 613e 3b80 bc3d bdb6 49be d323 4bbe
000000b0: 2a8d 0ebe 5cfd a33d 217c 673d f49a 8d3e
000000c0: a3c3 5fbe 16e6 aa3d d7b0 06be 505c 2bbe
000000d0: 6553 803d 728a 46bd 3bfb d7bd 0848 38be
000000e0: cd07 f13d 9358 7c3d dfeb 86bd 419f f93d
000000f0: eaa6 1b3e ddb0 97bd 079b 0fbe 549a f13b
00000100: 4fb4 bbbd 3088 a83d cc58 3cbd 63af 69bd
00000110: 3285 3abd 932d 3b3d fda1 ca3c f755 abbe
00000120: f017 2cbd 6f12 05be 3ca1 df3c 172a e6bd
00000130: 3fbe 223e b738 063e ca87 0fbe 52fe 863d
00000140: c316 07bd d58f 9bbe e4e8 1b3e 1153 3a3e
00000150: d60d 09be 421b acbd ddc1 163e b57e 97bd
00000160: 8870 26be a480 63bd 0985 0cbd 6cc7 3f3d
00000170: 268c 0cbb fdfd 5c3c f4b7 91bd 4316 e93b
00000180: f176 02bd b453 febd 9b73 00bd 1ee5 7e3d
00000190: b27b b23c 009c 0d3e fcf2 163e aa4a 443e
000001a0: 1e34 2bbe edb2 0a3e 8979 9bbe c8f4 3abd
000001b0: 5883 c93d 227b 893e fafe 33be cce5 3cbe
000001c0: 48db 1a3e 8930 42be 92c7 5cbd c1d0 80bc
000001d0: ae86 debd da75 fabd 6226 e0bc f1d8 c0bd
000001e0: 7094 5a3e f767 9fbe 628b 013e 446e 453e
000001f0: ae59 c73d e2fd 323e 9f74 923c e4d9 223e
00000200: 5d25 dbbd 3efa 813d 9d0b 613e 918d d13d
00000210: df4c fbbd 743c d3bc 7bfc fb3d c6f4 d4bd
00000220: 3e78 b4be f24a 80be 4f4d e0bc 2237 e13c
00000230: be39 dcbd dc93 b2bd a42a 5bbd 9fb0 3cbe
00000240: d8d4 94bc be89 cb3d 64c0 83bd 45c6 ed3d
00000250: 4273 21bb 35f2 8f3e 2198 ee3d 4893 063e
00000260: e79f 0cbe a7de 023d b2b2 cd3d ed74 e5bd
00000270: 776b 45be e721 92bd f95d 37bd bf8f 90be
00000280: d5ab 0c3e f421 223e c414 213d ebe4 863d
00000290: 9a44 b3bd 043b 4f3d 25e2 96bc e47d dd3c
000002a0: 0b53 573e 124a 073e ac4e 8fbd b27d 3fbe
000002b0: bedd ccbd 7c10 4c3c 46d0 19bb 1341 7c3d
000002c0: b40d a6bd 47f9 12bd 8a6d 8f3d cf9e fcbc
000002d0: 859b 6e3c 7166 4e3d 1ec7 e5bd 48f6 39be
000002e0: 6143 f03d 678e 1a3c 9ada 773d dc18 84bd
000002f0: 38aa 933d 14fa 0e3e 5382 51be da27 ab3d
00000300: de2e 243e b20e 33be 3f47 723d ec5a 35bc
00000310: 1e73 acbd b944 c3bd 637d 83be 90f5 33be
00000320: 5543 1f3c 4b73 6d3d 5961 bbbe 7297 2b3d
00000330: 698a 953d a46f e63d 0935 0a3e 5a6a f43d
00000340: 0e34 2c3e ef56 20bd eb7d 3abe 46f2 12be
00000350: cb31 42be f33d afbd f321 0bbd 787c 48be
00000360: 280f 96be 1f39 8ebe 40a5 0ebd f65b c0bd
00000370: b196 dcbe bc97 a6bd 6bff b7bd b85e 0bbe
00000380: 936c 1c3e ba58 1fbe f5bc 52be eaf8 29be
00000390: 0a51 6fbe f4da 9abd 1499 323e 5ade 1fbd
000003a0: 9faa a2bd 5154 9e3d 2939 4f3e 8e05 39be
000003b0: 1288 a2be a22a 413e e75b c73d 2336 223e
000003c0: c31e 37bd 121d f4bd 83a4 073d 6dd1 66be
000003d0: 8151 c1bd b9ac 193e 31ef 4fbe 31a5 713e
000003e0: 97fb c03d 546a 143e d08e 3f3e af2a 66be
000003f0: c044 90bd 87bb 9fbe a279 dcbe 7f54 2abe
0.16621913 -0.21836646 0.014493524 -0.3430786 -0.13302402 0.027014598 0.013865132 0.28563532
-0.06551992 -0.12564687 -0.030920973 0.018024895 0.010618602 0.023710752 0.39118588 0.048888624
0.06423936 -0.051941942 0.13060437 -0.004647503 -0.13729058 -0.013176869 -0.2145043 0.08921864
0.027616033 0.040773753 -0.2710535 0.05116335 0.115146436 0.16159162 -0.33294567 0.04012081
-0.21545365 -0.059786078 -0.20976716 -0.037801012 -0.13651031 0.070814215 -0.0065671806 -0.17351823
0.22014773 0.092041455 -0.19698615 -0.19837885 -0.13921037 0.08007309 0.056514863 0.27657282
-0.21851973 0.08344667 -0.13153397 -0.16734433 0.06265906 -0.048471875 -0.10545965 -0.17996228
0.11769066 0.06160791 -0.065879576 0.121885784 0.15200391 -0.07406781 -0.14023982 0.0073731337
-0.091652505 0.08229101 -0.04598312 -0.057052027 -0.04553718 0.04569776 0.024735445 -0.33464023
-0.042015016 -0.12995313 0.027298562 -0.11238497 0.15892886 0.13107572 -0.14016643 0.065914765
-0.03298069 -0.30383173 0.1522556 0.1819575 -0.13384184 -0.084036365 0.1472239 -0.07397214
-0.16253865 -0.055542603 -0.03430656 0.046821043 -0.002144584 0.01348829 -0.071151644 0.0071132495
-0.031851713 -0.12418309 -0.03136025 0.062230222 0.021787498 0.1382904 0.14741129 0.19169107
-0.167191 0.13544817 -0.3036616 -0.045643598 0.09839505 0.26851755 -0.17577735 -0.18447036
0.15122712 -0.18963827 -0.053901263 -0.015724542 -0.10865532 -0.1222951 -0.027362052 -0.09416378
0.21345687 -0.31134006 0.12650827 0.19280344 0.09733902 0.17479661 0.017877875 0.15903431
-0.10700486 0.06346558 0.21977086 0.1023208 -0.122705214 -0.025785662 0.12304016 -0.10398249
-0.35247988 -0.2505718 -0.027380614 0.02749211 -0.10753201 -0.08719608 -0.053507462 -0.1842675
-0.018167898 0.099383816 -0.0643318 0.116100825 -0.002463535 0.28114477 0.1165011 0.13142121
-0.13732873 0.03195062 0.10043849 -0.112039424 -0.19279276 -0.071353726 -0.044767354 -0.2823467
0.13737424 0.15833265 0.039326444 0.065866314 -0.08753319 0.05059339 -0.018418381 0.027037568
0.21027772 0.1321185 -0.06997427 -0.18700293 -0.100032315 0.012455102 -0.0023470088 0.061585497
-0.081080824 -0.03588226 0.07003315 -0.030837445 0.014563446 0.050390664 -0.11219619 -0.18160355
0.117316015 0.009433365 0.06051121 -0.06450054 0.07210201 0.13962585 -0.20459871 0.083572105
0.16033503 -0.17486075 0.059149977 -0.011069041 -0.08420394 -0.09534592 -0.256816 -0.17574143
0.009720643 0.05797128 -0.36597708 0.041892476 0.0730179 0.112517625 0.13496794 0.119343475
0.16816732 -0.039145406 -0.18212096 -0.14350232 -0.18964307 -0.08556738 -0.033967923 -0.19578731
-0.29308438 -0.27777955 -0.034825563 -0.0939254 -0.43083718 -0.0813441 -0.08984264 -0.13610351
0.15275793 -0.1556119 -0.20579894 -0.1659886 -0.23370758 -0.07561293 0.17441207 -0.03903041
-0.079427 0.07730926 0.20236649 -0.18068525 -0.31744438 0.1886392 0.09734326 0.15840964
-0.04470707 -0.11919607 0.033115875 -0.22540827 -0.09439374 0.15007295 -0.20306088 0.23598172
0.09422987 0.14493686 0.18706822 -0.2247722 -0.07044363 -0.3119776 -0.43061548 -0.16633795

linear2.bias f4 [256]
00000000: 9fc5 6b3e 5096 1dbd af41 353d ac35 6b3e
00000010: 1e9a 6e3d ec8a 333c 9c21 853c a280 d33c
00000020: fec7 6e3d df79 b5bd edb0 e2bc b44a ff3c
00000030: 0760 b5bc 0937 40bd 125a 083e 9df3 e93e
00000040: 5a89 3fbd afc9 013e 73a7 243d e249 a03d
00000050: 0c61 aa3c 3c34 e93c 16b3 3d3d 560f bf3d
00000060: 6321 103e b14b cc3d 7c6b 43bd e330 e6bd
00000070: f8bb b5bd 584b 1dbe f25c 6abd 70aa b23d
00000080: 4e2f 58bc a8e2 5f3d bbe3 da3c fc43 4e3e
00000090: 18f8 973d f357 fa3d 3851 0a3e 8ba2 bcbc
000000a0: 9c84 033e b46b 673e c618 dcbc 3361 193d
000000b0: 28b7 863e c67d b93d 0e98 273e 56c6 4e3c
000000c0: 2f8f 873d 3314 433e 1d53 6e3d 3250 913d
000000d0: c28e 4f3e 8808 ca3c 31a9 80bd 8600 523e
000000e0: db5d 6e3d 872a acbc 2871 ed3d 666a ac3d
000000f0: 13d4 1c3e 8245 3e3d d0e9 0cbe d9d9 c9bd
00000100: 93e7 27bd da45 abbd 4105 cc3d 46c0 53bd
00000110: 508d 0cbe db11 d33d 835f 3c3e 47dc 523d
00000120: 040f b13b 32f6 103e 5e8b be3c ad2e b5bd
00000130: 721f c53e 6a3e d6bc cfba 8a3d 5ec0 343e
00000140: aa18 75bd 18ca a9bc a59f b83d fdae e53e
00000150: 998c 2b3d fda4 3dbd 1715 c73e 6401 af3d
00000160: 5fa3 a83d 6c24 b43b 8643 193d efbe 8b3e
00000170: 9a36 903d d3b4 a63d af9e d4bc f950 363d
00000180: 02b1 e4bd bd99 e6bc 23b1 d13e 1713 bf3b
00000190: d878 8abd 291f 813e 093e 4ebe 17a1 cabb
000001a0: a0a6 bbbc 7f62 b03d eef1 48bd 8b1b 35bd
000001b0: 681b db3d 7018 5cbd 6c2c d6bd 12ac 4b3e
000001c0: 4226 dcbd a98f 173c 949c 353c b294 073e
000001d0: 2c7b 8cbd e6d2 c03d 598f 2a3d 9a44 ddbb
000001e0: 1806 e13c 0d24 b83a 8bd1 8dbd a47b a13d
000001f0: faef 32bd 4784 ecbd ab7d 323d 1584 eabc
00000200: 045a f1bb 430d 73bd 2d9d 06bd a6fb 8cbd
00000210: 5886 2e3e 253f 373d 8a39 85bd 5b01 80bd
00000220: 6445 0cbe 2357 b6bc a0d5 e1bd 428d 7a3d
00000230: 3530 e5bd 1aec c83c 6617 3c3e 9a0d 34bd
00000240: 762b febc d353 42bd 6398 4dbd de68 f43d
00000250: 1327 48bd af02 7c3e 0887 573d 6971 7b3d
00000260: 8696 33bd 5dbd 953d 5cac 5ebd 0cc8 3e3e
00000270: bc21 623d c77d 133f 9fa3 873d 8454 213e
00000280: 8abd 8f3e b96a 5bbd b9bf c63d e49a cebc
00000290: 52e2 a83c d0c1 04be 5596 75bd d962 b2bd
000002a0: f156 eaba 8212 453d b230 143c 594c bc3d
000002b0: 7ef7 a43c 89ca 40bd ed97 41bd 8776 833e
000002c0: 9e3d 22be c2b0 8fbd 25ee 163d fe52 4a3d
000002d0: 30fb c9bb ae4c 5e3e ab45 28bc 0ec7 033e
000002e0: 307a bfbd f8bf 2d3d feea 313e e741 ae3c
000002f0: c9f2 0c3d 05f6 3ebe 8927 02bd 9489 163e
00000300: 1394 11bd 144a 3c3a ec23 213d a833 30be
00000310: 48f6 473c 1881 7abd 11e8 cf3c a511 9e3e
00000320: 1fb0 68bc a92a 9b3e a7cb c43b 1861 b33d
00000330: 11b3 8dbd e41d 13bd a37b f5bb 91d5 8d3e
00000340: 6ead c83d 72a7 97bc 08fc 6b3d cf23 21bd
00000350: df40 5e3e 29ce 3c3d 3712 273e 0765 0b3b
00000360: 2a2e a13e de1f 0b3d 6645 69be df5c 5a3e
00000370: 9747 e53b ee23 503c 9c52 ad3d ffb4 abbc
00000380: f750 e43d 7e84 32be 34fe 013e 0680 13bd
00000390: a172 2ebe f176 943d 088e 1fbd 455b a23e
000003a0: a01a 6d3d 731d c93d 69f0 51bd 477b 44bd
000003b0: 6816 81bd 1b52 c6bc 202e a73d d530 a63d
000003c0: c6ec f7bd 967a 1a3c bd0a 063f a2f6 0b3c
000003d0: 2011 46bd 7e8b d93d 480b 083e 2fc0 603d
000003e0: 816e bdba b988 233e 0c80 8b3d b533 d5bc
000003f0: a82b 163e bf5e a4bd 681a a73c dac4 48be
0.23024605 -0.038473427 0.044252094 0.22969693 0.058252446 0.0109584145 0.016251378 0.025818173
0.058296196 -0.08861136 -0.027672255 0.03116355 -0.022140516 -0.046927486 0.13315609 0.45693675
-0.046761848 0.12674592 0.040198755 0.07826592 0.020798229 0.02846729 0.046313368 0.09329097
0.14075236 0.099753745 -0.047709927 -0.11239793 -0.08873743 -0.15360773 -0.057217546 0.087239146
-0.013194872 0.054659516 0.026719918 0.20143121 0.07420367 0.12223806 0.13507545 -0.023026725
0.12843555 0.22599679 -0.026867282 0.037446212 0.26311612 0.090571925 0.16366598 0.012620529
0.06619107 0.19050674 0.05818473 0.07095374 0.20269302 0.024662271 -0.06282271 0.20508012
0.058194976 -0.021016372 0.115938485 0.084187314 0.15315275 0.046453007 -0.13761067 -0.09856004
-0.04099233 -0.083629325 0.099619396 -0.051697038 -0.13725781 0.1030614 0.1839581 0.051479604
0.0054034013 0.14156416 0.023259815 -0.08846793 0.38500553 -0.026152808 0.06773912 0.17651507
-0.059837975 -0.020726249 0.09014825 0.44860068 0.04188213 -0.046299923 0.38883278 0.08545187
0.082342856 0.005497506 0.03741791 0.27294108 0.070416644 0.08139958 -0.025954572 0.044510815
-0.11166574 -0.02814948 0.40955457 0.005831133 -0.0676133 0.25219086 -0.20140852 -0.006183754
-0.022906601 0.08612537 -0.049058847 -0.04421572 0.10698587 -0.053734243 -0.104576916 0.19889858
-0.107494846 0.00925056 0.011084694 0.13240317 -0.06859431 0.09415226 0.041640613 -0.0067525627
0.027468726 0.001404883 -0.06924733 0.07884911 -0.04368589 -0.115486674 0.043576878 -0.028627435
-0.007365467 -0.05933882 -0.03286474 -0.06883936 0.17043436 0.044737954 -0.06505115 -0.062502585
-0.13698345 -0.022258347 -0.11027074 0.06116987 -0.111908354 0.024526644 0.18368301 -0.043958284
-0.031026583 -0.047443222 -0.050194155 0.11934064 -0.04886539 0.24610399 0.05261901 0.061387453
-0.043844722 0.07311509 -0.054363593 0.18631 0.055207953 0.57613796 0.06623005 0.15754896
0.28074294 -0.053568576 0.09704537 -0.025220342 0.02061573 -0.12964559 -0.05995782 -0.0871026
-0.0017878694 0.048113354 0.009044813 0.0919425 0.020137545 -0.047068153 -0.04726403 0.25676367
-0.15843818 -0.07016136 0.036848206 0.049395554 -0.006163977 0.21708938 -0.010270516 0.12868902
-0.09349477 0.042419404 0.17374799 0.021271659 0.034411225 -0.18648537 -0.031775985 0.1470092
-0.035541605 0.00071826694 0.0393409 -0.17207205 0.012204714 -0.06115827 0.025379213 0.30872837
-0.014202147 0.30305985 0.0060057226 0.087587535 -0.0691892 -0.035917178 -0.0074915453 0.27702
0.09798704 -0.018512461 0.057613403 -0.03934079 0.21704434 0.046095047 0.16315542 0.0021269934
0.31480533 0.033965938 -0.2278038 0.2132449 0.0069970596 0.012703879 0.08463022 -0.02096033
0.11148255 -0.17433354 0.12694627 -0.036010765 -0.17035915 0.07249249 -0.03895381 0.31710258
0.05788672 0.0982007 -0.051254664 -0.04796913 -0.06303102 -0.024209073 0.081630945 0.08114783
-0.12105708 0.009428641 0.52360135 0.008542689 -0.048356175 0.10622309 0.13285553 0.05487078
-0.0014452488 0.15970124 0.068115324 -0.026025632 0.14665091 -0.08025884 0.020398334 -0.19606343

mean_linear.weight f4 [2, 256]
00000000: 706f 883d 8951 253c b4d1 a13e 61b3 92bd
00000010: 4ad8 143e c5d0 afbe 0e55 b13d da00 dd3d
00000020: 3b6b f13e 88ad 9dbd bf7c 38be 5c5b 9bbe
00000030: 99ce 033c 68e7 25be 32a7 1cbf e9bb 873c
00000040: c1cc b9be d9da 873e 9e85 95be 1f99 bb3e
00000050: 3f6f 213f faaf f13e 9b3f 3e3e ff7a bcbe
00000060: 3196 f03e 7a42 dc3e 19f3 6abe f784 b4be
00000070: e592 95be 9acc bbbe 0605 efbe 417f 873e
00000080: c5e6 39bd 81fc 9fbe 1c55 96be 81d3 233f
00000090: d92c dbbe 8e69 8a3d 53ee 173f 55e6 78be
000000a0: 3483 e13d 1a2e 2cbf a21f 5fbd 4b74 e7be
000000b0: 4078 0abd fef5 ed3e 7cd6 9f3e 975b 103e
000000c0: 36dc 54be 8054 fc3e 8bab f03e e479 4f3e
000000d0: 042b ca3e e627 1bbf 62a5 b7be ee90 fc3c
000000e0: d4d6 243e 2e7f c4be 993d 293f 2133 a13e
000000f0: dd53 f43d d4eb 83be 5eb2 e9bd 4ebc 4b3e
00000100: bf94 ae3c 8a53 4abe 7e8a 79be 1b21 87be
00000110: af86 a3be 1b26 873e c2d7 d03e f495 b03e
00000120: e853 05bf afbd a63e cfd0 b43e 031b 93be
00000130: 4f07 d83b 78d1 10be 6f07 483e 0119 20bf
00000140: 9d00 e2be 8444 5cbe bfe1 8a3e a209 943d
00000150: 062e e1bd ec71 693e 67e9 6e3c 9d82 c0be
00000160: 0391 fc3e e9b2 743d ece6 563e e030 023e
00000170: a643 79be 90fe de3e 4254 b9be b040 c63e
00000180: 1c28 41be a89f f33d f07c 99bc 04f6 83be
00000190: 07e8 ccbe 0486 913e fa47 ffbe a160 d03d
000001a0: 94d7 a03d 7d66 003f 6ae8 8a3d 4058 e9bd
000001b0: 37c6 86be 82af 9abe 1306 78bd 416b 413f
000001c0: fec4 d9bd 6613 0c3e 3bed 3abe abf1 6b3e
000001d0: 3a9f 943e 8f16 303e 41e0 38be ddbd d7be
000001e0: 17cf c4be b28e 57be 401b f53e 71bd c2bd
000001f0: 5dbe 47bd 737f 9cbd 6baa 5cbe cbbd c23e
00000200: 001b 663e c4e0 5dbd 0ec3 5b3d 5998 7fbf
00000210: 00cd ea3e 9cc2 343e 3172 c63d 3c06 d5bd
00000220: 0e0e dcbd 43e4 4e3d c6fb 57be a2ca 37be
00000230: db45 51be 4042 ab3c 51f7 08bf 21f2 9fbd
00000240: 31b7 333e 004a 6fbd 0202 da3d 4ca4 b23d
00000250: ad36 f2bb 5834 0dbd 1c02 bc3e 4eb0 3f3c
00000260: d291 063c 650a 00bf b11e 81be 58a2 9cbe
00000270: 0202 073f 5b57 303d 6c51 6bbe e0a8 20bf
00000280: 7446 983e 92ce 8cbd ebe0 dc3c 1c9b 0d3e
00000290: 6e1b 7cbe e771 bcbe e91e b0be cf61 8fbe
000002a0: f5c3 923e f53f 563e 4379 6bbd 1744 90be
000002b0: 394f 6dbe 852d 3cbe 343b 06be 6266 dd3e
000002c0: b17a 98be 05ec 56be 9171 d73e ef01 0ebe
000002d0: 2c73 0cbf e02e 193f 700c 0abf a5b9 d93e
000002e0: c679 a73d c883 9c3d cf15 00bf 138c b13d
000002f0: 1e0d 913e 344d 1f3e 456a 713d c3e7 b73e
00000300: 613f 67bf de26 e9bd e76b cebe 8d7d 9bbe
00000310: 11cf 9f3e 0f15 cd3d 54e4 98be 9045 d53d
00000320: 285f 04bf 4348 283e 1e20 e33e d624 853e
00000330: d172 9a3e 1878 19be bb3a 6c3e dc4e 123e
00000340: 42bc dd3e 28dd 1d3e 3249 883e 4871 43be
00000350: 2540 963e 9197 9fbd 2dc9 593e a2a6 9cbe
00000360: ab5f 6c3d e261 b2be cdf9 9abe 130b 1c3e
00000370: 0f4c 873e 906c 853d c41d fabd ab4f 0abe
00000380: d030 babe 55be bcbe 5d46 2cbe 87ee edbe
00000390: 3c7c adbe 58d0 93bb 6f18 aebd 1afa 4f3f
000003a0: ceed 2dbf 10a1 98be 9538 2f3d da44 3fbe
000003b0: f507 e9be 3f65 ae3e 87c5 653e 69d4 d2bd
000003c0: 2b03 f1be 3b58 713e b74c 083e 38c0 8c3d
000003d0: 7a18 a1be c4ce 40be bbe0 1bbf 3d8c b13d
000003e0: 6a52 69be 417d 3abf af9a cf3e cc58 d3bd
000003f0: 47e3 6e3e 1d9d dc3e 36b6 353e 9842 cfbd
0.0666188 0.01009024 0.31605303 -0.0716312 0.14535633 -0.34338966 0.08658801 0.10791178
0.47152123 -0.07699114 -0.18016337 -0.3034314 0.008044862 -0.16201556 -0.6119262 0.016569095
-0.36289027 0.26534155 -0.29203504 0.3664026 0.63060373 0.47204572 0.18578951 -0.3681259
0.46989587 0.43019468 -0.22944297 -0.35257694 -0.29213634 -0.36679536 -0.4668352 0.26464275
-0.045386095 -0.31247333 -0.29361808 0.63994604 -0.42807654 0.06758414 0.5934803 -0.24306615
0.11011353 -0.67257845 -0.054473527 -0.45205912 -0.033806086 0.4647674 0.31218326 0.14097439
-0.20787129 0.49283218 0.47005877 0.20261341 0.39485943 -0.60607755 -0.35868365 0.030830827
0.16097575 -0.3837828 0.66109616 0.3148432 0.11930058 -0.2576586 -0.11410974 0.19896051
0.021311162 -0.1975843 -0.24369237 -0.26392445 -0.31938693 0.2639626 0.4078961 0.34489405
-0.52081156 0.32566592 0.35315558 -0.28731546 0.006592668 -0.14142406 0.19534086 -0.6253815
-0.44141093 -0.21510512 0.27125356 0.072284 -0.109951064 0.22797364 0.014582015 -0.3759965
0.49329385 0.059740935 0.20986527 0.12713957 -0.24342212 0.4355359 -0.36197096 0.38721228
-0.18862957 0.118956864 -0.018736333 -0.25773633 -0.40020773 0.28422558 -0.498596 0.101746805
0.07853618 0.50156385 0.06782611 -0.113937855 -0.263231 -0.30212027 -0.060552668 0.7555428
-0.106332764 0.13679275 -0.18254559 0.23041408 0.2902773 0.17196105 -0.18054296 -0.42137042
-0.38439247 -0.21050528 0.47872353 -0.09508789 -0.04876553 -0.076414965 -0.21549384 0.38035426
0.22471237 -0.05416943 0.053652816 -0.9984184 0.45859528 0.17652363 0.09689749 -0.1040158
-0.10744868 0.050510656 -0.21092138 -0.17948392 -0.20436804 0.020905614 -0.53502375 -0.07809854
0.1755035 -0.05842018 0.10644914 0.087227434 -0.007391772 -0.034473747 0.3672036 0.011699749
0.008213477 -0.5001586 -0.25218728 -0.30592608 0.5273744 0.04305206 -0.22980279 -0.6275768
0.2974125 -0.06875338 0.026962718 0.13828701 -0.24619839 -0.3680565 -0.34398583 -0.2800431
0.28665128 0.20922835 -0.05748869 -0.28176948 -0.23174752 -0.1837674 -0.13108522 0.43242174
-0.29781106 -0.20988472 0.42078832 -0.13867925 -0.5486324 0.5983715 -0.5392523 0.42524448
0.08177523 0.07642323 -0.5003328 0.08669295 0.2833032 0.15556794 0.058939237 0.35919008
-0.90331084 -0.113843665 -0.40316698 -0.30369225 0.31212667 0.10013782 -0.298617 0.104136586
-0.51707697 0.16433816 0.4436044 0.26004666 0.30165723 -0.14987218 0.23069279 0.14287895
0.43307692 0.15416396 0.26618344 -0.19086182 0.29345813 -0.07792581 0.21268149 -0.3059588
0.057708424 -0.34840304 -0.30268708 0.152386 0.26425216 0.06514847 -0.122127086 -0.13506953
-0.36365366 -0.36863962 -0.16823716 -0.46471044 -0.33883846 -0.0045109205 -0.08500754 0.81241
-0.67940986 -0.2981038 0.04277857 -0.18678609 -0.45513883 0.3406162 0.22438632 -0.1029442
-0.4707273 0.23568814 0.13310514 0.068726 -0.31463987 -0.18828875 -0.60889786 0.086693265
-0.22785345 -0.7284737 0.40547702 -0.10319671 0.23328887 0.43088618 0.17745289 -0.101201236

mean_linear.bias f4 [2]
00000000: 618c b53d 7ef0 8b3d
0.08864666 0.068329796

log_std_linear.weight f4 [2, 256]
00000000: 91b0 f6bc 665e 4c3d 0407 823c 512f 3dbe
00000010: 6f80 073a f0de de3c 335b 3cbc 0660 94bd
00000020: 7820 803d 8795 333d c124 833d 5bf1 a7bc
00000030: f219 cabd a07c 9fbc 08c2 a43c 781b c7bd
00000040: d664 07bc 33e0 1c3d 1468 18bd 6292 f13a
00000050: b08d 543d cb47 b43a b6ce 31bd 37d0 b1bc
00000060: 3a4e 903d 3fd8 3e3d 3c2d aabc d8e2 8e3c
00000070: e1f2 af3b abe2 203d a21f f33c 608a a0bc
00000080: 0e02 83bd 4ca5 cdbc d85f aa3c 674d e1bc
00000090: 49e8 9f3c ecae 29bc 22a1 1c3e 9765 2f3d
000000a0: 9dd1 40bd 50d2 0bbe 00e5 333d 40db 77be
000000b0: 052d 2abe 6ee3 043d b6f9 ba3d 0593 663d
000000c0: 6e0b 0abb fb14 81bd 302c 413d c3ec c73c
000000d0: 5a38 063e 5b7c e53c 4ff3 a1ba dd85 64be
000000e0: bdb6 253d 04ff 163d 220c ba3d a819 773b
000000f0: b42c 5d3d 5d99 79bc 3a80 0c3c 44ca 27bd
00000100: 80fb 2fbd 1d80 43bc 0eff db3c 2df2 7f3a
00000110: f821 59bc d42c 4c3c cbb0 813d 32c7 27bc
00000120: 2e55 b63c f81c 423d 98d1 46bd 7177 3a3d
00000130: ed61 bcbd 479a 963d 0d2b 32bd 3317 c63d
00000140: d1fd 703d 2286 f83b a5d1 1a3a 91c8 38be
00000150: c95b 0d3d d856 dd3d 4ea3 55be 0d89 ae3c
00000160: d08f 39bd 0a99 cd3d bab8 8b3b 2084 45be
00000170: 9fcc c0bc 3cd6 153c d70d 353d ceea 8d3d
00000180: 811d 12bd 897b 2abd 87bc dcbe 9ea9 f53d
00000190: bfa3 9c3d 2985 72bc 4e18 773d 7d6e e1bd
000001a0: 3778 62bd 296a 173e 6583 17bd 332d 0bbc
000001b0: 8810 abbb bb96 4d3d e0e5 dc3c 9239 f53d
000001c0: 8f8b 7f3c 3c12 833b 75f5 e93d 3c02 30bd
000001d0: c01e 63bd 9cb8 b3bc ac5c 16bc 166b 0e3d
000001e0: fee5 073e 5bc2 9dbc c163 0f3e 533b 27bd
000001f0: 9f75 c5ba b578 683b 0b85 623c 7c33 7abd
00000200: 3e11 c1bb f61b 83bd cf37 dfbd f601 823c
00000210: 4874 963c fa82 9d3d 5f76 35bc 71ea babc
00000220: 4fd8 7a3d 887a 933d 1243 813c 4317 ad3d
00000230: 9e53 f93c a93d 19bd 60c1 4dbe f843 8d3d
00000240: a462 6b3d 4987 953d 68ef e23d b2b7 5fbc
00000250: ad94 893d 8405 a0bd 1fbc 253b 8854 b53d
00000260: e9c0 003d 1df8 293d a23e 0a3d ad44 e1bd
00000270: 6936 483e 661e 97be a850 213d 7ba2 a9bc
00000280: c62c 68bc b202 32bb 80de 9dbc 91cd 89bd
00000290: 1dd5 a33d 0c3a 493d 711c f93d 6dbd 61bd
000002a0: db1a 933d f1b4 953d a457 5a3c 204e a3bd
000002b0: 60f3 87bc 09a3 123e 5046 1bbd d09a 053c
000002c0: 9705 013b e7d8 8f3d 5c7d bb3d ed50 083d
000002d0: bc28 53bc 8b3c ef3d 08f1 a0bc c901 b83d
000002e0: 2210 483d 2fee 94bb fe92 48be 7a72 823c
000002f0: c8c3 cdbc 8284 883b b82b abbd 0991 5ebd
00000300: 7b26 b13d a597 40bd ef27 6abd 27d2 b63d
00000310: 0da0 e5bc cbc3 943c 2ce6 1ebd 8d21 29be
00000320: 3948 8e3d 1332 cabd f669 273d 13b8 80b8
00000330: 3e2b a03d 95a9 0dbc 6ee2 943d 67c8 48be
00000340: eb80 723d d11e c0bc 9b5d 9e3c e1aa a1bc
00000350: c4da 49bd 8754 d9bd 9b37 84bc 5040 203c
00000360: 5a40 4dbd ccea 15ba 74cc 323d 5777 cb3c
00000370: ad28 2d3c 2384 c8bb ac17 183d 89b3 cc3d
00000380: 9c87 083e 2fdb e5bc 0ab3 9bbe 5e18 2d3d
00000390: 1d67 85bd f298 10bd 4407 bbbd 8208 693e
000003a0: 4d52 d23d 3289 8cbe 6daa e93d 8bc0 8f3d
000003b0: 63d6 0bbd 824f 1e3c fd99 a53a 9449 5ebd
000003c0: 837a 9d3d 6b1f 933c 5a64 38be 5dd6 673c
000003d0: 24f7 193c fead edbc 34bb 473e b5a3 98bc
000003e0: 5b57 513d 017b 14bd 2772 c73c b794 0b3e
000003f0: 577c 583d 243b 763e a7fc 9a3c 68b2 0a3d
-0.03011349 0.049894713 0.015872486 -0.18475081 0.00051689794 0.027205914 -0.011496353 -0.072448775
0.06256193 0.043843772 0.064034946 -0.02050083 -0.0986823 -0.019468606 0.020112053 -0.09722036
-0.008263787 0.03829975 -0.03720863 0.0018430466 0.051892936 0.0013754306 -0.043410026 -0.02170573
0.070461705 0.046592947 -0.020773523 0.017442152 0.0053695296 0.039278667 0.02967817 -0.019597232
-0.06396876 -0.025103234 0.020797655 -0.027502729 0.019519942 -0.010356646 0.15295842 0.042821493
-0.047074903 -0.13654447 0.043919563 -0.24204731 -0.16618736 0.032443456 0.0912966 0.056292553
-0.0021063942 -0.0630283 0.04716128 0.024404889 0.13107434 0.028013399 -0.0012355837 -0.2231669
0.040457476 0.036864296 0.090843454 0.0037704501 0.05399771 -0.015234319 0.0085754935 -0.04096438
-0.04296446 -0.0119324 0.026855018 0.0009763565 -0.013252728 0.01246186 0.06332549 -0.010240363
0.022257414 0.047390908 -0.048539728 0.045524064 -0.09198365 0.07353645 -0.043498088 0.09672394
0.05883581 0.0075843493 0.0005905873 -0.1804526 0.03451136 0.1080758 -0.20863077 0.021305585
-0.045303166 0.100389555 0.0042639645 -0.19288683 -0.023535071 0.009145316 0.04420265 0.06929551
-0.03567267 -0.04162172 -0.43112585 0.119952425 0.076484196 -0.014802256 0.060325913 -0.11007402
-0.055290427 0.1478659 -0.036990542 -0.008494663 -0.0052204765 0.050192576 0.026965082 0.11973871
0.015597238 0.0039999764 0.1142377 -0.04297088 -0.055449247 -0.021938615 -0.009177368 0.034770094
0.13271329 -0.019257715 0.14002897 -0.04082806 -0.0015064961 0.0035472338 0.013825665 -0.061084256
-0.005891948 -0.064018175 -0.108993165 0.015870076 0.018365994 0.076909974 -0.011075585 -0.022816868
0.061241444 0.07201105 0.015779052 0.084517024 0.03043538 -0.03741232 -0.20093298 0.0689773
0.057467118 0.07301194 0.11080819 -0.013654636 0.06717811 -0.07813552 0.002528913 0.08854014
0.031433973 0.041496385 0.033751138 -0.10999427 0.19552006 -0.2951538 0.03938356 -0.02070736
-0.014170831 -0.002716225 -0.019271135 -0.06728662 0.079996325 0.049127623 0.12163628 -0.05511229
0.07182857 0.073099025 0.013326559 -0.079738855 -0.016595542 0.14320005 -0.037908852 0.008154586
0.001968717 0.07023793 0.0915477 0.0332803 -0.01288813 0.116814695 -0.019646183 0.089847155
0.04884351 -0.0045449953 -0.19587323 0.015923727 -0.02511777 0.004166187 -0.08357948 -0.054337535
0.08649918 -0.04701962 -0.05716699 0.08926802 -0.02803042 0.018159768 -0.038793728 -0.16516705
0.06947369 -0.09872832 0.040872537 -6.137802e-05 0.07820748 -0.008646389 0.072697505 -0.19607697
0.059204977 -0.023452194 0.019331744 -0.019734802 -0.049280897 -0.106118254 -0.016139796 0.009780958
-0.0501102 -0.00057188864 0.043652013 0.02483718 0.01056878 -0.0061192675 0.03713195 0.09995181
0.13332981 -0.028058616 -0.30410033 0.042259566 -0.06513808 -0.03530211 -0.09132245 0.22757152
0.10269604 -0.27448422 0.11409459 0.070191465 -0.034140002 0.009662511 0.0012634393 -0.05426939
0.07689383 0.017959317 -0.18007031 0.014150229 0.009397302 -0.02901363 0.19505006 -0.01863275
0.0511087 -0.03625012 0.024346424 0.13630949 0.052852955 0.24045998 0.018919302 0.033861548

log_std_linear.bias f4 [2]
00000000: 948a 11bf 033c 38bf
-0.5685208 -0.7196657
