hydrone_aerial_underwater_ddpg/scripts/Models/sac_stage_2_sub2D_tanh_3layers/2300_value_net.pth (torch_old, 585563 bytes, 10 tensors)

linear1_q1.weight f4 [256, 26]
00000000: c8b6 2a3e 1d20 c83d 2b0a 6f3c d989 0fbe
00000010: e82a 0dba 5b05 8bbd 11a4 e33a 555b c13d
00000020: 5adb ccbc 8124 7f3e 6ac5 813b 568e 93be
00000030: cb87 1ebe e73f 0dbe f4a5 dfbc 67a5 bdbd
00000040: f7cf b83d 1ab4 253e 4e3c d6bd 9a61 1e3f
00000050: 3152 873f fce9 95be cf06 adbb 910a a0bf
00000060: 2187 efbf 1504 b23e f8c3 3bbf 0b72 2dbf
00000070: a3b0 67bf 1c9a 9dbe 5da7 d53e caa7 81be
00000080: a434 843e cec1 933d 6e5a 3abc ad3c fabd
00000090: 62f3 90bd 53d3 623d ce66 a7be 5e52 4bbe
000000a0: 1bc5 d1be cfb8 b53c 5e2e 26be 2819 983e
000000b0: 56e0 023e ddf3 f73e d603 63be b27b 5f3f
000000c0: 36a0 89be d5c3 6ebf 0385 21bf c33e 873e
000000d0: 00e2 2dbc 54af e53d efb9 9bbd 16e0 37be
000000e0: 54b6 89be 793e f3bc 7a62 b83e f512 e6be
000000f0: e0c6 093f a52c 25bf d3fd aabe 2c8e a0be
00000100: f9ac 92bd 6fb5 173e 6ed3 ddbd 7a45 49be
00000110: b377 afbc 06dc 973d 82e5 333e 82a6 1a3e
00000120: 8eeb a43f 673d 8fbe 958a 8fbf dfc8 95bf
00000130: 5d53 1a3f 6518 16bf c444 1d3d 97b0 cdbd
00000140: 40b6 6fbd d617 3b3e 0dee 773e cd2a 733b
00000150: 98f6 bc3d 6172 87be d053 36bf 4f4e 2abf
00000160: f645 a0be 1bf9 ffbd 086c ee3d 9719 7e3d
00000170: 2a4d 853d 7e52 c5be 8b01 a43e 7114 14bd
00000180: 2bf0 9b3d bf42 833e a5a3 cebd 2938 a3be
00000190: 7d50 f33f 5aff cb3f ee82 853e 5caf 9a3e
000001a0: 99b4 c7be 36c0 2a3d a00f 563d 4d03 293b
000001b0: 22c5 cbbd 8b58 e5bc c612 b13d b256 8e3d
000001c0: 11bf e03d 0945 a43c e49d 8fbd f4cc 213e
000001d0: 3459 36bd a070 a5bc 6b5b 743d b8a2 18bd
000001e0: aca0 2d3d 1ce5 993d f26f f63c 7ca5 e03d
000001f0: a388 55be c7fd 3f3f a909 f73f 4a90 50c0
00000200: 358a acbe cc2b 90be 11ad 20bf 0e33 ab3d
00000210: 064b 283e a720 043f 0190 fb3e b39e 7b3d
00000220: 34b8 533d 5f94 b93d ab4f 28be 3efe 8fbe
00000230: 2439 b6be 79aa 62be ce0c cd3b 6a74 c4bd
00000240: 6e84 a93e 5132 b2bc ae78 533d 5783 693e
00000250: 667b 953e 2cc8 3fbd 46c7 c8be 5b34 a83e
00000260: bb55 9d3f 83ad 86be 7dc8 243e 0ccb 41bf
00000270: 0d31 afbe 226f 933e 7bea cdbe 3d0d 02be
00000280: d721 2e3e 3e93 5a3e b264 93bc f38a e53d
00000290: 2d80 8b3d 7d10 72be d2b6 7abc 56c2 523b
000002a0: 521e ef3d 6110 cc3d fc95 113d 5ca1 adbc
000002b0: 3c16 54be 9047 e63e b3e9 cdbd ded3 d9bd
000002c0: 878f e5be 8df1 883f 7b4c bdbe 20c3 c4bf
000002d0: 4c57 d9bf 7c7d d43f 7210 04bc a796 f63c
000002e0: 9555 ff3b 907c 8ebe fbdb 0abf 0651 02bf
000002f0: b6eb 1bbf 3673 fdbe eadc 0ebe 0364 a0bd
00000300: e1c7 3a3e bc96 003f 2de7 0d3e b75e 6b3e
00000310: d4b3 18be db1d fdbc 45a9 38bd 5be7 5a3f
00000320: 2aca 943d c321 88be e464 68be f8ce 41bd
00000330: 9bad c43f 59eb 4a3f 83ba 093e 90df ed3e
00000340: f228 f4bd 7b77 b93c 5963 8bbd 208e ddbe
00000350: 946e 57bd ff6a 44bc 6412 343d 5d75 213c
00000360: 4936 38bd c7f5 13be f6a7 1abd 0373 1f3e
00000370: 5599 0cbd 6853 cd3d 268d 0e3e c3d7 043e
00000380: 8fbe 013e 79e9 d03c 5ffc 6bbd d3e0 4abe
00000390: ae58 7ebd bfba 8c3f 5f41 92bf c0a2 0840
000003a0: b425 9d3e 456b 11be ddb0 55be 1dd7 243e
000003b0: b7d6 9bbe 446d 2dbe 42a1 383d a5e9 7fbe
000003c0: 7faa 01bf 7b07 a2be f97d 563e 72de b3bd
000003d0: 1300 2ebd 1220 483d cda1 df3d b626 e1bd
000003e0: fed6 683e fe10 26bd 0f7b 883d 24d4 a8be
000003f0: 745e 573e 7770 9c3e bcdd 0f3f 6c6b da3e
0.16671288 0.0977175 0.014589827 -0.14017428 -0.00053851167 -0.06788131 0.0017367621 0.09441248
-0.025006939 0.24916269 0.003960301 -0.2881953 -0.15481488 -0.13793908 -0.027300812 -0.092600636
0.09024041 0.16181985 -0.10460721 0.6186768 1.0571958 -0.29280078 -0.0052803527 -1.2503225
-1.8713113 0.3476874 -0.733459 -0.6775214 -0.905039 -0.3078164 0.4172925 -0.25323325
0.25821412 0.072147 -0.011374099 -0.12218604 -0.070776716 0.055377316 -0.3269562 -0.1985564
-0.40970692 0.02218285 -0.16228625 0.29706693 0.1278089 0.4842824 -0.22169432 0.8729812
-0.26880044 -0.93267566 -0.63093585 0.2641507 -0.010612965 0.11215082 -0.076038234 -0.17956576
-0.26896918 -0.029692875 0.36012632 -0.44936338 0.53819084 -0.6452125 -0.33396778 -0.3135847
-0.07161898 0.14815305 -0.10831343 -0.1965541 -0.021419382 0.07415013 0.17568019 0.1510258
1.2884386 -0.27976534 -1.1214167 -1.1701926 0.6028345 -0.58630973 0.038395658 -0.100434475
-0.058523417 0.18270811 0.24211903 0.0037104369 0.092267215 -0.26454452 -0.7122164 -0.6652574
-0.31303376 -0.12498685 0.11641699 0.062036123 0.065088585 -0.385395 0.32032427 -0.036152307
0.07614168 0.2563686 -0.100898065 -0.31878784 1.9008938 1.5937302 0.26076454 0.30211914
-0.39004973 0.041687213 0.052260995 0.002578932 -0.099497095 -0.027996322 0.08646159 0.069501296
0.10973943 0.02005245 -0.07012537 0.1580084 -0.044518664 -0.020195305 0.059657495 -0.037264556
0.042389557 0.07514402 0.030082677 0.10969064 -0.20852904 0.7499661 1.9299823 -3.2588067
-0.33699194 -0.28158414 -0.6276408 0.08359347 0.16434869 0.51612324 0.49133304 0.061430644
0.05168934 0.09061503 -0.16436641 -0.2812366 -0.3559047 -0.22135343 0.00625763 -0.09592517
0.33108848 -0.021752508 0.05162876 0.22804008 0.29195708 -0.04682176 -0.39214534 0.32852444
1.2291788 -0.26304254 0.16092105 -0.7570045 -0.3421711 0.28795725 -0.40217957 -0.12700363
0.17005096 0.21345231 -0.017992351 0.11208143 0.06811557 -0.23639102 -0.015302377 0.003215929
0.11675705 0.099640615 0.035543427 -0.021195106 -0.20711607 0.44976473 -0.1005434 -0.106361136
-0.44836065 1.0698715 -0.36972412 -1.5372047 -1.6979766 1.6600795 -0.0080605615 0.030101134
0.0077921846 -0.2782941 -0.54241914 -0.5090488 -0.6090654 -0.4950196 -0.1395146 -0.07831576
0.1824031 0.5023 0.13857718 0.2298535 -0.14912349 -0.030898025 -0.045083303 0.8550927
0.07265122 -0.26588258 -0.22694737 -0.04731652 1.536548 0.7926536 0.13450055 0.46459627
-0.11921872 0.02263998 -0.068060584 -0.43272495 -0.05259569 -0.0119884005 0.04396285 0.009854642
-0.044973645 -0.14449225 -0.037757836 0.15571217 -0.034325916 0.10025674 0.13921031 0.12972932
0.12670349 0.025501953 -0.057613727 -0.19812326 -0.06209629 1.099449 -1.14262 2.1349335
0.30692828 -0.14201076 -0.20868249 0.16097684 -0.30437252 -0.16936213 0.045075662 -0.24991472
-0.5065078 -0.31646332 0.20946492 -0.087826625 -0.04248054 0.04885871 0.10919533 -0.10993712
0.22738263 -0.04054355 0.066640966 -0.3297435 0.21032125 0.30554554 0.56197715 0.4266008

linear1_q1.bias f4 [256]
00000000: a1b2 fb3d 2698 fe3d 327e 513f cb7f c8be
00000010: 4262 c63e 6644 22bf 785b 1f3f a6bf 62be
00000020: 078c 253f f066 873e d3d3 293f bdba 0b3f
00000030: 4739 ccbe 58be bb3e 9bda 1a3f 1500 8a3f
00000040: 81e8 d83f 5af3 80bf 1839 f83f b983 ab3e
00000050: f2c6 60bf a97b 9dbf 7f49 313e 5449 96bf
00000060: 5697 cbbf 54a2 ac3d 2320 87bf c11e 3fbf
00000070: 7de8 acbe 8f34 f43e b771 053d 4ed1 6b3f
00000080: c41c 53be 17e7 8dbd 3a4e 463e c055 383f
00000090: c6b7 1d3d 566d 733f f4d5 82bf 5cb1 b4bf
000000a0: 307e f63e 0c15 d53e 9393 a7bf ec8e b63f
000000b0: b7ff 2ebf 92e4 b43d 882a a13f 05b3 bd3e
000000c0: 52d9 723f c989 58bf 246a c13e 071f 98bf
000000d0: e474 403f 245f 073f a1a3 0ebf 669a 3e3e
000000e0: 6f8e d13f 5b8c c53f 4b89 32bf 8e8b 1b3f
000000f0: 3bbb b03f 986a 1fbd 8bf9 0d3f 1f4b 1c3e
00000100: 69ca 2d3e 23b0 623f ef2c 54bf 4ad2 c73e
00000110: 5c40 883e 607c 74bf a8dc 03bd 4447 e7be
00000120: c7cd 903f 1bae 073e a0cc aabf d70a 993f
00000130: 7e0f b2bf f13b abbf 7312 ad3f 5189 d9bd
00000140: 04f9 ee3c 98b1 853f 136f 93be 91ab 413f
00000150: 6fc8 9cbf 1001 e83e b2ae 443f 1803 15bf
00000160: 82c5 fc3f f206 283e 7e61 58bf 4778 a63f
00000170: ae7f 1e3e ab95 b9be 8f4a fd3e 9020 a63e
00000180: 7477 cdbf c200 90be 3669 96bf 451f e83f
00000190: 3070 27bf aec1 fe3d c1bd f03d f2c3 06bf
000001a0: 0670 ce3f efdc bd3e 9d9a 203f 6446 0f3e
000001b0: 6978 eabe e49e 603f 34b0 9d3f 9d14 a23f
000001c0: 6278 bcbf 023b ddbe 35a7 ad3f e8ea 10bf
000001d0: 57c5 c83e a32b 893f 2ea6 99be aa2d 7dbf
000001e0: c116 9c3e 6424 a5bf 0fad 03bf 40ed ef3f
000001f0: 9598 76bf 0017 2840 a7f5 1b3f ab67 6cbd
00000200: dada da3f 1d57 e93f 9e2d bf3f f52d 793e
00000210: 2b43 e53e 4989 61bf c29a 843e d660 d03f
00000220: 5491 de3e 08d0 d53f bf9b d7bf 3e0b fc3e
00000230: f805 a03e dcde 893e 4afc ba3e 90e9 c1bf
00000240: c142 c5bf 4541 673f fdc7 cb3f 93a7 4fbf
00000250: b3de 2a3f c214 8f3e 13fc e53f 88b7 3ebf
00000260: 364f abbd 4f12 45bf 0525 cabd 544c 09bf
00000270: 25c6 d23f be67 a83f ddf7 82bf fa30 b93d
00000280: 7229 643e 0957 f33f f0b6 d7be 676b 9c3e
00000290: 6523 863f fa01 9a3d be67 f6be 8b7d 9cbe
000002a0: 2421 66bf 3573 1040 96f3 0340 d57b 56bf
000002b0: d2e3 e8be 1769 2f3f 8a73 a83e 7c07 973e
000002c0: 1392 8e3e a43c 91bf eaac c33f 9902 1e3e
000002d0: 482f 1cbf e6ee 803e 67a8 5b3f 09df 62be
000002e0: 22d1 2ebf 81a3 87bf c4df 66bf 8d74 bc3f
000002f0: d855 063f c53c 863f f500 bfbf 1076 cd3f
00000300: c8b9 9d3e bd33 5c3f 1b1e 2a3f 9983 053e
00000310: caae c9bf cd9d fdbf 5cde 99bf 422f 723e
00000320: e6eb 353e caab b9bf 34a2 423e fad3 c6bf
00000330: 1d45 79bf 2938 b9be ab50 883e 6f0d 71bf
00000340: 4735 cc3f 7924 943f 44a4 733f 947f d63e
00000350: 3a2e 2abd 1d72 b13f 36c5 aebf 4847 11bf
00000360: 9559 b7bf 5101 6e3f d9dc 243f 4eaf 4bbf
00000370: 9868 8ebf 1219 16be 7fc7 c4bf 828f d6be
00000380: 84a9 0140 e936 f1bd 323c 923e 0180 8cbe
00000390: 5dd0 843f 59b5 05bf 226f f63f 982b 95be
000003a0: d916 92bf 4f58 72be d9a9 cb3e ddc6 a93f
000003b0: 7001 88be 16b7 6c3f 41d7 283f 16cc 57bf
000003c0: 7c33 c03f 6d9d 28bf fa03 39bf 6d5e a9bd
000003d0: 6345 3c3f afba 963e 8134 0b3d d3e3 cfbe
000003e0: bbaf 4fbf 9e3b 603d 72de babe f549 abbf
000003f0: 8203 3ebd 67ed ba3f 84f5 a9bf 79f3 94bf
0.1228993 0.12431364 0.81833184 -0.39159998 0.3874684 -0.6338562 0.62248945 -0.2214342
0.6466679 0.26445723 0.66338843 0.54581815 -0.3988745 0.36668658 0.60489815 1.0781275
1.6945955 -1.0074265 1.9392424 0.33498934 -0.87803566 -1.2303363 0.17313193 -1.1741128
-1.5905559 0.08429399 -1.0556682 -0.746563 -0.33771124 0.4769635 0.03257915 0.9211625
-0.20616442 -0.069288425 0.19365779 0.72005844 0.038505338 0.9508871 -1.0221543 -1.4116626
0.48143148 0.4161762 -1.3091911 1.4262366 -0.6835894 0.08832659 1.2591105 0.37050644
0.94862854 -0.84585243 0.3777629 -1.1884469 0.7517836 0.5287955 -0.5571843 0.18613586
1.6371592 1.5433458 -0.6974074 0.6075982 1.3807138 -0.038920015 0.554589 0.15263031
0.16971745 0.88550013 -0.82881063 0.39027625 0.26611602 -0.9550228 -0.032192856 -0.4517156
1.1312798 0.1325001 -1.3343697 1.1956433 -1.3910978 -1.3377668 1.3521255 -0.10621894
0.029171474 1.0444822 -0.2879568 0.75652415 -1.2248667 0.4531331 0.76829064 -0.58207846
1.9747775 0.164089 -0.8452376 1.3005456 0.15478393 -0.36247 0.49470946 0.32446718
-1.6052079 -0.28125578 -1.1750858 1.8134543 -0.6540556 0.12439285 0.11754943 -0.5264274
1.6127937 0.3708262 0.6273592 0.13991696 -0.4579499 0.8774245 1.2319398 1.2662541
-1.4724238 -0.43209082 1.3566653 -0.5660844 0.39213058 1.0716442 -0.30009598 -0.988978
0.3048611 -1.290173 -0.5143594 1.8744278 -0.9632657 2.6264038 0.6092171 -0.057716053
1.7098038 1.822971 1.4935796 0.24333937 0.44777808 -0.88100106 0.2589932 1.6279552
0.43470252 1.6704111 -1.6844405 0.49227327 0.31254554 0.2692784 0.36520606 -1.5149403
-1.5410997 0.9033397 1.5920407 -0.8111507 0.6674606 0.27945524 1.7967552 -0.74498796
-0.08364718 -0.7698106 -0.09870342 -0.5363209 1.6466719 1.315666 -1.0231892 0.09042545
0.22281435 1.9010936 -0.42131758 0.3055069 1.0479552 0.07519908 -0.48126024 -0.30564532
-0.8989432 2.2570317 2.0617423 -0.837827 -0.45486313 0.6851973 0.3290065 0.29497898
0.2784582 -1.1346631 1.5287144 0.15430678 -0.61009645 0.25182265 0.85803837 -0.22155394
-0.6828786 -1.0596772 -0.9018519 1.4723068 0.5247474 1.0487295 -1.4922167 1.6051655
0.30805802 0.86016446 0.6645219 0.13038482 -1.5756466 -1.9813782 -1.2020984 0.2365084
0.1776577 -1.4505551 0.19007188 -1.553344 -0.97371083 -0.3617566 0.26624045 -0.94161123
1.5953759 1.157363 0.95172524 0.4189421 -0.04154799 1.386295 -1.3653934 -0.5674939
-1.4324213 0.9297076 0.64399487 -0.7956437 -1.112567 -0.14658001 -1.5373381 -0.41906363
2.0259714 -0.117780514 0.2856155 -0.2744141 1.0376087 -0.5222984 1.9252665 -0.29134822
-1.1413223 -0.236665 0.3977802 1.3263813 -0.26563597 0.92466867 0.6595345 -0.84295785
1.5015712 -0.6586521 -0.7227169 -0.082699634 0.73543376 0.29439303 0.03398562 -0.40603504
-0.8112752 0.054744355 -0.36497837 -1.3381945 -0.046390064 1.46037 -1.327805 -1.1636802

linear2_q1.weight f4 [256, 256]
00000000: a6c2 5c3e 82a8 02be fc3c 9e3d 1048 2abe
00000010: b1d9 41bd 73a9 a13e 9fb2 2c3f 5f2b bb3d
00000020: f409 34be 8f71 93be 2c9d bcbe bc30 e0be
00000030: 4948 8abe fb51 a23e b511 e5be 4845 e1be
00000040: f0c9 3bbe 3ff5 47bf 4570 cfbd 8f34 45bf
00000050: b244 d2be 34fc f63d 5ad8 7fbd 87d3 bdbf
00000060: 3cab 07bd 46a9 f2be d226 203e dd0e 66bf
00000070: 3bc1 073f bffc a2be ba49 733d 57cb c53d
00000080: 967d 963d f551 b1bf ba56 c7be b6ec 913e
00000090: 546e a1be d510 123f 24c8 193e 3f86 bebf
000000a0: def2 bc3e f044 9e3e e527 103d da3f a03c
000000b0: 2e46 1b3f cd00 37bf f660 27be 7cfe 013f
000000c0: 27ab 54be 0ab2 79bf 9d17 bc3e 79ca b1bf
000000d0: e26a cdbe 892d b63e 0466 483d a079 e5bd
000000e0: ec07 79be b46d fc3e ae34 a73e 1385 47bf
000000f0: 68a9 383e 391a 8dba e095 b6be 5dab 74be
00000100: ce4d 1dbf aed6 c8be c679 6d3d c8ab f43e
00000110: c06b 80be 944b 79be d665 74bf 730f 84bf
00000120: 430d 0b3e eeff 8cbe f69d 8abf d8ad e0be
00000130: 0cf7 c73e fbd3 c63e f0f7 95bd fc62 0a3c
00000140: 4c81 83be 6059 cc3e d35d d6be 39a8 b93d
00000150: d1d0 1f3e ca45 f83e d81a e3bd 699c febe
00000160: 0520 febd 4f1b c93e 9771 81bf 6ed2 b5be
00000170: 9268 2e3e 3319 68be 5877 1c3e d4e3 17bf
00000180: d8fc b93e 87d8 113e c133 80be c346 11bd
00000190: 401c 073f f4e5 d9be be34 953d 8902 573e
000001a0: b524 5cbf 4f26 a83e baaf 1a3e 4ffc 97be
000001b0: b77b 113f 1cc2 e2be b809 d43d 168c 213f
000001c0: 6af3 273f 9633 473e 2206 ce3e 4f25 2bbe
000001d0: 397f eebe 4533 debe 2a16 84bf 4500 903e
000001e0: 50ba 7bbd d375 853e 43e2 1e3e b0a3 71be
000001f0: 9f5a eabe 59a2 3fbf 605d 5a3e 64d2 e53e
00000200: 0a34 d83d c743 89be fea2 06bf 356d 103f
00000210: 36ee 8f3d ea02 d0bf 4cd8 173f f267 ed3e
00000220: 0e01 e7bd 89d6 1ebe d66c 20bf 7e9f 80be
00000230: b227 7ebe 6cb6 89bf 8d50 96bf 311c a53e
00000240: 4aab 86be ccbf 0dbd 55b6 09bd d537 c0bd
00000250: 3704 323e c234 27bf c1d5 6abe fb04 23c0
00000260: 1959 1dbf 4ce2 463c c181 e5bb 93e8 2a3f
00000270: 279c a7be 1339 db3d 0285 79bc 1dde d23e
00000280: b389 f2be 77a4 073d 3bef 26bd a8b3 103f
00000290: e359 18bf 3cef 0d3c ab89 08bf 6702 c23e
000002a0: 1fa6 b4bf d149 e6be b631 0a3e 6d40 c7be
000002b0: e57a 0abf f43b e63e 379a 9f3e 2e82 fc3e
000002c0: d7ab 5d3e fe65 053f 9c6b a1bb 4986 95be
000002d0: 1e8d ab3e affa 2a3d d49e d73e 74ed 81bf
000002e0: 4bae 09bf 64ba 9b3c ef8c 453e a3fc 9fbd
000002f0: 0f8e 913e 5090 7d3f 1548 443a 6b91 78bd
00000300: 5aaf e8be b695 41be 2228 153f 36ad 9bbe
00000310: 1c5e 723d 03ee b63e 0315 84bd 1a00 cb3e
00000320: 2909 723e 6967 513b 6593 44bf 9ced 92bf
00000330: 2bb7 63be 954b 8bbe 3428 41bf dcdb 423e
00000340: a48c 0dbf 8c9d 243f 3673 fabd 9b87 6ebf
00000350: e540 96bd 2f92 89bd 2349 a53e a050 263e
00000360: 816c c83e bdcf 01be 73c6 3f3f 3a7e 443f
00000370: ffc5 d0be ead6 a93c 970e 853e f05b e5be
00000380: 6ba7 7abe ea29 3a3e a08e f63c 3f38 8bbc
00000390: 13a3 f33e 2860 913e 360e cebd 1e51 cebe
000003a0: 1c5c 27bf 59a3 7e3d 15ed cabf 54f1 c13d
000003b0: 19ae 0dbf 4b38 edbd b479 a83e 7af3 013f
000003c0: 6f26 053d bab0 023d b0a5 2bbf c44f aebe
000003d0: 5985 02bf a170 58bf 15ba b03e d080 6fbd
000003e0: 92a6 76bf a8fd bdbd 70fd 803e 6d00 023d
000003f0: 9231 45bd 4d72 17be c6a3 dc3e 629a c83e
0.21558627 -0.12759593 0.077264756 -0.16629052 -0.047326747 0.31574592 0.67460054 0.09139132
-0.17581922 -0.28797576 -0.36838663 -0.4378718 -0.27008274 0.3170317 -0.44740072 -0.4399817
-0.18338752 -0.7810859 -0.101288356 -0.77033323 -0.41068035 0.12059823 -0.06246219 -1.4830178
-0.033122286 -0.4739477 0.15639809 -0.8986643 0.5302922 -0.31833455 0.059396483 0.096579246
0.07348172 -1.3853136 -0.38933355 0.2850091 -0.31529486 0.57056934 0.15017754 -1.4884719
0.36904043 0.3091197 0.035194296 0.019561697 0.6065396 -0.71485597 -0.16345581 0.5077894
-0.20768414 -0.9753729 0.36736766 -1.3889915 -0.40120608 0.35581616 0.048925415 -0.11204839
-0.24319428 0.49302447 0.3265738 -0.7793743 0.18033373 -0.0010765261 -0.3566122 -0.23893495
-0.61446846 -0.39226288 0.05797746 0.4778731 -0.25082207 -0.24345237 -0.9546789 -1.0317215
0.13579278 -0.2753901 -1.0829456 -0.43882632 0.3905567 0.38833603 -0.07322681 0.008446451
-0.25684583 0.39911938 -0.41868457 0.09065289 0.15607001 0.48490745 -0.110891044 -0.49728706
-0.12408451 0.39278647 -1.011279 -0.35512108 0.17032078 -0.22665863 0.15279901 -0.59332013
0.36325717 0.14242755 -0.25039485 -0.035467874 0.5277748 -0.42558253 0.072854504 0.20997061
-0.8599351 0.32841727 0.15106097 -0.29684684 0.568294 -0.4428872 0.10353416 0.6310438
0.65605795 0.19453272 0.40239054 -0.16713451 -0.46581438 -0.4339849 -1.0319264 0.28125206
-0.06145698 0.26066455 0.15516 -0.23597598 -0.45772263 -0.748571 0.21324682 0.44887078
0.10556801 -0.26809523 -0.52592456 0.56416637 0.07027857 -1.6250889 0.5931442 0.46368366
-0.11279498 -0.15511526 -0.6266607 -0.25121683 -0.2481983 -1.0758796 -1.1743332 0.3224807
-0.26302558 -0.03460674 -0.03362115 -0.09385649 0.1738442 -0.6531488 -0.22933103 -2.547179
-0.6146408 0.012138914 -0.0070039933 0.6676113 -0.32736322 0.107042454 -0.015229465 0.41185084
-0.4737068 0.03311583 -0.04075549 0.56524134 -0.59512156 0.008662995 -0.53335065 0.37892458
-1.4113196 -0.44978192 0.13495526 -0.3891634 -0.5409377 0.44967616 0.31172344 0.4931807
0.21647583 0.5210875 -0.004926158 -0.29204014 0.335061 0.041742977 0.42113364 -1.015059
-0.53781575 0.019009776 0.19292043 -0.078118585 0.28428695 0.9904833 0.00074875477 -0.060685556
-0.45446283 -0.18904766 0.5826436 -0.30405587 0.05917178 0.35728464 -0.0644932 0.39648515
0.23636307 0.0031952506 -0.76787406 -1.1478763 -0.22237842 -0.27206102 -0.7545197 0.19029182
-0.55292726 0.643029 -0.12229006 -0.9317567 -0.073365964 -0.067173354 0.3228236 0.16241693
0.39145282 -0.12676902 0.74912184 0.76755106 -0.4077606 0.020732362 0.25987694 -0.44796705
-0.24477927 0.18180051 0.030097306 -0.016994594 0.47585353 0.28393674 -0.10061304 -0.40296263
-0.6537492 0.0621675 -1.5853602 0.09469858 -0.55343777 -0.11583003 0.32905352 0.5076214
0.032507356 0.03190682 -0.67049694 -0.3404523 -0.5098472 -0.8454686 0.3451697 -0.058472455
-0.96347916 -0.09276897 0.25193357 0.031738687 -0.048142977 -0.14789696 0.430937 0.39180285

linear2_q1.bias f4 [256]
00000000: 4fb9 ac3d eacd 243e 28cd af3f 40cd ad3f
00000010: eb83 35bf dc2d cd3f 95a1 f13e 2db9 6fbe
00000020: b903 0dbe 4619 463f ee19 86bf a119 583f
00000030: 8fe9 06bf 2556 85bc 74be 8fbf 73dc 0240
00000040: 7b5a 643e ca46 bfbf 998b 04bf 3726 993f
00000050: 02d6 94bd 450f d8be e230 893e 6f6f f1be
00000060: 3d77 64bf adef dd3e dbbd 4d3f 44db 9c3e
00000070: 63ea 25bf c12e 0b40 ce37 953e 057f 353f
00000080: 3772 4dbf 7986 9cbf 6547 153f 6a57 543f
00000090: 6368 0fbe 5fb6 adbe 14f5 4e3e 45c9 ca3f
000000a0: adc5 27bd 3e18 f13d eb01 923e 8c16 1c3e
000000b0: e589 c03d f491 4a3f 468a 993e 4be6 513e
000000c0: 9ba0 f1be b930 28bf 862f 71bc 197f dbbc
000000d0: e1e2 a8be 3da6 8d3f 3f3f ccbe 251b 413f
000000e0: f06b 843e aa96 1540 985c 063e 769a 2ebf
000000f0: 8a9d 633f fce6 c6be 1a27 2cbe 3fb7 3cbe
00000100: a7f0 dbbc 7b3a afbe 31da 14bf 0c12 b1bc
00000110: 6e5b ddbc 9804 d73f 5c72 38be 8d48 f5be
00000120: 6061 f2bc 786d fc3e 3424 013f 58bf d03f
00000130: d1be fcbe 410e 62be fb60 6c3f 1e46 e3bc
00000140: e607 bcbe 85bf 4f3f 1c4b 363f d60b 70bf
00000150: 329a a5bb e102 72bf 9d44 5b3e 377c ab3d
00000160: 69ee dd3e e3c7 5cbf 665b d23e dd03 94bd
00000170: c29d 43bf d723 20be 3583 963e f8be a03e
00000180: e323 27bd 72df a83f 8be2 30bf 5d71 a43c
00000190: c6ea e3bd 5983 c23f 4f23 623f e325 ec3e
000001a0: c8d2 be3f e41d fdbd d09e 93bc 759a 0abe
000001b0: 6338 08bf f041 39bf 2163 0a40 4cc1 51bf
000001c0: fb3c 743f 519d 18bf e503 0cbf 12f0 02bd
000001d0: ae31 edbd 6687 0540 4287 80bf d5da 2d3e
000001e0: 89a7 8b3e eb20 6b3f 41ae 293f 0cf0 d7be
000001f0: 4fcc 803e 0421 54bc a303 eb3f 970b 18bd
00000200: 708c 40be 4f60 aabf dbb7 923e cfa7 e43f
00000210: c636 a03f 4a1e 7a3f da96 d0bd 4473 573f
00000220: d68b 343e 3f94 d43e 8dea 4c3f 4d2f db3e
00000230: 6490 103e e756 a0be 0062 f13f 6156 9f3f
00000240: c72f fd3e 56b6 203f e06a 8bbd 4892 5c3f
00000250: 22d7 ab3e 7e43 0140 8e6c 4f3e c368 f33f
00000260: d519 8a3f 643e ec3d e928 1e3f 55be b23e
00000270: 8be7 21be b621 d1be 24cd 9a3c d878 4a3e
00000280: bf6c 303d 6911 c2be 98cf 96bf f381 8a3e
00000290: 719f 9b3e 3f3a 9ebe a099 13bf eb15 643d
000002a0: 0831 c8bf 7502 0a40 415b 4b3e ff34 3f3e
000002b0: ab78 5a3e d912 67bf d813 813e 5ecf 413f
000002c0: 20da c43d 7e67 94bf 88a9 28bf 6d9b c03f
000002d0: 8513 48bc 80d3 92bb 436d 3f3f 8fe2 b23d
000002e0: 429b a5bf 0995 f23e 5e33 0d3d 0d31 61bf
000002f0: da90 d4bc 6ced c13d 83e8 a23f 48a1 2abe
00000300: d8bd 193e b695 68bf 2100 0abf 4cc0 163f
00000310: 1fb1 a6be 7193 70be 1af8 813f 974d c2be
00000320: eac4 c7bc 24e0 7dbe aa15 44be 2913 4c3e
00000330: 6e4b 11bd c3b6 533f 113d 953f 4334 d1bc
00000340: cbc3 773f 113b d53e 6f62 81bd 9b19 db3e
00000350: 436c 393f 2934 d73f 3ec7 893f 4e61 dc3e
00000360: 1445 e0be 4a9c 693e 0af0 05be b351 d4bd
00000370: a68f 9a3e 23aa 143e dc67 5f3e 7a4d 1a3f
00000380: c53e bcbc 766c a03e 9507 bebc 14ff b0be
00000390: 2cb8 aebe 4873 d6bd 4bee 16be 97bc 5b3e
000003a0: 30b6 25be 00e4 1e3f 5ccd 0340 ac2c 40be
000003b0: 9be0 0f3f 6159 ce3d 4dde c1bc eb5e 353f
000003c0: 53d6 3bbf 9c77 56be 2682 693f 496a d0be
000003d0: e5f7 84bf 0bdc 38bd 65cb db3b 35e7 18bc
000003e0: ac75 13bf 851b e93e b9be 0bbf cbaa 6e3e
000003f0: 1866 893f a45f cd3c 0aa3 5fbe d1ee 293e
0.08433782 0.16094175 1.3734484 1.3578262 -0.70904416 1.602962 0.4719359 -0.23410483
-0.13770951 0.77382314 -1.0476663 0.84414107 -0.5270013 -0.016276428 -1.1229997 2.0447052
0.2230014 -1.4943478 -0.5177551 1.1964787 -0.07267381 -0.4219915 0.26795107 -0.4715533
-0.89244443 0.4334692 0.8036782 0.30636036 -0.6481077 2.1747286 0.29144138 0.7089694
-0.80252403 -1.2228538 0.58312064 0.82945883 -0.14004664 -0.339282 0.20210677 1.5842673
-0.040960003 0.11772202 0.28517088 0.15242976 0.09401301 0.79128957 0.29988307 0.20498006
-0.47192845 -0.65699345 -0.014720803 -0.026794003 -0.32985595 1.1066357 -0.39892003 0.75432044
0.258636 2.3373208 0.13121259 -0.6820444 0.8891226 -0.38848102 -0.16811791 -0.18429278
-0.02684815 -0.34224305 -0.58145434 -0.02161505 -0.027021136 1.6798277 -0.18012375 -0.47906914
-0.029587448 0.49302268 0.50445867 1.6308393 -0.4936433 -0.2207575 0.9233548 -0.027743395
-0.36724776 0.8115161 0.7120836 -0.9376806 -0.005053782 -0.9453564 0.21412893 0.083733015
0.43345955 -0.862425 0.41085356 -0.07227299 -0.76412594 -0.15638672 0.29396978 0.31395698
-0.04080571 1.319319 -0.6909568 0.020073587 -0.11128764 1.5196334 0.88335127 0.46122655
1.4908075 -0.12359217 -0.018020064 -0.13535483 -0.5321104 -0.7236624 2.1623003 -0.8193557
0.9540555 -0.59615046 -0.5469344 -0.03196723 -0.11581741 2.086389 -1.0041277 0.16978009
0.27276257 0.91847104 0.66281515 -0.4217533 0.25155875 -0.012947325 1.8360485 -0.037120428
-0.18803573 -1.3310641 0.28655896 1.7863711 1.2516716 0.9770247 -0.10185023 0.84160256
0.17631468 0.41519353 0.80045396 0.42809525 0.1411758 -0.313163 1.8858032 1.2448236
0.49450514 0.6277822 -0.06807494 0.8616071 0.3356257 2.0197444 0.20256254 1.9016346
1.0789133 0.115353376 0.61781174 0.34910837 -0.15810983 -0.40846032 0.018896647 0.1977266
0.04307246 -0.37903908 -1.1782103 0.27052268 0.30395082 -0.30903813 -0.5765629 0.055684965
-1.5639963 2.1564 0.1985903 0.1867256 0.21335094 -0.90263134 0.25210452 0.7570704
0.096119165 -1.1594083 -0.65883684 1.5047432 -0.012211685 -0.004480779 0.74776095 0.08734619
-1.2938006 0.4737933 0.034472816 -0.8796547 -0.025947977 0.09469113 1.2727207 -0.16663086
0.15013826 -0.9085344 -0.53906447 0.5888717 -0.32557008 -0.23493744 1.015384 -0.3794982
-0.024385888 -0.24792534 -0.19148889 0.19929184 -0.035472326 0.8270075 1.1659261 -0.025537616
0.9678313 0.41646627 -0.06317603 0.42792973 0.7243082 1.6812793 1.0763929 0.43042988
-0.43802702 0.22813526 -0.13079849 -0.103671454 0.3018772 0.14518027 0.21816963 0.6027447
-0.02297915 0.3133275 -0.023196975 -0.3456961 -0.34124887 -0.10471207 -0.14739339 0.2145866
-0.1618278 0.6206665 2.0594091 -0.18767041 0.56202096 0.100756414 -0.023665572 0.7084796
-0.7337391 -0.20944065 0.91214216 -0.4070609 -1.0388151 -0.045131724 0.006707596 -0.009332468
-0.5760143 0.45528808 -0.54587895 0.2330734 1.0734282 0.025070019 -0.21839538 0.16595007

linear3_q1.weight f4 [1, 256]
00000000: a1f2 f13f 8cf2 0040 7063 663e 1801 1e3f
00000010: 2ae7 b2be fbeb ba3e d42e e23f 3e76 18c0
00000020: d875 0fc0 7314 ea3e 2680 8abe 9cfd bf3f
00000030: 82f2 33c0 8052 4bc0 7151 d3be f40e 433f
00000040: 2060 983f 0bec 96be 604f 3dbf 97dd d43f
00000050: f1ba f9bf 172b 4ec0 bcd7 f43f 21e9 7cbf
00000060: 6f91 26bf bb46 54c0 fb48 a73f 805e 0040
00000070: 7da4 d3bf 6421 4f3f cb91 2640 d93e 593f
00000080: b3bd 42c0 36ec 3fbe d4e8 bb3f ecfc 1640
00000090: 10da 89c0 a51b 25c0 8974 3340 cb1a d43f
000000a0: 6732 dfbf d483 78c0 9a4d cebf 5fc1 99c0
000000b0: 40a4 d23f 7ccd 733f 3bcc 3140 676b c53f
000000c0: 858d 19c0 6b2a 30bf 9800 45c0 9217 50c0
000000d0: ed75 2cc0 92ed aa3f 9cab 11c0 895f e53f
000000e0: 40a2 f13f 9627 823f 2ecb 5f3f 864b 63bf
000000f0: 33a2 a83f 7b6e f6bf 893b 0740 d895 7fbf
00000100: 7e5d 953d b4c5 52c0 775e 0cc0 1c6b c43d
00000110: 7ee0 ad3b e3b1 813f 381b 4cc0 d45d a1bf
00000120: 2176 123c 2bb8 cf3f f5ba 0240 a1d0 483f
00000130: 9c7a edbf 2d7d 0ec0 4cae 0340 48ce 3a3c
00000140: 667d 5ac0 74a0 d63f bd3b 8b3f 05bb 15bf
00000150: f0d0 70be da26 01c0 c3fc 573f 471e 4cc0
00000160: 720d d83f dfc4 a5be cd9d e63f cbe4 20be
00000170: ce23 16bf e053 8cbf 1ac7 6740 c22d f83f
00000180: f45c 9abf 6993 773f f037 0dc0 64ee a7c0
00000190: 6989 f2bf f85f f73f 408b 2e40 b177 3640
000001a0: 974b 593f 0dda c5be 8419 dfbb fa8a c8bf
000001b0: 38e2 debf 84dc bcbf 3389 3d3f c00a d7bf
000001c0: c4a9 d83f 1c34 12c0 6f95 fbbf 8403 2fbb
000001d0: e556 b5bd 3e4b 463f 5060 2abf a4e8 1f40
000001e0: 5161 ec3f 6011 7b3f 2523 0340 df25 57c0
000001f0: 1230 a23f 3d99 68c0 ee2e 293f 51d5 913f
00000200: bd18 3ec0 0e87 c7be 8b8a 1040 b3d8 ad3f
00000210: 5bfc 4d3f 71c0 0640 6403 a0c0 c26d 043f
00000220: 0bd0 a4c0 257f c23f 0ca7 e53f 63c8 9d3f
00000230: d69c 09c0 b300 29c0 cd6d 783f 4d1a be3f
00000240: 43dc aa3e 1e9a 0940 f0f5 90c0 3685 eb3f
00000250: e707 fc3f ff29 8b3f 9248 853f 5643 573f
00000260: 6b3b 673f 4597 adbf 84c2 e83f 7980 ac3f
00000270: f2de 80be 6977 ebbf 0857 57c0 5987 d73f
00000280: 3818 19c0 4a89 b3bf 4951 1fbf a426 c13f
00000290: fd41 3a3f 9b44 11c0 58a9 20c0 406b 8ac0
000002a0: 7c9c 15bf 5182 353f f86d 0e40 e31d c43f
000002b0: 36ee c13f 7086 01c0 61e9 453f ecfc ed3f
000002c0: 2e9f e3bf f4ce 10c0 2b87 a7bf 310c e33f
000002d0: 87d7 853c 0c99 f7bb b202 ef3e ca93 ef3f
000002e0: 5125 c6be fce3 ecbf bffb a2bf c219 acbe
000002f0: 4fc4 97bb 92b2 babf 59e1 713f 4774 cebf
00000300: b6ed e8bf 5333 2dc0 eea3 05c0 7f87 1140
00000310: 07a4 30c0 9b1e 33c0 a341 b43f eeba 36c0
00000320: d633 f4bd a86f 8ebf 4dde 70c0 dee1 52c0
00000330: f801 39bf e743 1b40 ab88 0040 67fb afbd
00000340: 585c 4a3f 8179 2540 165a 9bbd 6d6c a53f
00000350: c259 0340 cf1b 0740 5cff 6b3f f70c e63f
00000360: 47d1 04c0 9aac 5fc0 f240 75c0 6296 50c0
00000370: 3e0c e93f d124 d4bf f07a 1ec0 760d dc3f
00000380: fb0f a5c0 6f11 16c0 1fb7 433b c077 29c0
00000390: de1e 9fbf a58a 05c0 81f4 01c0 763f 523f
000003a0: cd3c 4bc0 d78e b63f 5de5 733f 67e8 0ec0
000003b0: 792b 2640 8693 3f3f 2330 87bb 9659 3540
000003c0: 8fa7 01c0 15e9 0ec0 0ef8 e03f e180 0dc0
000003d0: e141 37c0 0f1e d5be c108 3d40 af57 f9bf
000003e0: bea1 95bf a24f eb3f ead1 56c0 da29 e23f
000003f0: 6d8f bc3f 9fcf 5ec0 026c 78bf a70f f3bf
1.890217 2.014804 0.2249887 0.6172042 -0.3494199 0.36508164 1.7670541 -2.382217
-2.2415676 0.45718727 -0.27050894 1.499927 -2.8116765 -3.1769104 -0.41273072 0.7619469
1.1904335 -0.29476961 -0.7394924 1.6630124 -1.9510175 -3.22138 1.9128337 -0.98793226
-0.65065664 -3.316817 1.3069147 2.0057678 -1.6534573 0.80910325 2.6026485 0.8486152
-3.0428283 -0.18742451 1.4680429 2.3591871 -4.307869 -2.5798123 2.8039877 1.6570677
-1.7437257 -3.8830462 -1.6117432 -4.804855 1.6456375 0.9523542 2.7780902 1.5423402
-2.3992627 -0.68814725 -3.0781612 -3.2514386 -2.6946976 1.3353751 -2.2760992 1.791978
1.887764 1.0168331 0.874194 -0.88787115 1.3174499 -1.9252466 2.1130087 -0.9983802
0.07293223 -3.2933168 -2.1932657 0.09590742 0.0053063026 1.0132412 -3.1891613 -1.2606759
0.008939297 1.6228079 2.042661 0.7844334 -1.8553042 -2.2263901 2.0575132 0.01140172
-3.4139037 1.6767716 1.0877606 -0.58488494 -0.23517203 -2.0179963 0.8437006 -3.189348
1.6879103 -0.32376763 1.8016907 -0.15712278 -0.58648384 -1.0963097 3.6215272 1.9388964
-1.2059617 0.96709305 -2.2065392 -5.2478504 -1.8948184 1.9326162 2.7272491 2.8510554
0.84880966 -0.38642922 -0.0068084616 -1.5667412 -1.7412786 -1.4754796 0.74037474 -1.6800156
1.6926808 -2.2844305 -1.9654979 -0.0026704976 -0.088544644 0.7745856 -0.6655321 2.4985743
1.8467199 0.9807339 2.04902 -3.3616865 1.267092 -3.634353 0.66087234 1.1393224
-2.97026 -0.38970226 2.258456 1.3581756 0.8046319 2.1054957 -5.000414 0.5172998
-5.150396 1.5195051 1.7941604 1.2326778 -2.1501975 -2.6406677 0.9704254 1.4851776
0.3337117 2.1500316 -4.5300217 1.8400028 1.9689912 1.0872191 1.0412772 0.8408712
0.9032504 -1.3561789 1.8184361 1.3476707 -0.25170094 -1.8395816 -3.364687 1.683818
-2.3921032 -1.4026272 -0.62233406 1.5089917 0.7275694 -2.2698123 -2.510336 -4.325592
-0.584419 0.7090197 2.225462 1.5321621 1.5150821 -2.0238304 0.7730923 1.8592811
-1.7782953 -2.2626314 -1.3088125 1.7738096 0.016338123 -0.0075560864 0.46681744 1.8716977
-0.38700345 -1.8507075 -1.2733077 -0.33613402 -0.004631556 -1.4585745 0.9448448 -1.6129235
-1.8197544 -2.7062576 -2.0881305 2.273895 -2.7600114 -2.798743 1.4082531 -2.8551593
-0.119239494 -1.1127825 -3.7635682 -3.2950358 -0.7226863 2.4260194 2.0083416 -0.08592873
0.79047155 2.585541 -0.07585542 1.2923714 2.0523534 2.1110723 0.9218652 1.7972707
-2.0752733 -3.4949098 -3.832089 -3.2591786 1.8206861 -1.6573735 -2.4762535 1.7191608
-5.1582007 -2.344814 0.0029863787 -2.647934 -1.2431295 -2.0865872 -2.0305483 0.82128084
-3.175586 1.4262341 0.95271856 -2.2329347 2.5964034 0.7483448 -0.0041256114 2.833593
-2.025852 -2.2329762 1.75757 -2.2109911 -2.863396 -0.41624495 2.9536593 -1.9479884
-1.1689985 1.8383677 -3.3565621 1.7669022 1.473127 -3.4814222 -0.97039807 -1.8989152

linear1_q2.weight f4 [256, 26]
00000000: 9aad 06bf 9178 b7bd 4a24 69bf d0af 933d
00000010: df93 833d 8c91 313e 6efd a53e a361 2cbe
00000020: 21b2 053e 55a0 5d3e 69f4 2ebd c1a3 bebd
00000030: df45 76be 5374 f1bb 4fb0 82bd 26dd 8d3d
00000040: 521d 51bd 7b2d be3e 939f 55bb 3776 99bd
00000050: fe27 563e ece1 22be a7fb c0be ea54 30c0
00000060: a88e 523e 72ce 7dbf 42cc cabd ccee 943e
00000070: 8697 a1be 78b1 1e3e 126e 82be ef88 e03c
00000080: 2a61 66be 08b7 88be 4763 633e 8add 88be
00000090: 0dad 80be 82a2 a7be 53d1 b7be b8df 1fbe
000000a0: 99f3 a3bd c2e2 46bd baf3 a33c 3c09 c43e
000000b0: 1031 1b3f c588 7bbd cc1b cd3e f9f8 523f
000000c0: 3ddb 0c3e c618 7cbf ccaa 0d3f ec7b f6bd
000000d0: c1d4 afbd e8a2 12be 8b32 6fbd 34fe 57be
000000e0: 5e32 ddbd 972b 2bbe 60e3 bcbd b07f 50be
000000f0: 054b 2cbe dae4 0d3e 481f 91bd 368c 383d
00000100: bcd9 643d 4ff8 c13d 8384 2a3d a825 423e
00000110: 32bd b03d bbf4 703e 4ffc b93d b855 7fbd
00000120: e0eb 273f 9a0e 093f 3d7d 2abf 63b9 0bc0
00000130: 4d9f 363e b2eb 643d 2120 a33c e236 03bf
00000140: 7d7e 90be a150 1ebe 49cd 30be 032d 3ebe
00000150: 4978 8d3d 09d9 63be 7617 cabe 02bc f9be
00000160: 4573 bebe fd23 94be 35bd 733e 2b1b 88be
00000170: fa94 9abd 57df 723e f237 93be 7fe1 bd3e
00000180: ffdb 803e 25a8 cc3e ef47 10bf aafa 47be
00000190: 85f8 2c3f 0818 30c0 3734 753f 02f9 0f3f
000001a0: 4dd1 cabd 1661 ba3c 81c6 8d3d 3b69 d5bc
000001b0: c421 813c 974f d53d 7088 9bbd 15d2 40bd
000001c0: 5ee0 e63c 3134 dabd efb2 d33d 3d82 663c
000001d0: 31a3 4cbd 4ebf 253d 671b 76bc 954c 0f3d
000001e0: 3e3f 74bd 1e54 01be 78da 35bd 53ef 283e
000001f0: 8445 023e 1e26 61be b51e 79be 580e 66bf
00000200: b2ac 983c cfe2 ea3d 70cf 0ebe f1ef b3bc
00000210: 7690 9cbe 13f1 1fbe 2dcc 7abd ee2d 3e3c
00000220: 34d9 d83d acca 323d 6ba4 0abd 5dbd 413e
00000230: 6d40 d13d 4bc6 d83d fbad 4c3e 50b5 d83d
00000240: 5307 983d d416 243e d975 c9bd c610 1f3e
00000250: 502b c8bd 5dae 17be fefb 88bd 3b2b e33e
00000260: 0e36 233e fb38 91bf 6195 0ebe 1783 733f
00000270: a58a 343c 9701 4a3e 4077 b73d 001d 403e
00000280: 8bcb a03d c1fb 313e d01b aa3c 18f6 003e
00000290: adee a0bc 0b26 2fbc 3a0c c33c 0a07 8c3c
000002a0: d9c9 603e d502 ac3d 5a85 9c3d bfe5 173e
000002b0: 7f7d ea3d 4164 0c3e 3287 0d3e 257b 0bbd
000002c0: b895 753e 694e 0abd 5f0a b6be 8fbe f9be
000002d0: 1584 fe3d c16f adbe 9752 78be d16b 01be
000002e0: 4b4e 00be 582e 0bbe 2f49 b63d 2cfc 01be
000002f0: b942 303e 23a2 f53d fe04 40be 111d ea3d
00000300: b843 7fbe 3f68 ac3e ed2f 20be 471b 0bbe
00000310: 5c04 2ebe 6030 b9bd c83d 6ebd 02c9 5b3e
00000320: 752d 273e 4811 e9be b461 b3be a414 86bf
00000330: d53b 27bf d274 acbf 2619 023e 9128 8c3e
00000340: d63a ef3c c8c4 0b3f 5cd6 753e ee68 dd3e
00000350: 94c9 813e b9e1 9e3e 4643 b53e 3b23 e6bd
00000360: 1cda 4dbe 3079 063d ae75 e63d c7c8 be3c
00000370: 7610 4abe 1ae0 02bf 2d4b adbe 19d2 c83d
00000380: ea00 1fbf 56d8 8bbe 4ff8 e5be 6f67 06bf
00000390: a970 f3be f219 173e 013e f5be f730 6ebf
000003a0: df77 4a3d 90ff 913e 1119 adbe ad0e 3bbd
000003b0: bc4a 1d3c ada2 d13c 68de 6c3d d17f c93d
000003c0: 3a3f e63d aa28 003d 4417 f83d eab7 a13e
000003d0: 5925 e63c 6128 b13c b54e 953c c823 b63e
000003e0: d7b7 703e 55e9 db3d a9c8 b0bc c9f8 97be
000003f0: 7b25 473d ca95 afbd 0cc2 1b3f 1c48 33bf
-0.52608645 -0.08958543 -0.91071 0.07211268 0.064246885 0.17340678 0.32419914 -0.1683412
0.13056232 0.21643193 -0.042713556 -0.09308577 -0.24050091 -0.0073686033 -0.063812844 0.06926946
-0.051053353 0.37144074 -0.0032596334 -0.07493251 0.20913693 -0.15906495 -0.37691996 -2.7551827
0.20562232 -0.99143136 -0.0990224 0.29088438 -0.31560916 0.15497386 -0.25474602 0.027409045
-0.22498003 -0.26702142 0.2220584 -0.2673152 -0.25132027 -0.3274117 -0.3590189 -0.15612686
-0.08005447 -0.048556097 0.020013679 0.38288295 0.6062174 -0.06140973 0.4006027 0.8241115
0.13755508 -0.984753 0.5533874 -0.12035355 -0.085855015 -0.14319956 -0.05839781 -0.21093065
-0.108006224 -0.16715847 -0.09223056 -0.20361209 -0.16825493 0.13856831 -0.070860445 0.04505559
0.05587171 0.09471189 0.04163028 0.18959677 0.08629836 0.23530857 0.09081327 -0.062337607
0.6559429 0.53537905 -0.6659735 -2.18319 0.17834206 0.05588884 0.019912781 -0.5125562
-0.28221503 -0.15460445 -0.1726581 -0.18571858 0.06907708 -0.22250761 -0.39471024 -0.4877625
-0.3719732 -0.28933707 0.23802646 -0.26583228 -0.07547946 0.2371801 -0.2875362 0.37086102
0.25167844 0.39972034 -0.5635976 -0.19529215 0.6756671 -2.7514668 0.957828 0.5623933
-0.09903202 0.022751372 0.06922627 -0.026051154 0.015763171 0.10415571 -0.07594383 -0.04707535
0.028183158 -0.10654486 0.10336863 0.014069137 -0.04996032 0.040465645 -0.015021182 0.034985144
-0.059630625 -0.12629744 -0.0443978 0.16497545 0.1272183 -0.21987197 -0.2432812 -0.89865637
0.018637035 0.114690416 -0.13946319 -0.021964999 -0.30578965 -0.15619306 -0.061229873 0.01160763
0.10588303 0.043650314 -0.033848207 0.18919893 0.10217366 0.105846964 0.19988243 0.105814576
0.07423272 0.16024333 -0.09836931 0.15533742 -0.09773886 -0.14812608 -0.06688689 0.4436892
0.15938589 -1.1345514 -0.13924171 0.951219 0.011019384 0.19727169 0.08958292 0.18761063
0.07851323 0.17381193 0.020765215 0.12593877 -0.01964506 -0.0106902225 0.023809541 0.0170932
0.21951999 0.08398978 0.07642622 0.14833735 0.11449718 0.13710119 0.13821104 -0.034052987
0.23982894 -0.033766184 -0.35554788 -0.48778197 0.124275364 -0.33874324 -0.24250256 -0.12638785
-0.12529866 -0.13591897 0.089006774 -0.12693852 0.17212953 0.11993816 -0.18751904 0.11431325
-0.24928176 0.33673283 -0.15643282 -0.13584624 -0.1699385 -0.0904243 -0.058164388 0.21463397
0.16325934 -0.45520997 -0.3503548 -1.0475049 -0.6532567 -1.3473151 0.12704906 0.273747
0.02920286 0.5459714 0.24007553 0.43244117 0.25349104 0.31031588 0.35402888 -0.112371884
-0.20102733 0.032830417 0.11252914 0.023289097 -0.19732842 -0.511232 -0.33846417 0.09805698
-0.6211077 -0.2731349 -0.44916007 -0.5250158 -0.4754689 0.14755991 -0.47898868 -0.93043464
0.049430724 0.2851529 -0.33808187 -0.045668293 0.009600338 0.025590265 0.05782929 0.09838832
0.11242528 0.03128878 0.121138126 0.31585628 0.02809398 0.0216257 0.018226007 0.35574174
0.2350763 0.10737864 -0.021580057 -0.29681996 0.04861973 -0.08573492 0.6084297 -0.70031905

linear1_q2.bias f4 [256]
00000000: cac7 123e 0bc1 e93e 0a99 9c3f 2531 4a3f
00000010: fdbf f53f d746 ca3f 618f d13f ce52 953f
00000020: febb e13e d880 8a3f 88e5 a7bd 622f b4bd
00000030: 47d4 263d 07b6 f6bf 16c7 86bf 26b1 76bf
00000040: af96 8abf 785b e0bf 287c a93e ad6b e1bf
00000050: 48e9 29bf 11af 833f f1cf d6bf f3d3 bb3e
00000060: 6e1f 8f3f fd00 d9be a65d 80bf f429 1ebf
00000070: 47ef a03e deb0 333f d918 b5bf cd02 9cbf
00000080: fb87 f53f 60e7 be3e d0e6 febd 3839 16bf
00000090: a506 36bf 928c bcbd a447 973e 4930 943e
000000a0: 12b0 79bf f36a 24bd 7258 613f 9bd6 e4bf
000000b0: 4f5c f73c 11f9 e2be 3961 e33d d189 3d3d
000000c0: 8a1f cfbf 9e2d ab3f 1ee8 ab3f a0af fc3d
000000d0: e104 a93f 9604 073f 3c1f 023e 04cc b03f
000000e0: 4ba9 4a3f 989f 8ebf bbc0 a6be f9f7 bf3f
000000f0: bfc2 fa3e 7fce a03f 13c5 cb3e 9841 5e3e
00000100: d00a 95bd 10a3 ee3f 16a8 8abf 3e3e 273f
00000110: e231 4c3f b44c ccbe 9b0a e83e 1d53 a8bf
00000120: d371 7a3c ab1f 58bf ceb7 47bd 3805 1bbf
00000130: aaa0 13bf 2246 a93e 1ebe 14bf 8e87 ba3e
00000140: d666 633d 3150 18be 22f7 313f d447 a33e
00000150: 7887 dabf f3da 98bf 2838 83bf 8a68 433f
00000160: 6482 293e 48f5 ec3e 5844 8b3e a1f2 5f3f
00000170: 2cdf b73e a072 a8bf 6387 3d3f 4ce9 903e
00000180: 7672 3b3e 928f d93e 6fad b0bf 6625 12bf
00000190: f9e6 76bf 6fe8 96bf 8ba0 8a3d f744 95bf
000001a0: b68d 23bf 27b8 03bf 9451 d2bd 1b4e b9bf
000001b0: aea7 173f 11d0 b63e fcd2 893d bd14 c23f
000001c0: e0f7 993e 6783 40bf 7e75 da3e 9a3f 003f
000001d0: ae86 82bf 2dae cc3e 3102 c7bf dd60 443f
000001e0: 2d69 663e b680 923c 0ad0 a9bf f4a3 bbbd
000001f0: d396 63bf 7895 283e a768 9f3f 635e b83d
00000200: 0e89 0540 2659 51bf 8d8b 713f e199 8a3e
00000210: cd9c 33bd a7d1 fb3c 7c09 e3be b24a f33e
00000220: 13cd b7bf 391b da3f e365 d23e 63a0 273f
00000230: 7fb7 253f 326f 133f 3d21 30be 3fa9 46bc
00000240: 18cb 753d 2ca8 cc3e 6cc9 8d3e 9a48 7bbf
00000250: 7c28 20bf 9398 e53e 15ab 90bf 9cf6 7e3f
00000260: 4d3d e43e 8e0a c83e c69e 83bf 04d7 f63f
00000270: 5ccd 8a3f 33b8 663f dd03 cebe 6c03 713f
00000280: 3185 55be d41b ca3f 73d0 293f ce9f c93e
00000290: 2c37 cf3e d2f4 c3be 5087 9ebf 458d 54bf
000002a0: 56ed b7bf ab95 063f 2464 67bf eaf2 a83e
000002b0: 4c26 6b3e d410 7cbf a6c1 ddbf e685 113f
000002c0: 73f4 363e ebf9 7d3f 3d59 f73f 41e5 95bf
000002d0: 826e 65bf 9117 24bf 1970 1d3f 2002 d23f
000002e0: cbe1 473e 4965 be3f 1abc cbbf 6d8e d8bf
000002f0: b42b ff3f 1f09 8fbd 7e8c 5ebf c5b0 e8be
00000300: 8f94 be3f b8dd 963f 161e 33bf 1a90 063f
00000310: 9fef 71bf 856b 463f b60c a73f 36bd 083f
00000320: 4870 8e3f 27ba 4cbe ce84 cdbd 9ed0 f63e
00000330: 8dd7 553e b310 8bbf 72c1 95bf 8b62 dc3f
00000340: 1cea 46be d8a8 d63f 5805 b93f 8fb8 d8bf
00000350: 7e23 f63e 3d52 5d3f 556c 4dbf 8b43 533f
00000360: afe3 583e 195c 763f 0cb6 953f 5dd4 483f
00000370: 0715 ccbd 706e f03f 8440 373f bf5e 923e
00000380: b515 813e 3a36 36bf dc4a c3bf ccde d03e
00000390: 1d01 84bf ed28 f63e 9977 d9be f572 903e
000003a0: 943d abbf fa80 5b3f cbcd 973f bf4d 043f
000003b0: b328 153f a733 133e 1c8e e83f 4b73 6b3f
000003c0: 2733 a03e 2232 60bf 9ac4 7abf 96fd 86bf
000003d0: 4943 943d d783 fc3f 2f76 8a3e 205c 413f
000003e0: 206e a5bf afbb 5abf e725 ef3c 3e37 193f
000003f0: b3ed 86bf 6cbb 443f c817 8c3f 79d0 71be
0.14334026 0.45655093 1.2234204 0.7898124 1.9199215 1.5802869 1.6371881 1.1665895
0.4408874 1.082057 -0.081980765 -0.087981 0.040729787 -1.92743 -1.0529506 -0.9636406
-1.0827235 -1.7527914 0.33102536 -1.7610985 -0.66371584 1.0287801 -1.6782209 0.36685142
1.1181467 -0.42383566 -1.0028579 -0.61782765 0.31432554 0.7019175 -1.4148208 -1.2188355
1.9182123 0.372859 -0.12446368 -0.5868106 -0.7110389 -0.09206499 0.29546845 0.2894309
-0.97534287 -0.040141057 0.8802558 -1.7877992 0.030195383 -0.44330648 0.11102528 0.04627401
-1.61815 1.3373296 1.3430212 0.12338185 1.3204614 0.5274137 0.12707227 1.3812261
0.7916457 -1.1142454 -0.32568917 1.499755 0.48976704 1.2563018 0.39798793 0.2170471
-0.07277453 1.8643513 -1.0832546 0.6532935 0.79763615 -0.3990227 0.4532059 -1.3150364
0.015285927 -0.8442332 -0.048759274 -0.6055484 -0.5766703 0.3306132 -0.58102596 0.36431545
0.055517994 -0.1487434 0.6951772 0.31890738 -1.7072592 -1.1941818 -1.0251513 0.7633139
0.16553646 0.46280885 0.2720058 0.874796 0.35912454 -1.3159981 0.7403471 0.2830299
0.18305382 0.42492348 -1.3802928 -0.57088315 -0.96446186 -1.1789683 0.067689024 -1.1661671
-0.6388811 -0.5145287 -0.10269466 -1.4476961 0.59240234 0.35705617 0.06729695 1.5162579
0.30071926 -0.75200504 0.42667764 0.5009705 -1.0197351 0.39976636 -1.5547544 0.767103
0.22501059 0.01788364 -1.3266613 -0.09162131 -0.88902014 0.16463268 1.2453812 0.09002378
2.0864902 -0.81776655 0.9435356 0.27070525 -0.04385071 0.030739618 -0.44343174 0.47517926
-1.4359459 1.7039558 0.41093358 0.65479106 0.6473312 0.57591546 -0.1720018 -0.012125312
0.06000814 0.39972055 0.27692735 -0.98157656 -0.62561774 0.44842967 -1.130221 0.99595046
0.4457802 0.39070553 -1.0282829 1.9284368 1.0843921 0.90124816 -0.40237322 0.94145846
-0.2085159 1.5789742 0.66333693 0.39379734 0.4047178 -0.3827272 -1.2385044 -0.8302806
-1.4369304 0.52572125 -0.9038718 0.3299783 0.22963828 -0.9846318 -1.7324722 0.5684494
0.17866687 0.9920947 1.9324108 -1.1710588 -0.89621747 -0.6409846 0.6149917 1.6406898
0.19519727 1.487466 -1.5916779 -1.6918465 1.9935212 -0.069841616 -0.86933124 -0.45447364
1.4889086 1.1786413 -0.6996778 0.5256363 -0.9450626 0.7750781 1.3050754 0.5341371
1.1128016 -0.19992886 -0.10035096 0.48206037 0.20883007 -1.0864471 -1.169966 1.7217573
-0.19425243 1.6770277 1.4454756 -1.6931323 0.48073953 0.8645361 -0.80243427 0.8252494
0.21180604 0.9623428 1.1696181 0.7844904 -0.09964948 1.8783703 0.7158282 0.2858791
0.25211874 -0.71176493 -1.525722 0.4079498 -1.031284 0.480781 -0.42474058 0.28212705
-1.3378167 0.8574368 1.1859678 0.5168113 0.5826523 0.14375173 1.8168368 0.919728
0.31289026 -0.87576497 -0.9795624 -1.0546138 0.07239396 1.9727734 0.27043292 0.75531197
-1.2924232 -0.8544263 0.029192878 0.5984992 -1.054129 0.76848483 1.0944757 -0.23614682

linear2_q2.weight f4 [256, 256]
00000000: 4137 5bbf 63ae 0d3e cc72 033e 96c4 cebe
00000010: 310a e83e 2c62 53bd 19b4 a43e 556c f7bc
00000020: 9105 c0be 9c9c 8e3d b191 e53d 2155 a23b
00000030: 1b75 163f 7092 31bf fb54 853e c81e 0fbf
00000040: 447a aebe 2b8b 4dbf ebd5 34be c57a b2bf
00000050: 5697 4cbe 193e 4a3e 0c17 fcbe 67af 1ebe
00000060: a6a6 cd3e 2332 ec3e aebc a13e 3722 d3bf
00000070: 5215 29bf 0ee5 c03e 1510 b4bf 9546 6e3e
00000080: 8040 6b3e 70ee 80be a59c cbbe 6331 6abf
00000090: 453c 64be b0a3 3ebf 896d 76bf 6669 a53e
000000a0: 4aa6 6abf a9a6 1dbf c503 0f3e a021 b13d
000000b0: 3cdf 253e 1969 38bf 5f6a e43e a1f3 c43c
000000c0: 41b7 d8be 9441 043e 9a04 433f f1ca 03bf
000000d0: 59c4 443e dd29 b4be 0987 73bf a78e 1a3e
000000e0: ef92 c2bd 9347 eebd 7b4a 31be 277b d73e
000000f0: f169 9cbd 15d0 803e 1117 7fbe f244 dfbf
00000100: 6c1a f6ba 2ad3 183e 0838 2fbd 6bf7 d53e
00000110: 4e34 23be 4cfb 2ebf e1d4 403e 9c88 1f3d
00000120: cdc9 d4bd 21c6 85be ffa9 98be d10b a4be
00000130: 2530 93bd ee36 223e c458 dd3d 5367 663d
00000140: 6229 8cbf b9df 9dbe 4787 053f 5588 8f3e
00000150: 204c 1bbc 0b3c 74bd 4af8 a83d 2a99 403c
00000160: a22a 33bf a65e aabe e603 043f 51d5 ff3d
00000170: d32e 04bf 7d70 ddbc 14cc de3e b068 91bf
00000180: eaee 02bf 2efe 9e3d 920d dfbf b9c7 20bf
00000190: 78f9 12be 2306 ec3e 417f 70be e3d3 8abd
000001a0: 16a2 80bf 5067 623e fa7b 91bf 82db cebb
000001b0: bfe3 5abf ec84 2ebf d84b b33e e584 a93e
000001c0: 7ef6 2fbd afa2 cfbe c3d6 9ebe 6b8c 49be
000001d0: dc43 84bf 8dc6 00ba 54e7 123e 6f62 2e3e
000001e0: 46c1 3ebb ff21 78bf 8dc0 40bf 5958 96be
000001f0: 2332 04c0 7eba f73e 4a3c 063e 398c b13e
00000200: eade a33d 7d14 3dbd f44e d6be db08 8ebe
00000210: fe7e 333e a1d1 ba3c 39a3 3cbf ea57 a4bf
00000220: c912 4abf a297 693e aa15 3ebe 2865 bdbe
00000230: a945 8c3e 016f c9be f82a 3d3e 077a 443e
00000240: 12f5 f4be 97f4 bc3e e92a 42be 9ffc 2ebf
00000250: 7c22 b8be b3e1 1f3e ce55 f23d d6e5 5a3f
00000260: 3f8b efbd 7cbc aabf 1b1b 26bf e561 853e
00000270: 5e93 34bf d26e 9fbe c634 a53c 6adb 32bf
00000280: 0a81 bc3d 48a5 0f3e b613 583f 4b15 4a3f
00000290: ba79 c7be 146c 37bf c976 c8bc 29b5 cdbe
000002a0: 3a75 47bf 662f 86bd 1fba 61be 15f0 df3e
000002b0: 2cca 66bf 720d 0cbf e295 44bf 2aa0 cabc
000002c0: 2dcd 353e 5899 83bf f916 b33e 7842 4abe
000002d0: 9b92 09bf 65de 81be 14a2 27be c415 be3e
000002e0: 0ab3 913e c8a5 9fbe 2d11 bc3e 72c6 e0bc
000002f0: 0394 b33e a06d 2dbf fbe8 b33d 3d70 c6bd
00000300: ab1c 0b3d c813 99bd b493 be3e 6132 fbbd
00000310: a79e c43e ab38 abbe 585e d23e f2a1 56be
00000320: feda bb3d 226d ffbe 3fac b2be 0536 07bf
00000330: ac87 89be 8db7 45be 6cb4 adbe b7ad 70be
00000340: 9735 93be 32f2 a93d c0f0 8e3e d16d 87bf
00000350: aa75 2fbe fe37 eebf d88d b63e d350 e1be
00000360: f2ab d3bc 02ec c2bd de58 a33e 98eb 20bf
00000370: c257 c0bd 0a78 563e d40f 4e3f 6eb0 aebe
00000380: 448c e6be 71ee c6bd 58a5 77bf bd30 a2be
00000390: dd18 17be 8f0e 1e3f c372 4fbf 478c 863b
000003a0: 8c68 14be 1b35 583d ab97 673e 1d2a 92be
000003b0: 75e5 68bf 22fe d6be 4c0a a63c 3f9b 9c3e
000003c0: 92c5 833b 9603 a0be 5411 45bd 4750 1e3e
000003d0: 7a1d 863d 81c2 a93c 685a 95be e136 80bf
000003e0: 30b5 d73d 2629 92be 69c5 a73c c92f e7bd
000003f0: c8cd 9e3e 2b6c 723d 3f64 58bc 8da9 8bbe
-0.85631186 0.13836055 0.1283676 -0.40384358 0.45320275 -0.051607296 0.32168654 -0.030203024
-0.37504247 0.069634646 0.11209429 0.004953996 0.5877244 -0.6936407 0.26041397 -0.55906343
-0.34077656 -0.8029048 -0.17659728 -1.3943716 -0.19979605 0.19750251 -0.49236333 -0.15496598
0.40166205 0.46132 0.31589264 -1.6494817 -0.6604816 0.37674755 -1.4067408 0.23269112
0.22973824 -0.25181913 -0.39767948 -0.9148161 -0.22288616 -0.7446852 -0.9626089 0.32306975
-0.91659987 -0.6158243 0.13966282 0.086489916 0.16198438 -0.72035366 0.44612405 0.024041953
-0.42327312 0.12915641 0.76178896 -0.5148154 0.19215526 -0.3518819 -0.9512792 0.1509348
-0.095006816 -0.116347454 -0.17313568 0.42086145 -0.07637394 0.25158754 -0.24911143 -1.7442915
-0.0018776185 0.14924303 -0.042778045 0.41790327 -0.15937921 -0.683522 0.18831207 0.03894864
-0.10390053 -0.26127723 -0.29817197 -0.32040265 -0.07186917 0.15841267 0.10807946 0.05625088
-1.0950129 -0.3083475 0.5215954 0.280337 -0.009478599 -0.059627574 0.082504824 0.011755267
-0.6998693 -0.33275336 0.5156845 0.12491859 -0.5163395 -0.027031178 0.43515074 -1.1360073
-0.51145804 0.07763325 -1.7426016 -0.6280475 -0.14352977 0.46098432 -0.23486044 -0.067786954
-1.0049465 0.22109723 -1.136596 -0.0063127885 -0.8550376 -0.6817157 0.35018802 0.33109203
-0.042959683 -0.40553805 -0.31023225 -0.19682471 -1.0333209 -0.0004912399 0.14346057 0.17029737
-0.00291069 -0.96926874 -0.7529381 -0.2936428 -2.06556 0.4838447 0.13108936 0.34677294
0.08001502 -0.046162117 -0.4185711 -0.2774113 0.17528912 0.022805037 -0.7368656 -1.2839329
-0.78934914 0.2281175 -0.18562952 -0.3699124 0.27396896 -0.39342502 0.18473423 0.19187175
-0.47843224 0.36905357 -0.18961681 -0.6835422 -0.3596381 0.15613441 0.11832772 0.8550695
-0.11696481 -1.3338771 -0.6488511 0.2605125 -0.70537364 -0.31139237 0.020166766 -0.6986605
0.092043 0.14027894 0.84405077 0.7893874 -0.38960057 -0.7164929 -0.024470704 -0.40177277
-0.7791325 -0.06552009 -0.22043656 0.43737856 -0.9015224 -0.54708016 -0.76791203 -0.024734575
0.1775405 -1.0281172 0.34978464 -0.19751918 -0.5373933 -0.25364986 -0.16370422 0.3712598
0.28456908 -0.3118117 0.36731854 -0.027438376 0.3507386 -0.677454 0.08784672 -0.096893765
0.033962887 -0.07474476 0.37222064 -0.122654684 0.38402292 -0.33441672 0.41087604 -0.20960215
0.09172629 -0.4988795 -0.34897038 -0.528168 -0.26861322 -0.193083 -0.33926713 -0.23503767
-0.28751823 0.08298148 0.27918053 -1.0580388 -0.17134729 -1.8610837 0.35655093 -0.44006976
-0.025838826 -0.09517671 0.31903738 -0.6285949 -0.093917385 0.20944229 0.804929 -0.3411898
-0.4502889 -0.09713448 -0.9673667 -0.3167781 -0.14755578 0.61740965 -0.8103449 0.004106078
-0.14493006 0.05278502 0.2261645 -0.28547755 -0.90975124 -0.41990763 0.020268582 0.30587193
0.004021355 -0.31252736 -0.04811223 0.15460311 0.06548591 0.02072263 -0.29170537 -1.0016748
0.10532606 -0.2854702 0.020479875 -0.11288411 0.31016374 0.05918519 -0.013207494 -0.27277794
