hydrone_aerial_underwater_ddpg/scripts/Models/sac_stage_2_sub2D_tanh_3layers/240_value_net.pth (torch_old, 585563 bytes, 10 tensors)

linear1_q1.weight f4 [256, 26]
00000000: ecf0 963c 9357 0ebd d237 f43d 374b c13d
00000010: 2bb8 6e3d fca1 b73d 5a6d 79bd 6f20 8abb
00000020: 5617 34be e160 153d b1ff 133e 3f95 6a3d
00000030: a5bd 3fbd 4dca 2c3d 9c5e eebd 4fdd b5bd
00000040: f6fb 3ebd 08bc 84bc 2b84 62bd 1208 0c3e
00000050: 3de0 f8be 1972 40bf 1ca0 21bf 5136 883e
00000060: b45f b5be 0bf9 413f 47cf e13d 9d4a 153e
00000070: c89d 67bd aa0b e73d a703 33bd 5cdd 923c
00000080: 624f 9fbd 6fe3 f8bc 3fb5 7f3d 4336 e43d
00000090: 3fd5 9abd 632c 7cbd febf 6d3c 0792 29be
000000a0: 9031 d4bc 610f f9bd df02 1a3e 496c e63d
000000b0: b33f cebb 2752 b23d 0aad 23bf dc4e 8ebf
000000c0: 648c 1abe d957 51be d2db 4bbf cf0b c53d
000000d0: b772 c0bd 3791 00be ff88 47bd a8ff 063c
000000e0: 828e 27be dab0 d7bd b849 253d 4775 d4bd
000000f0: 1df6 d6bd 0e4b aa3d 80be 153e d0eb c2bc
00000100: fc62 283e f11b a53d 7bec 1d3e 97b5 093e
00000110: 4737 913d 9b7c b13d 1fb2 60be de58 423d
00000120: f035 7abd d13f c73e 0774 d5be 8697 e13e
00000130: 7f63 78bc b157 df3e 1c32 9dbf 73ec 1cbf
00000140: 9240 dbbe 7fab f6bd 621d 063e 5141 05be
00000150: 99ec 4bbc 0708 963b 7353 0a3d 0dd6 393d
00000160: 765b b53d 0bd1 0ebe 63d3 063d 4638 1dbe
00000170: 06e9 f63c b038 483e 8e9e e73d 6d80 c13d
00000180: 8416 8dbd 23b3 923d e0a0 683f 0b23 f43e
00000190: f71d b8bd 09aa a4bd bf99 8dbe b84b 093d
000001a0: c240 543e 0e3b 293e a4b5 e6bb 5242 9e3c
000001b0: 2f71 023d d518 223d 3350 fa3d 8045 b43c
000001c0: 7f8c 30bd 9340 9c3d 96ac 08bc 6502 a9bd
000001d0: dbd1 ccbd 8483 10be f9c4 0ebe b33d a8bd
000001e0: a28e b0bb 7fa3 adbd 1a84 3abb 5bec 2e3e
000001f0: 2912 0dbe 5ad2 ecbe 53d7 73bf 5cb1 653e
00000200: 82d8 9bbe 8250 19be 1e4d a5bc 0f81 f33d
00000210: 23d9 873d 8414 173d 13ba c13d b287 a7bd
00000220: 9035 adbd 1c0e 013e 80fc 723d abfb 50be
00000230: 36b7 36be 2aa2 aabe f779 f0be 70f7 00bf
00000240: 1d89 85be ff0b 4ebe b949 1cbe af2d b8be
00000250: cb47 3bbe f7b3 2fbe 5953 bf3d c371 1e3e
00000260: 90ea 3c3e 56ed b93d f1b8 d7bd 18da 893e
00000270: 932a 293d 03f6 b3bd a8a6 29bd 62ed b2bc
00000280: 3480 ea3b 6a79 debb c0e1 a13d 9028 00bd
00000290: 1646 23bd 1785 953d 19f4 ebbd 5ea4 043e
000002a0: 3388 57bd 4536 85bd 0444 023e efb0 f23d
000002b0: 6d1b eabd 7a45 753d cb98 adbd 82b6 49bd
000002c0: dbaf 0c3c 0449 52bb bb73 a33f 6d46 df3e
000002d0: 5391 1f3e 0769 edbe 0827 9c3d c77b bb3d
000002e0: 2bd5 fa3c a829 e63d 4858 9d3d e71f c63d
000002f0: 884e 35bd 71d8 0b3c 690f f1bd 1ea7 16be
00000300: a861 01be 51b2 123c 37b9 be3c 758e 79bc
00000310: 8686 fabc f477 b53d f0e1 29be a138 d43d
00000320: 3762 8b3d 522c 633c 8409 523e e0bf 263f
00000330: be5a b6be 4465 aebd dc25 b33e 21dd 8d3e
00000340: ac31 a6be 0228 d5bc 6693 da3d b881 b53d
00000350: 5c2e cd3d 806c aabc d6ef cbbd f5eb 7b3d
00000360: 1456 16be cbe1 93ba b98d 083e 8c1b ec3d
00000370: 9d58 2c3d 162c 923c 9f09 a33d 97eb 9fbd
00000380: d30f 06be eafc 1dbe 03bb 96bd b4df cebc
00000390: 00b0 923e c071 4d3f 2543 e0bc cce2 0a3f
000003a0: 679b 57be 2f4f ce3e 06f1 24be b44a e0bc
000003b0: e644 28be d71a 8b3d c75e b13d 7eac bd3d
000003c0: b744 b63d 3851 62bd 2f49 97bd 97be 3fbd
000003d0: ef1a a0bc 009e e23d 1876 8d3d a103 ed3d
000003e0: 491f 013e 778d e23d 4d92 05be bfcf de3c
000003f0: a658 fabd 1e9a 8abd 2739 e0be 5346 3b3d
0.018425427 -0.034751486 0.119247094 0.09438174 0.058281105 0.08966443 -0.0608953 -0.004215292
-0.17587027 0.036469344 0.14453007 0.05727124 -0.04681172 0.042185117 -0.11639139 -0.08880102
-0.046627007 -0.016202942 -0.055301826 0.13674954 -0.4860858 -0.751741 -0.6313493 0.2660394
-0.35424578 0.75770634 0.11025863 0.14579244 -0.056546956 0.112815216 -0.043704655 0.017927818
-0.07778813 -0.030381886 0.06242871 0.11143162 -0.07560205 -0.061565768 0.014511107 -0.16559611
-0.02590254 -0.121611364 0.15040158 0.112511225 -0.0062942146 0.087070756 -0.6393591 -1.1117816
-0.15092617 -0.20443667 -0.79632294 0.09621393 -0.0939688 -0.12555395 -0.048714634 0.008239664
-0.16362956 -0.10531779 0.040353507 -0.103739314 -0.10496161 0.08315097 0.14623451 -0.023794085
0.1644401 0.0806197 0.15422241 0.13448177 0.070906214 0.08666345 -0.21942948 0.04744803
-0.061086595 0.38915876 -0.41690084 0.44060916 -0.0151604405 0.4362159 -1.2280917 -0.6129829
-0.428227 -0.12044429 0.13097146 -0.13013197 -0.012446546 0.0045785937 0.03377099 0.04537015
0.088553354 -0.13946931 0.032916438 -0.15353498 0.030140411 0.19552875 0.11309539 0.094483234
-0.0688906 0.07163074 0.90870476 0.47682986 -0.0899009 -0.08040244 -0.2765636 0.033519477
0.20727828 0.16526434 -0.007040696 0.019318733 0.03184622 0.039574463 0.12222328 0.022005796
-0.043102738 0.07629504 -0.008341929 -0.0825241 -0.10000964 -0.14112669 -0.13942327 -0.08214893
-0.005388097 -0.0847845 -0.0028460086 0.1708235 -0.13776459 -0.46254236 -0.95250434 0.22430938
-0.3043862 -0.14972118 -0.020178374 0.1188985 0.066332124 0.0368848 0.09459319 -0.08180179
-0.08457482 0.12603039 0.059322834 -0.20408504 -0.17843327 -0.33326846 -0.46968052 -0.5037756
-0.26081172 -0.20121764 -0.15262498 -0.35972354 -0.18289106 -0.17158495 0.09342069 0.15473084
0.18448853 0.09078471 -0.10533322 0.26924205 0.041300368 -0.087871574 -0.0414187 -0.021841709
0.0071563963 -0.006789376 0.079043865 -0.031288683 -0.03986176 0.073007755 -0.11521167 0.12953326
-0.052620124 -0.06504492 0.12721258 0.11850154 -0.11431012 0.05988071 -0.084764086 -0.04924632
0.008586849 -0.0032086978 1.2769693 0.43608418 0.1558278 -0.46369192 0.07624632 0.09154468
0.030619225 0.11238414 0.07682854 0.09674054 -0.044264346 0.00853549 -0.117705174 -0.14712188
-0.12634909 0.008953647 0.023281677 -0.015231718 -0.030581724 0.0886077 -0.16590095 0.103623636
0.06805842 0.013865547 0.20511442 0.6513653 -0.35616106 -0.08515409 0.34989822 0.2770777
-0.32459772 -0.026020054 0.10672645 0.088626325 0.10018608 -0.02080369 -0.099578544 0.061504323
-0.14681274 -0.0011282502 0.13335313 0.11528692 0.042076696 0.017843287 0.079608195 -0.07808607
-0.13091974 -0.1542851 -0.073598884 -0.025253154 0.28649902 0.80251694 -0.027375767 0.54252315
-0.21055375 0.40294787 -0.16107568 -0.027379371 -0.16432533 0.06792229 0.086606555 0.09261416
0.08899825 -0.055253237 -0.073870055 -0.04681262 -0.019544093 0.11065292 0.0690729 0.11572958
0.1260959 0.110621385 -0.1304409 0.02719867 -0.122239396 -0.06767677 -0.43793604 0.045721363

linear1_q1.bias f4 [256]
00000000: 0da3 4abd 770b 253c 46ad c3bc c0e8 2f3e
00000010: c846 653d 6c0a 343e 19a3 84bd fbc7 9fbd
00000020: ab4a d5bc 1163 80bd b149 1ebc e603 eabd
00000030: 3923 773d 1579 b53d c224 75bd 9e79 dfba
00000040: b1f7 a73c 1b15 663d 3b9c 81bb cef6 003e
00000050: 1199 ab3e 487f a23e 4661 51be f621 6b3d
00000060: 77a1 623b bdab a5bd 6b3b ca3d 0d30 933d
00000070: 1966 b73c c8fc 36bd 8f70 84be f98a 5cbd
00000080: 2e06 e2bc e669 03bd 16f0 453d eedd 043b
00000090: 4766 24bd 4a2e cf3b 3bb1 d6bd 14c2 e03c
000000a0: 8409 33bd a8a3 4f3d 0a76 eabc 4047 edbd
000000b0: 31ae 10bb 6076 29be ba56 e33c 3210 29be
000000c0: 6168 51bd e549 073d 8431 64be 4917 50bd
000000d0: e1f0 353d f5eb ea3d 10e0 25be 9ba3 483b
000000e0: 1f4f 5b3f cdf2 823d d148 97bc eb0e 603d
000000f0: 6966 39be f884 453d ab06 bebc f2bc 403c
00000100: 45aa 2e3c 0160 3f3f 0af9 693b 4af5 093d
00000110: bef8 dc3c 8caf 963b ff61 803e a03c 743d
00000120: 7ccc 3e3d f189 973e 8ecf a5bc 67f2 2abe
00000130: eb4c 2e3e 2bb0 ad3d 1069 973d ed44 16bd
00000140: 1d6f 3a3d dc93 2c3e fe49 16be 582c 16bd
00000150: e163 573d 6999 2dbd 5325 9bbd 0af5 86bd
00000160: ac22 a0bc 5d34 d4bd ee08 e03c 74b5 c23e
00000170: 374b d43e 0413 593e 406b 5cbd 0989 bfbb
00000180: 3a42 80bd 73ab 2e3c cdb2 4abe 7330 563d
00000190: ad61 a83e df32 c7bd 0869 0dbc ee80 d3bc
000001a0: f218 a2bd 466e b43d 3f1f a6be 16f1 fb3d
000001b0: 1b52 ad3c 9ca3 6f3e 857c b93c b3a0 dcbc
000001c0: bab1 2c3e 48d3 fe3d 40fc c13e fdf7 083d
000001d0: 434e 823c 5065 7cbd 0aab bcbd 43ac d7bc
000001e0: ebed dcbd 4ed0 c93e c031 933a cb11 033d
000001f0: a3c8 92be c41d 85be f61f 523d 2974 573d
00000200: 84ac 313e 6781 fabc 4db2 323c 0d2d 3d3d
00000210: 7396 9dbe ced6 68be e795 c93e 9ec7 563d
00000220: 139b 653d 3297 c23b a84a 533f ae93 a43c
00000230: 5321 843d e056 323d 82fb 283d f0bd 23be
00000240: b134 9c3d c70e a5bd ed01 a93d af25 bb3c
00000250: e719 76bb 7a9a 913e 05d3 663d 7293 903d
00000260: 3318 173d fbc4 8d3d 5f72 88bd 5760 36bd
00000270: bdbc 42bd e15c f13d e047 e3bc 2657 4e3e
00000280: 6dd6 913d 6bb0 8dbc 5838 9dbc 22af b13b
00000290: 2cc8 bdbc 3086 59be 9dd9 843d 8e56 533d
000002a0: f431 33be c404 a13d 2180 59bd 00e7 6f3c
000002b0: 3474 3e3c 206d eb3c 52ea 613d 05df ea3c
000002c0: 5992 01bd b6f0 d4bd ebee 853c 4a89 b13e
000002d0: 0584 6e3d ca8f 9e3e ffb4 a7be 0742 533e
000002e0: 45db 4fbd 76a3 943d 4cb0 6b3e f7c9 833c
000002f0: 6493 cd3e 386e 08be b697 663d caee 0a3d
00000300: 46ba 273e 97d6 2e3e 1ea6 6f3d dae7 a93d
00000310: c3e3 71bc da53 39be fb75 d03d 7d6e 90be
00000320: 0fa4 fbbd f71d 213c 67cc 36bd 772e 303b
00000330: 3944 1ebd 9ad1 42bd df7e af3e cbe0 52bd
00000340: 7818 f63d cdd9 eb3c 9b4a f33e 5254 e3bc
00000350: a19c d93d 8994 0e3d 59e8 54be e201 6c3e
00000360: 69ab f7bc 711c 93bc f122 8dbd 66a8 d0bd
00000370: 11e7 c13e 15cf 043d 053d f5bd 5644 9b3c
00000380: dfd3 eabb dbcc 84bd 152c e13c 2951 4bbc
00000390: 2e23 6dbd c7e7 e33e 0a76 33bc 2cc1 2bbe
000003a0: a044 f03c 18b6 903d 9c7c 43be 4545 393e
000003b0: 43c6 a6be 5d49 00bd 4e75 80bc 9c82 4abe
000003c0: 5aa9 9fbd 65d1 013d 445c ebba cbb9 703e
000003d0: fc1a 243d 2cf0 a0bc 8b6d 41be 08c0 05bd
000003e0: cdcc 1e3f 4bfd abbd 54f3 28bd 1291 8ebd
000003f0: afec fe3c 9bc8 893d f4bd 8a3d 957b 82bd
-0.049471904 0.010073534 -0.023886334 0.17178631 0.055975705 0.175821 -0.06476421 -0.07801815
-0.026036581 -0.062688954 -0.009661124 -0.11426525 0.060336325 0.08860985 -0.059849508 -0.0017049795
0.02050385 0.05617247 -0.0039553917 0.12594149 0.33515218 0.31737733 -0.20447263 0.057405435
0.0034581104 -0.08089397 0.09874614 0.07186899 0.022387551 -0.044674665 -0.25867125 -0.053843472
-0.027590837 -0.032083414 0.048324667 0.0020273882 -0.0401366 0.0063226568 -0.10483023 0.027436294
-0.043710247 0.050693184 -0.028620739 -0.115858555 -0.0022076482 -0.16549063 0.027751315 -0.16510084
-0.051124934 0.033029456 -0.22284514 -0.050803456 0.044419173 0.114707865 -0.16198754 0.0030615095
0.85667604 0.06393967 -0.018467339 0.054701727 -0.18105473 0.048222512 -0.023196539 0.011763798
0.010660713 0.74755865 0.0035701417 0.03368119 0.026974078 0.0045985635 0.25074765 0.05962813
0.04658173 0.29597428 -0.020240571 -0.16694032 0.1702153 0.08480867 0.07393086 -0.036686826
0.045516122 0.16853279 -0.14676663 -0.036663383 0.052585486 -0.04238263 -0.075754784 -0.06589706
-0.019547783 -0.1036155 0.027348008 0.38029063 0.41463634 0.2119866 -0.05381322 -0.0058451933
-0.06262632 0.010660994 -0.1979477 0.0522923 0.3288702 -0.097265 -0.008630998 -0.025818314
-0.07914914 0.088100955 -0.32445714 0.12301843 0.021157315 0.23402256 0.022642383 -0.026932096
0.16864672 0.124426425 0.37887764 0.033439625 0.015906459 -0.061620057 -0.092123106 -0.026327258
-0.10787567 0.39416736 0.0011230037 0.03199939 -0.286687 -0.25999272 0.05130001 0.052601013
0.17350966 -0.030579282 0.010906768 0.046185542 -0.30778846 -0.22738191 0.3937218 0.052436464
0.056056093 0.005938434 0.8253579 0.02008995 0.064516686 0.04353988 0.04125548 -0.15990424
0.076272376 -0.08059459 0.082523204 0.022845117 -0.003755206 0.2843817 0.056353588 0.07059373
0.036888313 0.06922337 -0.066624396 -0.04452547 -0.047543276 0.11785293 -0.027744234 0.20150432
0.071209766 -0.017296037 -0.019191906 0.005422489 -0.023166738 -0.21242595 0.06486819 0.051596217
-0.17499524 0.07862237 -0.05310071 0.014642477 0.011624385 0.028738558 0.055155106 0.028670797
-0.03163371 -0.103974745 0.016349277 0.34675056 0.058231372 0.30969077 -0.32755277 0.20630656
-0.05074622 0.0725774 0.2301647 0.016087515 0.40151513 -0.13323295 0.056297027 0.033919133
0.16379651 0.17074047 0.05850803 0.08296175 -0.014763775 -0.18098393 0.10178753 -0.28209296
-0.12287151 0.009833804 -0.044628527 0.0026883164 -0.03863928 -0.047563173 0.34276482 -0.05148391
0.12016386 0.028790379 0.47517857 -0.027750168 0.10625578 0.034809623 -0.20791759 0.23047593
-0.030233102 -0.017957898 -0.0689143 -0.101883695 0.37871602 0.03242405 -0.11974529 0.018953484
-0.0071663703 -0.064843856 0.02748684 -0.012409487 -0.057894878 0.4451277 -0.010953436 -0.16772908
0.029329598 0.070659816 -0.19090503 0.1809283 -0.32573137 -0.031319965 -0.015680935 -0.19776386
-0.07795973 0.031693835 -0.0017956574 0.23508374 0.040064797 -0.019645773 -0.18889444 -0.03265384
0.6203125 -0.08397921 -0.04124768 -0.06961264 0.031118719 0.067277156 0.06774512 -0.06371228

linear2_q1.weight f4 [256, 256]
00000000: 6cd5 143d 7569 a33d d844 a23d c9b3 a63e
00000010: b242 22bd 3a1c 7d3e c932 20bd 1a0f 003e
00000020: 3cc4 82be 211c ad3d a7ff afbc 1b58 013d
00000030: 7af0 1f3e 9ebb 4e3e c3a0 26bc 474b 39bc
00000040: 727e a93d ee6c e13d 8735 923d a170 053e
00000050: 6c73 c93c a4ba 3d3e 6f29 773e 966a 7abd
00000060: 208f 30bd 1653 003d ef7e 96bf d557 d13d
00000070: 4c3e 303e 3bae 603c e2cf 823d df24 dc3c
00000080: d21d e2bd 0a71 933d a936 373b 49e6 11bd
00000090: 53d5 20bb 9934 fd3d 6fc0 f83d 2121 42be
000000a0: 03b7 21be d9b7 493e 8a55 a93b 3ae3 c03d
000000b0: 4fe9 753c 5265 823d 3256 013e 67b5 423d
000000c0: 1c3b 76bd 7045 d7bd ef02 23bd 68b9 7e3d
000000d0: 8957 293c fc9c 21bc c69f bfbd 4512 49bd
000000e0: 35d8 e33e 4ff6 10bd 6fc0 0a3e 571d 5b3e
000000f0: 726d 84bc fbd0 f83d 6f90 10be ae9e ca3c
00000100: 176c 9abb d305 5f3f 76d8 b83d 0125 103f
00000110: b15c 4abd 1e8b 463d f187 643d 8b08 da3d
00000120: 8a65 9f3d cf55 be3d 8a14 b63d 2bd4 443e
00000130: e7d8 213f d2ab 80bc e56a 6e3e 2f78 6a3d
00000140: 0c2a 703d bdf5 b43e 3c94 543e d93f 20be
00000150: 4a98 233e c402 e4bd e1e9 bb3d 9144 9d3c
00000160: 5c19 5c3d e73c 063e 9a21 c73d 1528 6f3e
00000170: b195 2d3d d0bf 6d3e 3c0a e93c 27ae 983d
00000180: f21f 483d ca83 a93d f90d 943d 8327 e5bc
00000190: aa74 e5bd b247 e2bc 000d 71bb afd6 f6bd
000001a0: 1499 12bd 9675 c4bb e8da 293d 16ea 25bf
000001b0: a8bd fdbe fefd 713e e0f1 363d 204d a2bc
000001c0: 94f7 fc3c 421d 1c3e e009 a8be 5d2c 903d
000001d0: 6d9f 18be b86f 843d 3732 31be 3c65 103f
000001e0: 30f0 423d 0822 97be 0f56 a6bd 18cd d13d
000001f0: 7ca3 f4be 79d0 a83d bb74 10bf febd 183e
00000200: bfe4 183a 20e4 8cbd 23b4 cabb 3c0a 523c
00000210: 2b3f fabe 8937 12bd b392 7ebd f5f0 0c3e
00000220: a93a ff3d 5f89 9dbe ca81 5cbc c8a9 8a3c
00000230: ca9b 423e 7ae5 8abe 70e9 113d 0eb3 cd3d
00000240: 87c1 133e 6e00 87bd 89a8 c43d 0002 603d
00000250: a15e e13c 6798 b33d b330 1fbc 73b9 c13d
00000260: 1bd0 a93c dcb4 b8bc db25 893c 8de1 e6bd
00000270: 2da6 a0bd 5bab 333d 5b29 babd 05c8 eebc
00000280: 4927 e83d d893 873d 9b8d a4bd a172 833d
00000290: d219 4fbe 74fc d3bb 28b4 a4bc f3c8 a4bd
000002a0: 3aed 8a3c 30d5 673d 9c6a 67bc 481d 293d
000002b0: 9f8a 123d 6322 c1bd 37ba 1d3e 285f 583d
000002c0: 7542 e3bd 20d8 dcbd 7f38 0c3e 8856 1bbe
000002d0: fca2 823c 2b02 043e c1c1 f9bd 10a8 943d
000002e0: f4f0 633d 469f 453d 4476 9ebe 081e 893d
000002f0: 9b75 4cbe 55fb 0abe d6be 153d 1a51 a13d
00000300: 99cc 95bc e32a 6c3c b9e8 d63c a414 733e
00000310: b52b 0cbe 7d81 ebbe a411 393f b8db 20bf
00000320: 0a4e 5cbd f20b 54bb 1287 fcbd 14dc 05be
00000330: 4392 29bd 48c7 a9bd 259c adbe b3d2 0dbc
00000340: 4ee5 a63d 18bd 2a3e b8e0 3fbe 8045 173e
00000350: bde7 0dbd d282 8ebe f1a1 a43d dde1 e1be
00000360: f377 78be 5272 eebe 68ea 50bd 5318 cb3d
00000370: f284 75be 371f ce3d 241c 54bd 84e4 113d
00000380: f781 0d3e d7cd e4bd 60c9 b03d 9897 443d
00000390: a92e 79bd 35dd ab3a dfeb 7fbd b5ef 253e
000003a0: ab08 053c 245f 47bd 4e38 42be ad92 5a3e
000003b0: ea6e 63bc 5898 91be 37d2 f1bd 832b 083c
000003c0: bad7 39bf 983c 053e 0fd4 113e df50 813d
000003d0: 037c 4b3c 0f55 573d e2d6 35bd 2c5b 643d
000003e0: 26eb 3dbd 6bb3 57bd f981 5b3d e85b a5bd
000003f0: 4f7b 343e 9fab 963e e2e0 9a3c 8316 e23a
0.036336347 0.07979099 0.07923287 0.3255904 -0.039614387 0.24717799 -0.039110932 0.12505761
-0.2554034 0.08452631 -0.02148421 0.031578165 0.15619078 0.20188758 -0.0101701645 -0.011309451
0.08276071 0.11007105 0.07139116 0.13031246 0.02459117 0.18528229 0.241369 -0.061136805
-0.043105245 0.031329237 -1.1757487 0.10221831 0.17211264 0.013713415 0.06387307 0.02687305
-0.11040844 0.07199295 0.0027956164 -0.035620008 -0.0024541214 0.12363548 0.12146079 -0.1895795
-0.1579247 0.19699039 0.0051676678 0.0941834 0.015009238 0.063669816 0.12630537 0.04753628
-0.060114965 -0.10511291 -0.03979772 0.062188536 0.010335811 -0.009864088 -0.09356646 -0.04908969
0.4450089 -0.03539115 0.1354997 0.21397911 -0.016165469 0.12149235 -0.14117597 0.024733867
-0.0047125923 0.8711826 0.09025662 0.56306463 -0.049404804 0.048472516 0.055793706 0.10646161
0.07783039 0.092937104 0.08890636 0.1922156 0.6322159 -0.01570693 0.23282965 0.057243522
0.05863385 0.35343733 0.20759672 -0.15649356 0.15976062 -0.1113334 0.09175468 0.019197734
0.053735122 0.1310917 0.09723206 0.23355134 0.042379085 0.23217702 0.028447263 0.07455092
0.04885859 0.0827709 0.072292276 -0.027972942 -0.112038925 -0.027622078 -0.003678143 -0.120526664
-0.035790518 -0.0059954626 0.04146853 -0.6481031 -0.4955876 0.23632047 0.044664264 -0.019812167
0.030879773 0.15245536 -0.32820034 0.070397116 -0.14904566 0.06466621 -0.17304312 0.5640447
0.047592342 -0.2951815 -0.08121883 0.10244197 -0.4778098 0.08242888 -0.56428117 0.14916226
0.00058324257 -0.06879449 -0.0061860248 0.012819823 -0.48876318 -0.035697494 -0.062151622 0.13763793
0.124623604 -0.30768868 -0.0134586785 0.016926661 0.19004741 -0.27128202 0.035623014 0.100439176
0.14429294 -0.06591879 0.09602458 0.054689407 0.027510943 0.08769303 -0.009716201 0.094592
0.020729115 -0.022547178 0.016741684 -0.11273489 -0.078441955 0.04386459 -0.09089919 -0.029148111
0.11335618 0.06619996 -0.080348216 0.06418348 -0.20224693 -0.0064693037 -0.020105436 -0.080461405
0.016958822 0.056599796 -0.014124539 0.04128769 0.03577673 -0.09430387 0.15403067 0.052825123
-0.1109666 -0.1078341 0.13693427 -0.15169728 0.015946858 0.12891452 -0.12195159 0.07258618
0.055649713 0.048247598 -0.30949605 0.06695181 -0.19966738 -0.13572438 0.03655895 0.07876797
-0.018286036 0.014414522 0.026234018 0.23738343 -0.13688548 -0.4599723 0.7229254 -0.62835264
-0.05378536 -0.0032355753 -0.1233045 -0.13072234 -0.04139925 -0.08289963 -0.3390819 -0.008656192
0.08149205 0.16673696 -0.18738067 0.14772606 -0.03464483 -0.27834183 0.080387 -0.44117633
-0.24264507 -0.46571594 -0.051004797 0.09916749 -0.23976496 0.100645475 -0.05178465 0.03561832
0.13819109 -0.11172073 0.08632159 0.047996134 -0.060835514 0.001311219 -0.062480804 0.16204722
0.008119742 -0.048674718 -0.18966791 0.21345015 -0.013881424 -0.28436542 -0.118076734 0.008311155
-0.725948 0.13011396 0.1424105 0.06314253 0.012419703 0.052571353 -0.04439438 0.05575101
-0.046366833 -0.05266134 0.05359075 -0.0807417 0.17625163 0.29427812 0.01890606 0.0017249141

linear2_q1.bias f4 [256]
00000000: e035 123e e7a5 d5bd b145 8abd 1995 fe3c
00000010: 2643 a4bc 9c3d f2bd a0df 1b3e a5c6 b7bd
00000020: beea 7e3d 6498 cc3d bb06 8cbd d395 773c
00000030: 0831 72bd b03e b439 b823 9e3d 8f87 53be
00000040: de30 c93e 3a0b 163e 8d09 14be 6e6c dd3d
00000050: 9636 2f3e bd71 c7bd 4ea7 a6bc b6b9 1bbc
00000060: 2278 a13d 0dac 98bd 2921 3b3d f19b ffbc
00000070: 31b2 f23d 6b98 3abc d5ab b5bd 343a 2a3c
00000080: c68f b3bd 3435 69bc 3f84 4d3d ce7a b0bb
00000090: d5e6 d23d e0f0 cf3d 9bd5 af3d d4fa 373e
000000a0: 86c9 febc fd63 cf3d 147b 09bd d34d b2bd
000000b0: e362 ecbb e30e 433d b98f cabd a94f d5bc
000000c0: b80f be3c 241e 52bc 60e0 07bc 41df b83e
000000d0: 353f bbbd 12c9 fbbc da66 993d 56f9 5d3f
000000e0: df4c bdbd a765 173f 3ddc df3d b862 1d3d
000000f0: 66c1 73bc a86e 9fbd 615f 58bd c294 81bd
00000100: d72f e9bd 1738 6c3d 920e 0f3e a94d 893e
00000110: afe5 f2bc 7a8e 7ebc 1523 343e cba9 dc3d
00000120: b10a b13d eb38 1a3e 3e9d 89bc 00d0 22bc
00000130: 2868 15bd 0fca 513d 8ab4 c9bd 18bb 373e
00000140: 183d 5ebd 0007 64bc 8a4b 86bd ab1f 973d
00000150: ab2a d23d bcc0 f33d 6a41 413e 9708 f03d
00000160: ddb1 18be 8876 dbbc b044 9abc f7e1 e83e
00000170: fade 483b e96d d43d 4e04 593f e31f c53d
00000180: d0b8 b2bd 48aa a03d 9627 e33b 16e8 c33d
00000190: 4033 9cbd 94cd 98bd 285b 9bbd 4223 afbd
000001a0: aa63 bdbd 6cd7 fb3c fddc 94bd bd42 a4bd
000001b0: b4d6 75be a619 afbd c82c b1bc 33b1 fc3d
000001c0: de51 173d ea9e d43d e036 8b3d b9d7 98bd
000001d0: 48c0 81bc f18b 40bd be83 e13d df7d 693d
000001e0: c54b b33d 1de3 54bc 3f3b 463c cc28 c33d
000001f0: 2220 c2bd df58 ed3c 5695 223e 5ac1 983e
00000200: 9a40 823d f16d c1bd 86bf d83d 03b1 a3bc
00000210: aaaa b23d 8306 aebd bd0a ebbd d0fb 4e3d
00000220: 1df2 af3c c14d 763d d55f a93d 946b ae3e
00000230: ef12 cf3d 4448 933d e79b 153d a1b7 cc3c
00000240: 2c47 ccbc 387e 893d 0e23 753d 5420 513d
00000250: a5fb 273e f9f3 16bc 466d eb3c a6a3 8dbc
00000260: 4315 f4bc 8e29 e83c ae6e c13d 61fa 323e
00000270: 92e8 c33d 87e5 a1bd 6d0b 90bc baa4 593e
00000280: 1dbb b43d 4207 9bbd 1bd3 5d3e 37ac 0d3d
00000290: a89b bfbd cab3 88bd a367 c0bd d029 bebd
000002a0: cbd7 8e3d 2661 67bd 0ea9 403d 7465 86bc
000002b0: 4247 babd 7e80 b9bd aa70 cabd 0379 1e3e
000002c0: 491c cabd e586 7c3d 2fd1 abbd 74da 003d
000002d0: 12c7 c1bd 1a1e 35bd 68ad dabd 7696 bbbd
000002e0: cc55 853d 1249 9f3d 8014 34be 89ad aabd
000002f0: adef c23d a958 92bd 9984 0fbe 9b21 8a3d
00000300: 8ef3 66bc 7998 c2bd 6ee5 afbd 4376 eb3d
00000310: f3f7 bbbd 2cdd b4bd b236 643e de8d 203e
00000320: 0e0b 273e 2005 983e 71ae ae3d 3043 81bc
00000330: 94fd 283e 41cf bebc 9d51 633d 996e c3bd
00000340: e91e 933e f271 a3bd b429 683f 5efe b2bd
00000350: e0a0 a3bd e6c4 0cbd 03bd 89be 50a2 44bd
00000360: 82ef f2bd e2b9 b33d 4493 abbd 0977 6d3d
00000370: 6c52 24be 2b35 d3bd d497 dcbd 2799 a2bd
00000380: 5dce 013e 0d0d 40be aff0 d93e fd55 b1bd
00000390: 1aa9 c9bd a920 87bd 1b17 af3e 8600 1cbc
000003a0: 5ed9 b2bd 6b3d bcbd 1519 003e c728 383e
000003b0: 9a15 cebd 742d 9dbd 3c4c f73d 7f18 be3d
000003c0: 4e9c adbd 8fb0 e5bd 7a51 e5bd f1c1 03bd
000003d0: 60fe 1fbc 8967 0ebc 1524 01bd e805 dcbb
000003e0: 83da 89bb 9d16 c43d 0ffc 16bc 9300 bebd
000003f0: 0999 1fbd eb74 aabd b7cb 703e 7726 22bc
0.14278364 -0.10432034 -0.06751574 0.031076955 -0.02005155 -0.11828157 0.15222025 -0.08973435
0.062235586 0.09990004 -0.06837221 0.0151114045 -0.05912879 0.0003437898 0.077216566 -0.2065718
0.39295095 0.1465272 -0.14456768 0.10811697 0.17110667 -0.09738491 -0.020343449 -0.009504726
0.07884242 -0.07454691 0.04568592 -0.031202288 0.118503936 -0.011388878 -0.08870665 0.010389853
-0.08767657 -0.014233876 0.050174948 -0.005385733 0.10297934 0.10153365 0.08585664 0.17966777
-0.031101953 0.10126493 -0.033564642 -0.0870625 -0.0072139367 0.04762162 -0.09890694 -0.026038961
0.023200855 -0.012824569 -0.008293241 0.3610783 -0.09142915 -0.030735526 0.074903205 0.8670858
-0.092431776 0.59139484 0.10930679 0.038424224 -0.014877653 -0.07784778 -0.052825335 -0.063272014
-0.11386078 0.05767068 0.13970402 0.26817062 -0.029650537 -0.015536899 0.17591508 0.10774573
0.08644617 0.15060775 -0.016798612 -0.009937286 -0.036476284 0.05121809 -0.09848888 0.17942464
-0.054257482 -0.013917685 -0.06557377 0.07379087 0.102620445 0.119019955 0.1887261 0.117203884
-0.149116 -0.026789919 -0.01883158 0.45484897 0.0030650483 0.10372526 0.84772193 0.096252225
-0.087266564 0.078449786 0.0069322092 0.09565751 -0.07626963 -0.07461086 -0.07585746 -0.08551647
-0.09247525 0.03074237 -0.07268713 -0.08020542 -0.24007684 -0.08549814 -0.021627799 0.123384856
0.03694331 0.10381873 0.06797576 -0.07463021 -0.015838757 -0.04700846 0.11011456 0.057004806
0.08754686 -0.012993601 0.012099086 0.09529266 -0.09478785 0.028973041 0.1587728 0.29835016
0.06359978 -0.09444798 0.10583405 -0.019981867 0.08723958 -0.08497336 -0.114766575 0.050533116
0.021477753 0.060132746 0.08270232 0.3406645 0.10111033 0.07191518 0.036525633 0.024989905
-0.024936281 0.067135274 0.059847884 0.05105622 0.16404589 -0.009213441 0.02873863 -0.017289948
-0.029795295 0.028340127 0.094449386 0.17478324 0.09565844 -0.07905107 -0.017583573 0.21254244
0.088247515 -0.07569744 0.21662562 0.034588065 -0.09355861 -0.06674917 -0.09394767 -0.09285319
0.06974753 -0.056489132 0.047036223 -0.016405798 -0.090956226 -0.09057711 -0.0988477 0.1547585
-0.09868676 0.061652083 -0.08389508 0.031458333 -0.09461798 -0.04421816 -0.10677606 -0.091595575
0.06510505 0.07777609 -0.17585945 -0.083338805 0.09518371 -0.07145817 -0.14015426 0.06744691
-0.014096154 -0.09501738 -0.08588682 0.11497166 -0.09178152 -0.08831248 0.2228649 0.15679118
0.16312811 0.2969141 0.08529366 -0.015779108 0.16502982 -0.023292186 0.055497754 -0.09542579
0.2873452 -0.07980718 0.90688634 -0.08739923 -0.07989669 -0.034367464 -0.26902017 -0.048006356
-0.11862089 0.08775689 -0.08377698 0.05797485 -0.16047066 -0.10312875 -0.107711464 -0.07939368
0.12676378 -0.18754978 0.4256644 -0.08658979 -0.09846707 -0.06598026 0.34197316 -0.009521609
-0.08732866 -0.09191402 0.12509568 0.17984305 -0.10062714 -0.07674685 0.120750874 0.09282016
-0.084770784 -0.112153165 -0.11197181 -0.03216738 -0.009765238 -0.008691677 -0.03152855 -0.0067145713
-0.004206957 0.09574626 -0.009215369 -0.09277453 -0.038964305 -0.083230816 0.23515211 -0.009896866

linear3_q1.weight f4 [1, 256]
00000000: 66b3 413e bdce 25be e690 6cbe 951a 503f
00000010: 9cfc 8fbd 3a6e 01bf 83ff 723f ad22 1cbe
00000020: 46f6 1d3f aa77 c93e 0f08 0abe f871 153f
00000030: f2ba 43bf 0f40 1ebf cef0 143f f12f 38bf
00000040: 3583 953f 1c66 243e 49a7 90bf 9ec4 763f
00000050: ad84 683e f314 4ebe f1b4 25b9 bcf2 5d3c
00000060: 6823 c23e abf3 45be 32a2 d93e db27 273f
00000070: 0977 ab3e 54a1 b43b 2660 0cbe 66a7 923f
00000080: a08f 5cbe 905c 9b3c 96fe e93e 92d3 13bf
00000090: b43e 573f a909 2e3f 2219 a03f 4e1f fb3e
000000a0: bf2d 08bf ba3d 273f 34a9 a8bd f8dd b7be
000000b0: 4c1c 893c 23a8 8d3f 7ad3 23be eefd d73d
000000c0: 17c1 953f 1d44 523d 3671 a83d 1d04 053f
000000d0: eb9a 54be 0f5d 91bf d575 353f f587 a93f
000000e0: 611a 51be 6d1f c03f 82e0 243f 3a5f 2c3f
000000f0: 42f4 c53b ae65 60bf a8ca 6cbe 13fc 33be
00000100: 9ef5 f7be 010a 7e3f 772f 703e bf3f 8b3f
00000110: c941 73bf ebef cd3a c3e3 8c3e 49c4 a13f
00000120: 4248 033f d6f8 0f3e 9a7e 1cbf 757a eabd
00000130: b6cf e6bd 08ac 313f e22f 06be 6d83 af3e
00000140: 441d 37be ca49 bc3d 5538 19be cbe3 803e
00000150: 4469 1d3f e5d7 243f c425 3f3f c764 dc3e
00000160: 70be 99bf 19b8 a53b 584d 7cbf dd01 b03f
00000170: 4e6d 493f 0fda 343f 8123 ba3f 874b a33e
00000180: 0801 28be 956b dc3e 2c68 323e 9811 173f
00000190: 9c57 7dbe 8979 30be 0ac1 7cbe 650c c3be
000001a0: 80f6 43be 5306 8f3f bbae e2bd 0283 20be
000001b0: 6120 98bf 33ed 21be 45cf 64bd 9cd5 903f
000001c0: 24fa 263f 89ae 283f cafa 6f3f 9d95 14be
000001d0: 0406 96bd 09ae 7fbf f1ff 463e 361a eb3e
000001e0: 568f 2a3f cde9 9dbd 0b37 683f 26af 1a3f
000001f0: 45d4 4dbe 02ad eb3e e00e 863e 29b8 903f
00000200: 343a 0f3f d72a 35be a8fc 173f b517 a0bb
00000210: 1679 763f c8d8 56be 942d a5bf 6d9b e63e
00000220: 40a3 023f 3884 ff3e b685 dd3e 0a33 503f
00000230: 506f e03e 5732 bd3e 8af2 603f 0c8e 173f
00000240: f3b2 3cbd c97a 003f 02f0 7e3e 7793 fd3e
00000250: b52a 7b3e 6823 5a3b d79c a23f ae75 a53f
00000260: afba 223f 43fb ea3e 53e4 fd3e c566 363e
00000270: 9598 ef3e 80f8 a0bf e1e2 be3d 6f54 853f
00000280: c408 c23f 21e1 52be fd76 943f a58a 5c3f
00000290: e38e 1cbe bb00 bebf cc3a 9abf 0dfa 1ebe
000002a0: 17c5 263f 78bd 42bf 3382 173f 0a9f 123e
000002b0: ddb0 28be a5b1 58be cdab 4fbe 7d60 593e
000002c0: 5e54 00bf 6447 0e3f cba9 59be 1d5c 813d
000002d0: 6e7a f3be daa4 d9be 619b 00be 2174 15be
000002e0: b406 fe3e fdf3 933f 0920 73bf 718a 61bf
000002f0: ad25 5d3f b054 92bf c22d 8ebe ec9d 083f
00000300: 4611 32bc c552 1cbf 883e 1cbe 0ba8 2f3f
00000310: aa5f 64bd bb5f 0bbe c535 ee3e 53f4 2b3e
00000320: eee9 9b3e a85a 723f d0d6 183f f4f2 e33c
00000330: 4aa0 663e f293 a3bd c9d5 e53e 24ee 4cbe
00000340: 6e95 563f f159 20be 0f2f 853f 1b2e fabd
00000350: 9cef 85be a323 63be 6714 33bf 5e4a 96bf
00000360: 685f b2bf 397c 6ebf d757 ebbd 0682 213f
00000370: 2878 0fbf ccc0 81bf 8099 01bf b615 60be
00000380: 1728 f23e e806 36bf c105 453f 0129 64be
00000390: e864 85bf 9e23 97be 6a22 a33f 16db 86bd
000003a0: c516 01be e35b 69be 71ce 283f 1e9a 883e
000003b0: 129e d1bf 2ec9 01be 8513 223f 4844 b83e
000003c0: 11a5 06be ce16 c1bf e272 9dbe c924 95bf
000003d0: 2d35 95bd f418 c93d e277 9d3b 38f6 6b3f
000003e0: 91bb 5bbf 6219 103f 982e 403c 7dfe 50be
000003f0: ed6c c6be 68b3 22be 477d a83f c205 983d
0.18916091 -0.16192146 -0.2310215 0.8129056 -0.07030603 -0.5055882 0.9492113 -0.15247603
0.6170391 0.3934911 -0.13479637 0.5837703 -0.7645713 -0.61816496 0.5817994 -0.7194815
1.1680666 0.16054577 -1.1301051 0.96393764 0.22706862 -0.20125179 -0.00015803032 0.013546642
0.37917638 -0.19331233 0.42506558 0.6529519 0.33489254 0.005512396 -0.13708553 1.1457336
-0.21539164 0.018965036 0.45702046 -0.57744706 0.8408005 0.6798349 1.250767 0.4904732
-0.53194803 0.6532856 -0.08235398 -0.35911536 0.016737126 1.1066936 -0.1599864 0.1054648
1.1699551 0.05133449 0.08224718 0.519594 -0.20762222 -1.1356524 0.7088292 1.3244616
-0.20420219 1.500959 0.6440507 0.67332804 0.0060410807 -0.8765515 -0.23124182 -0.17576627
-0.4842958 0.99234015 0.23455606 1.0878829 -0.95022255 0.001571176 0.27517518 1.2638026
0.5128213 0.14059767 -0.6113068 -0.11449138 -0.112700865 0.69403124 -0.13104203 0.34279957
-0.17882258 0.09193762 -0.14962895 0.25173792 0.6148875 0.6439193 0.74667 0.43045637
-1.2011242 0.0050573465 -0.9855552 1.3750569 0.7868241 0.7064523 1.4542085 0.3189356
-0.16406643 0.4305083 0.17422551 0.5901122 -0.24740452 -0.17233862 -0.24683014 -0.38095394
-0.19137001 1.1173805 -0.110684834 -0.15674976 -1.1884881 -0.1581314 -0.05586173 1.1315188
0.65225434 0.6589132 0.9374205 -0.14510198 -0.07325366 -0.9987493 0.19433571 0.45918435
0.66624963 -0.077106096 0.9070899 0.60423505 -0.20100506 0.46030432 0.26183224 1.1306201
0.55948186 -0.17692123 0.593699 -0.0048856386 0.9627851 -0.20981133 -1.2904534 0.45040455
0.5103035 0.49905562 0.43266076 0.8132788 0.43834925 0.3695247 0.87870085 0.5920112
-0.046069097 0.50187355 0.24896243 0.4952657 0.2452801 0.0033285264 1.2704114 1.2926538
0.63566107 0.45894822 0.4958826 0.17812641 0.46796098 -1.2575836 0.093206175 1.0416392
1.5158925 -0.20593692 1.1598812 0.86149055 -0.15288882 -1.4843973 -1.2049193 -0.15525074
0.65144485 -0.76070356 0.59183043 0.14318481 -0.16473718 -0.21161516 -0.2028038 0.21228214
-0.50128734 0.55577683 -0.21256177 0.06316397 -0.47554344 -0.42508584 -0.12559272 -0.14595081
0.4961449 1.1558834 -0.94970757 -0.8810187 0.86385614 -1.1432095 -0.27769285 0.5336597
-0.010868376 -0.61063796 -0.15258229 0.6861579 -0.055755295 -0.13610737 0.46525398 0.16792421
0.30451912 0.9466958 0.5970278 0.02782581 0.22522083 -0.07987203 0.44889668 -0.20012718
0.8382176 -0.1565931 1.0404986 -0.12215825 -0.2615937 -0.22181563 -0.69953007 -1.1741445
-1.3935366 -0.931583 -0.114913635 0.63089025 -0.5604272 -1.0136962 -0.5062485 -0.21883282
0.4729621 -0.7110429 0.76961905 -0.22281267 -1.0421419 -0.2951936 1.2744877 -0.06584756
-0.12606342 -0.22788958 0.65940005 0.26680082 -1.6376364 -0.126744 0.63311034 0.35989594
-0.13148905 -1.5085084 -0.3075171 -1.1651851 -0.07285533 0.098192126 0.004805551 0.92172575
-0.8583308 0.5628873 0.011729859 -0.2040958 -0.3875498 -0.1588875 1.3163232 0.07422973

linear1_q2.weight f4 [256, 26]
00000000: f42b 983e 57b7 503e a98e f6bd 56f2 1ebd
00000010: b1a5 e5bd cc0b 0d3d f92b f6bd 07a3 1bbd
00000020: d7a0 df3c 1891 1fbd f322 28bc d63f 403b
00000030: 4c84 0dbe 0dad c73d fdaa c23c d0bc 06be
00000040: fe31 103d 3f84 06be 495a 8a3c 6324 dbbc
00000050: 7688 4c3d 4863 623f 38a6 833e c4a2 173b
00000060: 8a21 5f3c 0f43 d23e 4297 07bd 5767 6a3d
00000070: db1b 033e 94db 7abc b5a6 8cbd 185f cfbd
00000080: 99c4 4fbd 0923 d5bd ba4c 383d fe07 06bc
00000090: 1dce 033e ad67 a13c bab2 5b3d ceb0 203e
000000a0: 601d b3bd 5de4 9d3c de8b fe3d a6e1 98bc
000000b0: 9fe4 853d 4ffa ae3d 8f4c 1fbe 7fdf a3be
000000c0: 6f24 ebbe f60d dfbe f1ed bebd d0c7 9cbe
000000d0: 32dd 6f3e b278 d3be 4388 b0be e22d 2dbe
000000e0: d640 9bbe 9e85 adbd 3eb2 71be 2929 afbe
000000f0: 9bec 70bd 208c 89be 9aa3 99bd faa4 0dbe
00000100: c6e6 71be 7453 c7bc 531a 863d 5fe5 dabc
00000110: 2efe 57be 199a 1fbe 1080 aebd 5809 86bd
00000120: 42e5 0bbe 683d 383d 23ad 033e 4c05 4bbd
00000130: f77c b13e 673c 9cbe 85ea 323e 5168 d83c
00000140: fc08 ee3d a461 12be b762 ac3c b16d 50be
00000150: 8e28 c63c f710 4e3d da2d e9bd e20e c0bd
00000160: f495 fdbe fe5b ffbe 162f 8ebe 1af7 7abe
00000170: d343 87be 22f1 aabe 3320 95be 4dcc 94be
00000180: 64ea 4cbe 39cd 06be ea06 9fbc fc41 1dbe
00000190: 5279 00be 1cba 34be 3591 77be 92af 8dbc
000001a0: ec84 3dbe 6182 893c 781c 25bd 0bb9 9b3d
000001b0: 5cd6 433d 977a 363e 2145 ef3d 5b47 2d3e
000001c0: b531 053e 6a81 09bc 0ce3 e6bd 06bc 18bb
000001d0: aeba efbd 9410 063d a37e 88bd a9a7 563d
000001e0: a54d c63b 4a14 9ebd 033c f4bd a28f 31bd
000001f0: 1d91 22bf 0729 eabe 3000 d93e 8397 07bf
00000200: 474b 86be 7652 e0be 1544 9a3d 2b19 203e
00000210: 0c93 62bb 31f3 213e fb4f 3e3e 7a83 233e
00000220: 5bd6 6f3d 626b 8e3d 47c3 cdbd b682 b63c
00000230: 9b6e 873d 7e3f d13c f532 95bd 9dce 43bd
00000240: 6cd3 4c3d 5aa1 433b 009f c23d 370a 1dbe
00000250: f58e 82be ef2c fabe 7af6 b1bc 6d1e 7ebe
00000260: 02bf aa3e 546c 8dbe da8d f3be 4b1e 973e
00000270: 7061 af3d f7c4 633d 186b 133e 07bc 0e3d
00000280: 2991 1a3e ab32 88bc da3f 34be 49e8 d03b
00000290: 3105 4dbe c6f6 97be 9aef fbbe 92c3 b1be
000002a0: 4ff2 18bf b411 dfbe 0337 f3be 5847 12bf
000002b0: eaf0 edbe 688e b7be ccd6 82be 4835 0dbe
000002c0: 8503 d63c 6e7c 083e 9fbb fd3e bd09 753e
000002d0: b00a 04bf 1a02 f93e 2c05 193e 26c6 6cbc
000002e0: 8c92 5a3d c594 423d c8e9 f2bd 55a0 033e
000002f0: b60c 82bb 94a0 f53d 8494 d23d e908 173e
00000300: 1b4b fc3d 40a9 c3bd 9b48 c43d 5997 103e
00000310: b1cf 123e ce17 bb3d 931e a6bd 3ffd 0c3c
00000320: 536e 71bc 04b1 85bd 747a 3fbd 5985 35bc
00000330: 4a8a e93d d37b cd3e a6a3 f93c 0c47 833e
00000340: 0bc6 4bbf 6f34 c83c 23c4 413e 24f5 43be
00000350: 940b 77bd d498 b2bd 686b 06bd 3827 d23d
00000360: 6a2a bcbd 2e4e 67bd 88a0 073e 569d e63d
00000370: 98af 83bc ff65 0d3c 0830 da3b 90f4 b6bd
00000380: 9be9 583d 3388 4f3d 6e71 08bc 4363 c13c
00000390: 2a9e 243f 34a2 b93d cf18 8b3e 1c3a 37bf
000003a0: 99d4 eabe 092f 3ebf e23d a6be 5815 adbd
000003b0: 74ae 84bd ff18 94be 6d69 7bbe 82d2 61be
000003c0: ce0e b2be 2a23 28be d4f2 35be 6fe2 a1bd
000003d0: 3d55 93bd 87c5 93bc c86b 29bd 7285 80bd
000003e0: 220a f83d c055 803d c280 763d 7c59 8bbd
000003f0: 14ca 64bd d574 72bd bc52 4fbd 8df5 dfbc
0.29721034 0.20382439 -0.12038929 -0.03880533 -0.11213244 0.03443508 -0.12020106 -0.037997272
0.027298374 -0.03895673 -0.010262239 0.0029334924 -0.13819999 0.09749804 0.023763174 -0.13157964
0.035203926 -0.13136385 0.016888754 -0.026750749 0.049934827 0.8843274 0.25712752 0.0023137787
0.013618836 0.41066787 -0.033103235 0.05722746 0.12803595 -0.015311141 -0.06867734 -0.101255596
-0.0507246 -0.10407073 0.044995047 -0.008180616 0.12871595 0.019702757 0.053637244 0.15692446
-0.08745837 0.019273931 0.12429021 -0.018662285 0.06537747 0.08543836 -0.15556549 -0.3200645
-0.45926234 -0.4356534 -0.093227275 -0.30621195 0.23424223 -0.4130302 -0.3447896 -0.16912034
-0.30322903 -0.08472751 -0.2360315 -0.3421109 -0.058819395 -0.2686472 -0.07501908 -0.13832465
-0.2362319 -0.024331786 0.0654799 -0.0267207 -0.21093056 -0.15586127 -0.0852052 -0.06544751
-0.13661674 0.044980437 0.12859015 -0.0495656 0.34665653 -0.30514833 0.17472275 0.02641693
0.116228074 -0.1429506 0.021043165 -0.20354344 0.02418926 0.050309148 -0.113856986 -0.09377839
-0.49528468 -0.49874872 -0.277703 -0.24508324 -0.26418933 -0.33387095 -0.2912613 -0.2906212
-0.20011288 -0.13164224 -0.019412477 -0.15357202 -0.1254628 -0.1764912 -0.24176486 -0.017295633
-0.18507737 0.016785802 -0.040310353 0.076036535 0.04781185 0.17820202 0.11683107 0.16921751
0.13007243 -0.008392671 -0.112737745 -0.002330543 -0.11705528 0.032730654 -0.06664779 0.052405987
0.0060517364 -0.077187136 -0.11925509 -0.04334987 -0.63502675 -0.45734426 0.42382956 -0.52965564
-0.26229307 -0.43812913 0.07532517 0.15634601 -0.003457251 0.15815426 0.18585198 0.15968123
0.058554035 0.069540754 -0.10047012 0.022279125 0.06612893 0.02554297 -0.0728511 -0.047804464
0.050006315 0.0029850812 0.09502983 -0.15335928 -0.25499693 -0.48862407 -0.021723974 -0.24816294
0.33348852 -0.2762171 -0.47569162 0.295153 0.085635066 0.055607762 0.14396322 0.034847286
0.15094437 -0.016625723 -0.17602482 0.006375347 -0.20021512 -0.2968046 -0.4920624 -0.3471952
-0.59744734 -0.43568194 -0.47502908 -0.5714011 -0.46472865 -0.35850835 -0.25554502 -0.13789856
0.026124725 0.13328716 0.49557206 0.23929496 -0.5157881 0.48634416 0.14943379 -0.014451539
0.053362414 0.04750516 -0.118609965 0.1285413 -0.0039688004 0.119935185 0.10282233 0.14749493
0.12319013 -0.09553766 0.09584161 0.14120235 0.1433704 0.091354 -0.081113 0.0086053
-0.014735776 -0.06527904 -0.04674764 -0.011079156 0.1140333 0.40133533 0.030473541 0.25640142
-0.79599065 0.024439065 0.18922476 -0.19136482 -0.060313776 -0.08720556 -0.032817274 0.10261387
-0.09187777 -0.056471042 0.13244832 0.11260478 -0.01607494 0.008630275 0.006658558 -0.08933365
0.05295716 0.050667 -0.008327825 0.023606902 0.6430384 0.09064141 0.27167365 -0.7157304
-0.45865324 -0.7429052 -0.32469088 -0.084513366 -0.06478587 -0.2892532 -0.24551935 -0.22052959
-0.3477692 -0.16419664 -0.17768413 -0.07904517 -0.07193992 -0.018038524 -0.041362554 -0.06275453
0.12111308 0.062663555 0.060181387 -0.06804177 -0.05585678 -0.05919345 -0.05061601 -0.027338767

linear1_q2.bias f4 [256]
00000000: 5994 a2bd 2409 0a3d d9ee 313e c2f8 10be
00000010: fe43 d63c 707d e73e 018e 8f3e 1214 6c3c
00000020: 52ff d63d c84a 763d e6eb e5bc 48b1 19be
00000030: 4699 643d 788c e2bd a6b1 60bd 74b8 0fbd
00000040: ed12 9f3d 860a 193e 40bd ad3e f1be d8bd
00000050: c893 97be bc15 35bd 9321 04bd 3931 213e
00000060: 574d 10be bbfd 76bd cb83 c23d a945 773c
00000070: 62d0 fa3b a4c1 b13d 1ef6 043d 8fa7 2a3d
00000080: e176 67be 01cb 943d a631 813d 1eb0 2f3e
00000090: 97ab 9b3d 11c0 3bbe 3cb7 85bd a1bd 913d
000000a0: 4d6d 8e3d ec6c 13bd 4388 e8bc e1e2 843b
000000b0: 6d6a 57be a0f3 2d3c fc7d c9bd 1f08 a03d
000000c0: 83b4 b73e 011f e73d f2bd d4bd f85f d1bd
000000d0: daca f8be 0f1b 6c3d 31b1 49bd f840 253d
000000e0: 57a6 6cbd 1285 5f3f dd50 083e f532 f3bc
000000f0: 6736 5a3e 3a08 d03c 662b 1ebd 767a e7bd
00000100: 9a4b 0fbe 8821 df3d f09f e53d 316a 603b
00000110: 5114 20bd 5694 233a 7eaf 903e 0970 64bd
00000120: 094f a0bd 35ed 94bd 28b7 20bd a406 89be
00000130: a708 d3bd d121 bb3e 2e99 0dbd b738 6f3d
00000140: 4282 8a3d 8297 733e 85f6 e03d 1290 403f
00000150: eb8a 5f3e 00d2 f8bc 0c27 0e3d be30 07bd
00000160: 0fe6 643f 0bda 683d dd8b 2e3f baf5 bfbd
00000170: c4ba 4bbd a6d2 f63c dea2 de3d fc8d 07be
00000180: a875 003d 469b bdbb afd4 1c3d ca69 58bd
00000190: 62fb 4ebb e2ed 21bd 5c73 a43d 42bf 3fbd
000001a0: 738e b9bc 92f7 d4bb f524 13bd b58f 663d
000001b0: bf54 9f3d 1d96 50bc 3d4e c1bc 287f 91bd
000001c0: 60f5 e6bd b3a3 833d aff4 04bc 2abf c1bb
000001d0: b5f5 da3d 11b1 b73c 7428 a73b 6a9c 633d
000001e0: 36c5 2b3f 69d1 71bc feff 51bd 225f ee3c
000001f0: fe0b 863d b26f b23d 849f 21bd 8881 b63d
00000200: 3909 dd3e 13e2 743f d394 aa3c e1c5 dfbc
00000210: 206c 98bd 5416 6cbd b02f 813d aa37 ac3a
00000220: 6c27 443c 70d3 a43e ee80 b83c e4c5 45bd
00000230: ff85 f7bd 0580 f7bb 09f5 253e d602 babc
00000240: 83e4 fe3d 6e10 b33c ebda 2b3e 26a2 80be
00000250: 5339 f83c 4f05 d0bb 3440 ae3c 072f a03d
00000260: dbed 52be 0a32 9c3d 2d90 77bd 3a85 e73e
00000270: 455b 493e 2829 3e3f e378 153d ce63 ecbc
00000280: 1324 1ebd 5243 e73a 0ed9 c43d 7a3f 59bd
00000290: 7603 c13d 2b9e 1abd f7d9 fcbc c97b b7bc
000002a0: 42d8 513e 5e76 473d 5843 e13b c425 64bd
000002b0: 6139 193b 05ed 343d caa7 293e be6f 09bd
000002c0: 27d4 403e ecc5 033c 7eb1 f4bd bab7 9e3d
000002d0: d37a 57bc 6c68 e7bd e2e7 a0bd 43fd 073d
000002e0: 0724 01bb 6949 03bd d35d 263e 477e 3b3d
000002f0: ef06 943d 6df3 a4bc 706d 343d 0de5 913e
00000300: 175f 62bd 629c 65bc f9c5 4dbd da7c 97bd
00000310: fb0c 583d 5bf5 9fbd 60fd a13d e847 39bd
00000320: 5f97 f7bc 97b3 5f3d d394 ddbd 4cec 053e
00000330: 0508 c83d 0b23 203c b978 883d 8946 95bd
00000340: 5f29 11bd 548d 573e c383 733d 61f0 753d
00000350: 97bd ffbd 367f 4a3e acc2 b13d 7a9d 2f3e
00000360: 714e 07bd 744c 86bd d847 debd 1d6f 6c3d
00000370: f8d4 f3bc be00 a23d ae00 533b 326e c3bc
00000380: fb75 513e acec 87bd 8071 4fbd 2ca0 923d
00000390: d084 763e 07a4 cabd 99ee 92bc b510 203c
000003a0: 82dc fbbc 6a8a 6dbc 570f fabb 72f9 b73e
000003b0: 54aa aebd d4dc 66bc 5439 d7bc 73ae 8abe
000003c0: 533d 583d aab0 123c b329 d9bd 0f1e 2cbb
000003d0: 0f44 743b 6afe 2c3e 87d9 e33e 79b7 483d
000003e0: 61f5 103e a728 36bd 05e4 91bd 46f4 5b3f
000003f0: 7c56 f7bd 1e98 263c 822b f53e 8f83 773e
-0.07938451 0.033700123 0.1737627 -0.14157394 0.026155468 0.4521289 0.28038028 0.014409082
0.10497917 0.06012991 -0.028066587 -0.15009034 0.055810235 -0.110619485 -0.05485692 -0.035088018
0.07767282 0.1494542 0.3393345 -0.10583294 -0.29604936 -0.04421018 -0.03225858 0.15741433
-0.14092003 -0.06030057 0.09497794 0.015092292 0.0076542357 0.08679512 0.03246128 0.041663703
-0.22603942 0.072652824 0.06308298 0.17157027 0.076010875 -0.18334986 -0.0652909 0.07116247
0.06954441 -0.035992548 -0.028385287 0.0040553664 -0.21036692 0.010617167 -0.09838483 0.07814049
0.35879907 0.112852104 -0.10387792 -0.10223383 -0.48592263 0.057642993 -0.04924125 0.040345162
-0.05777582 0.87312424 0.13312097 -0.029687384 0.21309815 0.025394548 -0.038615607 -0.113026544
-0.13993683 0.108950675 0.11212146 0.0034242983 -0.039081875 0.00062400603 0.2825889 -0.055770908
-0.07827575 -0.07271806 -0.03923717 -0.2676288 -0.10304385 0.36549237 -0.03456991 0.058403697
0.06763126 0.23788264 0.1098452 0.75219834 0.21830337 -0.030373573 0.034705207 -0.03300547
0.8941354 0.056848567 0.68182164 -0.093730405 -0.04973866 0.030129742 0.10870908 -0.13237756
0.031362206 -0.0057863323 0.03828877 -0.052835263 -0.0031582941 -0.039533503 0.080298156 -0.046813257
-0.022650933 -0.0064992392 -0.035923917 0.056289393 0.07779836 -0.012731102 -0.023596877 -0.07104331
-0.1127727 0.064277075 -0.008114978 -0.005912681 0.10691396 0.022423299 0.005101258 0.05556909
0.67097795 -0.0147594 -0.051269524 0.029098097 0.06545256 0.087127104 -0.039458767 0.08911425
0.431711 0.9565746 0.020822918 -0.027316036 -0.07442498 -0.05763848 0.06307924 0.0013139148
0.0119722895 0.32192564 0.022522416 -0.048284426 -0.120861046 -0.007553103 0.16206755 -0.02270643
0.12445929 0.02185842 0.1678273 -0.2512371 0.030300772 -0.006348289 0.021270849 0.0782147
-0.20598547 0.07626732 -0.06044023 0.4521883 0.19663723 0.7428155 0.03649224 -0.028856184
-0.03860862 0.0017643964 0.096117124 -0.05303905 0.09424488 -0.037748497 -0.030865652 -0.022397893
0.20492652 0.048696868 0.006874483 -0.05570008 0.0023380148 0.044171352 0.16567913 -0.03355383
0.1883093 0.008042794 -0.119479164 0.07749887 -0.013151842 -0.11299214 -0.07856728 0.033200514
-0.0019705312 -0.03205243 0.16246729 0.045774724 0.07227885 -0.020135606 0.04404968 0.28495064
-0.055266466 -0.014014335 -0.05023763 -0.073968604 0.052746754 -0.0781047 0.079096556 -0.04523459
-0.030223547 0.05461463 -0.108194016 0.13078421 0.097671546 0.00977398 0.06663651 -0.07288844
-0.035439845 0.21050006 0.05945183 0.060043696 -0.12487333 0.1977509 0.08679709 0.17149916
-0.033033792 -0.06557551 -0.10853547 0.057723153 -0.029764637 0.07910298 0.003219645 -0.023856256
0.20455162 -0.066369385 -0.05064535 0.071594566 0.24074101 -0.09894567 -0.017936038 0.009769608
-0.030744795 -0.0144983325 -0.007631223 0.359325 -0.08528581 -0.014090735 -0.026272453 -0.2708622
0.05279286 0.008953253 -0.106036566 -0.0026263034 0.0037272011 0.16893926 0.44501898 0.0490031
0.14156105 -0.044472363 -0.071235694 0.85919607 -0.120770425 0.0101681035 0.47884756 0.2417128

linear2_q2.weight f4 [256, 256]
00000000: 8caa 073f d12d 96bc bd8e 963e 53e6 983e
00000010: 677e adbd 1b2c bbbc f085 f7be 2a08 753d
00000020: 12a1 2abf 2a84 7dbe 4799 79bd 8c2d c83d
00000030: f432 98be 767a f3bc 3259 4dbd e4c9 b63d
00000040: 3e79 18bc 1995 f7be 1fae f3be 0e5d ee3d
00000050: 0dee bb3e 3c8d 883d 5934 873d 55cc 5fbe
00000060: 615d 073e 5ed3 c63d 815b cabc 49c1 663c
00000070: bfd2 9a3e 97ab af3d 02f0 8b3d c960 60bd
00000080: 016e 6abd 9bea f2bd ff29 a1bc 87eb 91be
00000090: 0fe0 9ebd fe02 e63d 9981 64bc b917 e3bd
000000a0: ff0a 063e 7fc8 e4bb 248f 233d b99b 42be
000000b0: 85fa 6c38 0876 c8bb 19cc c8be 2803 8cbe
000000c0: 8989 6bbd 1df4 93be c533 3c3d 34d1 143e
000000d0: 77b8 033e 8b3d 1c3d 0fc1 d83d 5c50 e53c
000000e0: 3378 5abc 7343 413e fac2 403b 1bc6 663d
000000f0: 2b5c 12bf 9e27 1cbd f64f 9a3d 0379 ce3d
00000100: 3ead 8c3d eecd c93d 3e64 94bc 7a6e 163d
00000110: bb64 f43d 1669 5b3e 57d0 99be fcac 873d
00000120: 053b 1abf 3e84 87bd 9e32 7e3e f049 873c
00000130: d263 ea3e fc09 b8be 41d3 88bd 68fd 8cbd
00000140: 6f95 01be 5e9a 11bf 338e 093d d1f0 3abe
00000150: 4158 9dbe e75f da3e 6c38 223d 3e9e 8b3d
00000160: cd64 e73c e8ea 973c afe9 11bf 39c9 eb3c
00000170: d8c3 4dbd e6f3 09bd 8c5a e83d 47d3 893d
00000180: f196 6e3d 8586 573d d60f ecbc 3e26 80bc
00000190: 023e b43e 2a9a bb3d 0850 c03d 494e 003e
000001a0: 9118 863d 671f 57bd 5ded f83e 6809 973d
000001b0: e907 9e3d e251 233d 26f5 a73d a927 bc3c
000001c0: a2d8 b7be 56bc 6a3d f6f9 553d 240b eb3d
000001d0: b38a af3d 3c15 a33d cc5e 26bd a9e5 babe
000001e0: 61fb e2be 36ea cc3d 032b 813d 5ad9 71bd
000001f0: 3fee c3bd f06f d33e 0660 9b3c 2081 fdbc
00000200: cecb 12bf 51b3 81be fd43 90bd 51b8 03bd
00000210: 8887 513d f1b1 6f3e d3cc 7abc 5187 0ebd
00000220: fdba c8bd a1b4 f2be e530 d33d 7369 76bc
00000230: 2130 233e b7a9 dbbd 3d1a cbbe e064 a43d
00000240: 34b0 1fbd 1b40 b43d be58 23bf 6950 f33e
00000250: a797 cc38 a08e a5bb b379 5abd 9f64 c03d
00000260: c151 d63e 262f e8bc 88e0 c33c 0624 efba
00000270: 25ae ebbc 5e7b 89be 6ad9 c9be 77d9 f33d
00000280: 032c 253e 264e bebe 98c4 83bd 7905 193e
00000290: 08d4 173d 1e4c 193e 705c 3abe 69aa 8abd
000002a0: 76c4 a3bd 29c5 d5bd e76d a8bd dbe6 533e
000002b0: 0471 ff3d 8551 d63c c97f 853e 59c3 883d
000002c0: dc7b 4c3e 1565 05bd 824b 173e 47c6 c2bd
000002d0: 9c21 5bbd 401f 4f3d 4838 2a3d 726d 0bbc
000002e0: 4872 83bd f7ad 073e 3d5e b0be 7893 61bd
000002f0: 28df 71bd 3f16 bc3c 19f4 c6b9 f7e5 e4be
00000300: a2fb 07bd 5e93 8ebe 6619 be3e 6f65 ac3b
00000310: 5540 633d 1bc8 453e 7b60 2f3d 3020 8a3c
00000320: c17a 9e3d 3c4b 173b c92c 883c c3f3 58bf
00000330: 83eb 3bbd 1e94 9e3d 4943 e0bd 1b84 19bd
00000340: f8cd 1e3d 0e51 fbbd 500a ad3c ff75 b43b
00000350: 6a4c eb3d f632 153d ede7 6a3d 144b a43d
00000360: bc1f 773d 1a5d 043e 094c 823d d4fe 823d
00000370: 3baa cb3e efec 16be 3307 ce3e 2205 b3bd
00000380: e28d d03e e085 b13e fb03 0e3e 45be cebd
00000390: 9765 06bd 5a42 8dbd 62f7 c33d c108 abbd
000003a0: ef3d 833d f50e 93bd a2a9 adbd 86c3 39be
000003b0: c227 cabc 376e a0be 6bdf e33c 2f9d f43e
000003c0: dc3e 3b3d 259a 9e3c 7353 3c3d 30cd acbb
000003d0: 142d 1e3e b55f 5cbe 2119 01bf 400b a9bd
000003e0: 082d e93e 1764 3fbe 527c 3a3d 6392 62bd
000003f0: 6489 a23c e260 15bd 9869 32bd 5333 47be
0.5299461 -0.018332394 0.29405776 0.29863223 -0.08471375 -0.02284818 -0.48344374 0.05982224
-0.66652024 -0.24757448 -0.060937192 0.097743124 -0.29726374 -0.02972148 -0.05013389 0.08925226
-0.00930625 -0.4835594 -0.4759378 0.116388425 0.36705056 0.06667563 0.066017814 -0.2185529
0.13219215 0.09708284 -0.024701836 0.014084169 0.30238912 0.0857765 0.06832887 -0.0547798
-0.057233814 -0.11861154 -0.019673346 -0.28500006 -0.077575795 0.112310395 -0.013946914 -0.11088509
0.13090132 -0.006981909 0.03993143 -0.19004716 5.65001e-05 -0.006117586 -0.39218214 -0.27346158
-0.05750421 -0.2889718 0.04594781 0.1453293 0.12863337 0.03814463 0.10583698 0.02799242
-0.013334322 0.18873386 0.002941309 0.05634127 -0.5717189 -0.03812372 0.075347826 0.10081675
0.06868981 0.09853731 -0.018114205 0.036726452 0.11933275 0.21426806 -0.30041763 0.06624791
-0.60246307 -0.0661702 0.24823996 0.016514748 0.45779282 -0.35945117 -0.066809185 -0.06884271
-0.1265466 -0.5687617 0.033582877 -0.18255927 -0.30731395 0.42651293 0.03960459 0.06817292
0.028246308 0.01854463 -0.569972 0.028782474 -0.0502356 -0.033679865 0.113453954 0.06729751
0.058249418 0.052618522 -0.028816145 -0.015643235 0.35203558 0.09160264 0.09390265 0.12529863
0.065476544 -0.052520182 0.48618594 0.07374841 0.077163525 0.03987301 0.08201055 0.02296813
-0.35907465 0.057308517 0.052240334 0.11476734 0.08571377 0.079630345 -0.04061775 -0.36503342
-0.44332412 0.1000561 0.06307032 -0.059045173 -0.09566926 0.4129634 0.018966686 -0.03094536
-0.5734223 -0.2533212 -0.07044218 -0.0321582 0.051154643 0.23407723 -0.015307623 -0.034797017
-0.0980129 -0.47403434 0.1031206 -0.0150397895 0.15936328 -0.1072573 -0.39668456 0.08027053
-0.0389864 0.0880129 -0.63807285 0.47522286 9.7557255e-05 -0.0050524026 -0.053338718 0.09394192
0.41859248 -0.028342795 0.023910776 -0.0018244989 -0.028769562 -0.26851934 -0.39423686 0.119067125
0.1613007 -0.37168998 -0.06433982 0.14943494 0.037067443 0.14970443 -0.18199325 -0.067707844
-0.07996456 -0.10437996 -0.08224087 0.20693533 0.12472728 0.026161918 0.26074055 0.066778846
0.19969124 -0.032567102 0.14774898 -0.09510475 -0.05349885 0.05056691 0.04155758 -0.0085099805
-0.06418282 0.13249956 -0.34446898 -0.055072278 -0.05905071 0.022959827 -0.0003794737 -0.447067
-0.03319896 -0.27846807 0.37128752 0.0052611153 0.055481274 0.19314615 0.04281662 0.016861051
0.07738257 0.0023085615 0.016622918 -0.8474695 -0.0458789 0.07743095 -0.109503336 -0.0374795
0.038770646 -0.12271319 0.021123081 0.0055072303 0.11489184 0.036425553 0.057350088 0.080221325
0.060333 0.1292614 0.06362159 0.06396261 0.39778313 -0.1473882 0.40239868 -0.087412134
0.40733248 0.3467245 0.13868706 -0.10094885 -0.032811727 -0.06897421 0.09568669 -0.08351279
0.06408297 -0.07180587 -0.084796205 -0.18140993 -0.024677161 -0.31334087 0.027816495 0.47776172
0.045714244 0.019360611 0.04597802 -0.0052734837 0.15446883 -0.21520884 -0.5042897 -0.08254099
0.4554217 -0.18690525 0.045528717 -0.055315387 0.019840904 -0.036469348 -0.043557733 -0.19453172
