hydrone_aerial_underwater_ddpg/scripts/Models/sac_stage_2_sub2D_tanh_3layers/2420_policy_net.pth (torch_old, 294219 bytes, 8 tensors)

linear1.weight f4 [256, 24]
000000 a5 30 75 3e 72 2e c0 3e 92 1b 60 bc fc 15 f1 3c
       0.23944338 0.37535435 -0.013678448 0.029429428
000010 bb c1 7b 3d 24 ae 23 3e a6 fc 92 bd 35 40 48 3a
       0.061464053 0.15984398 -0.07177095 0.0007638962
000020 13 01 64 3e 6f 6c 87 bd ab 89 37 be be 02 3a be
       0.22266035 -0.06612479 -0.1792361 -0.18165109
000030 cf fb 54 be 8e 0d 91 be a7 76 a5 bd 3c 84 ff bd
       -0.20799182 -0.28330654 -0.08079272 -0.124763936
000040 e7 b6 e9 3d 3f 39 60 be d3 6c 17 bc e6 b9 65 3e
       0.11411839 -0.21896838 -0.009242254 0.22434196
000050 df e8 63 3e b7 1e 9c 3d 5e 8f 00 40 56 6e 26 bf
       0.22256802 0.07623046 2.0087504 -0.6501211
000060 8a 87 8f 3c 6a e0 ae 3d f0 4c 89 bd 5d 72 d2 3d
       0.017520685 0.08538897 -0.06704128 0.10275719
000070 b0 c1 8a 3d 83 bf 3d 3e 7e 82 e6 3d 4a 4b 90 3d
       0.06775224 0.18530087 0.11255358 0.0704561
000080 9e 38 02 be c1 f5 81 3d 2f cb 49 be d2 1f 5d 3e
       -0.1271691 0.06345702 -0.19706415 0.2159417
000090 a4 b6 98 3c f5 9b 6d be 41 f7 6f be 31 23 12 3b
       0.018641777 -0.23204024 -0.23434164 0.0022298808
0000a0 95 07 2b be 7c 48 93 be 4b 0e 42 be 8b aa e7 3c
       -0.16702111 -0.2876624 -0.18950765 0.028279563
0000b0 34 32 0c 3e 40 da 6b 3d 64 53 a9 3f 74 4c a8 3f
       0.13691026 0.057581186 1.3228574 1.3148332
0000c0 66 54 b3 3d 04 88 e4 be 08 85 75 3e 96 b5 ef 3b
       0.08756332 -0.44635022 0.23976529 0.007315348
0000d0 83 80 5d bd d7 59 1c be d9 4a 27 be fe 37 73 3e
       -0.054077636 -0.15268646 -0.16337146 0.23751828
0000e0 ad 0e 80 be 7c ad 58 be b2 f7 c4 3c a9 da 90 3c
       -0.25011197 -0.21159929 0.024043892 0.01768239
0000f0 b5 5a 15 be d3 78 8c be 07 15 af bd 70 c3 64 be
       -0.14585383 -0.27435932 -0.085489325 -0.22340178
000100 8f d2 ac be dc 43 b7 bc 46 df c6 3e b3 8f a0 3e
       -0.33754393 -0.022371225 0.3884222 0.31359634
000110 dc 58 06 be ea f2 af 3e 0b 2a b3 3f 2f 5c 2a bf
       -0.13119835 0.34365016 1.3997205 -0.6654691
000120 79 4d 7b be 6c 64 58 be 06 6f f0 be 12 7d 33 3e
       -0.24541272 -0.21132058 -0.46959704 0.1752818
000130 6e ae b5 3d 89 07 89 bd 3b ea 18 be d3 4e 71 be
       0.088711604 -0.0669089 -0.14933102 -0.23565225
000140 b1 2b 21 be fe fb 9d 3d 81 cc 8d 3e 54 77 02 3f
       -0.15739323 0.07714079 0.27695087 0.5096333
000150 77 b5 79 bd 5d 2d 8d bd 4d 87 94 be ea a2 35 be
       -0.060964074 -0.06893418 -0.29009476 -0.17737928
000160 4b bf 12 be aa 57 75 3e cd 8a bc be c8 39 6d 3e
       -0.14330785 0.23959222 -0.36824647 0.23166573
000170 86 1e 9d 3e fb 89 8e bf 41 f0 a4 bf 36 2d bd be
       0.3068735 -1.1135858 -1.288582 -0.36948556
000180 51 5a 56 3d 26 32 2b be 6f 28 36 bd 99 7a 59 3a
       0.052332226 -0.16718349 -0.044472154 0.00082961615
000190 71 f2 aa bd a4 33 1c 3e d8 8b 3d 3e 25 b6 73 3c
       -0.08347023 0.15254074 0.18510377 0.01487497
0001a0 03 f8 eb bb c0 09 77 bd dd 02 51 be 85 e1 b5 3d
       -0.007201196 -0.060312033 -0.20411249 0.08880905
0001b0 25 3a ba bd 3a 98 ec 3c 0a 25 ef 3d 83 a9 03 be
       -0.090931214 0.028881181 0.116769865 -0.12857632
0001c0 5f 5a 09 be a8 c4 83 3d d2 a9 79 be 1e 6a b2 be
       -0.1341338 0.064339936 -0.24381188 -0.34846586
0001d0 44 5f a3 be 74 af 45 be f0 29 3b c0 ba a6 5a 3f
       -0.3190862 -0.19305211 -2.9244347 0.85410655
0001e0 e5 97 1f 3e 96 e4 0c bd ea 04 05 3e bb f4 de bb
       0.15585287 -0.034397684 0.12990156 -0.0068040765
0001f0 65 99 29 3d 60 22 d0 3d e6 cc 64 bd 3c 98 b0 bd
       0.041406054 0.101628065 -0.05585947 -0.086227864
000200 3e 3f 8e bc e3 91 12 3e 4f cc fb 3d 01 30 eb bc
       -0.01736414 0.14313464 0.12294828 -0.028709413
000210 ca 9f 3e 3d 66 68 d5 bd 9f 12 dc bd c1 4d b5 3d
       0.046539105 -0.10420303 -0.10745739 0.08852721
000220 30 7f 4b be 2b 6c 1d be cd 59 93 bb 3e ce c9 bb
       -0.19872737 -0.15373294 -0.004496789 -0.006158619
000230 1c f4 ce be d1 af 35 3f a8 a6 aa 3f 13 f3 85 bf
       -0.40420616 0.709714 1.333211 -1.0464805
000240 4e a8 f6 bd 11 79 d4 3d bc 08 62 3c 93 49 42 bd
       -0.1204382 0.10374654 0.013796028 -0.047433447
000250 c1 c0 b5 be 4a bf c9 3d d5 5f 66 be 3f de 85 be
       -0.35498622 0.098509386 -0.22497495 -0.26146123
000260 16 78 3e be bd b4 8b bb 67 07 12 bf d7 5c 4b be
       -0.18600497 -0.004263489 -0.57042545 -0.19859634
000270 cf 69 c4 be d6 b7 2f 3e 63 73 da bd 3a 8a e0 3d
       -0.38361976 0.17159972 -0.106665395 0.109638646
000280 37 7e a1 3e 63 cf 2f 3c 9a af 5f 3e f4 fc d7 3e
       0.31541607 0.010730597 0.2184433 0.42185175
000290 65 5f 3b 3e b9 36 ad be e2 c0 f5 be 19 3c 06 3f
       0.18298109 -0.33830813 -0.4799872 0.5243545
0002a0 81 c9 6c 3c 59 bd e7 3d 7a 58 e1 bd a8 6a a6 bd
       0.014452339 0.11315412 -0.11003204 -0.08125812
0002b0 99 8d 26 bd a4 ac 5b be 60 1f 27 be 9b 70 76 be
       -0.04066238 -0.21452576 -0.16320562 -0.24066393
0002c0 1b b5 14 3d 70 d9 e6 bd b0 f6 28 be fd 00 b5 bd
       0.036305528 -0.11271942 -0.16500354 -0.08838079
0002d0 63 8b 9e 3d f1 b4 32 3e 4b 53 90 3d 4e 83 59 3d
       0.0774143 0.17451836 0.07047137 0.053103738
0002e0 3d 59 2d 3c 12 c6 42 3e ef e7 0e 3e be f9 17 3e
       0.010580358 0.1902087 0.13955663 0.14841363
0002f0 ee aa 88 bd 50 c5 33 3f 79 c5 0e 40 29 3d f4 be
       -0.06673227 0.7022295 2.2308028 -0.47702911
000300 cc c5 5f 3e 59 06 9b 3d 7c 02 b3 3d 61 c8 d1 ba
       0.21852797 0.0756957 0.08740708 -0.0016005152
000310 3b ec 60 3e 6f 6d 04 be 79 86 8c 3d a7 43 43 bd
       0.21965115 -0.1293237 0.06861586 -0.04767194
000320 42 f2 06 be 3d c6 16 be 00 19 dd 3d 1f b3 5b bd
       -0.13178352 -0.1472406 0.10795784 -0.05363762
000330 54 12 5d 3d 07 b1 50 be cf 31 c1 bc 57 31 b3 be
       0.053972557 -0.2038003 -0.02358332 -0.3499858
000340 b1 15 33 be 82 6f bf bd cf e9 01 3e fe a9 6d 3d
       -0.17488743 -0.0934744 0.12686847 0.058023445
000350 60 64 94 bf 68 cd dc bf 4f ee 9d 3e 61 99 45 bf
       -1.1593132 -1.7250185 0.30845878 -0.7718716
000360 22 eb f2 3d 43 f8 81 3d f1 f2 e7 3c dd 37 49 3d
       0.11861254 0.0634618 0.028314086 0.04912554
000370 45 37 28 3c 52 7d d3 3d e0 ed 05 3e 72 5d 58 be
       0.0102670835 0.10326637 0.13079023 -0.21129397
000380 47 81 2c 3d b8 e5 59 3e 89 b8 71 3e e2 42 af bd
       0.042115476 0.21279037 0.23605551 -0.08557679
000390 60 d2 9a 3d dd 86 87 be ac 9c ac be c8 c3 d2 be
       0.07559657 -0.2647008 -0.3371328 -0.41164994
0003a0 a8 78 cf bd a6 68 04 be 20 97 00 3e e8 97 02 3e
       -0.10130435 -0.12930545 0.1255765 0.1275326
0003b0 23 dd 06 3f 91 9d 91 be b8 a1 d9 3e 1e f9 f3 3e
       0.5268118 -0.28440526 0.42506194 0.47651
0003c0 76 22 99 3e de 4d 53 bd 0f dc 02 3b 62 d7 4e 3e
       0.29909104 -0.05158793 0.001996759 0.2019935
0003d0 eb 95 45 be 2a e9 01 bd 0f 63 ee 3c a4 cc c0 3d
       -0.1929547 -0.031716503 0.02909997 0.09414032
0003e0 c2 8f 73 3e 18 29 15 3a 0a e2 86 bc 42 55 51 3e
       0.23785308 0.00056900224 -0.016465206 0.2044268
0003f0 b1 8b 40 be bd 34 a8 bd 10 3a 95 be 4c 73 3c 3e
       -0.18803288 -0.08213184 -0.2914586 0.18403357

linear1.bias f4 [256]
000000 26 fa 27 be 56 38 2e 3f 8c 51 c1 bc 5f ec b3 3d
       -0.16404018 0.6805471 -0.023598455 0.087853186
000010 3a dc 03 bf 06 10 31 3e c0 5a 3e 3f 9e f2 9a 3e
       -0.51507914 0.17291269 0.74357224 0.30263227
000020 5d 64 9d 3e 51 ee ef be 23 a8 b3 3e 7c 31 44 3f
       0.30740634 -0.46861508 0.35089216 0.7663801
000030 d6 23 d2 3d ed 4d 87 3e 36 b9 4a 3e 4f 70 10 bd
       0.102607414 0.2642664 0.19797215 -0.035263356
000040 c9 a8 46 bf 5f e6 aa 3e c9 75 fa 3e ed 80 17 bf
       -0.77601296 0.33378884 0.48917988 -0.591811
000050 7b e5 36 3f 48 71 99 ba 9f 37 e7 3c f5 7d 71 bf
       0.7144391 -0.0011706734 0.028224764 -0.9433282
000060 28 1f 62 3e 6c 0b bb be ab c7 2b be da bd 11 bc
       0.22082198 -0.36532152 -0.16775386 -0.008895362
000070 af eb 10 bf 4f 70 0f 3e ae 82 6e bd 4b 54 0f 3e
       -0.56609625 0.14007686 -0.058230095 0.13996999
000080 65 99 31 3f 45 08 26 be 83 0a 06 be e8 da c2 3e
       0.69374686 -0.16214092 -0.13089947 0.38057637
000090 37 7b 50 3e aa 2d 0d bf b6 0e bd 3d 33 66 7d bc
       0.20359503 -0.551478 0.092313215 -0.015466261
0000a0 d1 3e 42 3f 1b cd b3 3e 70 8c 57 3f 58 c3 3e bb
       0.758771 0.3511742 0.84198666 -0.0029108133
0000b0 a1 ca 16 3e 50 77 92 be ad f1 44 bf 75 f2 ac 3f
       0.14725734 -0.28606653 -0.7693127 1.3511492
0000c0 4a 2e a3 bf da db 6b 3d 53 4d 1e be d5 f8 82 3d
       -1.2748501 0.057582714 -0.15459184 0.06395117
0000d0 78 48 1e 3e cc 1b 92 bf 4c 0c c3 3d 4b 23 be be
       0.15457332 -1.1414733 0.0952383 -0.371363
0000e0 f4 e7 92 3e d3 f7 8a 3e 8b 8d b1 3e 0c ae 26 3e
       0.2869259 0.271422 0.346783 0.16277331
0000f0 32 ba c7 3e fb 67 ad 3e 93 ba ac be 5f 31 8f be
       0.39009243 0.33868393 -0.33736095 -0.27967355
000100 05 5a 50 3f 5d 8e 81 be e1 a2 05 3f e2 91 9d 3e
       0.8138736 -0.25303927 0.5220166 0.30775362
000110 37 bd 1c be 8c 58 25 3f 50 9f 8b be 71 b5 27 bd
       -0.15306555 0.64588237 -0.27269983 -0.04094452
000120 22 43 3c 3f 12 b8 3c bd 1c aa 27 be f4 07 08 3f
       0.73539937 -0.04607398 -0.16373485 0.53137136
000130 f3 88 c8 3d 60 10 87 3e 24 2f 81 be 76 fe d1 be
       0.09791746 0.2637968 -0.25231278 -0.4101445
000140 da 3e 8d bd af 35 b8 be a8 6e bb bd a2 03 94 be
       -0.068967536 -0.35978457 -0.091519654 -0.28909022
000150 fb 05 d1 be cb b7 49 3f 97 40 92 3f b0 63 0f bf
       -0.40824875 0.7879607 1.1425961 -0.56011486
000160 d7 a3 40 bc 62 2e 5a bb cc 04 b5 be 81 6a ed 3e
       -0.011757812 -0.0033291806 -0.35355222 0.4637032
000170 d5 20 84 be f2 cc 86 ba 39 b5 62 be 0f 95 5e 3d
       -0.258063 -0.0010284467 -0.22139443 0.054341372
000180 d2 48 1b 3e c7 5b 5b 3f eb e4 fe be 5a f8 12 3e
       0.15164497 0.85686916 -0.49784026 0.14352551
000190 4f 9c 0b 3e c0 1e 0c be 0b 09 08 bf 29 e8 d2 be
       0.13633846 -0.13683605 -0.531388 -0.4119275
0001a0 6e cc f0 be f1 53 52 bc ef ce d4 bd 8d 70 84 bd
       -0.47030967 -0.012837396 -0.10391032 -0.0646678
0001b0 d7 02 81 3e a9 89 8a 3f 4f a5 12 3f 6a bc a0 3e
       0.2519748 1.082326 0.5728349 0.3139375
0001c0 b2 ee 81 bd 69 44 5a 3f 06 2b 26 bd d7 ca a0 3e
       -0.06344356 0.85260636 -0.040568374 0.31404755
0001d0 4a b6 00 3d 57 37 33 bd 04 46 43 bd 2b 31 10 3e
       0.031423844 -0.043753948 -0.047674194 0.14081256
0001e0 11 d2 28 3f e9 ce 28 bd 3b 48 45 bf 94 77 3c 3e
       0.65945536 -0.04121295 -0.7706334 0.1840499
0001f0 72 43 c3 bd b3 01 f5 3e 02 94 b5 3e 7c 4c 7d bf
       -0.095343485 0.4785286 0.35464483 -0.9894483
000200 8b 0c 4d bf d2 38 04 3f c2 87 82 3e a2 19 0f 3e
       -0.80097264 0.516492 0.254942 0.13974622
000210 fb 52 5d bc cf fc 63 be 40 28 15 3f cb 2d 01 3e
       -0.013508554 -0.22264408 0.5826454 0.12615125
000220 db 99 77 3e bc 3f 8c 3e 60 1f cf 3e 7b e0 9a 3d
       0.24179785 0.27392375 0.40453625 0.075623475
000230 ae 99 9e bd 83 ac cb bc 9b 98 41 be 6e df e6 3e
       -0.07744156 -0.024862533 -0.1890587 0.45092338
000240 1f 97 08 bf 88 a6 42 3e 57 e2 4a 3f 92 2d 9e bd
       -0.5335559 0.19008839 0.7925162 -0.077235356
000250 ca 15 31 3f 9a b5 a1 ba 73 d6 a7 3e 2b 78 df 3d
       0.6917387 -0.0012337447 0.327808 0.10911592
000260 ec 09 09 bf 68 fc 16 bf b5 a5 97 be ba 82 5b bd
       -0.53530765 -0.5897889 -0.29618612 -0.053591467
000270 e0 e1 1b 3d a1 85 70 be 67 f6 61 be 4b 62 83 bf
       0.038057208 -0.23488475 -0.22066651 -1.0264372
000280 4c 6c 00 bd 51 52 67 3f 88 77 0f bf 9f fc f1 3d
       -0.03135328 0.9035998 -0.56041765 0.11815762
000290 da d2 37 be c0 ce 47 be 46 20 89 be 0f 27 69 3f
       -0.17951527 -0.19512463 -0.26782435 0.91075224
0002a0 f1 5f ff 3e 4c f7 b9 be 73 3d 2c be 6a cc f9 3d
       0.49877885 -0.36321485 -0.16820316 0.12197192
0002b0 7a 19 6c be a0 e0 80 be a2 ee 6a be e7 1d 13 bf
       -0.23056594 -0.25171375 -0.22942594 -0.574675
0002c0 b7 66 2e 3c b2 d8 b5 3e f9 b6 52 3e 91 c4 63 bf
       0.010644606 0.35516888 0.20577611 -0.8897181
0002d0 80 95 1b 3e c7 f9 d3 be 0a 85 99 3e 0f 3f 34 3f
       0.15193748 -0.41401502 0.29984313 0.7040872
0002e0 3a 7e 29 3e d0 59 98 3e f6 24 90 bf 64 67 7b be
       0.16552058 0.29756021 -1.126128 -0.24551159
0002f0 a0 e9 4b bf 8e 6d 4d 3f 93 55 db 3e 78 20 ae 3e
       -0.7965336 0.8024529 0.42838725 0.34009147
000300 d3 09 36 3e a6 6d 6e 3c 09 67 a8 bd d9 26 01 bd
       0.17777185 0.014552509 -0.082227774 -0.03153119
000310 e8 c5 fd 3e eb 81 bc 3e af 58 5d 3d b0 c2 1a 3f
       0.49565053 0.3681787 0.054039653 0.6045332
000320 05 0b 8b 3d 91 9e a3 bc c1 a2 9b 3d d1 24 61 be
       0.06789211 -0.019973071 0.07599402 -0.219867
000330 6a 25 18 3e bb 87 5c 3e 61 b1 e9 3e 07 d9 bd 3e
       0.14858022 0.21536152 0.45643142 0.3707964
000340 95 35 ed 3c 1e 29 ac 3d 96 4f 17 bf 24 d2 2c be
       0.028956214 0.0840628 -0.59105814 -0.16877037
000350 1d 98 aa be a2 d8 51 be 16 96 44 3e 89 72 b3 bd
       -0.33319178 -0.20492795 0.19197878 -0.0876208
000360 d2 3e 10 bf d0 12 bc bb 39 ea f7 be 5c 20 e0 bc
       -0.56345856 -0.0057395473 -0.48420885 -0.02735918
000370 7d e0 d2 bd f8 eb 91 bf 29 d0 81 be b8 34 9a be
       -0.10296724 -1.1400137 -0.25354126 -0.30118346
000380 6f e8 1d 3f 0a 77 86 3d ea 99 0f 3f 79 99 50 bf
       0.6168279 0.06565674 0.5609423 -0.8148418
000390 4f 95 da 3b ce ff 1e 3d 87 8f 01 3f d2 79 12 bf
       0.006670631 0.038818173 0.5060963 -0.57217133
0003a0 3d 2a d1 3d b0 79 19 bd df 73 cb bc b7 64 72 3d
       0.102131344 -0.037469566 -0.024835525 0.05917808
0003b0 a1 f6 97 bd 1a e3 be 3e c1 82 a6 3f a8 b1 3a bf
       -0.074200876 0.3728264 1.3008653 -0.7292733
0003c0 fa d5 ed 3e c3 13 33 3f a9 85 a7 3e 13 44 d6 be
       0.46452314 0.6995203 0.32719162 -0.41848812
0003d0 fc dc 02 be 1e c4 ad 3d c1 39 da 3e 08 5a d3 be
       -0.12779611 0.08484672 0.42622188 -0.41279626
0003e0 9b 47 c3 bd ef da cf 3d eb d2 40 bc 29 5b c4 be
       -0.09535142 0.1014918 -0.011769037 -0.383508
0003f0 6f 23 e4 bd d7 e7 7d 3e 24 90 a9 3d 5f 68 09 3e
       -0.11139571 0.24795471 0.08279446 0.1341872

linear2.weight f4 [256, 256]
000000 d0 dc a1 3e 26 7e ee 3e 98 f9 f2 3e ee 8c 1e 3e
       0.3161378 0.4658062 0.4745605 0.15483448
000010 1e 3e 16 bf bd 4a 44 bc 3e aa 35 3f a4 de a3 3e
       -0.58688533 -0.01198071 0.70962894 0.320058
000020 ed dc c6 3b 27 a3 22 3d bf 0c a8 be 82 e2 a6 3e
       0.006068817 0.039706375 -0.32822224 0.32594687
000030 79 7a a0 be 7b 8b fd be c4 33 8b be d3 94 dc 3e
       -0.3134344 -0.49520478 -0.27187932 0.43082294
000040 ff d8 de bf 12 78 c9 be 29 c8 4c be 6a 5c 19 bf
       -1.7409972 -0.3934942 -0.1999823 -0.5990664
000050 c1 59 f9 3d b8 cc c0 3e e0 72 91 bd a4 14 fe 3c
       0.12175322 0.37656188 -0.07101989 0.031015702
000060 eb d8 4c bf 18 ff 32 3e c5 ab 8a be 4a 84 76 bc
       -0.8001849 0.17480123 -0.27084175 -0.015046189
000070 24 f5 49 be f0 6e 09 bf a8 52 f6 bd 02 c5 55 bf
       -0.1972242 -0.536849 -0.12027484 -0.83503735
000080 e4 38 c2 bd 83 ea fe be 3a cb 85 3e d4 4d f2 bd
       -0.09483507 -0.49788293 0.26131612 -0.11831251
000090 26 6b 4f bf f1 29 01 bf cc c8 13 3e 9d 54 b5 be
       -0.8102287 -0.5045462 0.14432067 -0.35416117
0000a0 a3 45 52 bf 7e a2 6b 3c d2 90 24 bf 08 2e 5f bf
       -0.8213751 0.014382003 -0.6428348 -0.87179613
0000b0 53 c2 8d be b1 77 65 be 72 7b 1b 3e 2f d2 ca bd
       -0.2768732 -0.2240894 0.1518381 -0.099033706
0000c0 b1 c1 9b be 37 39 ee bd 87 8a 73 3e b3 51 0e 3e
       -0.30421212 -0.116320066 0.23783313 0.13898353
0000d0 a7 01 03 3d c2 60 52 be 2a 68 c9 be a4 65 81 bf
       0.031983998 -0.20544723 -0.39337283 -1.0109143
0000e0 db 8d d8 3d 55 f9 3f 3e df 69 7f bf b7 08 dd be
       0.10573932 0.18747456 -0.9977092 -0.4317071
0000f0 38 bc 3a bf 40 11 c2 be 5a c3 3c bf b3 fa a0 3e
       -0.7294345 -0.37903786 -0.7373558 0.31441268
000100 0b e0 4e 3e 50 e6 44 3f c7 0c 07 3c 65 2c 68 be
       0.20202653 0.7691393 0.008242792 -0.22673185
000110 38 05 86 3e 55 66 4e bf c3 29 c3 3d 41 1e 6f 3d
       0.26175857 -0.80624896 0.0952945 0.05837846
000120 43 6e 75 bf 70 80 54 3e b8 0d 0a bf de 1a 26 bf
       -0.9587137 0.2075212 -0.53927183 -0.64884746
000130 34 43 30 be 1b 23 aa be a8 7a 64 bf 04 01 03 be
       -0.17213136 -0.33229908 -0.8924966 -0.12793356
000140 f7 51 40 bf 01 ac 99 bd 40 74 c6 bc 9a 96 e9 3e
       -0.7512507 -0.0750351 -0.024225354 0.45622712
000150 ba f2 d1 3d 8d e6 06 3e af fb a4 bd d4 f0 3a bf
       0.102513745 0.13173886 -0.08055817 -0.73023725
000160 49 3c 73 bf 6b 9b e6 3e 74 c2 cc bd 04 3c 9a be
       -0.9501386 0.4504045 -0.099980265 -0.30123913
000170 91 71 79 3e c6 94 ce be 3c cb 11 3e 17 0b 4e bf
       0.24359728 -0.4034788 0.14237684 -0.8048567
000180 38 d2 05 bf 9e db 22 3e 30 61 1e 3e 79 95 b2 be
       -0.52273893 0.1590409 0.15466762 -0.34879664
000190 96 d4 be be 3f cb 2f bf b8 3c 27 be 62 21 54 be
       -0.37271565 -0.68669504 -0.16331756 -0.2071586
0001a0 9f 49 38 bf a2 f7 1a bf ed a5 a6 bf 9e 51 4c bf
       -0.71987337 -0.6053411 -1.3019387 -0.7981204
0001b0 c5 a8 8b be 65 55 ba be b4 58 b3 bf ff 61 a5 be
       -0.27277198 -0.36393276 -1.4011445 -0.32301328
0001c0 1c 4f a3 be 9a 79 d4 bd 9f 4c 49 3f 57 0d ce be
       -0.31896293 -0.10374756 0.7863254 -0.40244552
0001d0 80 83 37 be 3a ed 90 3e 62 26 e0 bc bb 62 17 bf
       -0.17921257 0.2830599 -0.027362052 -0.59135026
0001e0 d2 23 90 bd b9 69 f4 3d ab c2 0b ba 6a f3 1f 3f
       -0.07038082 0.119342275 -0.0005331437 0.62480795
0001f0 6f 62 8b 3e 0c 86 27 bf 02 a3 e1 3e ea a9 8e be
       0.27223536 -0.65438914 0.44069678 -0.2786401
000200 bc 14 74 bd 90 87 0f 3e 69 51 02 bd bc e8 bf be
       -0.059590086 0.14016557 -0.03181592 -0.3748225
000210 9f f8 47 bf 35 1e 0b 3d 6f cd 6e bf 93 f4 20 bf
       -0.7811374 0.033964355 -0.93282217 -0.6287319
000220 8e 79 6d be cd b6 33 3e fd 6f 70 bd f5 39 17 3e
       -0.231909 0.17550202 -0.05870055 0.14768203
000230 99 7b 07 bf dc 93 b2 bd 4c 7b 0d be 94 f9 ef bd
       -0.5292297 -0.08719608 -0.13816565 -0.11717525
000240 76 d8 11 bf 38 8d a5 be 7e 5b 1b 3e 3a d6 33 bf
       -0.5697092 -0.32334304 0.1517162 -0.7024876
000250 80 5f 33 bf 25 68 12 3f fd 30 d8 3d 4d b9 86 be
       -0.70067596 0.5719016 0.10556219 -0.26313248
000260 9a 02 a8 3b 44 fd 1e bf 9b 93 53 bc 16 8a aa 3e
       0.0051272633 -0.621052 -0.01291361 0.33308476
000270 95 e4 12 bf 8d f2 5f 3e f6 84 01 3f 55 6e 5e 3d
       -0.5738004 0.2186987 0.5059351 0.05430444
000280 06 2b d6 3c b3 70 dd be a2 fe c9 3d bb d5 0c 3e
       0.026143562 -0.43250045 0.098630205 0.13753407
000290 41 f6 3e be ad 17 e1 bc 76 fb ba 3c 9b 1b a2 bd
       -0.18648626 -0.02747711 0.022824984 -0.079154216
0002a0 4f 42 94 3f 4b ad 07 bd bd 3b eb be 02 0e cc be
       1.1582736 -0.03312425 -0.45944014 -0.39854437
0002b0 09 3e 84 3c 6c 87 0f bf ff 90 53 bf 97 89 85 bd
       0.016142862 -0.5606601 -0.8264312 -0.06520384
0002c0 33 bc 8b bd e2 92 eb 3d e0 01 14 bf 7b 6a 45 3d
       -0.068230055 0.11502625 -0.5781536 0.04819725
0002d0 79 09 0d 39 c1 4a 61 bd fc 40 1d 3f d3 b9 61 bf
       0.00013450337 -0.05500293 0.61427283 -0.8817417
0002e0 5b 97 1d bf 96 61 ed 3e 35 09 60 3e 0f cf d7 3e
       -0.61559075 0.46363515 0.21878512 0.4215016
0002f0 07 9e c5 3e c2 48 75 3e bf 4e 7f 3e 3a a2 10 bf
       0.38597128 0.23953536 0.24932383 -0.5649754
000300 9e 69 a9 be fd 41 fe be 13 85 91 be d7 7d 2c bf
       -0.33088392 -0.4965972 -0.2842184 -0.67379516
000310 67 7d 1b bd 13 44 e4 3e 79 76 15 bf dc 41 ee 3d
       -0.03796139 0.44583187 -0.583839 0.116336554
000320 41 72 06 bf a0 09 75 bf 27 c6 17 bf 9d 21 da be
       -0.5251809 -0.9571781 -0.5928673 -0.4260377
000330 b0 1e 57 bf 38 1f af be 85 85 bc 3c ce d5 88 bd
       -0.840312 -0.34203506 0.023012886 -0.06681405
000340 8c 6a 9c bf 67 24 58 3e 73 8f d8 bd 08 d4 5a 3c
       -1.2220016 0.21107636 -0.10574236 0.013356216
000350 6b fa 71 be 36 cf 7d bf 35 93 0d bf 01 f0 a1 be
       -0.23630683 -0.99144304 -0.55302745 -0.3162842
000360 66 c9 03 bf 22 bb b0 be a3 fe f5 bd 0a 7c 0f bf
       -0.51479185 -0.3451777 -0.12011459 -0.56048644
000370 e3 4b 2d bc eb 8e c3 be a6 f6 15 bf e2 ea ac be
       -0.010577175 -0.38194975 -0.5857948 -0.3377295
000380 1b 13 5d 3e f9 61 5c be 5b 13 9c be a0 0e 9d be
       0.2158932 -0.21521749 -0.30483517 -0.3067522
000390 7c 51 23 be 89 bf 2c be 79 4c 9b 3e f4 14 32 be
       -0.15949053 -0.1686994 0.30331782 -0.17390805
0003a0 16 4b e1 be 51 54 9e 3d 0b cc c9 3d 14 a1 62 bf
       -0.440026 0.07730926 0.09853371 -0.88527036
0003b0 e4 b1 aa bd 35 c6 29 bd 16 22 0e 3b a5 88 14 be
       -0.08334711 -0.04144879 0.0021687797 -0.14505251
0003c0 a2 e9 b6 be 92 fa 99 bf 06 31 90 3d a9 3f 93 3e
       -0.35725123 -1.2029593 0.070406005 0.28759506
0003d0 14 0c 8c 39 fe d0 ab bd 72 d7 34 bf fd fc ed bd
       0.0002671188 -0.083894715 -0.70641243 -0.11620519
0003e0 89 7f 0a bf ae 8e 51 3e dc cf cc be a4 ce 03 3d
       -0.54100853 0.20464584 -0.40002334 0.03217949
0003f0 13 32 bc be eb 8c 5a bf c6 86 9b be 94 3c 76 3f
       -0.36756954 -0.85371274 -0.3037626 0.96186185

linear2.bias f4 [256]
000000 6a 6a b8 3e 51 0b 0b 3d c2 58 0a be 11 fc a7 3e
       0.36018687 0.03394634 -0.13510421 0.328095
000010 a9 19 d6 3d 3a d9 44 be 73 00 80 be 37 ef 28 be
       0.10454113 -0.1922349 -0.25000343 -0.16497503
000020 c5 57 c0 3e 30 b3 42 be e6 f1 69 3e cf c2 19 3d
       0.37566963 -0.19013667 0.22846183 0.0375393
000030 a4 e8 9e bd 9e 3d 1d be 94 84 37 3e 05 b1 53 3f
       -0.077592164 -0.15355536 0.17921668 0.82691985
000040 83 d2 fd bd d5 e0 19 3e f9 0a 90 bd 4a 98 98 bd
       -0.123936675 0.15027173 -0.07033343 -0.07450922
000050 4b 40 3b 3e 03 6e 64 be 3b 6d f7 3e 2a 37 d5 be
       0.18286245 -0.22307591 0.48325524 -0.4164365
000060 72 a5 a0 3e 0e 94 35 3d 42 9b 93 bc 19 fd 39 bd
       0.31376225 0.04433065 -0.018018369 -0.04540739
000070 d7 09 30 bf 28 13 2a be 31 3f d8 3e 70 21 0d bf
       -0.68765014 -0.1660887 0.4223571 -0.55129147
000080 a9 17 a2 3e 72 35 f5 3d d7 4a 46 bd f3 23 77 bd
       0.31658676 0.119730845 -0.048411217 -0.06033702
000090 cc cc 21 be eb ad af bc 2d 05 3f 3e 29 6d 28 be
       -0.1580078 -0.021445235 0.18654318 -0.16447891
0000a0 68 7a 23 3e ef d2 2d 3e 6e 93 67 bd 4a b1 c0 bd
       0.15964663 0.16974996 -0.056537084 -0.09408815
0000b0 82 78 ed 3e ff 2a 19 3e 05 bd 0f 3d 36 b2 45 3e
       0.46381003 0.14957808 0.035092372 0.19306263
0000c0 08 ea 26 be cd 10 c2 bd 41 66 f0 3d 39 65 78 bd
       -0.16300213 -0.09475861 0.117382534 -0.06064341
0000d0 29 76 06 3e 7b 00 b4 be 4a f1 f9 3d f8 cf 61 3e
       0.13131012 -0.35156617 0.12204225 0.2205199
0000e0 cb ce 09 3e 81 c2 c8 3d 66 1c 18 3e 3f a8 b4 bd
       0.13457792 0.09802724 0.14854583 -0.08821153
0000f0 10 c6 d9 3d 5a 89 bc 3d d8 e8 8c be fd 77 00 bf
       0.106334805 0.09205885 -0.27521396 -0.5018309
000100 a3 48 99 bd 70 ce 9e bd 29 43 10 3e e8 4e 72 3e
       -0.074845575 -0.077542186 0.1408812 0.23662913
000110 b2 6c dd be 39 f6 2b bd 65 7f ed 3d 33 17 16 bd
       -0.4324699 -0.041982863 0.11596564 -0.03664322
000120 69 27 92 bd 8c 38 9e be e7 ea 64 3d 48 7d 21 be
       -0.07136423 -0.30902517 0.055888083 -0.15770447
000130 0a b2 12 40 bc 35 97 bd 30 e5 ca bb f7 ae 53 3e
       2.2921166 -0.07383296 -0.006191872 0.20672213
000140 1a b8 23 bf 8a 59 59 bf 98 3c 13 3e 0b 50 aa 3e
       -0.6395279 -0.8490225 0.14378583 0.33264193
000150 cf f3 4c 3e 6f a4 c9 be 41 84 bb 3e 80 43 5f 3e
       0.2001488 -0.39383265 0.3662434 0.21803093
000160 89 33 32 be 91 c8 73 be b9 ef 02 3d 75 e5 85 3d
       -0.17402472 -0.23806979 0.0319669 0.06537906
000170 bc 30 13 3f c1 95 0a 3e 8e 64 04 bf 27 39 b5 be
       0.5749624 0.13533689 -0.51715934 -0.35395166
000180 2e 96 a6 be d1 ee 7d bd dc da a9 3f 35 40 a0 bc
       -0.32536453 -0.06199533 1.3269916 -0.019561866
000190 31 53 2f be 5c 3c d1 3d 69 5b c9 be eb 0b 64 3d
       -0.17121579 0.10216591 -0.39327553 0.05567543
0001a0 4b 1e c0 be 52 c5 0a 3e 12 71 8b 3d 26 13 7b be
       -0.37523112 0.13551834 0.06808676 -0.24519023
0001b0 b4 98 08 3f ea 52 d3 be 4f b4 17 be ee 19 a7 3e
       0.53358006 -0.41274196 -0.14814876 0.3263697
0001c0 c2 fb 04 3d ab e3 6a 3e 95 f1 36 be 17 5a 12 3e
       0.032466657 0.22938411 -0.17865594 0.14292179
0001d0 d7 10 f4 be 06 52 07 bf 79 2e 7f bd a1 b0 a8 bd
       -0.47669098 -0.5285953 -0.06230018 -0.08236814
0001e0 af 01 d1 bd ac 28 61 be 06 a1 bd bd ca df 8f be
       -0.10205399 -0.21988171 -0.092592284 -0.28100425
0001f0 49 32 43 bd 06 a4 82 be 07 67 95 3e 9f 89 2b be
       -0.047655378 -0.25515765 0.29180166 -0.16751717
000200 20 fe b8 3b 34 35 ba be b5 10 0f 3d 43 1f 0c be
       0.0056455284 -0.36368716 0.034928042 -0.136838
000210 70 df 6a bd 16 6a 2e be 87 f4 e0 be 1f a9 b8 be
       -0.057341993 -0.17032656 -0.4393656 -0.3606653
000220 b4 4e a6 be ce 11 2b 3e 7d b9 cd be 1c 20 1c be
       -0.3248192 0.1670601 -0.4018058 -0.15246624
000230 80 d6 cc bc 7c 31 51 be 8b 25 f8 3d 44 d3 b2 3e
       -0.025004625 -0.20429033 0.12116536 0.34926808
000240 e3 82 18 be cc 01 25 be 50 96 c7 bd ce da 35 3e
       -0.1489368 -0.16113967 -0.09745467 0.17759249
000250 68 39 83 be 6e 75 ee 3e 34 f8 0a 3e dc 26 f5 bd
       -0.25629735 0.46573967 0.13571244 -0.119703025
000260 a3 6e 91 bd 38 65 32 be a2 1c 36 be e0 59 a4 3e
       -0.071011804 -0.17421424 -0.1778436 0.3209982
000270 3b 11 8b be 6c af ab 3f 8b 76 af 3e 44 b7 84 3e
       -0.27161583 1.341291 0.3427013 0.2592107
000280 8e c0 4d 3d 62 c1 8d 3b 9d e7 03 3e 65 b2 4d 3f
       0.050232463 0.0043260315 0.12881322 0.80350333
000290 38 20 14 be 52 01 61 be ed 15 fe 3d 88 75 e8 be
       -0.14465415 -0.2197316 0.12406526 -0.4540217
0002a0 4b d5 0c 3e 3f 80 b8 3d e0 28 2f be 1c 3a 90 ba
       0.1375324 0.09008836 -0.17105436 -0.0011003646
0002b0 d9 27 3e be 8d 64 cb bd ab b9 54 bf 1e 20 50 be
       -0.18569888 -0.09931288 -0.83095807 -0.20324752
0002c0 93 26 0e bf 6c f8 92 be e8 b3 8d 3e fe 47 b4 3b
       -0.5552761 -0.28705156 0.2767632 0.005501746
0002d0 d1 e7 01 be fe a3 e9 3e 2f 7a 1e 3e 44 58 41 3c
       -0.12686087 0.4563293 0.15476297 0.011800829
0002e0 d1 d6 64 3d a0 e6 86 be 07 db ff 3d 5b 39 47 be
       0.055868927 -0.26347828 0.12492948 -0.19455473
0002f0 68 f1 3e 3e 56 3f 03 be b0 4b 3a be 9e 55 88 3e
       0.18646777 -0.1281713 -0.18192935 0.2662782
000300 43 cf 5e 3c af e4 d6 3d 02 9c 12 bf 99 bd 82 be
       0.01359922 0.10492837 -0.572693 -0.25535277
000310 6a 5a 30 be a7 cd 38 3e 1b 39 72 3b 34 b8 92 3e
       -0.1722199 0.180472 0.0036960307 0.2865616
000320 d3 8f c9 bd af 28 8b 3e 41 b6 06 3e cb f1 ed bd
       -0.098418854 0.27179477 0.13155462 -0.11618384
000330 8c a7 da be c0 77 4c be 8e 3d f5 bd 6f df ba 3e
       -0.42705953 -0.19967556 -0.11974631 0.3649859
000340 12 b3 2a 3d 0b 68 f9 bd 64 c0 89 3d 55 e0 8f bd
       0.04167468 -0.12178048 0.06726149 -0.0702521
000350 c1 62 83 3e 08 b9 35 3e 6a 86 ef bd 4c 07 e8 bd
       0.2566128 0.17746365 -0.11695559 -0.11329517
000360 03 c4 10 3f e7 64 8e 3e ad 38 ea be 2d e3 ec 3e
       0.5654909 0.27811357 -0.45746365 0.4626707
000370 b6 6a c4 be 87 4f 25 be 93 5b 00 3f f9 87 9f be
       -0.38362664 -0.16143619 0.5013973 -0.31158426
000380 0b f3 44 3e 23 64 9a be 46 9d 2e 3f 0f 8f 41 be
       0.19233339 -0.30154523 0.6820873 -0.18902229
000390 a6 0b 14 bf dd 71 55 3d 1b e1 a5 bd a8 81 e9 3e
       -0.57830274 0.05211054 -0.08099576 0.45606732
0003a0 b9 92 07 be 12 d2 98 3d da 85 11 be aa bc 7f bd
       -0.13239564 0.07461943 -0.14211217 -0.062435783
0003b0 0c e8 76 3d d2 f2 51 be 56 07 16 3e e4 79 a3 ba
       0.06027989 -0.20502785 0.14651236 -0.0012472239
0003c0 97 af a3 be 0f 99 7b be 26 07 91 3f f1 23 d8 3e
       -0.31969902 -0.24570106 1.1330307 0.4221492
0003d0 6c 5b d3 bd 1c 85 ae be 7a c9 3e 3e 56 04 53 3d
       -0.10320172 -0.3408593 0.18631545 0.051517807
0003e0 1e 02 c7 bd c5 c8 a7 3d 16 26 ae bd e8 12 47 be
       -0.09717201 0.081925906 -0.08503358 -0.19440806
0003f0 b8 9c f0 3d f7 fb 20 3d 46 e8 a8 3c b7 16 6b be
       0.11748642 0.039302792 0.02061857 -0.22957884

mean_linear.weight f4 [2, 256]
000000 11 6b 0e 3f 3c 8b b2 3e e2 b5 6d 3e 20 91 95 be
       0.5563212 0.34871852 0.23213914 -0.29212284
000010 91 99 d0 be d8 1b 31 bf 83 d5 20 3e 68 73 e9 3e
       -0.40742162 -0.6918311 0.15706448 0.4559586
000020 e5 24 57 3e 1f 4b 2d be 73 17 c2 bd 56 b4 31 bf
       0.21010168 -0.16923188 -0.09477129 -0.69415796
000030 f1 30 92 bb 84 76 83 be 9a 7c 00 bf 2c ec 5d bd
       -0.0044614007 -0.25676358 -0.50190127 -0.05418031
000040 22 3f 3a be 3b 9d 4f 3f c5 2e 18 be e6 9e 2c 3c
       -0.18188146 0.8109929 -0.14861591 0.010535931
000050 c4 bb 2d 3f 22 b8 82 3d 63 6c 32 3e c7 47 3a be
       0.6786463 0.06382777 0.17424159 -0.18191443
000060 82 27 9f 3e 00 0d cc 3e d5 49 9c be 2d d0 89 3e
       0.3108483 0.39853668 -0.3052508 0.26916638
000070 0b b4 05 bf 18 20 b1 be 67 5e d6 bd 9d fc 06 be
       -0.5222785 -0.34594798 -0.104672246 -0.13182302
000080 fb 36 25 3d 0f 7e e5 be 1a 8d 73 3d cf fd e3 3e
       0.040335637 -0.44822738 0.059460737 0.44529578
000090 8c 3e f3 bd 08 b1 82 3e 95 d1 ce 3e 9f 2a 36 be
       -0.11877164 0.2552569 0.40394273 -0.17789696
0000a0 58 0d 5c be 61 42 f5 be 0b d6 04 3f 6b 5a 10 bf
       -0.21489465 -0.47902206 0.51889104 -0.56387967
0000b0 55 45 67 be 06 87 1f 3f 1e 0a 67 3e 0e a7 be 3e
       -0.22585042 0.62315404 0.22562453 0.37236828
0000c0 f7 fa 3a 3f a6 b0 fe 3e b9 f5 2b 3e 36 22 c5 3e
       0.7303919 0.49744147 0.16792955 0.38502663
0000d0 c3 51 3c 3f 6e 91 49 be b5 03 c3 be 5b b5 04 3e
       0.7356226 -0.19684383 -0.38088766 0.12959807
0000e0 b4 72 fe 3d 27 2e a2 be b8 30 54 3e 40 a9 68 be
       0.12424222 -0.31675836 0.2072171 -0.22720814
0000f0 2b 28 5f bd 7e 2f 13 bf 63 11 68 be dd 54 a2 3d
       -0.054481667 -0.5749434 -0.22662883 0.07926343
000100 ff 22 63 3c 73 82 af 3f 2a c5 64 be 2b 02 1f be
       0.013863324 1.3711685 -0.22340837 -0.15528171
000110 f8 9f 16 bf 6a ea 83 3e f7 0f 39 3f a5 52 e8 bc
       -0.5883784 0.2576478 0.72289985 -0.02835972
000120 a8 3e 54 bf 86 28 c9 be a6 4b 53 3f df 91 ad 3d
       -0.82908106 -0.3928873 0.82537305 0.08475088
000130 46 8a 52 3e 18 b4 13 3e ac 64 1c be e6 ed 40 bf
       0.2056056 0.14424169 -0.15272778 -0.75363004
000140 3f 9c 8f 3d 01 2f 46 3d 11 18 d7 3c 50 da 8c 3e
       0.070122235 0.04838467 0.026256593 0.2751031
000150 e6 11 0e bf 44 83 17 3d 17 7b b0 bd ff 22 a6 be
       -0.5549606 0.03699042 -0.086172275 -0.32448575
000160 7b 16 ff 3e 83 22 cb 3e 1e 2f 8e be 79 c2 9c 3e
       0.4982184 0.39674768 -0.27770323 0.3061712
000170 8f 75 93 bc c2 0a e0 3d e4 1a ab be 4b af 0e bd
       -0.018000392 0.10939552 -0.33418953 -0.03483514
000180 48 d0 ab bc cf 48 2a 3e 77 31 f1 be 6a c1 90 bf
       -0.02097334 0.16629337 -0.4710805 -1.1309025
000190 f3 86 d1 be eb 6d f9 3d 1c 72 73 3c 4f c8 46 3d
       -0.4092327 0.12179168 0.014858749 0.048530873
0001a0 fa 15 00 3f bf c6 b5 3e 81 87 b0 be 23 f0 c5 3c
       0.50033534 0.35503194 -0.3447838 0.024162358
0001b0 73 13 29 be 5c 71 db bd 93 2b 7a bf d1 ca e2 3e
       -0.16511326 -0.10714981 -0.9772274 0.44295362
0001c0 b7 32 81 be d7 9a 77 be 0d 03 17 bf a1 41 60 3e
       -0.25234005 -0.2418016 -0.5898903 0.21900035
0001d0 97 ed f6 bd 44 06 5a 3e 4f 37 06 be 18 24 35 bf
       -0.120570354 0.21291453 -0.13107036 -0.707582
0001e0 9f 5f 66 be 4a 7f db bc 20 4b f0 3e 9d 5c 2f be
       -0.22497414 -0.026794095 0.46932316 -0.17125173
0001f0 cc 99 b8 3e 28 9d 62 3e fd 60 1f bf f5 93 49 3e
       0.36054838 0.22130263 -0.6225737 0.19685347
000200 d8 20 1b 3e a4 d0 b7 3d 5a 2d 43 3f 02 35 ff be
       0.15149248 0.08975342 0.76241076 -0.4984513
000210 3b 1b 26 3f d9 44 92 3e bc cf 3b bd 47 99 05 3c
       0.648853 0.28568152 -0.045852408 0.00815422
000220 4b eb 7c be b9 59 f1 3e ba 6b 02 3e 7c d7 4c be
       -0.24699132 0.47138765 0.12736407 -0.20004076
000230 09 61 05 3f e6 b9 24 3e 25 6f 19 bf c6 fe a8 bf
       0.5210119 0.1608654 -0.5993522 -1.3202751
000240 ca ad 0d 3f 98 32 a1 be c5 1e 41 bd 85 57 7c be
       0.55343306 -0.31483912 -0.047148485 -0.24642761
000250 39 63 40 be 00 59 40 be 3c bf 13 3e d6 78 2e 3f
       -0.1878785 -0.18783951 0.14428419 0.6815313
000260 03 f5 99 bc dc a7 ce bd 65 d9 be be 9f 84 4b bd
       -0.018793589 -0.100906104 -0.37275234 -0.049687024
000270 6f 80 15 3f 29 55 8d 3f e3 39 c6 be b6 b6 9a 3e
       0.583991 1.1041614 -0.3871604 0.30217522
000280 a3 f2 2b 3e 30 36 c5 be 44 9c b7 3d 9e 2b 09 bf
       0.16791777 -0.38517904 0.08965352 -0.5358218
000290 6a 40 df bd 22 a8 ac be cb da d5 be 93 7c cb 3e
       -0.10900958 -0.33722025 -0.41768488 0.3974348
0002a0 5e 7f 7f 3f ef 60 0a 3e fc 31 be bd 6e 39 7a be
       0.9980372 0.1351354 -0.092868775 -0.2443597
0002b0 d5 3f e5 be 06 01 40 3e a8 9d e6 bd ca 15 35 bc
       -0.44775262 0.1875039 -0.11260539 -0.011052558
0002c0 6e f4 42 3f 95 93 2f bf 60 cb 97 3f df 40 b9 be
       0.7615422 -0.6858457 1.185894 -0.36182305
0002d0 6a 8c 02 bf 43 d5 68 3e 7e c4 46 bf 66 8c 35 3f
       -0.50995505 0.22737603 -0.77643573 0.70917356
0002e0 d6 5f 05 3f 48 3a 2a 3e 33 de 14 bf 0b 32 89 3e
       0.5209936 0.16623795 -0.5815155 0.26795992
0002f0 dd b2 02 3f 91 1e 17 3f 3b 09 1d 3e 2b f4 e0 3e
       0.51054174 0.59031016 0.15335552 0.43936285
000300 69 1b 11 bf 75 6e 4b 3f 99 3c 93 3c 8f e6 10 bf
       -0.5668245 0.7946542 0.017973231 -0.56601804
000310 89 52 98 3f f6 e0 a7 bd 8a 97 04 bf af 9a 06 3f
       1.1900188 -0.08197205 -0.5179373 0.5257978
000320 cf 1b ee be d6 8c a5 3e bb 4b 01 bd 7e ad 55 3e
       -0.4650559 0.32334012 -0.031566363 0.20866963
000330 f9 57 52 3d 42 14 81 be 53 85 88 be 41 98 43 3f
       0.05135343 -0.25210768 -0.26664218 0.76404196
000340 b4 b5 b9 3e 50 d0 52 3d a9 48 3e 3e ef 50 2d be
       0.3627144 0.051468194 0.18582405 -0.16925405
000350 dd 9c 03 3f f3 a5 91 be df f8 61 3e a1 21 bf be
       0.5141123 -0.28446922 0.22067593 -0.37330344
000360 4a 43 5a 3f d2 6e 23 be 0d d8 77 bf 89 fc 98 3e
       0.85258925 -0.15960243 -0.9681404 0.2988017
000370 64 6b b6 3e aa 8c d5 bd 26 06 31 bf 4e 06 82 3f
       0.35628808 -0.1042722 -0.69150007 1.0158174
000380 50 5e f8 be 4c 9a 5c be 0c 0a 53 be 6b d3 6a bf
       -0.48509455 -0.21543235 -0.20609301 -0.9172885
000390 1b 83 32 be bf c7 86 be 09 b9 75 be 93 d7 4d 3e
       -0.17432825 -0.2632427 -0.23996367 0.20101766
0003a0 32 c4 38 bf 13 dc 05 bf fc 9d e5 3d b0 80 2d 3d
       -0.7217437 -0.5228893 0.11211774 0.042359054
0003b0 27 b2 66 be 1b c0 8d bc a3 09 45 be 47 7d f7 3d
       -0.22528897 -0.017303517 -0.19241957 0.12084442
0003c0 c1 5c 93 be d4 20 ca be 2e 97 bc 3e 02 2e 77 3e
       -0.28781703 -0.3947817 0.3683409 0.24138644
0003d0 6c 0e a0 3e ab 84 10 be cb 3d e4 be 7e 65 4a 3d
       0.31261003 -0.14113109 -0.44578394 0.049413197
0003e0 53 b8 a1 3e ba 09 ef be e3 c8 05 3f 96 37 1c bf
       0.3158594 -0.46687108 0.52259654 -0.6102232
0003f0 1f f2 a8 3e be 7f 1a 3f 6e 9a 6c 3e ae 08 30 be
       0.32997224 0.6035117 0.23105785 -0.17190811

mean_linear.bias f4 [2]
000000 65 01 de bd c6 9d e1 3d
       -0.1084011 0.11016421

log_std_linear.weight f4 [2, 256]
000000 de ab 41 3e 0e d5 73 3e 5c 0f c3 3e e9 b9 a3 3c
       0.18913218 0.23811743 0.38097656 0.01998611
000010 76 a4 ce 3e 99 82 f4 3b 9a 22 fd 3d 26 13 f9 3e
       0.4035985 0.0074618575 0.12360115 0.48647422
000020 7b f8 58 bd 8c 61 2c 3e f9 71 9c bb 9b e8 7b 3d
       -0.052971344 0.16834086 -0.004774329 0.061501127
000030 05 02 9b bd 29 a5 bd 3e 97 f9 cf 3d 3b 3d bd bc
       -0.075687446 0.3704007 0.10155027 -0.023100486
000040 0a df 0e 3c 03 2c 2c 3f 9b 55 84 3c 9a ae ec b9
       0.008720169 0.67254657 0.016154101 -0.00045143516
000050 e1 42 d6 3e 9c 31 d2 bb e3 81 b6 3c 89 e8 e4 ba
       0.418479 -0.0064146053 0.022278732 -0.001746432
000060 ab 93 a5 3e 3f d6 e4 3d 60 a1 7e 3e 0a 82 40 3d
       0.32339224 0.11173677 0.24866247 0.046999015
000070 db 6d f0 3d ca b1 2f be df 1f 2c 3d df b0 e7 bb
       0.11739703 -0.17157665 0.042022582 -0.007070645
000080 58 80 43 bd 59 ae 93 3d 4d 6e 8e 3c 22 f7 cc 3e
       -0.04772982 0.072109886 0.01738658 0.40032297
000090 02 a4 17 be e5 fc 19 3d af 02 95 3f f9 f5 d2 bc
       -0.14808658 0.037594695 1.1641444 -0.025752055
0000a0 a9 19 94 3d 70 82 4e 3e 1b 18 4c 3e 96 c9 12 3e
       0.07231457 0.20166945 0.1993107 0.14334711
0000b0 5c b5 9c 3e 99 ca a4 3e 21 fd b4 3e 4f cd 3c 3e
       0.30607116 0.3218582 0.35349372 0.18437694
0000c0 66 c0 44 3e f1 46 09 3f ba 31 3b 3d 58 bf 23 3e
       0.19214019 0.53623873 0.04570172 0.1599096
0000d0 7c 19 1d 3f 3a 69 bb 3b 39 24 2a 3d bc b5 73 bd
       0.6136701 0.005719331 0.04153845 -0.059499487
0000e0 d5 aa 78 3d 93 8a 11 3e 8a da 01 3f ca 6c 60 3e
       0.060709793 0.14213018 0.5072409 0.219165
0000f0 ea a6 77 3f 99 d2 1f 3e 2d 80 cd 3b 88 de 56 bd
       0.96739066 0.1560768 0.0062713833 -0.052458316
000100 28 b3 98 3b af da d8 3e 38 56 16 3e c4 23 7f bc
       0.004660029 0.42354342 0.14681327 -0.015572492
000110 8e 09 44 3e 22 f6 d2 bd 9f 95 17 3f 49 cf a8 3d
       0.1914427 -0.10300852 0.5921268 0.082426615
000120 19 10 91 3e c2 94 18 3f 77 d1 a5 3e 88 d0 89 3d
       0.28332594 0.59601986 0.32386371 0.06729227
000130 a3 00 eb be b0 2e 26 3f 51 24 2e 3e da b6 4e 3e
       -0.45898923 0.6491499 0.17006041 0.2018694
000140 38 ce c5 3d b7 d7 bb 3c e5 b4 88 3e 3b 24 40 3d
       0.09658474 0.02293001 0.26700512 0.046909552
000150 7e c8 02 3f 64 30 7e bc 47 58 19 3e 29 1b f6 bd
       0.51087177 -0.015514467 0.14975081 -0.12016899
000160 c8 92 01 3f 7a 9d 66 3d e6 cb 08 3d e1 a3 d4 3d
       0.50614595 0.056302525 0.033397578 0.1038282
000170 35 11 ce bc 35 7b ba 3c 87 21 65 3e 9b d7 81 3c
       -0.02515469 0.022763828 0.22376071 0.015849879
000180 11 c2 7a 3c 09 4b 0a 3f ad 87 83 bd d9 68 e7 3e
       0.015305058 0.54020745 -0.064223625 0.4519718
000190 0e 3a 03 3e 4e bc c7 3e df de 5d ba 8f 06 25 3e
       0.12815115 0.39010853 -0.00084636913 0.16115783
0001a0 cc 01 59 3e ec f9 c6 3d 8e 86 e0 3e c6 13 66 bc
       0.21192092 0.097156376 0.43852657 -0.0140428
0001b0 d8 c1 aa bd 14 8c e3 3d 5f 5c 97 bd 32 68 2a 3f
       -0.08337754 0.11110702 -0.07390665 0.6656524
0001c0 95 82 27 3c f3 f8 0e be 9f 35 0c 3f 08 d0 9b ba
       0.010224004 -0.13962154 0.5476932 -0.001188756
0001d0 da a1 1d bc 6c 97 51 bc 66 db d1 3e b2 76 2d be
       -0.009621108 -0.012792449 0.409877 -0.1693981
0001e0 de ca c1 3e 45 ed 1d bd 67 ce 86 3e c1 01 b4 3d
       0.37850088 -0.038556356 0.26329347 0.08789397
0001f0 c5 d1 74 3d f1 8a bb 3c bc a4 8e bd 0a 14 68 bd
       0.059770364 0.0228934 -0.06965014 -0.056659736
000200 dd 13 2b 3e d3 c2 cd 3e 54 44 1d 3e 62 05 81 bd
       0.16706796 0.40187702 0.15358096 -0.06299855
000210 12 d4 11 3e ac b1 1e 3e 0f 8e bd bb 16 57 eb 3b
       0.14241055 0.15497464 -0.005784757 0.0071820123
000220 9d 16 a8 bd 02 9b ef 3e ac a9 3c 3e d9 5d 76 3e
       -0.08207438 0.4679795 0.184241 0.24059238
000230 d8 95 3b 3e 14 2c 4f 3e 9d be d2 be 00 fd cf 3d
       0.1831888 0.20231658 -0.4116105 0.10155678
000240 7f 57 73 3e e3 b5 09 3e c1 81 b3 bd 9f 9a d7 bc
       0.23763846 0.1344829 -0.08764983 -0.026318846
000250 e4 59 da bb 98 2a 44 be 74 35 12 3c dd 07 6a 3f
       -0.006663548 -0.19156873 0.008923877 0.9141825
000260 92 71 18 3c 11 74 f8 3d d0 5a f8 3d a4 dd 92 3b
       0.009304421 0.12131513 0.12126696 0.004481988
000270 0a d8 4f 3f 19 93 9f 3e 37 c6 14 3e 42 ba 4d 3e
       0.81189024 0.31166914 0.14528738 0.20090583
000280 11 17 df 3b 2b c4 6b 3e 9f a7 bf 3e df af 8f be
       0.0068081697 0.23024051 0.37432572 -0.28063866
000290 b9 78 b2 bb 7a d4 40 bd c0 31 a4 bd 72 47 c8 3c
       -0.00544652 -0.047077633 -0.080173016 0.02444813
0002a0 b1 c0 23 3f bc be 29 3c 6c 78 ad bb 4d fb f4 bc
       0.639659 0.010360416 -0.0052938964 -0.029904986
0002b0 6f 30 19 3e fe cb 96 3c 00 1c fe 3b 27 37 06 3f
       0.14959882 0.018407818 0.0077548027 0.52427906
0002c0 72 cf ce 3e 20 d5 57 3e 49 2e a3 3e 17 8e ef bc
       0.40392643 0.21077394 0.3187125 -0.029242558
0002d0 78 39 28 3f 85 42 4b 3d fb 2c ab 3e 3e 7f b5 3e
       0.6571269 0.049623985 0.33432755 0.3544864
0002e0 27 56 7e 3d 2d 39 7f 3e de 6d 94 3e a4 e5 be 3c
       0.06209388 0.24924155 0.28990072 0.02330286
0002f0 60 49 33 3e d0 30 d1 3e 26 25 5d 3e d1 d1 6a 3f
       0.17508459 0.40857553 0.21596202 0.91726404
000300 53 e3 91 be 8d 77 43 3e 98 11 27 3c c9 22 2f 3e
       -0.28493747 0.19088574 0.010197066 0.17103113
000310 30 49 b7 3e fa fd 1a 3c a9 73 63 3d b8 b8 8b 3b
       0.35798025 0.009459967 0.055530224 0.0042639636
000320 bf f0 7d 3d 51 34 0d 3f 09 4a f5 bc e8 e4 a2 3c
       0.06199717 0.55157954 -0.02994253 0.019884542
000330 ac ec 49 3e a0 b1 97 3c 77 77 ac 3e 6b 74 1e 3f
       0.1971919 0.018517315 0.33684894 0.6189639
000340 8a 90 88 3e 99 e1 67 3d 5a cc 21 3e 6a 53 12 3d
       0.26672775 0.05661163 0.1580061 0.03572408
000350 ef ad bd 3e 64 b3 c7 bc 6d 41 8e 3e ed 6b a8 3d
       0.37046763 -0.024377532 0.2778429 0.0822371
000360 6f 34 0f 3f 1b 43 17 3c f1 31 a4 3e 55 af 61 bd
       0.5593938 0.009232308 0.32069352 -0.05509885
000370 ad de 4c 3e 6f f1 5e bb d0 cf 55 3e 51 ad e2 3e
       0.20006819 -0.0034018417 0.20880055 0.44272855
000380 e4 c9 02 be 57 36 99 3e 59 32 27 bd 45 8b d1 3e
       -0.12772328 0.2992427 -0.0408195 0.40926567
000390 36 e9 ed 3d 8a c1 cb bd 7f 6d 7e 3d 4c 24 39 3e
       0.11616747 -0.09949024 0.062116142 0.18080252
0003a0 65 2a 40 3e 4b 17 20 3e 63 5e 0b be 66 cf cc 3b
       0.18766172 0.15633886 -0.13610224 0.0062503098
0003b0 17 e7 2e 3c ea 39 28 bc f9 23 a5 3c bf 4c 2c 3f
       0.010675213 -0.010267714 0.020158755 0.67304605
0003c0 96 f2 68 3e 83 a5 5c 3d 47 80 2e 3e 1d fc 6a 3c
       0.22748789 0.05386878 0.17041121 0.014342335
0003d0 be db 35 bd 69 a7 91 3c 37 a1 a6 3e 70 60 02 3e
       -0.044399016 0.017780023 0.32544872 0.127321
0003e0 f7 25 4f be d8 b5 e2 3e 90 8f a4 3e 84 16 05 3f
       -0.20229326 0.4427936 0.3214078 0.5198748
0003f0 37 7d 04 3f 42 a2 70 3f da 9e 9f 3e 06 1e dc bc
       0.5175356 0.93997586 0.31175882 -0.026869785

log_std_linear.bias f4 [2]
000000 01 c8 c7 bf 50 98 f4 bf
       -1.5607911 -1.9108982
