hydrone_aerial_underwater_ddpg/scripts/Models/sac_stage_2_sub2D_tanh_3layers/2600_value_net.pth (torch_old, 585563 bytes, 10 tensors)

linear1_q1.weight f4 [256, 26]
000000 04 41 23 3e a3 6a 27 3d 46 4a ec bc e2 7b 8d bd
       0.1594277 0.04087318 -0.02884401 -0.069083944
000010 0d 72 29 3c 1b 03 67 bd 77 8d d7 3c 43 0b 05 3e
       0.010342133 -0.056399446 0.026312573 0.12992577
000020 3b 33 dc bb 96 e4 71 3e e1 04 0c bc 06 44 a4 be
       -0.0067199743 0.23622355 -0.008546085 -0.32083148
000030 dc e9 30 be 15 42 1d be 28 81 ab bd 59 7c 7c bd
       -0.1727671 -0.1535724 -0.08374244 -0.061642025
000040 31 54 f3 3d 92 b2 6c 3e 3a 85 98 bd ee 85 2e 3f
       0.118812926 0.23114994 -0.07447286 0.6817311
000050 8f 7b 83 3f 3b 13 ca be e1 ca 53 be db fd be bf
       1.0272082 -0.39467797 -0.20682861 -1.492122
000060 f8 fd 01 c0 a2 37 ce 3e bd 58 52 bf ff 8b 40 bf
       -2.031126 0.4027682 -0.82166654 -0.7521362
000070 bc 46 7b bf 9d 2d be be 06 b7 e7 3e 80 45 35 be
       -0.9815481 -0.37144175 0.45256823 -0.17702293
000080 6c cc a0 3e 3c 21 82 3d 1b eb 9c 3c 9a 75 ff bd
       0.31405962 0.06353995 0.019155076 -0.124736026
000090 f3 54 a9 bd cf a8 f6 3c da 8a b5 be 7d 82 6f be
       -0.08268156 0.030109791 -0.35457498 -0.23389621
0000a0 f6 7b e9 be 49 7e 0b bd f0 b5 52 be 02 c8 8c 3e
       -0.45602387 -0.03405598 -0.20577216 0.27496344
0000b0 7a a3 26 3d 71 1d 94 3e e7 fb 1b bf ae 59 7d 3f
       0.040683247 0.28928712 -0.6093125 0.98964965
0000c0 f4 c7 b0 be dd d5 85 bf 51 ca 23 bf dd 28 81 3e
       -0.34527552 -1.0455891 -0.63980585 0.2522649
0000d0 d4 3b c3 bc 6c 35 36 3e 2e 09 bb bd 21 35 76 be
       -0.02383224 0.17793816 -0.0913261 -0.24043705
0000e0 50 d5 a9 be 65 1e b6 bd 1f 51 c0 3e 61 dc fe be
       -0.33170557 -0.08892516 0.3756189 -0.4977751
0000f0 f0 0b 27 3f b7 59 20 bf 01 59 9c be e0 c3 8d be
       0.6525259 -0.62636894 -0.30536655 -0.27688503
000100 ca a1 3f 3b 62 78 3b 3d a7 b5 00 be b4 0b 38 be
       0.002924072 0.045769103 -0.12569295 -0.17973214
000110 cc 2c 9a bd 67 6c fa bb 6c a1 e3 3d 4e f4 24 3e
       -0.075280756 -0.007642317 0.11114773 0.1610882
000120 7c 76 aa 3f ad 21 bb bd 72 fa 87 bf 28 d8 a5 bf
       1.3317409 -0.091372825 -1.0623305 -1.2956591
000130 6f db 1c 3f 34 7f 22 bf 95 4d d7 bd 24 67 83 3d
       0.6127233 -0.63475347 -0.105128445 0.06416157
000140 fa ff 74 be b3 9c 38 3e 25 5c a8 3e 24 54 ba 3d
       -0.23925772 0.18028526 0.328828 0.0909808
000150 a4 24 51 3e d6 20 c0 be 3e ce 5d bf c5 d9 4f bf
       0.20424134 -0.37525052 -0.86642826 -0.81191665
000160 cd 2b c5 be 69 4d 07 be 04 c8 82 3e 3c 56 e5 3d
       -0.3850998 -0.13213123 0.25543225 0.111980885
000170 e0 d4 4e 3e 62 41 8e be 0b a8 ab 3e 17 dd 8b 3d
       0.20198393 -0.27784258 0.33526644 0.06829279
000180 24 0a 8e 3d ff b6 6b 3e ac 4b 76 be 8f 66 2a be
       0.06935528 0.23019026 -0.24052304 -0.16640685
000190 9a fd df 3f 0b 1e cc 3f 84 60 14 3e 08 34 9b 3e
       1.7499268 1.5946668 0.14489943 0.30313134
0001a0 bc 59 05 bf 3b d8 2c bd 51 39 5d bd 8d c4 57 bc
       -0.5209005 -0.0421984 -0.05400974 -0.01316942
0001b0 38 b2 5a be 9b 73 c1 bc 5a e3 46 3d 14 c1 bc 3d
       -0.21357048 -0.023614695 0.048556663 0.09216514
0001c0 b5 75 82 3e c5 ec ab 3c 19 f7 39 bd 46 1a 32 3e
       0.25480428 0.020986924 -0.045401666 0.17392835
0001d0 52 92 1f bd 10 1e b0 39 25 39 9e 3d 4f fe 42 bd
       -0.0389579 0.00033591734 0.07725743 -0.04760581
0001e0 bb e5 a4 3c ab b3 f3 3d 55 94 f3 bc b6 26 45 3d
       0.020129075 0.11899503 -0.029733816 0.04813262
0001f0 df c5 a1 be 40 a1 41 3f 3b 31 db 3f 4f b9 5a c0
       -0.31596276 0.7563667 1.7124399 -3.4175603
000200 09 d0 e5 be 60 c2 df be 64 5b 39 bf bc 4a b5 3d
       -0.4488528 -0.43702984 -0.72405076 0.08852145
000210 9d 52 43 3d e6 7b 05 3f d9 c5 d8 3e 7e ad 7b 3b
       0.047686208 0.5214218 0.42338446 0.003840297
000220 2c 1f c6 3c a6 f1 11 3e e8 7c 7f be 86 92 b2 be
       0.024184786 0.14252338 -0.24949992 -0.34877414
000230 15 51 c9 be 22 84 89 be 2b 5b 8b bc 6b a1 3c bd
       -0.39319673 -0.26858622 -0.017011246 -0.046052378
000240 fa 91 bf 3e 36 5e 94 3d 32 f8 03 3e 8c 1e 6d 3e
       0.3741606 0.07244532 0.12887648 0.23156184
000250 5b b4 a1 3e 49 a7 a8 bc a3 9e e2 be 35 c9 0d 3f
       0.31582913 -0.02058758 -0.44261655 0.5538514
000260 64 12 75 3f 13 69 e6 be 2a e8 1e 3d 1b 75 34 bf
       0.95731187 -0.4500204 0.038795628 -0.7049119
000270 e7 76 c0 be 81 44 9f 3e 6b 89 d6 be 39 ea 47 be
       -0.37590715 0.31106952 -0.41901717 -0.19522943
000280 81 d0 a0 3d 5c 6d a3 3d d9 eb b4 bd d7 f4 f9 3d
       0.07852269 0.07979843 -0.08834047 0.122049026
000290 fc e4 02 3e 4a 69 64 be 98 a4 ce 3c 52 45 07 bd
       0.12782663 -0.2230579 0.025224969 -0.033025093
0002a0 d8 af 8e 3d cf cf 27 3e c0 31 98 3d 33 64 8e bb
       0.06967133 0.16387866 0.07431364 -0.004345441
0002b0 ab 98 55 be 3e d9 e8 3e 5d 9e 18 be ec 35 57 be
       -0.2085902 0.45478243 -0.14904161 -0.21016663
0002c0 94 5e 5f be b9 0c 95 3f f9 c9 b1 be ca ab dc bf
       -0.21813422 1.1644508 -0.34724405 -1.7239926
0002d0 35 1b 00 c0 3e 28 e2 3f eb c0 50 bd c0 00 69 3d
       -2.0016606 1.7668531 -0.05096523 0.05688548
0002e0 87 75 9a 3d dd bf 93 be ef c1 16 bf 09 fc 04 bf
       0.07541948 -0.28857318 -0.5888967 -0.51947075
0002f0 28 5a 21 bf 09 07 24 bf c6 47 f5 bc 63 12 be bd
       -0.6302819 -0.64073235 -0.02994145 -0.09280851
000300 3e fd 5d 3e e1 4a 0d 3f 04 88 1b 3e 8d 5d 9e 3e
       0.21678635 0.5519238 0.15188605 0.3093075
000310 ca 1f fb bd 65 1b e8 bc 46 64 22 bd 5c 8a 61 3f
       -0.12261923 -0.028333375 -0.03964641 0.88101745
000320 19 89 0c bd 15 ef 87 be 12 00 e3 bd 69 7f 0a be
       -0.034310434 -0.26549593 -0.11083998 -0.13525166
000330 26 c8 fd 3f 33 57 3a 3f ba 33 0b 3c 23 7f 3b 3f
       1.9826705 0.72789305 0.008496219 0.7324087
000340 1e 4b 1b be b7 74 24 3d 02 a2 11 bd 3b e6 d3 be
       -0.15165374 0.04015037 -0.035554893 -0.4138659
000350 01 d7 19 bd af 7b 80 3c 2c b9 be 3d 63 41 ca 3c
       -0.03755856 0.015683977 0.093126625 0.024689382
000360 64 70 a0 bc ad 2f eb bd 47 3b 93 bc cd 49 38 3e
       -0.019584842 -0.11483703 -0.017972602 0.17996903
000370 72 af 06 bd e0 c7 f0 3d 37 9b 2e 3e e2 e6 02 3e
       -0.03288216 0.11756873 0.17051397 0.12783387
000380 1a 10 0f 3e b3 f8 9e 3d 67 4e 38 bd ba 20 12 be
       0.13970986 0.07762279 -0.044996645 -0.14270297
000390 21 de 18 be ed 3d 95 3f 63 c8 92 bf c6 02 14 40
       -0.14928485 1.1659523 -1.1467403 2.3126693
0003a0 0d 73 8c 3e 0f cd e1 bc d7 a4 1e be 65 f4 9e 3e
       0.27431527 -0.0275636 -0.15492569 0.31045833
0003b0 99 55 9b be 35 11 00 bc 7e 92 9a 3c 39 85 2e be
       -0.30338743 -0.0078166025 0.018868681 -0.17043008
0003c0 a7 06 02 bf 74 8e 8d be 25 07 33 3e 29 83 91 bd
       -0.507914 -0.27647746 0.17483194 -0.07105095
0003d0 11 94 c5 bc 64 09 e4 3d 42 10 a3 3d a1 9d 09 be
       -0.024118455 0.111346036 0.07962085 -0.13439037
0003e0 b7 27 1d 3e 81 18 34 bc 2a 40 e4 3d db cc 8c be
       0.15347181 -0.01099217 0.11145051 -0.27500042
0003f0 a0 a2 7a 3e 84 4d 69 3e ba 5f 16 3f e8 51 e7 3d
       0.24476099 0.22783476 0.5873982 0.11294919

linear1_q1.bias f4 [256]
000000 3a de 13 3e 9c 4d c9 3d 43 22 51 3f 12 c1 27 bf
       0.14440241 0.09829256 0.81692904 -0.65528977
000010 de 9b de 3e 83 5e 37 bf 94 9f 25 3f 24 2f 56 be
       0.43478292 -0.7162859 0.6469662 -0.2091642
000020 2f c9 29 3f 3f 93 aa 3e 46 7e 18 3f a7 8a 0e 3f
       0.66322607 0.33315465 0.5956768 0.55680317
000030 1a ad e8 be 33 22 b9 3e 77 f9 2f 3f 45 ba 97 3f
       -0.45444566 0.36158904 0.6874003 1.185372
000040 a5 a4 dc 3f e6 76 90 bf 52 79 06 40 61 31 96 3e
       1.7237746 -1.1286285 2.1011548 0.29334548
000050 ed ae 79 bf 00 02 a3 bf 62 65 1c 3e c9 f0 a9 bf
       -0.9753254 -1.2734985 0.1527305 -1.3276607
000060 d5 ad d6 bf a1 11 e1 3d ca 0e 97 bf 88 f0 4d bf
       -1.6771799 0.109896906 -1.1801388 -0.80445147
000070 b3 1d a7 be 58 d0 d2 3e 9e e7 63 3d c3 dc 75 3f
       -0.32639846 0.4117458 0.05564081 0.9603998
000080 83 9d 68 be 66 0b 7f be e9 c8 71 3e 6d cc 26 3f
       -0.22716336 -0.24906692 0.23611797 0.6515568
000090 c6 b7 1d 3d f9 69 79 3f 83 20 86 bf 6b 20 cb bf
       0.038505338 0.97427326 -1.0478672 -1.5869268
0000a0 ad 0a 05 3f ab 87 02 3f 30 12 b0 bf 3c 67 d6 3f
       0.51969415 0.5098826 -1.375555 1.6750255
0000b0 7c 86 4d bf b3 8e 01 bc ee aa 9f 3f 05 b3 bd 3e
       -0.8028333 -0.007907557 1.2474039 0.37050644
0000c0 6f 93 7e 3f d5 b9 65 bf 38 0e e0 3e 64 bf a7 bf
       0.99443716 -0.8973668 0.43760848 -1.3105283
0000d0 7c 2c 1c 3f 63 f6 01 3f 07 08 0e bf f5 4f 11 3e
       0.6100538 0.5076658 -0.55481 0.14190657
0000e0 86 7c e3 3f db f4 d5 3f ba e2 32 bf c0 8a 1f 3f
       1.7772377 1.6715349 -0.6987721 0.6232109
0000f0 29 b1 bf 3f 98 6a 1f bd cf a3 1c 3f f4 9c 55 3e
       1.497594 -0.038920015 0.6118745 0.20860654
000100 06 60 b2 3e 19 12 5f 3f 36 5b 66 bf 22 a7 ee 3e
       0.34838885 0.8713699 -0.89982927 0.46611887
000110 5d 67 96 3e 9b 98 6b bf 61 ae 32 be 1c dc 09 bf
       0.29375735 -0.9202973 -0.17449333 -0.53851485
000120 67 6c 92 3f 03 a0 c8 3d b6 dd c2 bf 07 a7 a8 3f
       1.1439332 0.09796145 -1.5223911 1.3175973
000130 e4 d2 b9 bf 8b 8b b3 bf a1 45 bb 3f df 1d e3 bd
       -1.4517484 -1.402696 1.4630624 -0.11089682
000140 c8 66 1a bd d7 a4 84 3f 27 0f a9 be ad 60 3f 3f
       -0.037695676 1.0362805 -0.33019373 0.7475689
000150 80 e4 9f bf ec 9e ec 3e 5c 84 58 3f 35 c2 20 bf
       -1.2491608 0.46214998 0.84576964 -0.62796336
000160 bf 79 0a 40 1e 86 3c 3e ff 82 7a bf 3f 42 ae 3f
       2.1636808 0.18410537 -0.97856134 1.3613967
000170 4a 5c 0a 3e e1 3e c8 be 3f f4 f2 3e 65 0b cb 3e
       0.13511768 -0.39110473 0.4745197 0.3965713
000180 b1 b0 e2 bf d4 47 a3 be e3 6d a7 bf 64 af fe 3f
       -1.7710172 -0.31890738 -1.308041 1.9897275
000190 d8 18 40 bf 60 93 de 3c 15 5b 34 3d 5d 1b 0a bf
       -0.7503791 0.027169883 0.044032175 -0.53948003
0001a0 06 70 ce 3f 83 17 b5 3e c4 29 40 3f a1 09 d8 3d
       1.6127937 0.353695 0.7506373 0.105487116
0001b0 1c 16 cd be 24 a9 7b 3f 23 dd ab 3f 1c 0d b1 3f
       -0.4005593 0.98304963 1.342686 1.3832126
0001c0 73 bb c5 bf 1d d2 da be 9a 6e c4 3f ea 93 20 bf
       -1.544783 -0.4273843 1.5346253 -0.627257
0001d0 c3 e7 b0 3e de 07 91 3f d8 f3 82 be 0c 74 84 bf
       0.3455182 1.1330526 -0.25576663 -1.0347915
0001e0 91 31 d1 3e b8 16 b8 bf c2 c2 d2 be 1f c8 03 40
       0.4085813 -1.4381933 -0.41164213 2.0590894
0001f0 16 69 95 bf 6a ca 2d 40 d7 19 01 3f 2e 50 c2 bd
       -1.1672695 2.7154794 0.50430053 -0.09487949
000200 c5 af f4 3f 1e 53 f9 3f e1 05 c8 3f c3 9e 80 3e
       1.9116141 1.947849 1.5626794 0.25121126
000210 ec 03 f0 3e 87 77 80 bf e9 05 58 3e 27 45 db 3f
       0.46877992 -1.0036477 0.21096005 1.7130479
000220 3d db f6 3e 5d ea f3 3f 11 b3 e6 bf 60 ee 04 3f
       0.4821414 1.9055897 -1.8023397 0.5192623
000230 bd fd ce 3e dc de 89 3e 74 b8 6e 3e 8b 02 d1 bf
       0.40427962 0.2692784 0.23312551 -1.6328901
000240 bd 3d cf bf cf 09 79 3f f0 a3 e6 3f 92 b9 5d bf
       -1.6190716 0.9728059 1.801878 -0.8661128
000250 c2 ca 2b 3f ce 4e 3e 3e 1f f8 f9 3f a7 0a 64 bf
       0.6710626 0.18584749 1.9528846 -0.89078754
000260 5e c3 3f be 06 f2 4b bf e1 b8 89 bd a8 43 fc be
       -0.1872687 -0.79666173 -0.06724716 -0.49270368
000270 08 8e d9 3f 62 ca ad 3f c4 08 8a bf 03 11 5d 3e
       1.699647 1.3577387 -1.0783925 0.2158852
000280 44 a3 37 3e d2 d0 02 40 aa 5d df be 1a 25 b8 3e
       0.17933375 2.0439954 -0.43626148 0.35965806
000290 af 95 86 3f 59 5b 24 3e be 67 f6 be 30 92 b3 be
       1.051443 0.16050471 -0.48126024 -0.3507247
0002a0 23 bc 7a bf c1 bf 1a 40 61 ce 0b 40 e9 23 6c bf
       -0.97943324 2.4179537 2.1844714 -0.92242295
0002b0 56 7d f2 be d5 e9 4f 3f c1 bd bb 3e e9 f4 eb 3e
       -0.4736125 0.81216174 0.36668208 0.4608529
0002c0 e0 59 7b 3e 01 7b ae bf d6 f4 d8 3f 80 2d 75 3e
       0.24546003 -1.3631288 1.6949718 0.23943138
0002d0 d0 e9 20 bf 5a de 81 3e f0 26 5f 3f ab 57 8e be
       -0.6285677 0.25364953 0.8716879 -0.2780126
0002e0 09 c3 2b bf 0f 39 94 bf e4 fa 5f bf f3 92 d1 3f
       -0.67094475 -1.1579913 -0.87492204 1.637297
0002f0 a9 ec 02 3f 66 83 93 3f 13 dc cb bf 2a a9 df 3f
       0.51142365 1.1524475 -1.5926536 1.74735
000300 aa e6 c4 3e d1 ce 2f 3f d4 8d 2b 3f 99 83 05 3e
       0.38457233 0.6867495 0.6701329 0.13038482
000310 ef c7 db bf 92 3a 06 c0 6d 33 a9 bf 1e 22 48 3e
       -1.717039 -2.0973248 -1.3218819 0.19544265
000320 89 fa 35 3e 58 e8 c4 bf ae 48 eb 3d 2a 89 e0 bf
       0.17771353 -1.5383406 0.11488472 -1.7541859
000330 aa cb 83 bf 93 6f d0 be 66 75 92 3e 03 b1 71 bf
       -1.0296528 -0.40710124 0.28605193 -0.94410723
000340 80 87 cc 3f b3 2f 9d 3f 84 3c 82 3f ea a3 e4 3e
       1.5978851 1.2280182 1.0174718 0.44656307
000350 3a 2e 2a bd a6 af c4 3f 9e fe ae bf f0 5a 25 bf
       -0.04154799 1.5366104 -1.3671453 -0.64591885
000360 4a b1 b4 bf ed 6d 85 3f fb a3 13 3f 3b 58 72 bf
       -1.4116604 1.0424172 0.5767209 -0.9466588
000370 27 37 93 bf 3b 83 0d be f2 81 d3 bf b3 92 ec be
       -1.1501206 -0.13819592 -1.6524031 -0.46205673
000380 44 35 0b 40 8a 64 c6 bd cd 21 82 3e bb 5e 12 be
       2.175126 -0.09687145 0.25416413 -0.1429395
000390 03 cc 88 3f ff 41 05 bf 1c 69 06 40 2b cc 3a be
       1.068726 -0.5205383 2.1001654 -0.18241946
0003a0 bb bf 9f bf 0d 81 56 be 6b ae b3 3e e3 3c a4 3f
       -1.2480386 -0.20947666 0.35094008 1.2831081
0003b0 f1 74 96 be d0 08 60 3f 1c 78 37 3f e1 c4 54 bf
       -0.29386094 0.87513447 0.7166765 -0.83112913
0003c0 6c 16 c0 3f 83 03 4f bf 62 93 2c bf b3 b3 bc bd
       1.5006843 -0.80864733 -0.6741239 -0.092139624
0003d0 ac 04 34 3f 21 69 8b 3e db 8c a5 3d 0d af fc be
       0.7031963 0.27228644 0.08083507 -0.49352303
0003e0 71 8e 51 bf 27 d1 e9 3c 34 11 de be f3 a0 a3 bf
       -0.81857973 0.028542114 -0.433725 -1.2783493
0003f0 85 08 04 3d 00 a8 b5 3f da d7 af bf d0 0c 94 bf
       0.032234687 1.4191895 -1.3737748 -1.156641

linear2_q1.weight f4 [256, 256]
000000 19 c5 a4 3e 43 17 a3 3e aa 1e f0 3c 27 0f a5 be
       0.32181624 0.31853685 0.029311497 -0.32238123
000010 4c 80 97 bd 94 57 93 3e 8c 51 56 3f cd d4 87 3d
       -0.073975176 0.28777754 0.8371818 0.066323854
000020 5b 31 41 be 23 c7 bd be 2c 9d bc be f5 ff 8f be
       -0.18866484 -0.37065992 -0.36838663 -0.28124967
000030 4d 2e 62 be 34 5a 9c 3e 5a 24 4d bf f1 12 08 bf
       -0.22087975 0.3053757 -0.80133593 -0.531539
000040 5f 9d 87 be 12 56 33 bf 4e 3a 80 bd 1b 3f 82 bf
       -0.26487252 -0.7005321 -0.06261121 -1.0175508
000050 c2 fa d0 be cb 33 da 3d 13 45 ab be 10 c9 c3 bf
       -0.40816313 0.1065441 -0.33451137 -1.5295734
000060 f7 04 e4 3b 95 26 80 bf 0f 4b 05 3e 66 a4 76 bf
       0.0069585997 -1.0011774 0.13016914 -0.963446
000070 d8 5d b2 3e bf fc a2 be 12 4f 0d be c6 a9 04 be
       0.34837222 -0.31833455 -0.13799694 -0.12955388
000080 b5 7d 3e 3d a2 82 a8 bf 8e 7a 89 be 0e 68 d3 3d
       0.046506602 -1.3164866 -0.26851314 0.10322581
000090 54 6e a1 be d2 1d 14 3f 91 d5 b1 3e 6e 7d 13 c0
       -0.31529486 0.57858 0.3473325 -2.3045306
0000a0 82 4a 04 3f fe ce 9c 3e 53 ab 86 3e bb 6d f7 3d
       0.5167619 0.30626673 0.26302585 0.12081476
0000b0 09 df e5 3e e9 09 62 bf fb 2a 34 bf 7c fe 01 3f
       0.44896725 -0.8829637 -0.70378083 0.5077894
0000c0 1d 10 31 bf d7 2f 2b bf 64 ff 36 3e 1c 14 a2 bf
       -0.6916521 -0.6686987 0.17870861 -1.2662387
0000d0 19 b3 00 bf 89 2d b6 3e 1b 05 30 3e 09 3c f9 bd
       -0.5027328 0.35581616 0.17189448 -0.12169654
0000e0 51 8f bd bd 05 61 02 3f 4d ed 7f 3e e0 39 97 bf
       -0.09255851 0.5092929 0.24992867 -1.1814537
0000f0 09 6a 9f be 39 1a 8d ba 60 81 bb be 9a 84 16 be
       -0.31135586 -0.0010765261 -0.36622143 -0.14699021
000100 17 a9 1c bf c0 32 d4 be 03 41 dd 3d 6f 81 06 3f
       -0.6119551 -0.4144497 0.108034156 0.5254125
000110 89 a4 e2 be 49 c0 a0 be 96 a9 a6 bf 40 68 87 bf
       -0.44266155 -0.31396702 -1.3020504 -1.057869
000120 ba 20 c1 3d 09 f9 4d be f9 9d 6b bf b3 00 40 bf
       0.0943007 -0.2011453 -0.9203792 -0.75001067
000130 7e 28 df 3e c4 dc d5 3e 3b 66 03 3d 5a d6 49 3e
       0.4358558 0.41769993 0.032079916 0.19710675
000140 00 54 b2 be 4a 72 b0 3e 2c 89 14 bf 39 a8 b9 3d
       -0.34829712 0.34462196 -0.5802181 0.09065289
000150 be f1 ab 3e f0 b2 d4 3e 7a eb 29 be 7c cd 0e bf
       0.33582872 0.41542768 -0.16593733 -0.55782294
000160 1f c4 21 bd 79 50 98 3e 63 a2 9b bf 6d 35 4d be
       -0.039493676 0.29748896 -1.2158931 -0.20039912
000170 92 68 2e 3e 1f 67 2b bd 58 77 1c 3e 81 7c 0f bf
       0.17032078 -0.04184639 0.15279901 -0.5604935
000180 e8 17 50 3e 12 cd 23 3e d3 4e e7 be 9c ac 83 bc
       0.2032162 0.15996197 -0.45177326 -0.016073518
000190 c1 0d dd 3e 0b 21 0f bf 62 f3 01 be a5 7e 86 3e
       0.43174556 -0.55909795 -0.126905 0.26268497
0001a0 b5 24 5c bf 1e 69 36 be 6f 68 16 3e b5 5c 3e bf
       -0.8599351 -0.17813537 0.14688276 -0.7436021
0001b0 c1 fc f6 3e 5a 4b 09 bf e0 9c da 3d 3b ac 05 3f
       0.4823971 -0.536306 0.10674453 0.5221593
0001c0 7b 75 2e 3f 68 fd 3d 3e a3 e5 c8 3e 02 51 ef bd
       0.6814801 0.18553698 0.392377 -0.11685373
0001d0 b6 a8 58 bf 1a 9d d4 be 53 fa c1 bf 2a 87 19 3d
       -0.8463243 -0.4152611 -1.5154518 0.037482418
0001e0 0b 51 f1 bd 62 bd 70 3e 4c 21 5e be 27 bf 38 be
       -0.11783036 0.23509744 -0.21692389 -0.18041669
0001f0 a7 99 83 be ae f5 27 bf c8 4e 4e 3e 6c c1 b7 3e
       -0.25703165 -0.6560925 0.2014724 0.35889757
000200 84 77 15 3e f2 02 28 be 69 d4 63 bf 40 29 0a 3f
       0.14596373 -0.16407374 -0.8899599 0.5396919
000210 a1 05 a2 3d 7d f3 d4 bf 9d 39 07 3d d6 7e db 3e
       0.0791123 -1.6636807 0.03301393 0.42870206
000220 0e 01 e7 bd f0 8c 6c bd 77 40 14 bf 5b 99 97 be
       -0.11279498 -0.057751596 -0.57910866 -0.29609188
000230 da d2 02 bf 6c b6 89 bf 18 16 83 bf 2e 7c 37 3e
       -0.51102984 -1.0758796 -1.0241117 0.17918465
000240 0d 3f 64 be 5c 67 21 3e d1 48 01 3d d5 91 e9 bd
       -0.22289677 0.15762085 0.031563584 -0.114047684
000250 21 2e 6c 3e b8 ac a6 bf 9a 63 77 be fd 9c 1f c0
       0.23064472 -1.302146 -0.24159089 -2.4939568
000260 a0 9b 44 bf de c4 5b bd c3 c2 f1 3b 85 42 15 3f
       -0.76799965 -0.053654544 0.0073779537 0.58304626
000270 9a ae 27 bf 72 c6 e2 bd b3 fd 3f 3d 81 d4 43 3e
       -0.65500796 -0.11073007 0.046872806 0.19124033
000280 b0 08 03 bf 4e 20 d6 3d 33 b7 db 3d 75 3f 27 3f
       -0.5118513 0.104553804 0.10728302 0.653312
000290 e3 59 18 bf 6a 80 7e 3d ab 89 08 bf 99 26 2c be
       -0.59512156 0.062134184 -0.53335065 -0.16811599
0002a0 74 85 9c bf 08 2c bd be 0f e3 80 3e ee 7d 27 bf
       -1.2228227 -0.36947656 0.25173232 -0.6542653
0002b0 80 5e 30 bf ed 45 a7 3e cc aa 9c 3e 2e 82 fc 3e
       -0.68894196 0.32670537 0.30599058 0.4931807
0002c0 d7 ab 5d 3e 9e 2e 09 3f dc ef 89 3d 49 86 95 be
       0.21647583 0.5358676 0.06735203 -0.29204014
0002d0 d7 00 9b 3e 5d 74 49 3e b8 cb c5 3e 0d fb 73 bf
       0.30274078 0.19673295 0.38631988 -0.9530495
0002e0 4d 81 05 bf 2a 4d 80 3d ef 29 8c 3e 2f 7d dd bc
       -0.5215042 0.06264718 0.27375743 -0.027037231
0002f0 3f a5 1b 3f 66 67 7d 3f a9 57 12 3e 4a e0 8a 3d
       0.6079902 0.989859 0.14291252 0.06781061
000300 1d bd 02 bf b6 95 41 be 4a 7b 06 3f 36 ad 9b be
       -0.51069814 -0.18904766 0.52531874 -0.30405587
000310 ba b7 4a be fb 9e d4 3e 75 d0 6f 3d 97 68 c1 3e
       -0.19796649 0.41527542 0.05854841 0.37775108
000320 da a7 70 3e e9 c8 74 3d 3f b3 a3 be 37 fa a5 bf
       0.2350153 0.059761915 -0.3197269 -1.2966985
000330 6a 61 be bd 84 69 b1 be 34 28 41 bf f7 27 36 3e
       -0.09295924 -0.34650815 -0.7545197 0.17788683
000340 78 75 0e bf 1a 94 11 3f 93 4c 39 bd c1 5a b5 bf
       -0.55647993 0.5686661 -0.045239042 -1.4168321
000350 e5 40 96 bd 62 e7 50 bd 31 42 98 3e b6 66 19 3d
       -0.073365964 -0.051001914 0.29738 0.03745147
000360 66 a9 bc 3e a8 4f 7d bd 36 2e 8d 3f 83 af 21 3f
       0.3684799 -0.061843544 1.1029727 0.63158435
000370 22 1b f3 be e7 87 6c bf 31 3f 81 3e ed d9 47 bf
       -0.47481638 -0.9239487 0.25243524 -0.78066903
000380 84 57 43 be 83 2d 61 3e 56 7d 60 3c 8b 42 55 be
       -0.19076353 0.21990018 0.013701757 -0.20826165
000390 34 5c b1 3e d3 3d ba bd 6f c0 a2 bc 29 66 31 be
       0.34640658 -0.09093823 -0.01986715 -0.17324127
0003a0 60 70 8a bf 9f d7 05 bd 52 1c a9 bf bf d4 8f 3d
       -1.0815544 -0.032676335 -1.3211768 0.07023
0003b0 73 8a 05 bf 4b 38 ed bd f2 c6 17 3e 01 db 72 3e
       -0.5216438 -0.11583003 0.14821985 0.23716356
0003c0 11 6b e7 be d7 ba 38 3e b9 a2 4c bf 92 45 35 bf
       -0.45198873 0.18040024 -0.79935795 -0.7080928
0003d0 c7 ce 1d bf 72 c8 ef be 14 a6 89 3e eb 5a 35 bd
       -0.6164364 -0.46832615 0.2688452 -0.04427616
0003e0 e7 aa 4b bf a8 fd bd bd 33 a0 97 3e 63 53 be 3d
       -0.7955765 -0.09276897 0.2961441 0.092932485
0003f0 0b 09 83 bd 35 e6 7c be 9f ca dc 3e ad b5 01 3f
       -0.06398209 -0.24697192 0.43123338 0.5066784

linear2_q1.bias f4 [256]
000000 ef 2d 5f 3e 45 15 00 3e ed 11 aa 3f 36 d6 bc 3f
       0.21794866 0.12508114 1.328672 1.4752872
000010 f6 26 48 bf ef 18 c7 3f 09 af 02 3f 03 a3 89 be
       -0.7818445 1.5554484 0.5104833 -0.2688218
000020 b9 03 0d be 6c d3 4b 3f ce ee 86 bf 4e c5 56 3f
       -0.13770951 0.7961948 -1.0541627 0.83894813
000030 8f ac 01 bf 07 7c 13 bd 05 90 94 bf eb 19 08 40
       -0.5065393 -0.036006954 -1.1606451 2.126582
000040 7b 5a 64 3e d2 a0 c0 bf 99 8b 04 bf 90 6d 96 3f
       0.2230014 -1.5049078 -0.5177551 1.1752186
000050 13 cc a3 3c c0 b7 00 bf 2f 1c 80 3e 6f 6f f1 be
       0.019994771 -0.5028038 0.25021502 -0.4715533
000060 0c 54 3f bf be ed fa 3e dd 9e 4d 3f 44 db 9c 3e
       -0.7473762 0.49009508 0.8032053 0.30636036
000070 63 ea 25 bf 38 04 1d 40 fb c8 8f 3e 05 7f 35 3f
       -0.6481077 2.4533825 0.28083023 0.7089694
000080 dc 85 3c bf 5c 29 92 bf ac a4 17 3f 6a 57 54 3f
       -0.73641753 -1.1418872 0.59235644 0.82945883
000090 63 68 0f be 5f b6 ad be 15 3f 97 3e ad 78 d1 3f
       -0.14004664 -0.339282 0.29540315 1.6364952
0000a0 ad c5 27 bd db 97 b3 3d ee df 94 3e 4a 5f 3a 3e
       -0.040960003 0.087691985 0.29077095 0.18200412
0000b0 e5 89 c0 3d f4 91 4a 3f df 11 82 3e 23 f1 04 3e
       0.09401301 0.79128957 0.2540426 0.12982611
0000c0 9b a0 f1 be 2b 37 01 bf 3b 1b 9a 3c 19 7f db bc
       -0.47192845 -0.50474805 0.018811813 -0.026794003
0000d0 e1 e2 a8 be c6 0b 8d 3f 3f 3f cc be 5c d3 4e 3f
       -0.32985595 1.1019218 -0.39892003 0.8079126
0000e0 5d 84 9e 3e 3a b9 23 40 98 5c 06 3e f2 65 2f bf
       0.3096036 2.5581803 0.13121259 -0.6851493
0000f0 8a 9d 63 3f fc e6 c6 be 1a 27 2c be 3f b7 3c be
       0.8891226 -0.38848102 -0.16811791 -0.18429278
000100 a7 f0 db bc 17 76 aa be 3d 66 19 bf 0c 12 b1 bc
       -0.02684815 -0.3329322 -0.5992163 -0.02161505
000110 9c 3e 15 bd c5 58 d8 3f f6 ad 4e be 8d 48 f5 be
       -0.036436662 1.690209 -0.20183548 -0.47906914
000120 60 61 f2 bc 22 b4 00 3f 34 24 01 3f 0c 12 db 3f
       -0.029587448 0.5027486 0.50445867 1.7114882
000130 c4 f7 fb be a3 18 68 be ba 7a 68 3f 1e 46 e3 bc
       -0.49212468 -0.22665648 0.90812266 -0.027743395
000140 5b 55 d6 be 05 f2 37 3f 1c 4b 36 3f 01 e4 41 bf
       -0.41861996 0.7185367 0.7120836 -0.7573853
000150 32 9a a5 bb 72 ab 75 bf 9d 44 5b 3e b5 73 84 3d
       -0.005053782 -0.9596473 0.21412893 0.06467382
000160 7b 15 e2 3e c2 8f 62 bf 5a 54 d8 3e dd 03 94 bd
       0.44157013 -0.88500607 0.42251855 -0.07227299
000170 46 05 34 bf d7 23 20 be 58 70 97 3e 78 af 8c 3e
       -0.70320547 -0.15638672 0.295779 0.27477622
000180 e6 78 ab bd b9 52 a4 3f 8b e2 30 bf ae 1c 22 3d
       -0.08372669 1.2837745 -0.6909568 0.039578132
000190 05 85 7d bd 45 ee b7 3f b6 66 61 3f 4e e8 e3 3e
       -0.061894435 1.4369589 0.8804735 0.44513172
0001a0 bc d0 c0 3f e4 1d fd bd d0 9e 93 bc 75 9a 0a be
       1.5063701 -0.12359217 -0.018020064 -0.13535483
0001b0 63 38 08 bf f0 41 39 bf 7b 41 14 40 78 6e 3a bf
       -0.5321104 -0.7236624 2.3164966 -0.7282481
0001c0 fb 3c 74 3f d7 56 2a bf e5 03 0c bf 12 f0 02 bd
       0.9540555 -0.6653876 -0.5469344 -0.03196723
0001d0 ae 31 ed bd 20 ee 12 40 b4 78 7a bf 6b 36 10 3e
       -0.11581741 2.295784 -0.9784043 0.14083259
0001e0 89 a7 8b 3e eb 20 6b 3f 41 ae 29 3f 0c f0 d7 be
       0.27276257 0.91847104 0.66281515 -0.4217533
0001f0 4f cc 80 3e 0a 2d 5f bc 7a 07 fe 3f 97 0b 18 bd
       0.25155875 -0.013621578 1.9846032 -0.037120428
000200 70 8c 40 be 50 99 a9 bf a8 bc 90 3e e7 a1 ec 3f
       -0.18803573 -1.3249912 0.28268933 1.8486909
000210 c6 36 a0 3f 4a 1e 7a 3f e3 03 8a bd 45 a0 40 3f
       1.2516716 0.9770247 -0.067390226 0.7524455
000220 d5 33 4d 3e 3f 94 d4 3e 22 76 46 3f 4d 2f db 3e
       0.20039304 0.41519353 0.77524006 0.42809525
000230 2f 54 77 3e e7 56 a0 be f3 b9 fd 3f 5c f8 a3 3f
       0.24153207 -0.313163 1.9822372 1.2810168
000240 d3 4c ec 3e 56 b6 20 3f f9 4d 8a bc 20 d8 5b 3f
       0.46152362 0.6277822 -0.016882883 0.85876656
000250 10 e6 ce 3e b9 40 00 40 8e 6c 4f 3e e6 ff f6 3f
       0.404099 2.0039504 0.20256254 1.9296844
000260 73 01 91 3f 64 3e ec 3d b4 7b 2b 3f 55 be b2 3e
       1.1328567 0.115353376 0.6698563 0.34910837
000270 08 e5 d5 bd b6 21 d1 be fb c0 72 3a 35 2c 74 3e
       -0.10444075 -0.40846032 0.0009260324 0.23844989
000280 5b d1 94 3d 9f 4a d3 be 58 b3 a9 bf f3 81 8a 3e
       0.07266494 -0.4126787 -1.3257856 0.27052268
000290 13 ab 4c 3d 3f 3a 9e be 7e 78 28 bf 5e 90 9d 3d
       0.049967837 -0.30903813 -0.65808856 0.076935515
0002a0 71 f5 bb bf 18 88 0b 40 47 cd 19 3e 0f d4 3d 3e
       -1.4684278 2.1801815 0.15019713 0.18537925
0002b0 ab 78 5a 3e e4 84 55 bf d8 13 81 3e a9 87 3e 3f
       0.21335094 -0.834059 0.25210452 0.7442575
0002c0 20 da c4 3d e4 8e 9b bf 09 b2 24 bf 0e 80 c1 3f
       0.096119165 -1.2152982 -0.6433416 1.5117204
0002d0 85 13 48 bc ea 82 fc bb f8 39 48 3f 8f e2 b2 3d
       -0.012211685 -0.007706036 0.78213453 0.08734619
0002e0 6c dc a2 bf 09 95 f2 3e 38 b9 98 3c 75 c0 66 bf
       -1.2723517 0.4737933 0.018643007 -0.90137416
0002f0 da 90 d4 bc fe a8 01 3e c0 7c 9b 3f 48 a1 2a be
       -0.025947977 0.12662122 1.2147446 -0.16663086
000300 d8 bd 19 3e b6 95 68 bf 21 00 0a bf 4c c0 16 3f
       0.15013826 -0.9085344 -0.53906447 0.5888717
000310 2e 09 84 be 71 93 70 be 1a f8 81 3f 97 4d c2 be
       -0.25788254 -0.23493744 1.015384 -0.3794982
000320 ea c4 c7 bc 24 e0 7d be d7 3f c5 bd 66 fa 86 3e
       -0.024385888 -0.24792534 -0.09631317 0.26362914
000330 6e 4b 11 bd af cd 59 3f 05 ac 9b 3f 83 a2 0f bd
       -0.035472326 0.85079473 1.2161871 -0.035067093
000340 72 85 87 3f 11 3b d5 3e 6f 62 81 bd fa cf c4 3e
       1.0587599 0.41646627 -0.06317603 0.38439924
000350 f8 ee 3a 3f f3 65 df 3f 3e c7 89 3f 52 c5 e1 3e
       0.7302089 1.7452987 1.0763929 0.44095856
000360 78 fb ec be b9 4f 7b 3e 66 d5 17 be 3c 73 23 bd
       -0.46285605 0.2454213 -0.14827499 -0.039904818
000370 a6 8f 9a 3e 3d 0f 0a 3e ec 32 7a 3e 7a 4d 1a 3f
       0.3018772 0.13482375 0.24433488 0.6027447
000380 e8 42 6c 3d 87 7c d1 3e ac 0e 82 3d 14 ff b0 be
       0.057680994 0.4091532 0.06350455 -0.3456961
000390 2c b8 ae be 48 73 d6 bd 83 39 f3 bd 97 bc 5b 3e
       -0.34124887 -0.10471207 -0.11876204 0.2145866
0003a0 2c a8 14 be fc c1 15 3f 04 9b 05 40 ac 2c 40 be
       -0.14517277 0.5849912 2.0875864 -0.18767041
0003b0 fb 01 1f 3f 61 59 ce 3d a9 d6 07 bd 70 dc 4d 3f
       0.62112397 0.100756414 -0.0331637 0.80414486
0003c0 4d 40 3e bf 9c 77 56 be 8d b3 6b 3f a6 e4 d4 be
       -0.74316865 -0.20944065 0.9207085 -0.41580695
0003d0 b4 ba 7d bf 0b dc 38 bd cd 73 18 3c 85 e6 b6 3d
       -0.9911301 -0.045131724 0.009304953 0.08930687
0003e0 ac 75 13 bf 63 43 f2 3e 7a 1e 02 bf b9 32 b1 3d
       -0.5760143 0.47317037 -0.50827754 0.08652253
0003f0 b6 87 8c 3f df e4 40 3e 0a a3 5f be aa 2c 20 3e
       1.0978916 0.18837307 -0.21839538 0.15642038

linear3_q1.weight f4 [1, 256]
000000 10 57 eb 3f 41 ab 00 40 e6 1a 4a 3e 14 c4 1f 3f
       1.8385944 2.0104525 0.19736823 0.62408566
000010 07 ae ab be 88 da 90 3e 3d 58 ed 3f 9b 12 2c c0
       -0.3353121 0.28291726 1.8542553 -2.6886356
000020 d8 75 0f c0 91 42 e3 3e aa 48 70 be 3b 6d cf 3f
       -2.2415676 0.44386724 -0.23465219 1.620521
000030 66 26 56 c0 f4 fa 64 c0 cb 7f e3 be 7f 7e 38 3f
       -3.3460937 -3.577817 -0.44433436 0.7206802
000040 20 60 98 3f 70 9f 8c be 60 4f 3d bf 17 b8 b7 3f
       1.1904335 -0.2746539 -0.7394924 1.4353055
000050 42 a9 f8 bf 27 c5 66 c0 29 71 14 40 21 e9 7c bf
       -1.9426653 -3.6057832 2.3194067 -0.98793226
000060 27 a8 3e bf db be 62 c0 9f 7b bd 3f 80 5e 00 40
       -0.7447533 -3.542899 1.4803351 2.0057678
000070 7d a4 d3 bf 33 b0 5d 3f 42 3e 15 40 d9 3e 59 3f
       -1.6534573 0.86596984 2.331925 0.8486152
000080 70 cb 60 c0 0e 37 3d be f9 1a b8 3f ec fc 16 40
       -3.5124168 -0.18478033 1.4383231 2.3591871
000090 10 da 89 c0 a5 1b 25 c0 8e 1d 37 40 52 ed c3 3f
       -4.307869 -2.5798123 2.8611789 1.53068
0000a0 67 32 df bf a0 4e 84 c0 6b 4e 04 c0 6a 9b a7 c0
       -1.7437257 -4.134598 -2.0672863 -5.2377214
0000b0 40 a4 d2 3f 7c cd 73 3f 16 32 3a 40 7d a5 b2 3f
       1.6456375 0.9523542 2.909307 1.3956753
0000c0 85 8d 19 c0 57 26 0f bf 37 fe 57 c0 92 17 50 c0
       -2.3992627 -0.55917877 -3.374891 -3.2514386
0000d0 ed 75 2c c0 14 9d cb 3f 9c ab 11 c0 51 21 dc 3f
       -2.6946976 1.5907311 -2.2760992 1.7197667
0000e0 2b 50 20 40 a9 b7 87 3f 2e cb 5f 3f a5 95 88 bf
       2.504893 1.0602924 0.874194 -1.0670668
0000f0 33 a2 a8 3f 7b 6e f6 bf 89 3b 07 40 d8 95 7f bf
       1.3174499 -1.9252466 2.1130087 -0.9983802
000100 7e 5d 95 3d b0 fb 50 c0 01 db 0a c0 1c 6b c4 3d
       0.07293223 -3.2653618 -2.169617 0.09590742
000110 9b 2a 8a bb 60 dc 9e 3f b0 46 4a c0 d4 5d a1 bf
       -0.0042165047 1.2411003 -3.1605644 -1.2606759
000120 21 76 12 3c 9b 03 d8 3f f5 ba 02 40 c7 3c 6a 3f
       0.008939297 1.68761 2.042661 0.9149899
000130 2b 7f f8 bf 81 fb 22 c0 db ca 0a 40 48 ce 3a 3c
       -1.9413809 -2.5466006 2.1686313 0.01140172
000140 6a b5 59 c0 65 92 cd 3f bd 3b 8b 3f 21 4c 1d bf
       -3.4016976 1.6060301 1.0877606 -0.6144429
000150 f0 d0 70 be 5d 79 00 c0 c3 fc 57 3f 09 e6 4a c0
       -0.23517203 -2.0074074 0.8437006 -3.1702902
000160 0d 54 a9 3f 58 7c a7 be 33 6a fd 3f cb e4 20 be
       1.3228775 -0.32712054 1.9798034 -0.15712278
000170 5e c3 0b bf e0 53 8c bf 59 3b 82 40 89 ee f9 3f
       -0.5459498 -1.0963097 4.0697446 1.952592
000180 24 ca 93 bf 4a c2 73 3f f0 37 0d c0 9c 13 bb c0
       -1.1546063 0.95218337 -2.2065392 -5.8461437
000190 fd 32 2e c0 0d ff f6 3f a8 9b 31 40 ea 26 34 40
       -2.721862 1.9296585 2.7751255 2.8148751
0001a0 69 ec 54 3f 0d da c5 be 84 19 df bb fa 8a c8 bf
       0.83173233 -0.38642922 -0.0068084616 -1.5667412
0001b0 38 e2 de bf 84 dc bc bf 0b b7 33 3f 16 0c d5 bf
       -1.7412786 -1.4754796 0.70201176 -1.6644313
0001c0 c4 a9 d8 3f 94 a8 35 c0 6f 95 fb bf 84 03 2f bb
       1.6926808 -2.8384142 -1.9654979 -0.0026704976
0001d0 e5 56 b5 bd 7b 67 57 3f f6 a7 22 bf dc d6 33 40
       -0.088544644 0.84142274 -0.6353754 2.809989
0001e0 51 61 ec 3f 60 11 7b 3f 25 23 03 40 df 25 57 c0
       1.8467199 0.9807339 2.04902 -3.3616865
0001f0 12 30 a2 3f c6 95 84 c0 7a 55 23 3f 51 d5 91 3f
       1.267092 -4.143283 0.638023 1.1393224
000200 bd 18 3e c0 6c f6 c4 be 97 8e 1c 40 c2 9e ae 3f
       -2.97026 -0.38469255 2.446203 1.3642199
000210 5b fc 4d 3f 71 c0 06 40 a4 a4 af c0 e4 6c ff 3e
       0.8046319 2.1054957 -5.4888477 0.49887764
000220 24 03 b7 c0 25 7f c2 3f a7 c7 07 40 63 c8 9d 3f
       -5.7191334 1.5195051 2.1215608 1.2326778
000230 cf bf 19 c0 b3 00 29 c0 7b 5b 83 3f 15 97 d8 3f
       -2.402332 -2.6406677 1.0262293 1.6921107
000240 6d 1c a8 3e 1e 9a 09 40 32 4a 91 c0 57 6d f1 3f
       0.32834187 2.1500316 -4.540307 1.8861493
000250 10 32 1d 40 33 59 8f 3f 92 48 85 3f bc f6 66 3f
       2.4561806 1.1199096 1.0412772 0.90220237
000260 10 6c 9c 3f 45 97 ad bf 1d eb eb 3f 79 80 ac 3f
       1.2220478 -1.3561789 1.8431126 1.3476707
000270 54 3e 95 be 69 77 eb bf 74 28 54 c0 84 8a e3 3f
       -0.29149115 -1.8395816 -3.314969 1.7776647
000280 53 f6 29 c0 2e 98 de bf 90 49 10 bf a4 26 c1 3f
       -2.6556594 -1.7390192 -0.5636225 1.5089917
000290 a9 0e 4b 3f 9b 44 11 c0 44 6a 3c c0 6c 87 a1 c0
       0.79319245 -2.2698123 -2.943986 -5.047781
0002a0 44 4a 1a bf 75 9b 57 3f 91 4f 06 40 a0 b7 c2 3f
       -0.6026957 0.84221584 2.0986063 1.5212288
0002b0 36 ee c1 3f eb a8 43 c0 61 e9 45 3f 7c e6 fe 3f
       1.5150821 -3.057185 0.7730923 1.9914088
0002c0 2e 9f e3 bf c7 a6 3d c0 ea 4e ae bf 74 82 df 3f
       -1.7782953 -2.9633043 -1.3617833 1.7461686
0002d0 87 d7 85 3c 3b 2b 0a bc 66 19 ed 3e ca 93 ef 3f
       0.016338123 -0.0084331585 0.4630844 1.8716977
0002e0 57 9b ac be fc e3 ec bf b7 8b b4 bf af 20 93 be
       -0.33712265 -1.8507075 -1.4105138 -0.28735873
0002f0 4f c4 97 bb 67 86 27 c0 4c e6 64 3f 47 74 ce bf
       -0.004631556 -2.6175783 0.89413905 -1.6129235
000300 b6 ed e8 bf 53 33 2d c0 ee a3 05 c0 7f 87 11 40
       -1.8197544 -2.7062576 -2.0881305 2.273895
000310 22 a6 38 c0 9b 1e 33 c0 a3 41 b4 3f ee ba 36 c0
       -2.88514 -2.798743 1.4082531 -2.8551593
000320 d6 33 f4 bd a8 6f 8e bf 99 e2 83 c0 71 6f 5c c0
       -0.119239494 -1.1127825 -4.121411 -3.4443018
000330 f8 01 39 bf 02 5f 1e 40 70 fa 0d 40 95 a3 9c bd
       -0.7226863 2.4745488 2.2184105 -0.07648388
000340 5d 33 44 3f 81 79 25 40 16 5a 9b bd 1e 11 9c 3f
       0.76640874 2.585541 -0.07585542 1.2192724
000350 df a2 14 40 da 80 0e 40 5c ff 6b 3f c8 eb ef 3f
       2.3224409 2.2266145 0.9218652 1.874383
000360 94 b0 3e c0 ea af 6a c0 0c d0 79 c0 45 2b 53 c0
       -2.9795275 -3.666987 -3.9033232 -3.299516
000370 3e 0c e9 3f fd b0 10 c0 7f bf 20 c0 76 0d dc 3f
       1.8206861 -2.2608025 -2.511688 1.7191608
000380 d3 c7 ba c0 c5 3f 1e c0 a9 be c5 3e c0 77 29 c0
       -5.8368926 -2.4726422 0.38622025 -2.647934
000390 de 1e 9f bf a5 8a 05 c0 94 99 06 c0 76 3f 52 3f
       -1.2431295 -2.0865872 -2.1031237 0.82128084
0003a0 0b 19 63 c0 e9 b4 9e 3f a0 15 81 3f 67 e8 0e c0
       -3.5484035 1.2398959 1.0084724 -2.2329347
0003b0 ad 79 46 40 86 93 3f 3f a1 0d b1 3b 19 cb 3e 40
       3.1011765 0.7483448 0.005403236 2.981146
0003c0 10 9c fb bf 15 e9 0e c0 a6 5e e6 3f 1a 44 0d c0
       -1.9657001 -2.2329762 1.7997634 -2.2072816
0003d0 d1 39 42 c0 0f 1e d5 be 6f 95 3d 40 e6 09 05 c0
       -3.0347788 -0.41624495 2.9622457 -2.0787292
0003e0 be a1 95 bf b3 ce 0e 40 e1 14 74 c0 6a e3 cf 3f
       -1.1689985 2.231366 -3.8137743 1.6241276
0003f0 05 5e c6 3f 1c 61 5d c0 02 6c 78 bf 6a d7 f1 bf
       1.5497442 -3.459052 -0.97039807 -1.8893864

linear1_q2.weight f4 [256, 26]
000000 c4 77 0b bf 69 32 0a be 21 32 73 bf af 74 1d bd
       -0.5447962 -0.13495792 -0.94998366 -0.038441356
000010 0d a9 8e 3d 09 ba e6 3d 55 21 ac 3e b9 2d 58 be
       0.06965838 0.11265952 0.3361918 -0.21111192
000020 84 88 1a 3e b9 fe 35 3e 56 34 84 bd 38 6a cc bd
       0.15091139 0.1777295 -0.06455295 -0.09981197
000030 1a 6d 6f be 7e 2d b4 3d b0 fe 13 bd ab 5d 5f 3d
       -0.23381463 0.087977394 -0.03613156 0.054532688
000040 68 84 63 bd cb 1a ca 3e d2 fd b2 bd 38 33 2a be
       -0.055546194 0.39473566 -0.08739819 -0.16621101
000050 81 e7 60 be c8 7c 9c 3e 17 4e 73 bd af 1a 3a c0
       -0.21963312 0.3056395 -0.059400644 -2.9078786
000060 06 5b 66 3e 16 19 81 bf 0e 8c b3 bc f3 0d 87 3e
       0.2249566 -1.0085781 -0.02191737 0.2637783
000070 f8 d3 bc be e9 8b 32 3e 88 14 9d be 14 7f 3a bc
       -0.3688047 0.17436184 -0.30679727 -0.011382837
000080 e3 2a 72 be b4 0a c2 be 6e c8 ba 3e 30 ef 6f be
       -0.23649172 -0.3789879 0.3648104 -0.23431087
000090 a2 82 70 be 15 3b 9e be 79 85 a0 be e9 5f 06 be
       -0.23487332 -0.3090445 -0.31351832 -0.13122524
0000a0 a7 b3 65 bd 56 fb c7 ba 19 a3 80 3d 1b 15 b0 3e
       -0.056079533 -0.0015257399 0.062811084 0.34391102
0000b0 4e a7 2d 3f d0 63 8e bd 55 d5 d6 3e c4 3e 1c 3f
       0.6783341 -0.069526315 0.41959634 0.6103327
0000c0 f0 78 ad bc 09 07 95 bf 8b d7 be 3e c6 56 61 be
       -0.021175832 -1.1642772 0.3727382 -0.22005758
0000d0 2f 80 9f bd 37 3d 59 be e8 4f 81 bd 47 23 86 be
       -0.07788121 -0.21214758 -0.06314069 -0.2619879
0000e0 2f dd e1 bd c7 ad 43 be 51 e9 88 bd 0c 9c 2a be
       -0.110285155 -0.1910926 -0.066851266 -0.1666109
0000f0 c5 ab 14 be b1 a7 1f 3e 72 ad 13 bd 71 d0 8f 3d
       -0.1451865 0.15591313 -0.036054082 0.07022179
000100 47 5a bf 3d 26 82 ce 3d cf 9f cc 3d d5 ba 3b 3e
       0.09343391 0.100834176 0.099914186 0.1833299
000110 17 da d9 3d 83 00 89 3e 6b 4c d6 3d 67 f4 4a bd
       0.106373005 0.26758203 0.10463794 -0.049549486
000120 87 b8 28 3f 5a 2e 30 3f 68 96 4f bf 2b c1 14 c0
       0.65906566 0.68820727 -0.81088877 -2.32429
000130 95 ea 98 3d a3 39 a6 3e a9 0a 69 bd 08 66 13 bf
       0.07466618 0.32465848 -0.056894932 -0.5757756
000140 fa e3 ab be 9a 3a 58 be ae 48 46 be 80 ba 76 be
       -0.3357237 -0.21116105 -0.19363663 -0.24094582
000150 64 06 90 3c da 01 8f be 47 66 de be 0f 9d 07 bf
       0.017581172 -0.279311 -0.43437406 -0.5297403
000160 4f c0 d1 be 25 36 a8 be 02 ce a1 3d eb 2a c4 be
       -0.40967032 -0.3285381 0.07900621 -0.38313994
000170 08 c5 34 be a7 96 51 3e ee 4f 69 be ee 3f b2 3e
       -0.17653286 0.20467626 -0.22784397 0.348144
000180 25 3b d1 bc bc bc c1 3e fc ba 69 bf 82 49 46 bf
       -0.025540898 0.37839305 -0.9130094 -0.77455914
000190 11 e9 1e 3f 2d 63 34 c0 b9 4e 8d 3f dd 3e ca 3c
       0.6207438 -2.8185532 1.1039649 0.024688179
0001a0 20 51 9e bd 67 ed e3 3c 96 40 5d 3d f6 99 b4 bb
       -0.07730317 0.027823163 0.054016672 -0.0055115176
0001b0 9a 8d db 3b 46 44 8d 3d 33 ba c7 bd 70 ec 61 bd
       0.00670023 0.06897788 -0.097523116 -0.055157125
0001c0 d4 91 97 bc c8 35 af bd 9d 31 cd 3d 05 b1 a1 3d
       -0.018502153 -0.0855518 0.100192286 0.07895092
0001d0 53 6a 14 bd 30 d8 80 3c 76 7f d9 bc ca bc fe 3c
       -0.03623421 0.015728086 -0.026550036 0.031095881
0001e0 98 e9 30 3c 29 35 22 be 82 f3 cb bd 78 7f b6 3d
       0.010797881 -0.15840591 -0.09958555 0.089110315
0001f0 4d e4 39 3e 44 c4 2a be b4 f1 b1 be d1 c4 8e bf
       0.18153496 -0.16676432 -0.34754717 -1.1153814
000200 0b 45 51 3d 11 40 98 3e 7f 26 56 be d4 f1 e9 bd
       0.051091235 0.2973638 -0.20913123 -0.11423078
000210 a7 40 b5 be 07 06 4c be 73 3e 84 bc 3f f2 c0 bc
       -0.35400888 -0.19924174 -0.01614306 -0.023553012
000220 85 89 3b 3e 86 2a 34 3d a5 d1 b9 bd 44 5f 11 3e
       0.18314178 0.043985866 -0.0907319 0.14196497
000230 b5 37 1b 3d 88 c6 a6 3d bb 6c 28 3e 04 65 49 3c
       0.037894923 0.081433356 0.16447727 0.01229215
000240 a1 6e 99 3d 9b 1d 06 3e f9 2c e6 bd 73 d0 00 3e
       0.07491804 0.13097231 -0.112390466 0.12579517
000250 43 54 35 bd 1a cb 2f be e6 66 99 bd 92 8e 2d 3f
       -0.04426981 -0.17167321 -0.074903294 0.6779567
000260 ac dd 07 3e 73 72 bf bf 8f 67 de bd e5 02 a4 3f
       0.13268155 -1.4956802 -0.10859596 1.2813383
000270 3a 2d 4b bb 0f 4c 59 3e cb 98 8f 3d e4 6b 40 3e
       -0.00310023 0.2122042 0.07011565 0.18791157
000280 f0 ee a9 3d 20 9b fc 3d 56 89 17 3d 98 0d 20 3e
       0.08297527 0.12334275 0.036996208 0.15630186
000290 53 24 47 bd f6 4e 27 bd 88 e3 61 3c 9d 82 eb 3c
       -0.048618626 -0.040846787 0.013787158 0.028748805
0002a0 d5 30 6b 3e 5f 01 80 3d 00 ee ae 3d 0b f9 1d 3e
       0.22967847 0.062502615 0.08541489 0.15427034
0002b0 fa bb e7 3d a1 31 08 3e 20 ff fa 3d 26 aa cb bc
       0.113151506 0.13300182 0.122556925 -0.024861407
0002c0 fd 99 4a 3e 07 f0 a2 bb 91 fe e4 be 07 b7 f8 be
       0.19785304 -0.004972461 -0.4472547 -0.4857714
0002d0 b5 1d 24 3e 67 5f 93 be c7 03 a7 be 7f ed 5b be
       0.16026957 -0.28783724 -0.3262007 -0.21477316
0002e0 79 f8 6e be d3 a3 eb bd 0d 49 ec 3d c2 80 07 be
       -0.23336972 -0.11505856 0.11537371 -0.13232711
0002f0 8c 6e 72 3e 54 66 1b 3d e8 13 e2 bd 9b 07 a9 3d
       0.23674983 0.037939385 -0.11038953 0.08253404
000300 f9 51 53 be ac cf 77 3e 0d 1f ed bd ab 97 a3 bd
       -0.20636739 0.24200314 -0.11578188 -0.07987913
000310 27 dc fa bd db 55 93 bb dd 46 99 bd b3 38 6e 3e
       -0.12249022 -0.0044963188 -0.07484219 0.23263817
000320 a3 15 24 bd de 51 17 bf 21 38 d6 bc 4f 7d 95 bf
       -0.040059697 -0.59109294 -0.026149811 -1.1678866
000330 16 ae 34 bf f7 8e d1 bf af d7 55 3d e8 62 da 3d
       -0.70578134 -1.6371754 0.052207645 0.10663396
000340 68 2f e1 bd fc e9 05 3f 29 d7 6a 3e 28 4a f1 3e
       -0.1099537 0.52310157 0.2293364 0.4712689
000350 09 aa ad 3e 2b 6a 49 3e 72 3b 7b 3e 73 d7 35 be
       0.3391879 0.19669406 0.24534395 -0.17757969
000360 78 08 72 be a9 35 9a 3c d0 bb e8 3d ef d7 2d 3b
       -0.23636043 0.018824415 0.113639474 0.0026526412
000370 d0 4d 22 be 13 5e f8 be a1 f0 e9 be 35 ec 00 bd
       -0.15849996 -0.48509273 -0.45691398 -0.031475265
000380 e5 75 36 bf 4b c5 8e be ec b9 f8 be 2d 9a dc be
       -0.7127364 -0.27884898 -0.48579347 -0.43086377
000390 76 99 88 bd 1e f1 16 3d 51 97 00 bf 1f 07 8c bf
       -0.06669895 0.03685104 -0.5023089 -1.0939673
0003a0 29 25 40 3d 8f 09 1c 3f da f9 9e be 73 1a a6 3b
       0.04691044 0.60952085 -0.31049997 0.005069071
0003b0 a0 0a 86 3d 69 17 7b 3d 64 24 95 3d 9d d4 be 3d
       0.06544995 0.061301623 0.072823316 0.093178965
0003c0 c1 73 25 3e 9b 0f a8 3d 5b 83 63 3d 7d 76 86 3e
       0.16157438 0.082061015 0.055545192 0.26262274
0003d0 9b 3b 8c 3c 6e f0 31 bc 0b 18 47 3c c5 8c 86 3e
       0.017118266 -0.010860546 0.012151728 0.26279274
0003e0 8e c0 4d 3e 55 54 b1 3d de 53 54 bd 72 2f a8 be
       0.20092985 0.08658663 -0.051837794 -0.32848698
0003f0 75 16 42 3d 72 33 e1 bd 3d 24 14 3f d3 e2 46 bf
       0.047384698 -0.109961405 0.57867795 -0.77689856

linear1_q2.bias f4 [256]
000000 fd 98 b6 3d f8 8a df 3e da 88 a2 3f e3 0c 49 3f
       0.08915899 0.43660712 1.2698014 0.7853529
000010 18 d8 05 40 04 71 de 3f 16 96 f3 3f 77 e8 91 3f
       2.0913143 1.737824 1.9030178 1.1399068
000020 48 a2 e4 3e d2 80 9a 3f 24 f8 23 be 62 2f b4 bd
       0.4465506 1.2070563 -0.16012627 -0.087981
000030 93 46 61 bc e4 42 06 c0 ae 8e 83 bf 67 23 7e bf
       -0.013749736 -2.0978327 -1.0277917 -0.9927277
000040 4e 73 91 bf 81 33 ea bf db 00 17 3e a2 0f f2 bf
       -1.1363313 -1.8296968 0.1474642 -1.8911021
000050 ba ea 5a bf fb 07 79 3f 80 43 dd bf 00 74 bb 3e
       -0.85514414 0.972778 -1.7286224 0.36611938
000060 70 37 9f 3f 9b b6 b0 be 9b ac 93 bf 01 00 4a bf
       1.2438793 -0.34514317 -1.153705 -0.78906256
000070 23 b0 a2 3e de b0 33 3f 9e 9b bf bf 34 c0 a4 bf
       0.31775007 0.7019175 -1.4969366 -1.2871156
000080 99 3f 06 40 38 5e f5 3e 70 16 26 be 37 82 25 bf
       2.0976317 0.47923446 -0.16219497 -0.6465182
000090 9a 45 52 bf 0d df 03 bd 3b 13 7d 3e 0f 68 86 3e
       -0.82137454 -0.03219514 0.24714367 0.26251265
0000a0 bd 42 8f bf bd d9 d1 bd 73 9c 66 3f 67 e5 fc bf
       -1.1192242 -0.102466084 0.9008247 -1.9757508
0000b0 89 39 a7 3c 13 ac fa be 22 90 27 3e c3 20 7d 3d
       0.020413177 -0.48959407 0.16363576 0.061798822
0000c0 d2 a3 de bf f4 6d b6 3f 33 f7 9e 3f 4f 4c af 3c
       -1.7393744 1.4252305 1.2419189 0.021398691
0000d0 92 f2 ab 3f f6 04 cd 3e 90 81 3c 3e 80 81 c0 3f
       1.3433402 0.40042847 0.18408799 1.503952
0000e0 28 36 56 3f b8 48 92 bf a4 9e bf be 16 63 cb 3f
       0.83676386 -1.1428442 -0.3742572 1.5889614
0000f0 7e 85 07 3f b1 e6 9c 3f 9c 34 c8 3e 3e fc 09 3e
       0.5293807 1.2257901 0.39102638 0.13475129
000100 d0 0a 95 bd 03 91 03 40 af a3 88 bf 3f 9e 30 3f
       -0.07277453 2.0557258 -1.0674952 0.68991464
000110 1c 0c 58 3f b2 74 ca be c8 67 f4 3e 8a 40 bd bf
       0.8439348 -0.39542156 0.4773543 -1.4785321
000120 d3 71 7a 3c 3c d9 5c bf 9c 33 22 3d b9 0f 61 bf
       0.015285927 -0.86268973 0.0396 -0.87914616
000130 27 f1 1c bf 51 df c1 3e 76 81 30 bf d7 c2 97 3e
       -0.6130547 0.3786569 -0.6894754 0.29640839
000140 39 18 47 3c 96 79 8c be 72 75 41 3f 89 5d a2 3e
       0.012151771 -0.27436513 0.7556983 0.31711987
000150 69 2f ed bf 15 a0 a2 bf 94 53 85 bf 6d 81 4a 3f
       -1.8530093 -1.2705103 -1.0416131 0.7910374
000160 20 9c 1f 3e b6 c8 03 3f b3 60 00 3e eb ff 67 3f
       0.155869 0.51478136 0.12536888 0.90624875
000170 34 1a 52 3e 92 aa ab bf d7 d9 45 3f 65 b2 a8 3e
       0.20517808 -1.3411429 0.7728552 0.32948604
000180 02 5a 97 3e 78 bd 02 3f 03 ad c8 bf 9a 04 2c bf
       0.29560858 0.51070356 -1.5677799 -0.6719452
000190 55 16 79 bf 53 01 a1 bf 96 42 41 3d 1e c5 a4 bf
       -0.972997 -1.2578529 0.047182642 -1.2872655
0001a0 2e f2 2e bf b9 fc 1e bf b5 75 0d be fa 59 c1 bf
       -0.68338287 -0.62104374 -0.13814433 -1.5105584
0001b0 aa 88 17 3f 68 d3 ac 3e e9 2e 55 3d d0 c8 d1 3f
       0.5919291 0.3375504 0.05204669 1.6389408
0001c0 08 4e a7 3e 8c 43 45 bf 97 2c ea 3e a2 7d e2 3e
       0.3267672 -0.77056193 0.45737144 0.44236475
0001d0 c9 90 88 bf 4f d6 cf 3e 45 81 d7 bf 8d 1b 61 3f
       -1.0669185 0.40593192 -1.6836325 0.87932664
0001e0 8d af 81 3e 14 59 29 3d 7a bc cb bf 97 1b 9c bd
       0.25329247 0.041344717 -1.5916893 -0.0762245
0001f0 8f ef 6a bf 98 85 71 3e a6 f0 a4 3f ce 4a 03 3e
       -0.9177179 0.23586118 1.288594 0.12821504
000200 b2 75 04 40 99 45 70 bf ef bc 83 3f 1e 90 ad 3e
       2.0696836 -0.938562 1.0292033 0.33899015
000210 cd 9c 33 bd aa cd 20 3d 2b f9 01 bf 24 31 b9 3e
       -0.04385071 0.039258637 -0.50770825 0.36170304
000220 20 18 c0 bf cf 4d f7 3f 5b 93 ca 3e 4b fc 2c 3f
       -1.5007362 1.932062 0.39565548 0.6757247
000230 b0 0b 30 3f 5f d0 0d 3f 1f 22 e4 bd 3f a9 46 bc
       0.68767834 0.55396074 -0.111393206 -0.012125312
000240 18 cb 75 3d 2c a8 cc 3e 24 30 cc 3e bd f3 88 bf
       0.06000814 0.39972055 0.39880478 -1.0699383
000250 de db 35 bf ce d8 dd 3e 29 63 a2 bf ba 8c 8d 3f
       -0.71038616 0.4332947 -1.2686511 1.1058571
000260 a4 bd d6 3e 23 7f ed 3e 21 06 85 bf 54 f6 08 40
       0.4194156 0.4638606 -1.0392495 2.1400347
000270 08 32 93 3f 80 d8 5d 3f 18 7b 0b bf 1c 28 8b 3f
       1.1499643 0.8665848 -0.544847 1.0871615
000280 d1 e8 ca bd aa 8d d7 3f f2 5a 37 3f c4 83 e6 3e
       -0.099076875 1.6840107 0.71623147 0.45022404
000290 96 f6 fb 3e 9f 9f a2 be 69 2d b3 bf 8e e7 89 bf
       0.49211568 -0.31762406 -1.3998233 -1.077379
0002a0 80 97 cd bf cd 22 fb 3e f5 a2 71 bf 9f 10 a2 3e
       -1.6061859 0.49049988 -0.9438928 0.31653306
0002b0 4c 26 6b 3e f1 ad 8e bf 68 80 fd bf c6 74 19 3f
       0.22963828 -1.1146833 -1.9804811 0.5994381
0002c0 73 f4 36 3e d1 1c 82 3f 9a 0e 08 40 96 f2 af bf
       0.17866687 1.0165044 2.1258912 -1.3745906
0002d0 20 84 89 bf 03 d3 40 bf 2d d4 25 3f 54 5b f0 3f
       -1.0743446 -0.7532198 0.6477688 1.8777871
0002e0 ee 24 33 3e 8c 15 d2 3f 0c 66 d5 bf 90 39 e2 bf
       0.17494556 1.6412826 -1.6671767 -1.7673817
0002f0 6a c4 0b 40 75 16 c6 bd 64 1d 79 bf 05 af c9 be
       2.1838632 -0.09672252 -0.9731047 -0.39391342
000300 93 24 d1 3f 0f b3 90 3f 80 02 40 bf 15 a7 0f 3f
       1.6339287 1.1304644 -0.75003815 0.5611432
000310 61 73 6a bf 88 17 36 3f 72 ac b1 3f 55 5e f3 3e
       -0.91582304 0.71129656 1.3880751 0.47532907
000320 07 89 8d 3f 3f e5 28 be 3a 5d a5 bd 6c c1 9b 3e
       1.1057442 -0.164937 -0.08074422 0.30421007
000330 bf 61 8f 3e 6c 3d 8c bf c0 6c ae bf 84 11 f0 3f
       0.28004262 -1.0956244 -1.3626938 1.8755345
000340 82 cd 75 be 71 4c ee 3f a9 92 b9 3f 45 00 e0 bf
       -0.24004176 1.8617078 1.4497882 -1.7500082
000350 60 b8 0b 3f c4 ef 71 3f 79 f0 57 bf b8 aa 76 3f
       0.5457821 0.9450648 -0.8435131 0.96354246
000360 34 3c 7d 3e 19 30 82 3f 53 f9 a2 3f e8 18 5e 3f
       0.24729997 1.0170928 1.2732338 0.86756754
000370 07 15 cc bd b4 b2 04 40 08 50 48 3f 96 92 ba 3e
       -0.09964948 2.0734072 0.7824712 0.3643996
000380 b6 e8 84 3e 34 94 19 bf f3 fc d9 bf dc c3 ee 3e
       0.25958794 -0.59991765 -1.7030319 0.46633804
000390 2a 26 8c bf 37 b1 02 3f ef bd 04 bf 7f e0 bc 3e
       -1.0949147 0.5105166 -0.51852316 0.36890027
0003a0 46 cc b0 bf 86 67 58 3f 82 2c 93 3f f2 3f ee 3e
       -1.3812339 0.84532964 1.1497958 0.4653316
0003b0 04 0f 0c 3f 5f bf 2f 3e 71 2a ef 3f e7 93 7c 3f
       0.5471041 0.17162846 1.8684827 0.9866318
0003c0 a0 07 d7 3e fe d9 8a bf 7f d6 80 bf 4b c4 8e bf
       0.41998005 -1.0847776 -1.0065459 -1.1153654
0003d0 fc 09 56 3d 96 61 0c 40 df 33 51 3e 4c 46 5f 3f
       0.052255616 2.1934562 0.20429944 0.8721664
0003e0 76 4e ae bf 33 09 64 bf fd 33 04 bd 90 7a 2d 3f
       -1.3617694 -0.89076537 -0.032276142 0.6776514
0003f0 59 ca 92 bf f6 a6 27 3f df ed 9b 3f 58 27 92 be
       -1.1468002 0.6548914 1.2181967 -0.28545642
