hydrone_aerial_underwater_ddpg/scripts/Models/sac_stage_2_sub2D_tanh_3layers/3200_value_net.pth (torch_old, 585563 bytes, 10 tensors)

linear1_q1.weight f4 [256, 26]
000000 98 f3 02 3e 06 9e 91 3c 6f 96 74 bd 70 12 07 be
       0.12788236 0.017775547 -0.059713777 -0.13190627
000010 fe 36 c6 3c ed 08 8e bd d8 f1 ea 3b 17 11 31 3d
       0.024196144 -0.06935296 0.0071699433 0.04322919
000020 bd bd 64 3c cb 08 b1 3e 3f ce d8 3d c3 cf 8a be
       0.013961253 0.3457702 0.10586213 -0.27111635
000030 70 af 0f be 6f 92 f7 bd 3a 88 85 bc 45 c3 51 bd
       -0.14031768 -0.12088477 -0.01630031 -0.051211614
000040 84 d4 dd 3d 0e 70 53 3e d6 ed fc bd 01 5d 17 3f
       0.1083155 0.20648214 -0.12350051 0.5912629
000050 d3 a9 65 3f 80 e8 61 be 0c c0 e3 bd 57 24 ed bf
       0.89712256 -0.22061348 -0.111206144 -1.8526715
000060 f8 dc 14 c0 ed 3a f4 3e 69 57 7e bf fb ab 6a bf
       -2.3259869 0.47701207 -0.9935213 -0.9166867
000070 ae 6a 92 bf 64 62 09 bf 54 cf 12 3f b7 a9 0f be
       -1.1438806 -0.5366576 0.5734761 -0.14029585
000080 9d 5c e5 3e 2d d8 a0 3d 11 d4 24 3e 34 1c fe bd
       0.4479722 0.07853732 0.16096522 -0.12407723
000090 27 3b df bd 5d 76 a8 ba c8 39 c1 be d6 8d 7c be
       -0.10899954 -0.0012852658 -0.37739396 -0.24663481
0000a0 fa 59 f6 be 6c 1e 95 bd ff 3c 81 be 65 67 36 3e
       -0.48115522 -0.07281193 -0.2524185 0.1781288
0000b0 0c cd 94 bc e0 8f 80 3d d6 ef 68 be 76 2a 53 3f
       -0.01816418 0.06277442 -0.2274774 0.82486665
0000c0 34 59 94 3e bf ce 9a bf 85 8c 12 bf 03 46 f6 3e
       0.28974307 -1.2094344 -0.57245666 0.4810029
0000d0 bc b8 e2 bd e8 a2 90 3e 43 46 d3 bd 5a aa 4e be
       -0.110703915 0.28249288 -0.10316136 -0.20182171
0000e0 38 54 a5 be 43 9a 14 3e e7 2c ed 3e 31 c5 01 bf
       -0.32290816 0.14511971 0.4632332 -0.50691515
0000f0 53 cc 28 3f 58 0d 2f bf e2 3f c3 be 85 c3 7b be
       0.65936774 -0.68379736 -0.38134676 -0.24586304
000100 82 4f 77 bd 03 46 9a 39 c9 44 3e be 3f e0 82 be
       -0.06037856 0.00029425332 -0.18580927 -0.2556171
000110 a7 15 1f be 95 f0 6d 3c e8 bf 3f 3e ae 35 19 3e
       -0.15535603 0.014522691 0.1872555 0.14961883
000120 d6 1e be 3f 61 f3 cf bd 04 90 66 bf f0 a6 d3 bf
       1.485316 -0.10153843 -0.900635 -1.653532
000130 2d 16 b9 3e df 36 23 be 93 a8 ca be 70 f5 07 3e
       0.3614973 -0.159389 -0.39581737 0.1327722
000140 8a 25 be bd ff 8f 93 3e 59 e8 f9 3e a0 63 6f 3e
       -0.09284504 0.28820798 0.4881008 0.23377848
000150 59 60 91 3e 3e 11 88 be 03 20 52 bf 4d ab 68 bf
       0.2839382 -0.26575655 -0.82080096 -0.90886384
000160 98 56 2b bf a7 44 c2 be 95 a4 4f 3e 02 b6 a8 3d
       -0.66929007 -0.37943003 0.20277627 0.0823784
000170 05 67 4b 3e b8 f7 25 be 5b 2f 12 3f 16 d2 44 3e
       0.19863518 -0.16207778 0.5710351 0.19220766
000180 ad e9 05 3d 02 a9 9d 3e e3 eb 08 bf 9e f9 22 bf
       0.032693554 0.30793005 -0.53484935 -0.63662136
000190 7d 34 ce 3f fc 7d cf 3f 68 2d 53 be c5 81 10 be
       1.6109768 1.6210322 -0.2062279 -0.14112003
0001a0 4b 9c 13 be c7 fd 20 3e dd 46 84 3d 0d 39 2d 3d
       -0.1441509 0.15721808 0.064588286 0.042290736
0001b0 80 38 3b be 25 d0 c9 3c b9 c2 a1 bd ae 20 0b 3d
       -0.18283272 0.024635384 -0.078984685 0.033966713
0001c0 53 8f 4d 3e 65 ee b0 3c fb e8 71 3d c1 e9 4a 3e
       0.20074205 0.02159805 0.059060078 0.19815733
0001d0 65 62 fd 3d 53 ac f3 3d 98 f1 ea 3d c8 e3 2d 3d
       0.12372283 0.118981026 0.114718616 0.042453557
0001e0 9e 09 1b bc 18 4e 34 3e c2 03 30 be 38 c7 fa 3b
       -0.009462742 0.17607915 -0.17188933 0.0076531433
0001f0 7b c8 66 be 0c 59 90 3f 33 f3 11 40 4b 6a 70 c0
       -0.22537415 1.1277175 2.2804687 -3.7564876
000200 f2 0d 28 bd 80 1d ec bd ed b3 40 bf 5f b2 31 3e
       -0.041028924 -0.11529064 -0.75274545 0.173532
000210 ea 99 17 3e 59 1c 2e 3f cd bf fb 3e 92 9f 9e bd
       0.14804807 0.68012005 0.4916977 -0.07745279
000220 2d 7e 36 bd 46 97 91 3e 5a e5 80 be 57 9b c7 be
       -0.044553924 0.28435725 -0.2517498 -0.38985702
000230 d6 66 ee be cb 43 cd be 82 ee d9 bd 04 c5 87 bd
       -0.46562833 -0.40090784 -0.10641195 -0.066293746
000240 f5 50 c2 3e 1d ff d7 3d 96 a0 98 3d 8d dd ca 3d
       0.3795239 0.10546706 0.07452504 0.09905539
000250 8e 19 e0 3d 20 41 fb bd b2 14 15 bf 75 12 79 3f
       0.10942374 -0.12268281 -0.58234704 0.9729379
000260 46 92 5a 3f 2a ca 1d bf 25 44 86 bd d1 89 7e bf
       0.85379446 -0.616366 -0.06555966 -0.9942904
000270 b4 fa 92 be 69 59 c0 3e 9c cb c3 be 71 64 0d be
       -0.28706896 0.37568215 -0.3824128 -0.13807847
000280 59 c2 fb 3d dd f5 83 3d ef 07 1e be 99 f5 2b 3d
       0.12292928 0.06443379 -0.15432714 0.041982267
000290 90 eb 38 3d 09 c9 72 be 04 48 1d 3d 52 b3 a1 bc
       0.045146525 -0.23709501 0.038398758 -0.019738827
0002a0 ff 63 a2 3d 67 ea 0d 3e a8 c3 eb 3d 6d 97 8b bd
       0.07929229 0.13858949 0.11511928 -0.068159916
0002b0 0a f6 ab bd d0 89 0f 3f 07 28 62 bc 3b cb ba bd
       -0.083965376 0.5606966 -0.013803489 -0.091207944
0002c0 e3 2c 42 bf 55 e1 90 3f 45 c2 98 bd 77 d2 02 c0
       -0.7584974 1.1318766 -0.07458929 -2.0440958
0002d0 c4 ed 0f c0 e2 b1 e8 3f 16 12 5a bd 4b e6 30 3e
       -2.248887 1.8179286 -0.053239904 0.1727535
0002e0 fa 28 46 3e f6 1b 76 be 7d 65 47 bf 75 58 16 bf
       0.19351569 -0.24034104 -0.77889234 -0.58728725
0002f0 3c e7 f7 be e8 ab 30 bf 1a d1 ba bd 43 76 74 bc
       -0.48418605 -0.6901231 -0.09121914 -0.014920774
000300 d3 b6 ad 3e 2d ef 5d 3f df d9 53 3e 92 3e b5 3e
       0.33928546 0.8669308 0.2068858 0.353993
000310 a1 3f 6f be dc b0 89 be 70 dc 76 be aa 85 3c 3f
       -0.23364116 -0.26892745 -0.24107528 0.73641455
000320 f2 f0 4d 3d 65 b1 47 be b5 c6 87 3d 02 43 8e be
       0.05027861 -0.19501264 0.06629697 -0.27785498
000330 88 8d 01 40 d0 ac 05 3f 21 59 28 3f 60 91 49 3f
       2.0242634 0.52216816 0.65761 0.7873745
000340 e7 b2 f2 bd a5 db eb 3b 43 80 8f bd 21 9a bd be
       -0.11850529 0.0071978145 -0.07006886 -0.37031654
000350 c2 3a 34 bd aa 98 59 3b 07 21 80 3d cc 6c 9d 3c
       -0.04400135 0.0033202567 0.062562995 0.019216917
000360 08 2e a1 bd c5 f7 09 be 6c 04 cb 3c 26 13 0e 3e
       -0.07870108 -0.13473423 0.024782382 0.13874492
000370 26 2e 60 bd d0 7c b4 3d ce 07 18 3e e4 99 ee 3d
       -0.05473151 0.088128686 0.14846727 0.11650446
000380 50 b1 26 3e 9b 7c 2d 3d ec 02 fa bd 19 e5 45 be
       0.16278577 0.04235516 -0.122075886 -0.19325675
000390 a0 94 a2 be b7 61 ce 3f d2 01 94 bf 3e 26 25 40
       -0.31754017 1.612357 -1.1563056 2.580459
0003a0 ef 9f fc 3e 1c 76 e0 3d d8 e3 f4 bd 89 f8 98 3e
       0.4934077 0.109600276 -0.1195752 0.29877117
0003b0 2c 53 b9 be 88 cd 2a be aa 6a e7 bd 6c 34 78 be
       -0.36196268 -0.16679966 -0.112996414 -0.24238747
0003c0 95 bb 12 bf 1f 43 04 bf a7 5c 47 3e 04 52 cf bc
       -0.5731748 -0.5166492 0.19468938 -0.025307663
0003d0 dd ee 54 be 87 a0 a8 3d ff a0 ac bd d7 6c db bd
       -0.20794244 0.08233743 -0.08429145 -0.10714119
0003e0 af 71 9a 3e 41 ad c1 3d 75 38 91 3e 2b a0 ef be
       0.3016486 0.09456874 0.28363386 -0.46801886
0003f0 6f 05 ea 3e a4 af 44 3e 80 0e aa 3e 72 a1 70 3d
       0.4570727 0.19207627 0.33214188 0.058747716

linear1_q1.bias f4 [256]
000000 0a 17 95 3e 9e ae c7 3d 1d 4d 67 3f 53 7c 45 bf
       0.2911914 0.097501025 0.9035204 -0.7714283
000010 2e 00 29 3f ae 29 48 bf d1 ab 3a 3f ab 57 88 be
       0.660159 -0.781886 0.7291842 -0.26629385
000020 94 28 2a 3f 10 24 c0 3e 02 7f 0e 3f 05 d4 40 3f
       0.6646817 0.37527514 0.5566255 0.75323516
000030 a9 42 0a bf e3 8e c8 3e 79 fa 45 3f 2e c2 a0 3f
       -0.54007965 0.39171514 0.77335316 1.2559259
000040 b3 de d7 3f 70 0f 8e bf 4f 60 13 40 94 4c 9b 3e
       1.6864837 -1.1098461 2.3027532 0.30331862
000050 ca 58 66 bf 9c 95 af bf e8 c1 bb 3d 36 a6 b3 bf
       -0.8997923 -1.3717532 0.09167844 -1.4035099
000060 98 77 e5 bf 9b 5d 07 3e 64 e0 b0 bf eb d0 53 bf
       -1.7927122 0.13219301 -1.3818479 -0.8274066
000070 43 de bc be b1 dd 0f 3f e7 c5 c0 3d 34 f6 73 3f
       -0.36888322 0.5619765 0.09412747 0.9529755
000080 9b 3c cf be 60 d3 2e 3d 4a f4 63 3e 64 1a 38 3f
       -0.40475926 0.04268205 0.22261158 0.7191527
000090 c6 b7 1d 3d 5a 2c 84 3f 30 e1 91 bf 17 ff e4 bf
       0.038505338 1.0326035 -1.1396847 -1.7890347
0000a0 9f 3b 07 3f 35 5e 18 3f 1a d5 cc bf 95 ce f3 3f
       0.5282535 0.5951875 -1.6002533 1.9047419
0000b0 d1 f9 61 bf e8 66 6b bc ab 98 aa 3f 05 b3 bd 3e
       -0.88271815 -0.0143677965 1.332784 0.37050644
0000c0 c4 c7 6d 3f 32 66 83 bf 8d 9f ce 3e 92 69 a8 bf
       0.92882943 -1.0265563 0.40356103 -1.3157218
0000d0 61 b0 4c 3f 23 bb 26 3f 86 64 19 bf f5 4f 11 3e
       0.7995663 0.651293 -0.5991901 0.14190657
0000e0 14 f3 fb 3f 47 7a e0 3f 07 e2 24 bf 1f 66 33 3f
       1.9683557 1.7537316 -0.6440739 0.700777
0000f0 bd dd ca 3f 98 6a 1f bd 12 d4 30 3f 3b b5 62 3e
       1.5848919 -0.038920015 0.69073594 0.22139446
000100 09 10 a3 3e 12 4a 80 3f 62 28 79 bf a0 ac f8 3e
       0.3184817 1.0022604 -0.97327244 0.48569202
000110 38 e7 6e 3e fa 4f 4f bf 8c 3f 92 bd f5 57 0b bf
       0.2333039 -0.8098141 -0.07141027 -0.54431087
000120 9e 6a 9b 3f 70 a6 4e 3d 81 fb c9 bf 30 9f b7 3f
       1.2141912 0.050451696 -1.5779878 1.4345455
000130 81 f0 c9 bf 02 c3 bb bf e1 f6 d8 3f 05 61 d4 ba
       -1.5776521 -1.4668887 1.6950341 -0.001620323
000140 f1 77 92 be dd 7e 64 3f 0a 3a 66 be ad 60 3f 3f
       -0.28607133 0.8925608 -0.22483078 0.7475689
000150 b1 5b b0 bf 89 42 f5 3e b4 88 5a 3f 40 b9 33 bf
       -1.3777982 0.47902325 0.8536484 -0.70204544
000160 93 45 18 40 38 a6 ee 3d e3 73 86 bf b8 6a b0 3f
       2.3792465 0.116527975 -1.0504116 1.3782568
000170 d8 8d 46 3e fd 75 ca be cd f9 dd 3e 7a 2a ec 3e
       0.19390047 -0.39543143 0.43354645 0.46126157
000180 77 a7 fe bf 89 f9 9c be fc c0 b8 bf c2 57 0d 40
       -1.9894856 -0.3065913 -1.4433894 2.2084813
000190 ca 17 7c bf 79 b8 84 3d 85 bf 7c bd 8f f7 23 bf
       -0.984738 0.06480498 -0.061706085 -0.6404962
0001a0 06 70 ce 3f 16 14 88 3e 51 c2 5a 3f 59 d6 e9 3d
       1.6127937 0.26577824 0.85452753 0.11417837
0001b0 94 79 0f bf b5 be 76 3f c2 5f cd 3f 8d fc c2 3f
       -0.5604489 0.96384746 1.6044848 1.5233322
0001c0 5e 6d d2 bf 7c 9b c2 be 95 15 de 3f 6a 18 3c bf
       -1.6439626 -0.3800925 1.7350336 -0.7347475
0001d0 9a 62 f5 3e 8f df 96 3f 15 2a 67 be 85 75 91 bf
       0.4792679 1.1786975 -0.22574647 -1.1363989
0001e0 3d bf 6a 3e 3c c3 cf bf 32 c4 ef be 34 d3 10 40
       0.22924514 -1.6231456 -0.46829373 2.2628908
0001f0 22 08 ad bf dd 5c 2e 40 ce 80 24 3f cb 91 74 be
       -1.3518107 2.724418 0.6425904 -0.2388374
000200 5b a0 0a 40 f7 0f 06 40 4a d8 c6 3f 3a ef e7 3d
       2.1660373 2.0947244 1.5534756 0.11324926
000210 c4 14 d4 3e 59 09 82 bf 44 66 6b 3e 8e 51 e7 3f
       0.41422093 -1.0159103 0.2298823 1.8071764
000220 f0 c3 11 3f bc ea 0c 40 d6 5d 00 c0 57 4a 18 3f
       0.569396 2.201827 -2.0057273 0.59488434
000230 f7 23 07 3f dc de 89 3e 01 02 a4 3e 9f bd e2 bf
       0.52789253 0.2692784 0.3203278 -1.7714118
000240 0a eb de bf 1c df 81 3f d2 89 03 40 96 2c 6f bf
       -1.7415478 1.0146213 2.055287 -0.9342741
000250 01 66 3d 3f 42 ec a7 3e b3 41 08 40 9b 8b 91 bf
       0.7398377 0.32797438 2.12901 -1.1370729
000260 d4 61 62 be 10 78 51 bf 5e bf e3 bc 4f 72 03 bf
       -0.22107631 -0.81823826 -0.027801212 -0.51346296
000270 52 fe e5 3f 62 c3 ae 3f 2d ed 91 bf 8e 54 29 3e
       1.7968237 1.3653376 -1.1400505 0.16536161
000280 05 4a 35 3e 21 fe 12 40 dc e8 f0 be 23 58 cc 3e
       0.17704017 2.2967608 -0.47052658 0.39910993
000290 14 3d 61 3f 2e 8e 8f 3e be 67 f6 be 64 77 a3 be
       0.8798382 0.28038162 -0.48126024 -0.31927025
0002a0 3c 90 84 bf a8 cb 2a 40 d2 5e 16 40 64 2b 7f bf
       -1.0356517 2.6686802 2.3495374 -0.99675584
0002b0 dc 6d d3 be e7 ff 60 3f 12 59 f4 3e 92 5c e3 3e
       -0.41294754 0.87890476 0.47724205 0.44406563
0002c0 d9 03 87 3e 6a 62 b0 bf 59 8c f2 3f c4 78 34 3e
       0.26370123 -1.3780034 1.8949081 0.17624193
0002d0 79 c3 38 bf bb 2b 6d 3e 3a dd 6a 3f a9 de bc be
       -0.7217327 0.23161213 0.91743815 -0.36888626
0002e0 20 28 1c bf ff 15 a4 bf 57 5e 4c bf f2 2f e8 3f
       -0.60998726 -1.2819213 -0.7983145 1.8139632
0002f0 d9 2e 0d 3f c5 21 a6 3f 01 e4 e3 bf 9d 74 f2 3f
       0.5514961 1.2979056 -1.7803956 1.8941838
000300 2b d4 f3 3e 5f c7 27 3f 21 cb 2b 3f 99 83 05 3e
       0.4762281 0.6553859 0.67106825 0.13038482
000310 bc f9 ed bf 50 e4 13 c0 89 02 bb bf 8e 42 39 3e
       -1.8591838 -2.31081 -1.4610149 0.18091795
000320 7e 58 60 3e 5a 43 d3 bf 0a 7e 27 3e c8 c0 f7 bf
       0.21908757 -1.6504929 0.16356674 -1.9355707
000330 b5 6a 8b bf da f1 ed be 24 d8 84 3e eb ec 73 bf
       -1.0891939 -0.4647358 0.25946152 -0.95283383
000340 21 96 c3 3f 23 c4 ac 3f db 9a 8e 3f 24 a6 03 3f
       1.5280191 1.3497356 1.1141008 0.51425385
000350 3a 2e 2a bd c0 8b d2 3f 64 99 c3 bf 49 31 45 bf
       -0.04154799 1.6448898 -1.5281186 -0.7702833
000360 02 35 bb bf 70 09 97 3f 83 c4 03 3f 33 6c 8b bf
       -1.4625552 1.1799755 0.5147173 -1.0892395
000370 ec 48 a0 bf 25 f7 d9 bd 50 e4 e3 bf 3d 0d 07 bf
       -1.2522254 -0.10642842 -1.780405 -0.52754575
000380 81 c5 19 40 d2 a3 fc bd 9c 1d 9a 3e d4 00 48 3d
       2.4026797 -0.12335934 0.30100715 0.048828915
000390 96 13 9a 3f ba ed 1c bf 5a f3 14 40 95 64 0a be
       1.2037227 -0.6130024 2.327353 -0.13514931
0003a0 19 70 b1 bf 37 4b 80 be ac 86 8d 3e cf 6a a2 3f
       -1.3862334 -0.25057384 0.2764181 1.2688845
0003b0 97 2b a7 be d0 08 60 3f be 11 58 3f 23 7d 58 bf
       -0.32650444 0.87513447 0.8440207 -0.84565943
0003c0 20 d3 ba 3f cf 3f 71 bf 0e 9a 24 bf 60 37 37 be
       1.459568 -0.9423799 -0.6429757 -0.17892218
0003d0 bb c9 a0 3e ec 46 50 3e 15 5c 8b 3d de 08 f2 be
       0.31403908 0.20339555 0.06804673 -0.4727239
0003e0 dc b2 61 bf 27 d1 e9 3c 20 6c fe be 80 89 b3 bf
       -0.8816354 0.028542114 -0.49691868 -1.4026337
0003f0 83 ef 70 3b 05 54 b8 3f 0e 39 bd bf 65 3b 99 bf
       0.0036763854 1.4400641 -1.4783037 -1.1971251

linear2_q1.weight f4 [256, 256]
000000 dd 39 2b 3f 59 1f 92 3e 54 f5 e6 bd 85 aa d9 be
       0.6688517 0.2853954 -0.112772614 -0.4251291
000010 96 fd 78 3d 61 d3 85 3e 2b 98 3c 3f 5e 3c ac 3e
       0.060788713 0.26137832 0.7366969 0.33639807
000020 d3 3c 57 be 28 64 33 3e 2c 9d bc be af 84 03 bf
       -0.21019296 0.17518675 -0.36838663 -0.51374334
000030 d4 1d 7f be 03 7c 40 bd 84 2f 82 bf 31 ed 24 bf
       -0.24913722 -0.046993267 -1.0170751 -0.64424425
000040 dd 48 9f 3d cf 78 59 3c 05 50 83 3e b9 f1 94 bf
       0.077775694 0.013273432 0.25646988 -1.1636268
000050 ec d2 8f be 5a 17 cf 3d 9e 9f 02 bf d1 3f b4 bf
       -0.28090608 0.10111876 -0.51024806 -1.4081975
000060 5d 37 22 bc 15 09 ba bf ce cd c2 bd 8b 28 90 bd
       -0.009900895 -1.4534022 -0.095119104 -0.07038983
000070 67 ac 41 3f bf fc a2 be cc 9b 38 be 9f ab 46 bd
       0.7565369 -0.31833455 -0.18028182 -0.048503514
000080 ef 85 c1 3d 01 d7 c8 bf 96 de f6 bd 0a c6 7b be
       0.09449374 -1.5690614 -0.12054174 -0.24587265
000090 54 6e a1 be 15 4f cf 3e 9b ea f5 bd 3c e0 3f c0
       -0.31529486 0.40490022 -0.12007638 -2.9980612
0000a0 2f 9f 7d 3f 7e 7a 50 3e 1e 1a 57 bd e6 79 5a 3d
       0.9907102 0.20359227 -0.05251514 0.053338908
0000b0 55 0c 19 3f 01 ab 04 bf be 0c 1f bf 7c fe 01 3f
       0.5978444 -0.5182343 -0.6212882 0.5077894
0000c0 42 59 c1 be 20 65 a7 bf 8e d0 b9 3d b7 2d bb bf
       -0.3776341 -1.3077736 0.09072982 -1.4623326
0000d0 92 ab 10 bf 1a 54 ba 3e 2a c5 39 3e 09 3c f9 bd
       -0.56511796 0.3639229 0.18141618 -0.12169654
0000e0 f0 c4 d5 bd cc 95 9c 3e 25 e6 39 3e b2 ce a1 bf
       -0.104379535 0.30583036 0.181542 -1.2641203
0000f0 27 2d 44 be 39 1a 8d ba 5c fd 7c be d7 24 d7 be
       -0.19157849 -0.0010765261 -0.24706024 -0.42020294
000100 3a 34 6a bf ea 6a 16 bd f5 6b cc bd 1a f5 50 3f
       -0.9148594 -0.036723055 -0.09981529 0.81623995
000110 c7 09 95 bf c8 31 b3 be a8 d0 04 c0 ca a1 06 3f
       -1.1643609 -0.34998918 -2.0752354 0.5259062
000120 6a fe e4 3e 00 72 60 be 23 4b ba bf d3 85 db be
       0.44725353 -0.21918488 -1.455418 -0.42875537
000130 f9 0d 92 3e ad f7 fb 3e 7e 3f 78 3e 8a 31 fb 3d
       0.28526285 0.492124 0.2424297 0.12265308
000140 be 41 a1 be db 0a 95 bb 93 19 80 bf 39 a8 b9 3d
       -0.3149547 -0.004548413 -1.0007805 0.09065289
000150 66 27 2f 3c 41 ff 32 3f 06 79 a6 be b7 56 1b bf
       0.010690546 0.69920737 -0.3251421 -0.6067919
000160 0c 3f 2c bc 0c cf 73 3e f7 f4 70 bf c9 13 82 3e
       -0.010513078 0.23809451 -0.94123787 0.2540572
000170 66 a2 bb be 23 63 05 bf 58 77 1c 3e 39 0d e7 be
       -0.36647338 -0.52104396 0.15279901 -0.45127276
000180 cb 83 a6 3e 13 ab 4d 3e cc ac b8 be 66 87 1a 3e
       0.32522425 0.20084791 -0.36069334 0.15090713
000190 18 ed 8b 3e c1 cb b0 be 9e df 2a be 23 6f 80 3e
       0.27329326 -0.34530452 -0.16686866 0.2508479
0001a0 b5 24 5c bf 9b eb 0c be 92 14 9a 3e 2d f0 06 bf
       -0.8599351 -0.13761751 0.3009382 -0.5271023
0001b0 c1 fc f6 3e 27 59 5c 3e 15 15 f4 3e d7 00 10 3f
       0.4823971 0.21518384 0.47672334 0.5625128
0001c0 ff 41 37 3f 81 0c 39 3a 89 59 93 3e 79 20 1c be
       0.7158508 0.0007059053 0.28779247 -0.15246762
0001d0 fa e4 8c bf 15 31 12 bf 3a c0 7b bf 85 36 6c be
       -1.1007378 -0.57106143 -0.9834019 -0.23067673
0001e0 a7 09 52 3e e8 83 06 3f ab 30 1e bf 79 a2 13 3e
       0.20511495 0.5254502 -0.6179301 0.14417447
0001f0 97 a8 6a bf ff 7e 10 bf c8 4e 4e 3e fb 7c b1 3e
       -0.916635 -0.5644378 0.2014724 0.34665665
000200 56 ec 8b 3d fe f4 c3 bd b7 a6 c9 bf 17 95 ee 3e
       0.06832187 -0.09568213 -1.5754002 0.46598122
000210 65 a7 6d 3e 9b f9 bd bf 49 a8 3b 3f 94 77 96 3e
       0.23208387 -1.4841799 0.7330366 0.29388106
000220 21 fc 48 3d 46 1a db bd df cd 73 bf 2a 06 c7 be
       0.049068574 -0.10698371 -0.9523601 -0.3887189
000230 6d e8 26 bd 6c b6 89 bf 07 67 90 bf 2c 8d 8c 3e
       -0.040749002 -1.0758796 -1.1281441 0.27451456
000240 5f dd 76 be 81 2e 88 bc 4c 5b 1a 3d e0 ff 06 be
       -0.24107884 -0.016623737 0.037684724 -0.13183546
000250 29 ef 80 3e dd 7b 8f bf f7 2f 16 3e d7 f0 18 c0
       0.25182465 -1.1209675 0.14666735 -2.3896997
000260 d4 be 83 bf 1e 8d 3a bd b2 b3 49 3e a7 ed 6e 3f
       -1.0292611 -0.045544736 0.19697455 0.9333138
000270 d3 29 4f bf 25 78 8b be 62 65 44 3e 14 81 46 3d
       -0.80923194 -0.272401 0.191793 0.048462942
000280 b5 55 67 bd d6 af 5a 3d d6 b1 f6 3e ab ac 03 3f
       -0.05647822 0.053390346 0.48182553 0.51435345
000290 e3 59 18 bf 1a d0 de be ab 89 08 bf c3 17 9e bd
       -0.59512156 -0.43518144 -0.53335065 -0.07719376
0002a0 16 90 8b bf 28 8e 25 be ca 93 9f 3e ae 8e 6f bf
       -1.0903347 -0.1616751 0.31167442 -0.93577087
0002b0 fc b5 17 bf 3a da 22 3f 62 53 c9 3d 2e 82 fc 3e
       -0.5926206 0.6361424 0.09830357 0.4931807
0002c0 d7 ab 5d 3e 63 fc e2 3e 2e 85 15 b8 49 86 95 be
       0.21647583 0.4433318 -3.56484e-05 -0.29204014
0002d0 d6 52 02 3f 4c bf 52 be 56 be c5 3e 60 52 19 bf
       0.5090765 -0.20580786 0.38621777 -0.5989132
0002e0 f7 03 38 bf 8c 6d 9b 3c 8a 81 d5 3e 96 9b 1b bd
       -0.7188105 0.018973134 0.41700393 -0.037990175
0002f0 92 4d 0a 3f 21 21 86 3f 48 c5 96 3d 26 53 33 3d
       0.5402461 1.047886 0.07361847 0.04378047
000300 06 54 dd be 32 ab 2e be 50 e1 5b 3f 36 ad 9b be
       -0.43228167 -0.17057493 0.85890675 -0.30405587
000310 52 cf 62 3d 9c 29 f7 3e 75 7d 74 be 14 14 14 3f
       0.055373497 0.48273933 -0.23875983 0.57843137
000320 15 e6 de bd e8 46 3f bd a2 9d 0d bf 10 ce c5 bf
       -0.108837284 -0.04669848 -0.55318654 -1.545351
000330 26 9a 22 be 63 92 89 be 34 28 41 bf 3e 99 45 3e
       -0.15879115 -0.26869497 -0.7545197 0.19296739
000340 78 75 0e bf e6 b1 56 3f 20 51 f3 bd 93 69 68 bf
       -0.55647993 0.838652 -0.11880708 -0.90786093
000350 e5 40 96 bd 81 f2 41 3d 48 04 30 3e 7f 64 54 3e
       -0.073365964 0.04735041 0.17189133 0.20741461
000360 d2 5a 82 3e c9 d5 92 3d fa 55 8e 3f ce d2 3b 3f
       0.25459915 0.071696825 1.1119988 0.7336854
000370 9a 9e 33 bf a2 ff 79 bf d3 05 c0 3e 69 ec f2 be
       -0.7016388 -0.9765569 0.37504444 -0.47445992
000380 da c1 33 be a6 f4 ac 3d 11 45 dd bc 82 02 d7 be
       -0.17554417 0.084451005 -0.027010472 -0.419941
000390 c3 aa b2 3e ac 6f eb be cd dd 54 3d 22 b3 83 3e
       0.34895906 -0.45983636 0.05196934 0.25722605
0003a0 4d ff 32 c0 da 50 fe 3e 75 77 b7 bf ac 7e 1f 3f
       -2.7968323 0.4967106 -1.433333 0.6230266
0003b0 6c 97 a2 bd 4b 38 ed bd 3b c7 83 bc 70 27 e6 3e
       -0.07939038 -0.11583003 -0.016086211 0.44951963
0003c0 fc 99 2c bf 9a 48 8a bd b5 82 3f bf c2 e2 60 bf
       -0.6742246 -0.06752129 -0.7480882 -0.87846005
0003d0 f4 7a 54 bf 2f 04 21 bf 35 53 02 3f ef e4 85 be
       -0.8300011 -0.6289701 0.50908214 -0.26151225
0003e0 3f 19 5a bf a8 fd bd bd 81 54 b4 3d 65 96 f2 bb
       -0.8519477 -0.09276897 0.0880518 -0.0074031823
0003f0 dd 94 d9 be 35 e6 7c be 17 7c c0 3e 25 18 54 3f
       -0.42496386 -0.24697192 0.37594673 0.8284934

linear2_q1.bias f4 [256]
000000 1b 18 93 3e d0 b3 50 3e fe f5 ab 3f 09 48 d0 3f
       0.2872933 0.20381093 1.3434446 1.6271983
000010 b6 16 4e bf 62 8b c3 3f 09 af 02 3f 5b 54 86 be
       -0.80503404 1.5276911 0.5104833 -0.26236233
000020 b9 03 0d be aa 21 5c 3f c3 83 7c bf ff ab 59 3f
       -0.13770951 0.8598887 -0.9863855 0.8502807
000030 92 d0 fc be bc 84 4f bd 0d 83 94 bf 14 f4 0f 40
       -0.49377877 -0.050663695 -1.1602494 2.2492723
000040 7b 5a 64 3e 91 d6 cb bf 99 8b 04 bf de 96 8f 3f
       0.2230014 -1.5924855 -0.5177551 1.1217916
000050 16 7e 8c 3d 11 40 02 bf 71 4f 80 3e 6f 6f f1 be
       0.068599865 -0.5087901 0.2506061 -0.4715533
000060 f5 29 3f bf 94 d0 0f 3f 61 f0 75 3f 44 db 9c 3e
       -0.74673396 0.5617764 0.96069914 0.30636036
000070 63 ea 25 bf c0 ee 33 40 b4 cf 81 3e 05 7f 35 3f
       -0.6481077 2.8114471 0.25353777 0.7089694
000080 d7 e3 40 bf b1 d3 92 bf 3d 71 16 3f e4 e6 51 3f
       -0.75347656 -1.1470853 0.5876654 0.81992936
000090 03 50 e1 bd 5f b6 ad be d2 04 9e 3e ac 81 d9 3f
       -0.11001589 -0.339282 0.30863053 1.6992698
0000a0 50 90 2d bd b1 77 8e 3d 7a d9 8f 3e 96 c2 9f 3e
       -0.042373955 0.06956423 0.2809561 0.31203145
0000b0 e5 89 c0 3d f4 91 4a 3f 1e 1a 5b 3e b0 fa c4 3d
       0.09401301 0.79128957 0.21396682 0.09618127
0000c0 9b a0 f1 be 7c fd 02 bf c7 45 75 bc 19 7f db bc
       -0.47192845 -0.51168036 -0.0149702495 -0.026794003
0000d0 e1 e2 a8 be 84 bc 9d 3f 3f 3f cc be 57 58 39 3f
       -0.32985595 1.2323155 -0.39892003 0.7240042
0000e0 2d d0 9e 3e 4f 05 37 40 98 5c 06 3e 9f 0b 37 bf
       0.310182 2.859699 0.13121259 -0.7150211
0000f0 e4 8e 6a 3f fc e6 c6 be 1a 27 2c be 3f b7 3c be
       0.91624284 -0.38848102 -0.16811791 -0.18429278
000100 48 00 15 bd 17 76 aa be ec 73 1d bf 35 22 ff bc
       -0.03637722 -0.3329322 -0.6150501 -0.03114424
000110 9c 3e 15 bd af 75 dd 3f f6 ad 4e be 8d 48 f5 be
       -0.036436662 1.7301539 -0.20183548 -0.47906914
000120 60 61 f2 bc eb 02 f5 3e 34 24 01 3f a4 31 de 3f
       -0.029587448 0.4785379 0.50445867 1.7358899
000130 3b e0 df be 51 d9 1d bd d5 a4 65 3f 1e 46 e3 bc
       -0.43725762 -0.038537327 0.8970464 -0.027743395
000140 5b 55 d6 be 05 f2 37 3f 1c 4b 36 3f ad 83 39 bf
       -0.41861996 0.7185367 0.7120836 -0.72466546
000150 32 9a a5 bb 06 fd 7c bf 9d 44 5b 3e b5 73 84 3d
       -0.005053782 -0.98823583 0.21412893 0.06467382
000160 1e 12 d5 3e 88 03 6d bf f8 b9 c9 3e dd 03 94 bd
       0.41615385 -0.92583513 0.39399695 -0.07227299
000170 08 a7 29 bf d7 23 20 be 93 86 86 3e d0 5e 60 3e
       -0.66270494 -0.15638672 0.26274547 0.21911168
000180 08 70 19 be 0e 7b a4 3f 8b e2 30 bf 75 d3 24 3e
       -0.14984143 1.2850053 -0.6909568 0.1609629
000190 64 12 db bd a9 91 b6 3f 68 53 6e 3f 88 3c e7 3e
       -0.10696867 1.4263202 0.9309602 0.4516337
0001a0 0a fd bf 3f e4 1d fd bd d0 9e 93 bc 75 9a 0a be
       1.4999096 -0.12359217 -0.018020064 -0.13535483
0001b0 63 38 08 bf f0 41 39 bf c5 e2 20 40 e4 e9 5e bf
       -0.5321104 -0.7236624 2.513841 -0.8707564
0001c0 fb 3c 74 3f fd 79 36 bf e5 03 0c bf 12 f0 02 bd
       0.9540555 -0.7127989 -0.5469344 -0.03196723
0001d0 ae 31 ed bd 49 78 1c 40 0c ef 87 bf 6b 36 10 3e
       -0.11581741 2.4448416 -1.0619826 0.14083259
0001e0 89 a7 8b 3e eb 20 6b 3f 41 ae 29 3f 1c d1 dc be
       0.27276257 0.91847104 0.66281515 -0.43128288
0001f0 4f cc 80 3e c6 d7 3a bd 30 42 08 40 97 0b 18 bd
       0.25155875 -0.045615934 2.1290398 -0.037120428
000200 70 8c 40 be 64 d4 ad bf ca e0 88 3e 66 97 ea 3f
       -0.18803573 -1.3580441 0.26734 1.8327453
000210 c6 36 a0 3f 4a 1e 7a 3f a8 ea 0d be de 0b 36 3f
       1.2516716 0.9770247 -0.13859046 0.7111186
000220 e9 ea 7a 3e 3f 94 d4 3e 06 bc 36 3f 4d 2f db 3e
       0.24503674 0.41519353 0.7138065 0.42809525
000230 14 f7 ce 3e e7 56 a0 be 1e 01 fc 3f 2d a8 b0 3f
       0.4042288 -0.313163 1.9687841 1.3801323
000240 a5 09 ff 3e 08 32 16 3f 77 03 96 3d d3 c5 3e 3f
       0.49812046 0.5867009 0.073248796 0.74520606
000250 da 37 c6 3e e6 d4 fe 3f 6d b6 4b 3e f2 80 04 40
       0.38714486 1.9908721 0.19893809 2.0703702
000260 17 a5 8e 3f 64 3e ec 3d 07 d5 1a 3f 55 be b2 3e
       1.1144131 0.115353376 0.60481304 0.34910837
000270 97 9d 53 bd b6 21 d1 be 94 db 22 3c 30 3c 1a 3e
       -0.05166396 -0.40846032 0.009940047 0.15062022
000280 be 47 3e bb 2a cb c4 be 1c 68 bf bf f3 81 8a 3e
       -0.002903446 -0.38436252 -1.4953647 0.27052268
000290 42 c4 19 3c 3f 3a 9e be 2b 33 28 bf ed 86 a0 3d
       0.00938517 -0.30903813 -0.65703076 0.07838235
0002a0 e1 dd d2 bf 29 4e 0d 40 0b 99 4e 3e 0f d4 3d 3e
       -1.6473962 2.2078955 0.20175569 0.18537925
0002b0 ab 78 5a 3e f5 1a 50 bf d8 13 81 3e 34 28 41 3f
       0.21335094 -0.81291133 0.25210452 0.7545197
0002c0 20 da c4 3d 62 a2 92 bf ba 41 f7 be 68 e5 b3 3f
       0.096119165 -1.1455805 -0.48292333 1.4054384
0002d0 85 13 48 bc 10 d3 56 bc 84 fc 5b 3f 8f e2 b2 3d
       -0.012211685 -0.013111845 0.85932183 0.08734619
0002e0 da 8f ae bf 09 95 f2 3e 86 0e a1 3d 03 0d 5b bf
       -1.363765 0.4737933 0.07864098 -0.8556673
0002f0 da 90 d4 bc 4c 07 44 3e c6 5b 9e 3f 48 a1 2a be
       -0.025947977 0.19143409 1.2371757 -0.16663086
000300 d8 bd 19 3e b6 95 68 bf 21 00 0a bf a4 22 15 3f
       0.15013826 -0.9085344 -0.53906447 0.5825598
000310 c9 48 37 be 97 55 7a be 1a f8 81 3f 97 4d c2 be
       -0.17898859 -0.24446712 1.015384 -0.3794982
000320 ea c4 c7 bc 24 e0 7d be f6 5b ce bb 89 0b 84 3e
       -0.024385888 -0.24792534 -0.0062975837 0.2579005
000330 6e 4b 11 bd af cd 59 3f 45 44 a2 3f 83 a2 0f bd
       -0.035472326 0.85079473 1.2677084 -0.035067093
000340 7a 3f 8e 3f 11 3b d5 3e 6f 62 81 bd 25 d3 dd 3e
       1.1113122 0.41646627 -0.06317603 0.43325153
000350 34 94 31 3f 88 a1 f3 3f 3e c7 89 3f d4 4f ca 3e
       0.69366765 1.903367 1.0763929 0.3951403
000360 91 10 f7 be 99 5a 59 3e 66 d5 17 be 46 05 7f bd
       -0.48254827 0.21225967 -0.14827499 -0.06226089
000370 a6 8f 9a 3e 1a ad 55 3d 2c 3d b2 3e 7a 4d 1a 3f
       0.3018772 0.052167036 0.34812295 0.6027447
000380 48 73 19 3d 45 7e e8 3e b1 78 81 3e 14 ff b0 be
       0.037463456 0.45408836 0.25287393 -0.3456961
000390 2c b8 ae be 48 73 d6 bd ab 05 91 bb 97 bc 5b 3e
       -0.34124887 -0.10471207 -0.0044257245 0.2145866
0003a0 3d 53 6f be e3 f1 19 3f be 21 0c 40 ac 2c 40 be
       -0.23371597 0.60134715 2.1895595 -0.18767041
0003b0 84 26 19 3f 61 59 ce 3d a9 d6 07 bd 92 e6 61 3f
       0.59824395 0.100756414 -0.0331637 0.8824245
0003c0 d5 20 53 bf 7b a9 71 be ef f6 68 3f a6 e4 d4 be
       -0.8247197 -0.23599808 0.9100179 -0.41580695
0003d0 9b 74 63 bf 0b dc 38 bd cd 73 18 3c a1 13 37 3e
       -0.888498 -0.045131724 0.009304953 0.17878582
0003e0 ac 75 13 bf 79 ef f8 3e f0 fa 0b bf 63 c0 e9 3d
       -0.5760143 0.48620203 -0.54679775 0.11413648
0003f0 a0 61 8a 3f a0 9f 75 3e 0a a3 5f be aa 2c 20 3e
       1.0811043 0.23986673 -0.21839538 0.15642038

linear3_q1.weight f4 [1, 256]
000000 ec f4 02 40 85 40 1b 40 bd ea 34 3e 1a de 2e 3f
       2.0461988 2.425813 0.1766767 0.6830765
000010 fe d3 a2 be 74 95 76 3e 3d 58 ed 3f 7e be 60 c0
       -0.31802362 0.2408045 1.8542553 -3.5116267
000020 d8 75 0f c0 ee 9d f6 3e c6 ab e3 be b7 a7 07 40
       -2.2415676 0.48167366 -0.4446699 2.1196115
000030 ce 7d 86 c0 cb 2a 68 c0 85 ca e4 be c5 97 2f 3f
       -4.202857 -3.6276119 -0.4468576 0.68590957
000040 20 60 98 3f e7 04 b1 be 60 4f 3d bf e9 3e f5 3f
       1.1904335 -0.34574053 -0.7394924 1.9159824
000050 93 4c 12 c0 16 60 67 c0 e6 a0 52 40 21 e9 7c bf
       -2.2859237 -3.6152396 3.2910705 -0.98793226
000060 a2 8c 47 bf 92 aa 7e c0 0d a7 a2 3f 80 5e 00 40
       -0.77948964 -3.9791608 1.270723 2.0057678
000070 7d a4 d3 bf 7a 22 7e 3f a6 02 15 40 d9 3e 59 3f
       -1.6534573 0.9927136 2.3282866 0.8486152
000080 95 1a 64 c0 5c 57 1d be 55 cd d6 3f cd 60 16 40
       -3.5641224 -0.15365356 1.6781412 2.3496583
000090 2b 65 8f c0 a5 1b 25 c0 c1 91 62 40 34 b0 b9 3f
       -4.4810996 -2.5798123 3.540146 1.4506898
0000a0 7c e9 dd bf 3e 33 89 c0 e1 ad 48 c0 e4 d7 c6 c0
       -1.7336879 -4.287505 -3.1356127 -6.213854
0000b0 40 a4 d2 3f 7c cd 73 3f 8c 15 80 40 23 18 ae 3f
       1.6456375 0.9523542 4.00263 1.3601116
0000c0 85 8d 19 c0 e1 df 35 bf 91 99 54 c0 92 17 50 c0
       -2.3992627 -0.7104474 -3.321873 -3.2514386
0000d0 ed 75 2c c0 5f 3a f2 3f 9c ab 11 c0 8d ce ce 3f
       -2.6946976 1.8924063 -2.2760992 1.6156784
0000e0 cd db 2c 40 3c 5c 92 3f 2e cb 5f 3f 86 87 11 c0
       2.7009156 1.1434398 0.874194 -2.2738967
0000f0 00 92 ac 3f 7b 6e f6 bf 89 3b 07 40 d8 95 7f bf
       1.3482056 -1.9252466 2.1130087 -0.9983802
000100 11 db 81 3d b0 fb 50 c0 d9 52 09 c0 29 e8 b0 3d
       0.06340612 -3.2653618 -2.1456816 0.08638031
000110 9b 2a 8a bb a7 cb c3 3f b0 46 4a c0 d4 5d a1 bf
       -0.0042165047 1.5296525 -3.1605644 -1.2606759
000120 21 76 12 3c e4 68 d6 3f f5 ba 02 40 a9 bb 55 3f
       0.008939297 1.675076 2.042661 0.8348947
000130 77 05 0e c0 0c f9 2f c0 fa 9d 0a 40 48 ce 3a 3c
       -2.2190835 -2.7495756 2.1658921 0.01140172
000140 6a b5 59 c0 65 92 cd 3f bd 3b 8b 3f 7f 03 32 bf
       -3.4016976 1.6060301 1.0877606 -0.69536585
000150 f0 d0 70 be f7 49 fd bf c3 fc 57 3f 09 e6 4a c0
       -0.23517203 -1.9788197 0.8437006 -3.1702902
000160 ca 1e b5 3f 7e ac b8 be 8d c2 f9 3f cb e4 20 be
       1.4150021 -0.360691 1.9512497 -0.15712278
000170 bd ad 08 bf e0 53 8c bf 0d a5 93 40 93 17 dc 3f
       -0.53390104 -1.0963097 4.613898 1.7194694
000180 53 b0 9a bf 82 2b c0 3f f0 37 0d c0 2a f8 f2 c0
       -1.208506 1.5013278 -2.2065392 -7.5927935
000190 df f7 2b c0 3c 27 04 40 ac 4b 17 40 c1 51 50 40
       -2.6870039 2.0648947 2.3639936 3.2549899
0001a0 50 ce b6 3f 0d da c5 be 84 19 df bb fa 8a c8 bf
       1.4281712 -0.38642922 -0.0068084616 -1.5667412
0001b0 38 e2 de bf 84 dc bc bf 84 8a 41 3f 6d 75 e8 bf
       -1.7412786 -1.4754796 0.75601983 -1.8160836
0001c0 c4 a9 d8 3f 71 8a 3c c0 6f 95 fb bf 84 03 2f bb
       1.6926808 -2.9459498 -1.9654979 -0.0026704976
0001d0 e5 56 b5 bd df 77 6d 3f ee a8 0b bf dc d6 33 40
       -0.088544644 0.92761034 -0.5455464 2.809989
0001e0 51 61 ec 3f 60 11 7b 3f 25 23 03 40 c1 89 56 c0
       1.8467199 0.9807339 2.04902 -3.3521578
0001f0 12 30 a2 3f 26 10 a6 c0 a1 e4 2b 3f 51 d5 91 3f
       1.267092 -5.1894712 0.67145735 1.1393224
000200 bd 18 3e c0 3d 52 e7 be fa fb 21 40 71 05 b4 3f
       -2.97026 -0.4517993 2.5310044 1.406416
000210 5b fc 4d 3f 71 c0 06 40 1b ac c6 c0 d1 f3 13 3f
       0.8046319 2.1054957 -6.208509 0.5779391
000220 52 d3 00 c1 25 7f c2 3f a4 1a 0a 40 63 c8 9d 3f
       -8.051592 1.5195051 2.157876 1.2326778
000230 41 88 3d c0 b3 00 29 c0 63 74 8b 3f 09 a4 b4 3f
       -2.9614413 -2.6406677 1.0894893 1.411256
000240 97 c2 95 3e 04 dc 08 40 fe ca a4 c0 61 47 16 40
       0.29250023 2.1384287 -5.1497793 2.3481066
000250 50 d5 1e 40 3a eb 80 3f d2 98 84 3f a3 88 52 3f
       2.4817696 1.0071785 1.0359137 0.8223974
000260 14 3d cd 3f 45 97 ad bf da f9 2d 40 79 80 ac 3f
       1.6034265 -1.3561789 2.7183747 1.3476707
000270 c4 f9 a4 be 69 77 eb bf 1f b9 52 c0 6b e9 dc 3f
       -0.32221806 -1.8395816 -3.292549 1.7258734
000280 ee fe 27 c0 b4 20 08 c0 df f6 fb be a4 26 c1 3f
       -2.6249347 -2.126996 -0.49211785 1.5089917
000290 47 b3 6d 3f 9b 44 11 c0 e8 a4 42 c0 59 0c b5 c0
       0.9285168 -2.2698123 -3.041315 -5.6577573
0002a0 c8 62 16 bf 43 18 83 3f 87 69 24 40 a0 b7 c2 3f
       -0.5874448 1.0241779 2.5689409 1.5212288
0002b0 36 ee c1 3f 82 14 6b c0 61 e9 45 3f 69 8d 01 40
       1.5150821 -3.6731267 0.7730923 2.024256
0002c0 2e 9f e3 bf 2d 2b 62 c0 43 d2 d5 bf e7 97 e6 3f
       -1.7782953 -3.5338852 -1.6704792 1.8015107
0002d0 87 d7 85 3c 56 e5 0f bb 1f 96 06 3f ca 93 ef 3f
       0.016338123 -0.0021956763 0.52572817 1.8716977
0002e0 b4 eb cc be fc e3 ec bf e7 4e fa bf 28 6e a3 be
       -0.40023577 -1.8507075 -1.9555329 -0.3191998
0002f0 4f c4 97 bb fd 4e 63 c0 86 29 9d 3f 47 74 ce bf
       -0.004631556 -3.551696 1.2278297 -1.6129235
000300 b6 ed e8 bf 53 33 2d c0 ee a3 05 c0 f0 da 10 40
       -1.8197544 -2.7062576 -2.0881305 2.263363
000310 58 9a 2e c0 7c 82 32 c0 a3 41 b4 3f ee ba 36 c0
       -2.7281704 -2.7892141 1.4082531 -2.8551593
000320 d6 33 f4 bd a8 6f 8e bf fe c5 92 c0 05 14 8d c0
       -0.119239494 -1.1127825 -4.586669 -4.408694
000330 f8 01 39 bf 02 5f 1e 40 e4 5b 1d 40 95 a3 9c bd
       -0.7226863 2.4745488 2.4587336 -0.07648388
000340 1d cf 9b 3f 81 79 25 40 16 5a 9b bd bf b9 e9 3f
       1.2172581 2.585541 -0.07585542 1.825981
000350 e4 66 0c 40 9b 13 1f 40 5c ff 6b 3f e7 71 ec 3f
       2.19378 2.4855716 0.9218652 1.847226
000360 9f d0 37 c0 af 57 73 c0 0c d0 79 c0 6c 26 5c c0
       -2.8721082 -3.8022268 -3.9033232 -3.439845
000370 3e 0c e9 3f 63 42 19 c0 3e 9f 34 c0 76 0d dc 3f
       1.8206861 -2.394677 -2.8222194 1.7191608
000380 72 9c e9 c0 ab 95 25 c0 07 29 79 3f c0 77 29 c0
       -7.3003473 -2.58726 0.9732823 -2.647934
000390 de 1e 9f bf a5 8a 05 c0 4a 15 02 c0 76 3f 52 3f
       -1.2431295 -2.0865872 -2.0325494 0.82128084
0003a0 2a be 5e c0 47 ea 91 3f 84 fc 96 3f 67 e8 0e c0
       -3.4803567 1.1399621 1.1795812 -2.2329347
0003b0 86 ca 41 40 86 93 3f 3f a1 0d b1 3b e6 13 63 40
       3.027986 0.7483448 0.005403236 3.5480895
0003c0 11 2c 0c c0 4b 87 0c c0 cb 34 02 40 1a 44 0d c0
       -2.1901896 -2.1957576 2.0344722 -2.2072816
0003d0 0c b6 5a c0 0f 1e d5 be 6f 95 3d 40 1e f5 20 c0
       -3.4173613 -0.41624495 2.9622457 -2.5149608
0003e0 be a1 95 bf f4 b8 0f 40 67 0c 6c c0 c6 62 ca 3f
       -1.1689985 2.2456636 -3.688257 1.5811393
0003f0 e5 f4 f0 3f eb 71 65 c0 02 6c 78 bf 6a d7 f1 bf
       1.8824736 -3.585078 -0.97039807 -1.8893864

linear1_q2.weight f4 [256, 26]
000000 3c ef 13 bf 99 d0 57 be 83 2a 88 bf 46 6a e5 bd
       -0.5778692 -0.21075667 -1.0637974 -0.11201911
000010 05 5b 0f bc d7 dc 03 bd 54 2f 83 3e c5 55 7d be
       -0.008749728 -0.03219303 0.25622046 -0.2473975
000020 8a b8 d5 3d de dc 82 3d 6a ee 07 be 49 84 15 be
       0.10435589 0.06389783 -0.13274541 -0.14601244
000030 01 6c 8d be 79 1f 21 3d 90 ca d5 bd 1f 6b 92 bc
       -0.27621463 0.039336655 -0.10439026 -0.017873345
000040 ee 34 01 be e1 6c a2 3e 4c 59 29 be 21 76 73 be
       -0.12617847 0.31723693 -0.1653797 -0.23775531
000050 46 8f 50 be 70 e4 73 3f a8 ec 37 be 28 f7 44 c0
       -0.20367154 0.9527044 -0.17961371 -3.0775852
000060 00 66 29 3e 15 db 38 bf 1f 4d 94 3d c3 20 4c bd
       0.16542816 -0.7220929 0.07241272 -0.04983593
000070 47 ab d5 be 90 d8 26 3e 74 4c 07 be 7d 09 5b bc
       -0.41732237 0.1629355 -0.13212758 -0.013368961
000080 0c 3e 90 be 68 a5 fb be a7 26 73 3e 2b 34 07 bd
       -0.28172338 -0.49149632 0.23745213 -0.033008736
000090 ec e4 30 be a1 80 7e be 7f 69 c1 be 06 b5 03 be
       -0.17274827 -0.24853756 -0.377758 -0.12862024
0000a0 1f 1c 09 be af ea d1 bd 83 e4 d9 3c 02 26 c7 3e
       -0.13389634 -0.102498405 0.02659822 0.38896185
0000b0 94 b7 3b 3f 1f 80 ad be 3b b2 d0 3e eb e5 9b 3f
       0.73326993 -0.3388681 0.4076098 1.217954
0000c0 41 b0 30 3f 99 26 df bf 12 1e 84 3e 3a 85 bf be
       0.6901894 -1.7433654 0.25804192 -0.3740633
0000d0 51 ae 04 bd 32 26 16 be d5 0c 00 bd cb cc 83 be
       -0.032392804 -0.14663008 -0.031262238 -0.25742182
0000e0 16 63 2d be 7f 86 6c be c1 eb 68 bc f8 b7 27 be
       -0.1693233 -0.23098181 -0.014216364 -0.16378772
0000f0 ce 66 18 be 99 36 0a 3e f3 ef f1 bd 6b 18 3c 3d
       -0.14882967 0.1349739 -0.11813345 0.045921724
000100 3c 38 19 3d 4e 1b 37 3e 80 42 13 3e ad ec 17 3e
       0.037407145 0.1788151 0.14380836 0.14836378
000110 bc 33 90 3d 76 85 85 3e b8 13 07 3e 5e aa 68 3d
       0.070411175 0.26078385 0.13191116 0.0568031
000120 e1 c8 3f 3f 9b 9a 29 3f c3 dc 70 bf 1f 22 28 c0
       0.7491589 0.66251534 -0.94086856 -2.6270826
000130 f7 04 cd bd e6 2e fa 3d 9a 30 d4 bd 7d 42 1f bf
       -0.100107126 0.122159764 -0.103608325 -0.6221083
000140 3e 43 c4 be 20 52 85 be 6e f6 76 be 7e 75 94 be
       -0.38332552 -0.2603922 -0.24117443 -0.2899589
000150 95 29 e2 bc 47 3d a9 be f9 b4 f7 be b1 73 14 bf
       -0.027607718 -0.33054563 -0.4838026 -0.5798903
000160 ec 91 ea be d0 ec c0 be ea a0 e4 3c 97 bc dd be
       -0.45814455 -0.37680674 0.027908761 -0.43307945
000170 44 ea 71 be 48 2e 53 3e 3a dc 4d be 76 66 99 3e
       -0.23624521 0.20623124 -0.20103541 0.29960984
000180 da 37 2b be 58 eb 4c 3e 5b 9f 81 bf fe 4a 15 bf
       -0.16720524 0.20011652 -1.0126756 -0.58317554
000190 11 ea 40 3f b4 74 3c c0 7a 96 8e 3f 53 8c 68 bd
       0.75357157 -2.944623 1.1139672 -0.05677445
0001a0 71 99 5c bd 43 8a 20 3d f2 55 86 3d a2 f3 fd bb
       -0.05385727 0.039194357 0.065593615 -0.0077499906
0001b0 b0 c4 a6 bc 84 ac 15 3d 30 cd 00 be 7d 9d 89 bb
       -0.02035746 0.036541477 -0.12578273 -0.0041996823
0001c0 01 e9 84 bd 8c c4 f0 bd b5 32 4c 3d 85 2b ca 3d
       -0.064897545 -0.11756238 0.049853045 0.09871582
0001d0 8d 03 a0 bd dc 19 93 3c c5 38 8d bd 79 5e 83 3d
       -0.07813177 0.017956667 -0.068955936 0.064145036
0001e0 da 96 e8 3c cf 22 1c be 4a 66 2e bd db 0d 89 3d
       0.028392244 -0.15247653 -0.04257802 0.06692096
0001f0 36 5c c2 3c cc 24 49 be 6c b7 24 bf ec 31 b8 bf
       0.02372561 -0.19642943 -0.6434238 -1.4390235
000200 7d 6e 94 3d 19 04 aa 3e 85 7a b0 bd 11 be 9b 3c
       0.072476365 0.3320625 -0.08617119 0.01901153
000210 03 69 85 be 05 ed 12 be 56 23 b6 bc 2d 4e 6b bd
       -0.2605668 -0.14348228 -0.022233646 -0.0574476
000220 dc 64 3e 3e 7f c0 b0 3d 34 2b b2 bd 99 ca f5 3d
       0.18593162 0.08630466 -0.086996466 0.12001533
000230 05 7a cd bc 9f fc fd 3d 1b 36 4e 3e 40 23 09 bc
       -0.025082598 0.12401699 0.20137827 -0.008370221
000240 a3 a4 18 3e 1d 65 0b 3e 6b 42 ad bd c3 c3 4c 3d
       0.14906554 0.1361279 -0.08459934 0.04999138
000250 d8 3d 15 3c a2 49 74 be 39 3a 7d be ee 86 55 3f
       0.009108983 -0.23856214 -0.24729241 0.8340901
000260 c7 39 42 bc 52 ca da bf ad c2 89 bd a1 10 cc 3f
       -0.0118545955 -1.7092993 -0.067265846 1.5942575
000270 59 ea f3 bc c0 ed 45 3e 57 d2 38 3d 7b dd 38 3e
       -0.029774832 0.19328976 0.04512247 0.18053238
000280 a8 c2 c8 3d 84 bd ae 3d c1 d2 35 3d d6 55 2b 3e
       0.09802753 0.08532241 0.044390444 0.16731963
000290 a3 21 b4 b8 bc f4 03 bc 30 0c 54 3c 0b 56 b8 3c
       -8.589334e-05 -0.008053955 0.012942359 0.022501966
0002a0 83 cb 61 3e 9b ae 77 3d 3e d8 89 3d 0d 98 12 3e
       0.2205029 0.06046925 0.06730698 0.14315815
0002b0 a1 b6 f1 3d 72 4a 11 3e 9b f1 0a 3e e5 44 15 3d
       0.11802412 0.14188555 0.13568728 0.036442656
0002c0 84 b6 21 3e 13 f8 b6 bd 95 6f 03 bf 7f 8c 0e bf
       0.1579228 -0.08934035 -0.51342136 -0.5568313
0002d0 20 5f f8 3d 8e e1 83 be f5 ae 9f be be d8 31 be
       0.12127519 -0.25758022 -0.3118817 -0.17367837
0002e0 59 f8 8b be cf ff 61 be 0d 1e 99 3e 35 f8 4b be
       -0.27337912 -0.2207024 0.2990574 -0.19918902
0002f0 98 28 38 3e 02 ca 0a bd 99 51 2c be 42 38 99 3d
       0.17984235 -0.033884056 -0.16828002 0.074814335
000300 1e 7a 78 be 0a c4 93 3e 81 ca c7 bd 05 65 6c bd
       -0.24265334 0.28860503 -0.097554214 -0.057713527
000310 dc 38 54 bd ff f0 94 bd 12 8b a3 bd 2f c6 80 3e
       -0.051812038 -0.07272529 -0.0798551 0.25151202
000320 2b 71 87 bd 01 30 16 bf d7 25 54 be 16 ce eb bf
       -0.06613382 -0.58667 -0.2071756 -1.8422267
000330 87 2d 29 bf 56 fb e4 bf a5 43 8c 3e ad 1d bf bc
       -0.66085094 -1.7889202 0.2739536 -0.02332958
000340 98 12 f5 3b 28 2f d7 3e 5a 4e af 3d 9a 42 d3 3e
       0.007479023 0.42028165 0.08559866 0.4126175
000350 ec 0f 98 3e 99 b9 90 3e a9 db f6 3e e4 08 3c be
       0.29699647 0.282666 0.48214462 -0.18362767
000360 c9 4d 3e be f0 bb 32 3b 8e 7e 21 3e 29 b3 37 3d
       -0.1858436 0.0027272664 0.15770933 0.044848595
000370 c2 c8 b1 bd ac ee bc be c6 79 9d be 63 d9 b1 bc
       -0.0868087 -0.36900842 -0.30756968 -0.021710103
000380 45 c3 58 bf a9 f2 e0 be d0 6a 2d bf da 7e 26 bf
       -0.8467296 -0.43935135 -0.6774111 -0.6503731
000390 24 15 c0 be 5b 2a c3 3e a2 43 c3 be b9 53 97 bf
       -0.3751613 0.38118252 -0.38137537 -1.1822425
0003a0 59 24 48 3e d2 61 67 3f 78 4c 71 be e5 9a 81 bd
       0.19545116 0.90383637 -0.23564327 -0.06328372
0003b0 79 60 1b 3d 3b 7c 95 3d 29 0e 9e 3d 91 f5 33 3d
       0.0379338 0.07299086 0.077175446 0.043935362
0003c0 56 62 00 3e a7 da f4 3d 02 50 c6 3d 6c 68 86 3e
       0.12537512 0.11955767 0.09683229 0.26251543
0003d0 d1 45 a9 3b 80 7c e0 bc 32 6c 91 bc f4 67 90 3e
       0.0051657935 -0.027403116 -0.017751787 0.2820431
0003e0 96 ce 3c 3e 50 37 d5 3d 0a 61 10 bd 72 34 c1 be
       0.18438181 0.10410941 -0.035248794 -0.37735325
0003f0 2c 9b a5 3c 14 76 31 be e8 65 0e 3f 71 4f 1e bf
       0.020215593 -0.173302 0.55624247 -0.6183997

linear1_q2.bias f4 [256]
000000 86 18 c7 bc 72 43 bf 3e 3b f4 b2 3f 3d 79 3b 3f
       -0.024303686 0.37356144 1.3980783 0.7323187
000010 2a aa 11 40 14 1c fc 3f e4 5d 0b 40 a0 2f 9b 3f
       2.276011 1.9696069 2.1776056 1.2123909
000020 35 03 0c 3f 7f 51 a8 3f 9c b5 74 be 62 2f b4 bd
       0.54692394 1.3149871 -0.23897403 -0.087981
000030 0d 92 40 bd d4 95 16 c0 48 01 7c bf 56 bf 63 bf
       -0.047014285 -2.3528948 -0.98439455 -0.8896383
000040 69 81 95 bf dc 18 f3 bf f1 04 30 3e 64 08 04 c0
       -1.1680118 -1.8991961 0.17189385 -2.0630121
000050 42 24 92 bf 11 5b 70 3f 23 51 e4 bf 65 a5 c0 3e
       -1.1417315 0.93888956 -1.7837261 0.37626186
000060 5d 45 ae 3f e7 ea 87 be 5b ba 9f bf c3 39 65 bf
       1.3614918 -0.26546404 -1.2478746 -0.8954126
000070 e4 2d 8e 3e de b0 33 3f 3e b8 c8 bf 43 52 a4 bf
       0.27769387 0.7019175 -1.5681226 -1.2837604
000080 1c e1 12 40 0b 44 18 3f 24 7e a2 be 73 04 32 bf
       2.2949896 0.59478825 -0.31736863 -0.6953804
000090 99 61 5c bf f5 fb 14 bd 68 9f 84 3e 49 9d 69 3e
       -0.8608642 -0.036373097 0.25902867 0.22813906
0000a0 44 69 9a bf ec f4 3f be 29 3d 33 3f 8c 9a 03 c0
       -1.2063375 -0.18745774 0.700152 -2.0563078
0000b0 4f f7 d3 bc db 28 0f bf 83 01 8d 3e 9a 04 31 3d
       -0.025874762 -0.55921715 0.27540216 0.04321728
0000c0 bd 0d fa bf ab 7e c7 3f a2 37 95 3f d6 6f d3 bd
       -1.9535443 1.5585531 1.1657603 -0.103240654
0000d0 70 70 bb 3f 83 90 ce 3e 8d fd 12 3e 71 67 cc 3f
       1.4643688 0.4034463 0.14354534 1.5969068
0000e0 b8 58 66 3f 73 e6 9b bf 36 f0 c7 be 7d 93 d8 3f
       0.89979124 -1.2179703 -0.39050454 1.692001
0000f0 12 32 11 3f cd 27 a2 3f cf f4 e8 3e 05 be 3b 3e
       0.56717026 1.2668396 0.45499274 0.18334205
000100 d0 0a 95 bd 7a e4 11 40 3c d7 83 bf 8b 5a 39 3f
       -0.07277453 2.27957 -1.0300059 0.7240378
000110 7b ad 40 3f ac c9 a1 be e5 be d7 3e b1 6f dd bf
       0.7526471 -0.31599176 0.42137828 -1.729971
000120 d3 71 7a 3c cb 6b 4d bf 16 67 e3 3d 31 71 89 bf
       0.015285927 -0.80242604 0.111036465 -1.0737668
000130 dd 33 34 bf 89 c5 d1 3e 26 03 39 bf 4b 1d b6 3e
       -0.7039164 0.4097102 -0.7227043 0.35569224
000140 e1 bb 93 3c ed 62 85 be 81 0f 55 3f bc fa 9d 3e
       0.018033924 -0.26052037 0.8322678 0.30855358
000150 cc f0 02 c0 78 7a ac bf 65 4d 86 bf f1 79 67 3f
       -2.045947 -1.3474874 -1.0492369 0.9042044
000160 9a 4a c6 3d 81 66 07 3f 1a 5b 9d 3e 67 ef 61 3f
       0.09682198 0.52890784 0.30733567 0.88255924
000170 1f 6e 46 3e 51 22 b4 bf 58 0b 3f 3f 59 8b c7 3e
       0.19377945 -1.4072973 0.74626684 0.389735
000180 a1 f2 c0 3e 9c c6 04 3f 6a 90 d7 bf 19 5e 51 bf
       0.3768511 0.51865554 -1.6840947 -0.81784207
000190 2f d3 81 bf 20 8b a7 bf 67 05 2d 3e 52 df b2 bf
       -1.0142573 -1.3089333 0.16896592 -1.3974402
0001a0 f4 27 3c bf 76 ab 40 bf ad 66 38 be fe 2f db bf
       -0.73498464 -0.7526163 -0.18007918 -1.7124021
0001b0 fd fc 08 3f 43 d0 cb 3e e9 2e 55 3d b4 60 e6 3f
       0.5351103 0.3980733 0.05204669 1.7998261
0001c0 c5 43 af 3e 0d 85 39 bf 24 7d 9d 3e a2 7d e2 3e
       0.34231392 -0.72468644 0.30759537 0.44236475
0001d0 1b 3c 93 bf 6a 3e 31 3f 5c 0d f0 bf 17 69 74 3f
       -1.1502718 0.6923586 -1.8754077 0.95472854
0001e0 97 af 94 3e fa a4 56 3c b5 ea db bf 4c 75 ac bd
       0.29040214 0.013100857 -1.7181002 -0.0842081
0001f0 03 21 82 bf 7b 0c 8d 3e b1 8f af 3f d1 a2 67 3e
       -1.0166324 0.27548584 1.3715726 0.22620703
000200 ce e8 0c 40 47 f2 8c bf a1 53 96 3f 70 87 93 3e
       2.2017093 -1.1011437 1.1744272 0.28814268
000210 e0 a3 5a bd c4 ca e1 3d d8 d1 02 bf 37 1e c9 3e
       -0.05337894 0.110250026 -0.51101446 0.39280865
000220 ff 07 cc bf 70 bd 09 40 7f 71 b2 3e cf 64 41 3f
       -1.593994 2.1521873 0.34852216 0.75544447
000230 41 38 5e 3f b0 24 3f 3f 30 6a 07 be 3f a9 46 bc
       0.86804587 0.74665356 -0.13224101 -0.012125312
000240 18 cb 75 3d 2c a8 cc 3e 71 1e d8 3e ad 9c 89 bf
       0.06000814 0.39972055 0.42210725 -1.0750939
000250 c7 7a 3b bf 6c 5a 01 3f 99 04 a9 bf 02 95 8f 3f
       -0.7323422 0.505286 -1.3204528 1.1217349
000260 82 21 23 3e e9 87 08 3f f7 5c 89 bf 38 ec 17 40
       0.15930751 0.5333238 -1.0731496 2.3737926
000270 f0 e8 92 3f b4 dc 40 3f 55 17 03 bf 18 2d 91 3f
       1.1477337 0.75336766 -0.51207477 1.1341887
000280 fd d0 3e be d5 49 eb 3f 63 81 44 3f 84 06 be 3e
       -0.1863441 1.8381907 0.7675993 0.37114346
000290 11 a7 e7 3e 59 f4 83 be 44 f3 d4 bf c8 5b a5 bf
       0.4524465 -0.2577236 -1.6636739 -1.2918634
0002a0 28 07 dd bf 9f 5a 1f 3f 7a c3 72 bf db 9d af 3e
       -1.7267809 0.6224765 -0.94829524 0.34300122
0002b0 12 4b 47 3e ac 6c 9c bf 51 24 08 c0 b1 97 20 3f
       0.19462231 -1.2220664 -2.1272166 0.6273146
0002c0 73 f4 36 3e 92 5a 89 3f 76 4f 14 40 9b bb c6 bf
       0.17866687 1.0730765 2.31735 -1.5526003
0002d0 b7 bb 97 bf 7e 3a 54 bf d7 ec 3b 3f 8a cc 08 40
       -1.1854161 -0.8290175 0.73408264 2.137484
0002e0 04 85 c8 3e 3a ad db 3f 60 eb df bf 81 61 e3 bf
       0.39163983 1.716224 -1.7493706 -1.7764131
0002f0 86 f5 19 40 41 4c 28 be 1d 3e 8b bf 7a 74 d2 be
       2.4056106 -0.16435339 -1.087833 -0.4110449
000300 0d 75 ce 3f 6f 46 93 3f dd ef 60 bf 38 9d 24 3f
       1.6129471 1.150587 -0.87866 0.64302397
000310 cf b7 62 bf 93 60 2a 3f ce 3a c1 3f 0d 81 0f 3f
       -0.8856172 0.6655361 1.5096071 0.5605629
000320 20 c5 96 3f 5c 39 78 be 4f 94 81 bd 38 65 3b 3e
       1.1778908 -0.24240631 -0.06327116 0.1830033
000330 71 c7 88 3e 67 9d a3 bf 56 a1 bc bf bc 76 05 40
       0.26714662 -1.278241 -1.4736736 2.085372
000340 bd 53 96 be e4 36 01 40 1b f5 ab 3f 08 49 ef bf
       -0.29360762 2.0189753 1.3434175 -1.8694162
000350 6a 51 f2 3e 72 33 7f 3f fb 5a 58 bf bd 7e 8a 3f
       0.4732774 0.99687874 -0.84513825 1.0819927
000360 84 06 1e 3e 19 6a 7d 3f 81 3e a6 3f 00 f5 5a 3f
       0.15432173 0.9899002 1.2987825 0.8553009
000370 07 15 cc bd 63 ce 12 40 ad 0e 6c 3f fc ec 11 3f
       -0.09964948 2.2938468 0.92209893 0.57002234
000380 2b fb 6f 3e 50 0b 0d bf 47 35 ee bf c0 09 00 3f
       0.23435657 -0.55095387 -1.8610009 0.5001488
000390 4a 62 b4 bf 14 c1 0f 3f 0f 47 1a bf 1e c2 ed 3e
       -1.4092495 0.5615399 -0.60264677 0.46437162
0003a0 4f a7 b8 bf 88 33 55 3f bd 71 90 3f f7 6f f5 3e
       -1.4426059 0.83281755 1.128471 0.47936985
0003b0 04 0f 0c 3f b9 42 70 3e a1 61 f8 3f f2 b5 88 3f
       0.5471041 0.23462953 1.9404794 1.0680525
0003c0 07 c1 c5 3e 3d ae 9d bf 47 15 92 bf b5 05 9d bf
       0.3862383 -1.2318798 -1.1412743 -1.2267367
0003d0 bc 33 4c bd 88 0e 1a 40 4e 29 d8 3e 0e 8f 5d 3f
       -0.049854025 2.407137 0.42219013 0.8654641
0003e0 2e f1 bc bf ee ec 78 bf 08 ef 7a bd 54 a4 12 3f
       -1.4761102 -0.97236526 -0.061263114 0.57281995
0003f0 07 bd a2 bf e1 61 14 3f 3a 0e 9a 3f 8e 78 ae be
       -1.2713937 0.5796185 1.2035592 -0.3407635
