hydrone_aerial_underwater_ddpg/scripts/Models/sac_stage_2_sub2D_tanh_3layers/3300_value_net.pth (torch_old, 585563 bytes, 10 tensors)

linear1_q1.weight f4 [256, 26]
0	0x3db902c9	0.09033734
1	0x3c57c406	0.013169294
2	0xbd5b531a	-0.05354605
3	0xbe1d8c32	-0.15385512
4	0x3c7f2f04	0.015575174
5	0xbd90edc8	-0.07076603
6	0x3d01017e	0.031495564
7	0x3d3b7840	0.045768976
8	0x3c8d4196	0.017243188
9	0x3eb2c537	0.34916088
10	0x3dd87715	0.10569588
11	0xbe82d60a	-0.25553924
12	0xbded3c3e	-0.11583756
13	0xbdfbae81	-0.12289143
14	0xbd0be481	-0.034153465
15	0xbcfaa849	-0.030597823
16	0x3dcddf10	0.100523114
17	0x3e48cf19	0.19610251
18	0xbde16610	-0.11005795
19	0x3f0f9129	0.5608087
20	0x3f5a8ce9	0.8537126
21	0xbe1bd06b	-0.15216224
22	0xbe22f026	-0.15911922
23	0xbff29d64	-1.8954282
24	0xc019a4bc	-2.4006796
25	0x3eca0d0b	0.39463076
26	0xbf911f9c	-1.1337771
27	0xbf875c92	-1.0575125
28	0xbfa2a556	-1.2706707
29	0xbf29904a	-0.6623579
30	0x3f1bd026	0.60864484
31	0xbdc82020	-0.09771752
32	0x3ef9d93f	0.48798558
33	0x3d774acf	0.060374077
34	0x3dff244b	0.12458094
35	0xbe03db88	-0.12876713
36	0xbdee90e9	-0.11648733
37	0xbbf27a18	-0.0073998086
38	0xbec73974	-0.3891102
39	0xbe84ade0	-0.25913906
40	0xbf009a79	-0.50235707
41	0xbdb741c0	-0.08948088
42	0xbe8832b5	-0.26601186
43	0x3e5486b4	0.2075451
44	0xbcf0b643	-0.029383784
45	0x3cf5ba72	0.02999613
46	0x3e1c3488	0.15254414
47	0x3f8b8f9d	1.0903202
48	0x3ec1fb1c	0.37886894
49	0xbf96d7b3	-1.1784576
50	0xbf060639	-0.52353245
51	0x3de63aa3	0.11241653
52	0xbe071289	-0.13190664
53	0x3e9c2655	0.30497995
54	0xbd883c17	-0.06652086
55	0xbe2d1ec2	-0.16906264
56	0xbe861ebb	-0.2619532
57	0x3e3470d3	0.17621164
58	0x3f04965e	0.5179194
59	0xbf068105	-0.5254062
60	0x3f127490	0.5720911
61	0xbf2eac71	-0.68231875
62	0xbec79ce0	-0.38986874
63	0xbe7667f2	-0.2406309
64	0xbdb8e748	-0.090284884
65	0x3cbb948b	0.02289798
66	0xbe3a4b09	-0.18192686
67	0xbe859275	-0.260883
68	0xbddf594b	-0.10905703
69	0xbc135e85	-0.008994703
70	0x3e72553e	0.2366533
71	0x3d1f13af	0.03883713
72	0x3fa347b2	1.2756255
73	0x3bb92eb7	0.005651321
74	0xbf652a1a	-0.89517367
75	0xbfe4955d	-1.7858082
76	0x3e450173	0.19238834
77	0xbde642cc	-0.11243209
78	0xbee91736	-0.4552552
79	0x3dc08243	0.093998455
80	0xbe43b388	-0.19111454
81	0x3e857b74	0.2607075
82	0x3ef8c262	0.48585802
83	0x3e6e8929	0.2329451
84	0x3e9243ae	0.2856726
85	0xbe44d612	-0.19222286
86	0xbf697fe1	-0.9121075
87	0xbf817cc1	-1.0116197
88	0xbf2a1057	-0.6643118
89	0xbee00070	-0.43750334
90	0x3dc18503	0.09449198
91	0x3e6d1505	0.2315255
92	0x3e1ec833	0.15506057
93	0xbde84e44	-0.11343053
94	0x3f11cc97	0.56952804
95	0x3e112d6a	0.1417748
96	0x3d5ccbae	0.05390518
97	0x3ebc1890	0.3673749
98	0xbf0f6455	-0.5601247
99	0xbf3ae49b	-0.73005074
100	0x3fb495f5	1.4108263
101	0x3fd11860	1.6335564
102	0xbe2cf7b3	-0.16891365
103	0x3b19c2f0	0.002346214
104	0xbe27bf55	-0.16381581
105	0x3e3aadd1	0.18230368
106	0x3dbeeefb	0.09322926
107	0x3d383d4c	0.044980332
108	0xbe2e18d3	-0.17001657
109	0x3d2faa74	0.042887166
110	0xbd8faf44	-0.07015851
111	0x3c980e9c	0.018561654
112	0x3e56d4c2	0.20979598
113	0x3ca6b46b	0.020349702
114	0x3d5e17fd	0.054222096
115	0x3e51f6fd	0.20504375
116	0x3e05be85	0.13060959
117	0x3de2556d	0.1105145
118	0x3dfe33b8	0.12412208
119	0x3cff8156	0.031189602
120	0x3c3029c4	0.010752145
121	0x3e33f766	0.17574844
122	0xbe304888	-0.17215168
123	0x3c67d84a	0.014150688
124	0xbe70ded9	-0.2352251
125	0x3f9adcb4	1.2098603
126	0x401a9bba	2.4157548
127	0xc06f2c1a	-3.7370667
128	0xbdd45872	-0.10368432
129	0xbe0710d9	-0.1319002
130	0xbf396aab	-0.7242839
131	0x3e2c739d	0.16840978
132	0x3e0066a7	0.12539159
133	0x3f293013	0.6608898
134	0x3f0162c4	0.5054133
135	0xbdc95132	-0.0982994
136	0xbc234e38	-0.009967379
137	0x3e665429	0.22493042
138	0xbe7624f3	-0.24037533
139	0xbec9259e	-0.39286512
140	0xbeec3661	-0.46135238
141	0xbed71765	-0.42010036
142	0xbe0d0a7a	-0.13773528
143	0x3d6ba10b	0.05752663
144	0x3ec643ab	0.38723502
145	0x3e11ea6c	0.14249581
146	0x3d9e1b8b	0.07720097
147	0x3e122b75	0.1427439
148	0x3d9d6690	0.07685578
149	0xbddee262	-0.10883023
150	0xbf18fdf7	-0.5976252
151	0x3f8914d2	1.0709479
152	0x3f409d57	0.7524008
153	0xbf0ffc6e	-0.5624455
154	0xbcbb4049	-0.022857802
155	0xbf617ed0	-0.88084126
156	0xbeac5524	-0.33658707
157	0x3ec8b606	0.39201373
158	0xbec590ed	-0.38587132
159	0xbe0b56c4	-0.13607317
160	0x3dd7a763	0.10529973
161	0x3d4d2ebb	0.050093394
162	0xbe184d78	-0.14873302
163	0x3d587bdd	0.0528525
164	0x3d10707b	0.03526352
165	0xbe7ca23e	-0.24671265
166	0x3d2ba5ca	0.041906156
167	0xbc963efe	-0.018340584
168	0x3daff44f	0.0859152
169	0x3e00d8b7	0.1258267
170	0x3df44234	0.1192669
171	0xbda2808a	-0.07934673
172	0xbd947cc5	-0.072503604
173	0x3f0e5f12	0.55613816
174	0xbbd6c4f6	-0.0065542413
175	0xbdd8b858	-0.10582036
176	0xbf483b9d	-0.7821596
177	0x3f8f5e67	1.1200684
178	0xbda66758	-0.0812518
179	0xc00572bc	-2.0851278
180	0xc015ac3b	-2.338637
181	0x3fcfc771	1.623274
182	0xbe226e2b	-0.15862338
183	0x3d6cfe0e	0.057859473
184	0x3e808c33	0.25106964
185	0xbe22af70	-0.15887237
186	0xbf3cdfc6	-0.7377895
187	0xbf290315	-0.6602033
188	0xbf2f2f12	-0.684312
189	0xbf2dbaba	-0.6786305
190	0xbd9fe6fa	-0.07807727
191	0xbd4cff6f	-0.050048288
192	0x3eceb44f	0.4037194
193	0x3f698fd5	0.91235095
194	0x3e6cf037	0.2313851
195	0x3e96830e	0.29396862
196	0xbe6456fa	-0.22298804
197	0xbe664969	-0.22488941
198	0xbe52e031	-0.20593335
199	0x3f3ff4ef	0.74983114
200	0x3d9e009d	0.07714961
201	0xbdedb135	-0.11606065
202	0x3ebac603	0.36479196
203	0xbec7827e	-0.38966745
204	0x3ff66e40	1.9252396
205	0x3f282d45	0.65694076
206	0x3f201d0e	0.62544334
207	0x3f59f946	0.85145986
208	0xbd84b62e	-0.064800605
209	0xbc6efc12	-0.014586465
210	0xbdb8900b	-0.09011849
211	0xbec412eb	-0.38295683
212	0xbd3bde95	-0.045866568
213	0xbc7c6a81	-0.015406252
214	0x3d59d9d5	0.053186256
215	0x3d0d767c	0.034536824
216	0xbda52b69	-0.080649205
217	0xbe0f9efa	-0.14025488
218	0x3ca75779	0.020427452
219	0x3e0e8d9e	0.1392121
220	0xbd2824d9	-0.041050766
221	0x3dd9f729	0.10642845
222	0x3e17b8b4	0.14816552
223	0x3e0a9f18	0.13537252
224	0x3e1c551d	0.15266843
225	0x3c9e425d	0.019318754
226	0xbdede247	-0.116154246
227	0xbe5933ff	-0.21211241
228	0xbeb2ba12	-0.34907585
229	0x3fdc4427	1.7208298
230	0xbf99c95c	-1.2014575
231	0x40281d14	2.6267748
232	0x3f06b4a8	0.5261941
233	0x3cc3953c	0.023874871
234	0xbe027767	-0.12740861
235	0x3e75cfa7	0.24004994
236	0xbec94c19	-0.3931587
237	0xbe8563ac	-0.26052606
238	0xbe0d3653	-0.13790254
239	0xbe959015	-0.29211488
240	0xbf268d8c	-0.65059733
241	0xbed778d5	-0.42084375
242	0x3e825338	0.25454116
243	0xbd12a9fb	-0.035806637
244	0xbe6dbf4c	-0.23217505
245	0x3dffade8	0.12484342
246	0xbd6e11f9	-0.05812261
247	0xbd9239fb	-0.07139965
248	0x3ead101f	0.33801362
249	0x3e1d1c9e	0.15342948
250	0x3e81d125	0.25354877
251	0xbef00496	-0.468785
252	0x3ec46fda	0.38366586
253	0x3e2f7f7b	0.17138474
254	0x3f0b8ff8	0.54516554
255	0x3eb63148	0.35584474

linear1_q1.bias f4 [256]
0	0x3e9d692a	0.30744296
1	0x3e0c87d6	0.13723692
2	0x3f64ae58	0.8932853
3	0xbf582340	-0.8442879
4	0x3f34d22e	0.7063321
5	0xbf4d8561	-0.80281645
6	0x3f3c0365	0.7344268
7	0xbe977711	-0.29583028
8	0x3f2d297b	0.6764142
9	0x3ec3330b	0.3812488
10	0x3f0e7f02	0.5566255
11	0x3f45220f	0.77005094
12	0xbf0c1f64	-0.547354
13	0x3ec992a2	0.39369684
14	0x3f4f6494	0.81012845
15	0x3fa1740b	1.2613539
16	0x3fd88a8f	1.6917285
17	0xbf8fcaf8	-1.1233816
18	0x4014840e	2.32056
19	0x3e851e99	0.25999907
20	0xbf6481b4	-0.8926041
21	0xbfb23240	-1.3921585
22	0x3d17033c	0.03686832
23	0xbfb4869c	-1.410358
24	0xbfe87c94	-1.8163018
25	0x3e198ff5	0.14996321
26	0xbfb5c1b9	-1.4199744
27	0xbf58860f	-0.8457956
28	0xbecb259a	-0.39677125
29	0x3f13213b	0.5747258
30	0x3dac3224	0.08408001
31	0x3f74ba41	0.955967
32	0xbee8c0c3	-0.45459566
33	0x3d5c316a	0.053758062
34	0x3e721558	0.23640954
35	0x3f2fcf80	0.68675995
36	0x3dd9504e	0.1061102
37	0x3f87c5c5	1.060723
38	0xbf93dd2b	-1.155187
39	0xbff01421	-1.8756143
40	0x3f166254	0.58743787
41	0x3f1c1b18	0.6097884
42	0xbfcb7f2e	-1.5898187
43	0x3ffa33d1	1.9547063
44	0xbf68056f	-0.9063329
45	0xbcf890d1	-0.030342491
46	0x3fafe357	1.3741254
47	0x3ebdb305	0.37050644
48	0x3f79cd03	0.9757845
49	0xbf81c093	-1.0136894
50	0x3ecd373f	0.40081212
51	0xbfa6939f	-1.30138
52	0x3f4cb061	0.7995663
53	0x3f28d6e4	0.659529
54	0xbf18e0fd	-0.59718305
55	0x3e114ff5	0.14190657
56	0x4001aceb	2.026179
57	0x3fe61f20	1.7978249
58	0xbf2d38a7	-0.6766457
59	0x3f320326	0.69536054
60	0x3fcf4ac4	1.6194692
61	0xbd1f6a98	-0.038920015
62	0x3f350cc0	0.7072258
63	0x3e8196ab	0.25310263
64	0x3ec361c9	0.38160542
65	0x3f8536f0	1.040739
66	0xbf762f82	-0.9616624
67	0x3ef2f3e0	0.47451687
68	0x3e807e76	0.25096482
69	0xbf49161c	-0.7854936
70	0xbde4f154	-0.11178842
71	0xbf186c36	-0.59540117
72	0x3f9ec0d9	1.2402602
73	0x3d2bed51	0.04197437
74	0xbfcbd7e4	-1.592526
75	0x3fb64d57	1.4242352
76	0xbfc96e85	-1.5736853
77	0xbfb80420	-1.4376259
78	0x3fdbbda3	1.7167248
79	0x3c0d2e7e	0.008617042
80	0xbe8b0803	-0.2715455
81	0x3f60808a	0.87696135
82	0xbe844047	-0.2583029
83	0x3f3f60ad	0.7475689
84	0xbfb80b7d	-1.4378506
85	0x3ef999ce	0.48750156
86	0x3f606d73	0.87667006
87	0xbf3717a8	-0.7152047
88	0x401aa8af	2.4165456
89	0x3de56a5d	0.11201928
90	0xbf8af0d7	-1.0854748
91	0x3fb3bd73	1.404219
92	0x3e451bae	0.1924884
93	0xbec08f51	-0.37609342
94	0x3eddf9cd	0.43354645
95	0x3efb51dd	0.49085894
96	0xc0020def	-2.0321004
97	0xbead4bdc	-0.3384694
98	0xbfbba107	-1.4658517
99	0x401100fc	2.265685
100	0xbf8229b8	-1.0168982
101	0x3e2dc723	0.16970496
102	0xbdafc5b3	-0.0858263
103	0xbf200371	-0.6250525
104	0x3fce7006	1.6127937
105	0x3ec890ca	0.39172965
106	0x3f4d9364	0.80303025
107	0x3db64f09	0.089017935
108	0xbf0f7994	-0.5604489
109	0x3f744e2f	0.954318
110	0x3fd5b4eb	1.6695837
111	0x3fc68531	1.5509397
112	0xbfd6eb6d	-1.6790596
113	0xbed41285	-0.4142038
114	0x3fe39d2d	1.7782341
115	0xbf4d57fd	-0.80212384
116	0x3f075e67	0.5287842
117	0x3f99a487	1.2003335
118	0xbe911fc2	-0.28344542
119	0xbf952970	-1.1653271
120	0x3e86d7ee	0.26336616
121	0xbfd26e99	-1.6440002
122	0xbf0137a4	-0.50475526
123	0x4012c7b9	2.29344
124	0xbfb568d4	-1.4172616
125	0x402e01d7	2.7188623
126	0x3f115a45	0.56778365
127	0xbe86ff44	-0.26366627
128	0x400d4f60	2.2079697
129	0x4006f5ad	2.1087449
130	0x3fc51f95	1.5400263
131	0x3e3ca2f1	0.18421532
132	0x3ee79481	0.45230487
133	0xbf846077	-1.0341939
134	0x3e890050	0.2675805
135	0x3fe914d3	1.820948
136	0x3f0e015b	0.5547082
137	0x401022f3	2.2521331
138	0xc002c73c	-2.0434103
139	0x3f1d2ea0	0.6139927
140	0x3f0053cd	0.5012787
141	0x3e89dedc	0.2692784
142	0x3e9b4d08	0.30332208
143	0xbfe9f814	-1.8278832
144	0xbfdefe4a	-1.7421353
145	0x3f82e678	1.0226583
146	0x4007233e	2.111526
147	0xbf77333b	-0.96562546
148	0x3f40199d	0.7503908
149	0x3ebf6f20	0.3738947
150	0x400b1582	2.1731877
151	0xbf9d3bb5	-1.2283846
152	0xbe8415bd	-0.25797835
153	0xbf5b66f1	-0.8570395
154	0xbba561cc	-0.0050470587
155	0xbef854d9	-0.48502234
156	0x3fe92b0b	1.8216261
157	0x3facc432	1.3497374
158	0xbf93cda6	-1.1547134
159	0x3e0687c0	0.13137722
160	0x3e30ae06	0.17253885
161	0x40162215	2.3458302
162	0xbef1c0c4	-0.4721738
163	0x3ed35962	0.4127913
164	0x3f61dc06	0.88226354
165	0x3e99ecab	0.30063376
166	0xbef667be	-0.48126024
167	0xbea465a5	-0.321088
168	0xbf8cb7b0	-1.0993557
169	0x402ec8c0	2.7310028
170	0x4018506d	2.3799088
171	0xbf7e2850	-0.9928026
172	0xbed36ddc	-0.41294754
173	0x3f6241e8	0.88381815
174	0x3f031a98	0.51212454
175	0x3edaa53e	0.42704195
176	0x3e821927	0.25409815
177	0xbfb07358	-1.37852
178	0x3ffa8431	1.9571592
179	0x3e0ec2b1	0.13941456
180	0xbf3d22fe	-0.7388152
181	0x3e5fa532	0.21840361
182	0x3f729efe	0.9477385
183	0xbed2b9b2	-0.411573
184	0xbf104700	-0.5635834
185	0xbfa42e53	-1.2826637
186	0xbf49431b	-0.7861802
187	0x3fee60b7	1.8623265
188	0x3f0e35f0	0.5555105
189	0x3fa77e11	1.3085347
190	0xbfe8f67b	-1.820022
191	0x3ff5221d	1.9151036
192	0x3f005ef3	0.5014488
193	0x3f29a5d5	0.66268665
194	0x3f26ed1e	0.6520556
195	0x3e058399	0.13038482
196	0xbff91b18	-1.9461393
197	0xc015eded	-2.3426468
198	0xbfbb70e3	-1.4643825
199	0x3e2b8f91	0.16753985
200	0x3e737c33	0.23777847
201	0xbfd5ca43	-1.670235
202	0x3dddd074	0.10830775
203	0xbfff4e20	-1.9945717
204	0xbf8da0a1	-1.1064645
205	0xbef170cd	-0.47156373
206	0x3e84d824	0.25946152
207	0xbf76c04b	-0.96387166
208	0x3fc39621	1.5280191
209	0x3fb0fde5	1.3827482
210	0x3f9243d7	1.1426953
211	0x3f0dc671	0.5538092
212	0xbd2a2e3a	-0.04154799
213	0x3fd7f53b	1.6871713
214	0xbfbe40d7	-1.4863538
215	0xbf489323	-0.7834951
216	0xbfbaff61	-1.4609185
217	0x3f9b047e	1.2110746
218	0x3f03c483	0.5147173
219	0xbf8f8a39	-1.1214057
220	0xbfa1c028	-1.2636766
221	0xbdacb089	-0.08432109
222	0xbfe6f0fe	-1.8042295
223	0xbf0523d2	-0.5200778
224	0x401d63c3	2.459214
225	0xbde98a52	-0.11403336
226	0x3e892d2b	0.26792273
227	0x3cc65251	0.024209173
228	0x3f9aa77e	1.2082365
229	0xbf1ca80a	-0.6119391
230	0x4018c5bf	2.3870695
231	0xbde2c99d	-0.11073611
232	0xbfbdae76	-1.4818866
233	0xbe85ba44	-0.26118672
234	0x3e87c8ed	0.26520482
235	0x3fa3c664	1.2794919
236	0xbead7e79	-0.33885553
237	0x3f6008d0	0.87513447
238	0x3f57ce67	0.8429932
239	0xbf5c60ad	-0.86085016
240	0x3fc0ddd8	1.5067701
241	0xbf7e216d	-0.99269754
242	0xbf22c775	-0.635856
243	0xbe32a185	-0.17444427
244	0x3eab7a00	0.33491516
245	0x3e3f2085	0.18664749
246	0xbd3b2956	-0.045693718
247	0xbef9335d	-0.48672
248	0xbf5b4827	-0.8565697
249	0x3ce9d127	0.028542114
250	0xbf00937b	-0.5022504
251	0xbfae1951	-1.3601476
252	0xbc908272	-0.017640326
253	0x3fb4005f	1.4062613
254	0xbfbdbf91	-1.4824086
255	0xbf9e1df2	-1.2352889

linear2_q1.weight f4 [256, 256]
0	0x3f32b3c5	0.69805557
1	0x3e921f59	0.2853954
2	0xbe92581a	-0.2858284
3	0xbeb4de3a	-0.35325795
4	0x3d45af72	0.04826302
5	0x3e746fce	0.23870775
6	0x3f1fc072	0.62403023
7	0x3ebb86e1	0.36626342
8	0xbe29d6df	-0.16585873
9	0xbdda9f3d	-0.106749035
10	0xbebc9d2c	-0.36838663
11	0xbf0384af	-0.51374334
12	0xbe71c7fb	-0.23611443
13	0x3c55f3be	0.013058601
14	0xbf817a83	-1.0115513
15	0xbf2d9b16	-0.6781477
16	0xbbe9e60a	-0.0071380185
17	0xbda094e3	-0.07840898
18	0x3e8c8127	0.27442285
19	0xbf9879f7	-1.1912221
20	0xbdda68a6	-0.10664491
21	0x3e236050	0.15954709
22	0xbef6152f	-0.48063037
23	0xbfb3c32b	-1.4043936
24	0x3d192c14	0.03739555
25	0xbfafb500	-1.3727112
26	0xbdc58fee	-0.09646593
27	0xbd80b5c4	-0.06284669
28	0x3f43a3ac	0.7642162
29	0xbea2fcbf	-0.31833455
30	0xbebb95fe	-0.36637872
31	0xbd923507	-0.071390204
32	0x3cdddaa9	0.027081804
33	0xbfd4185e	-1.6569936
34	0xbd8e41b2	-0.06946124
35	0xbe7bc60a	-0.24587265
36	0xbea16e54	-0.31529486
37	0x3f027515	0.50959903
38	0xbe081f8d	-0.13293286
39	0xc03ae241	-2.9200594
40	0x3f9b8a8e	1.2151659
41	0x3e671b06	0.22568902
42	0x3cb42d3f	0.021994231
43	0x3d6fe31e	0.058566205
44	0x3f10e3c1	0.56597525
45	0xbefd0801	-0.4942017
46	0xbf1c163a	-0.60971415
47	0x3f01fe7c	0.5077894
48	0xbecda127	-0.40162012
49	0xbf9318a2	-1.1491892
50	0xbdae9cb6	-0.08525984
51	0xbfda7e6a	-1.7069829
52	0xbf10ab92	-0.56511796
53	0x3ea246e6	0.31694716
54	0x3e4f454c	0.20241278
55	0xbdf93c09	-0.12169654
56	0xbe283ddd	-0.16429849
57	0x3e836053	0.25659427
58	0x3e67dd77	0.22643076
59	0xbfbbfa72	-1.4685805
60	0xbe442d27	-0.19157849
61	0xba8d1a39	-0.0010765261
62	0xbe711366	-0.23542556
63	0xbed23de0	-0.41062832
64	0xbf45089d	-0.7696627
65	0xbd166aea	-0.036723055
66	0xbde2a2c9	-0.11066205
67	0x3f57bfdd	0.84277135
68	0xbf9dbeca	-1.2323849
69	0xbed95abb	-0.42452034
70	0xc00358b8	-2.05229
71	0x3f226f75	0.6345132
72	0x3eff1e84	0.4982797
73	0xbe60e804	-0.21963507
74	0xbfcb63a2	-1.588978
75	0xbeebd155	-0.46058145
76	0x3ea0dc29	0.3141797
77	0x3ed7b6be	0.4213161
78	0x3e86db13	0.26339015
79	0x3e232d9b	0.15935366
80	0xbea141be	-0.3149547
81	0xbe20b9b1	-0.15695836
82	0xbf90b39c	-1.1304812
83	0x3db9a839	0.09065289
84	0x3e0a5efb	0.13512795
85	0x3f133d07	0.57514995
86	0xbebacddb	-0.3648518
87	0xbf1dd1cc	-0.6164825
88	0x3b15bdc1	0.0022848698
89	0x3e74a8c9	0.23892511
90	0xbf73c5e6	-0.95223844
91	0x3e64f806	0.22360238
92	0xbebba266	-0.36647338
93	0xbed2449d	-0.41067973
94	0x3e1c7758	0.15279901
95	0xbf08f577	-0.5349955
96	0x3eab4ae3	0.33455572
97	0x3e3be451	0.18348815
98	0xbeb16299	-0.34645537
99	0x3e20e068	0.15710604
100	0x3e911167	0.2833359
101	0xbea71958	-0.32636523
102	0xbe8c645f	-0.27420327
103	0x3ea13907	0.3148882
104	0xbf5c24b5	-0.8599351
105	0xbe959d5a	-0.29221612
106	0x3e958914	0.29206145
107	0xbee82e62	-0.45347887
108	0x3ef6fcc1	0.4823971
109	0x3e5c5927	0.21518384
110	0x3eeda8e4	0.46417916
111	0x3f086536	0.53279436
112	0x3f3d0c9a	0.73847353
113	0xbcdcc050	-0.02694717
114	0x3ea623e6	0.32449263
115	0xbde4c96b	-0.1117123
116	0xbf8bbe8e	-1.0917528
117	0xbf1c3dad	-0.6103161
118	0xbf30d226	-0.6907066
119	0xbe7812d8	-0.24225938
120	0x3e27b006	0.16375741
121	0x3f0370d9	0.51344067
122	0xbf23b519	-0.6394821
123	0x3dfe77f7	0.12425225
124	0xbf94ad8e	-1.1615465
125	0xbf127151	-0.5720416
126	0x3e4e4ec8	0.2014724
127	0x3e9868ef	0.29767558
128	0x3d81abe5	0.063316144
129	0xbd60f76c	-0.05492346
130	0xbfcb9623	-1.5905193
131	0x3eee9517	0.46598122
132	0x3e6e5dd9	0.23277988
133	0xbfc5e76d	-1.546125
134	0x3f3e63b9	0.74370915
135	0x3eb44d38	0.35215163
136	0x3da07352	0.078344956
137	0xbdc2f168	-0.09518701
138	0xbf64e54c	-0.8941238
139	0xbeb418fa	-0.35175306
140	0xbd6fa660	-0.058508277
141	0xbf89b66c	-1.0758796
142	0xbfa4019b	-1.281299
143	0x3ea033a5	0.31289402
144	0xbed64930	-0.41852713
145	0xbda0442b	-0.07825502
146	0x3d4d6104	0.05014135
147	0xbd228ba2	-0.039683945
148	0x3e33a292	0.17542484
149	0xbf8f9c24	-1.1219525
150	0x3ddb2afa	0.107015565
151	0xc0246e20	-2.5692215
152	0xbf962cbc	-1.1732402
153	0xbcd57954	-0.02605883
154	0x3e4ed5d9	0.20198764
155	0x3f7632ba	0.9617115
156	0xbf49a304	-0.7876437
157	0xbeab7e2d	-0.33494702
158	0x3e5f720f	0.21820854
159	0x3d468114	0.048462942
160	0xbdfe29b5	-0.12410299
161	0x3d6054dd	0.054768432
162	0x3f026280	0.5093155
163	0x3f10b8c1	0.5653191
164	0xbf1859e3	-0.59512156
165	0xbeded01a	-0.43518144
166	0xbf0889ab	-0.53335065
167	0x3c14e4e5	0.009087776
168	0xbf8e1a13	-1.1101707
169	0xbe0cf0b2	-0.13763693
170	0x3eb2e2c2	0.34938627
171	0xbf6f8eae	-0.93577087
172	0xbf17b5fc	-0.5926206
173	0x3f257e7f	0.6464614
174	0xbb9fb8d4	-0.004874328
175	0x3efc822e	0.4931807
176	0x3e5dabd7	0.21647583
177	0x3ebd3042	0.3695088
178	0xbcd6dccf	-0.026228337
179	0xbe958649	-0.29204014
180	0x3f0e801e	0.5566424
181	0xbefbc0d7	-0.49170563
182	0x3ebdfc8e	0.37106746
183	0xbf127bcd	-0.57220155
184	0xbf36fdd5	-0.71481067
185	0xbd9d644f	-0.07685148
186	0x3ee11f9a	0.43969423
187	0xbce58abd	-0.028020257
188	0x3f0a4d92	0.5402461
189	0x3f82f54c	1.0231109
190	0x3de3616c	0.11102566
191	0xbd81ecba	-0.0634398
192	0xbedda7f5	-0.43292204
193	0xbe2eab32	-0.17057493
194	0x3f5f64ef	0.8726339
195	0xbe9bad36	-0.30405587
196	0x3d98d32d	0.074621536
197	0x3ef31d9a	0.47483522
198	0xbe5caa17	-0.21549259
199	0x3f1ec40e	0.62017906
200	0xbdafcd9d	-0.085841395
201	0xbe4fafca	-0.20281902
202	0xbecb7190	-0.3973508
203	0xbfc7f35a	-1.562114
204	0xbe314723	-0.17312293
205	0xbe82b958	-0.2553203
206	0xbf412834	-0.7545197
207	0x3e6acb8a	0.22929206
208	0xbf0e7578	-0.55647993
209	0x3f549aaa	0.830485
210	0xbdda3330	-0.106542945
211	0xbf606c6a	-0.87665427
212	0xbd9640e5	-0.073365964
213	0x3d85debb	0.06536623
214	0x3e32994d	0.17441292
215	0x3e51fe72	0.2050722
216	0x3e8ef77d	0.27923194
217	0x3dc9efc0	0.09860182
218	0x3f8e55fa	1.1119988
219	0x3f41d9b8	0.7572284
220	0xbf28a7e6	-0.6588119
221	0xbf778f29	-0.9670282
222	0x3ecb6b4c	0.397303
223	0xbed5b109	-0.4173663
224	0xbe1cc1e6	-0.15308341
225	0xbe4c988d	-0.19980069
226	0xbd94b814	-0.072616726
227	0xbed70282	-0.419941
228	0x3e271f6e	0.16320583
229	0xbf1a0d13	-0.601762
230	0x3d9402f8	0.07227129
231	0x3e430fe5	0.19049032
232	0xc0437331	-3.0539057
233	0x3f0521f7	0.5200495
234	0xbfb2f876	-1.3982074
235	0x3f1d3b72	0.6141883
236	0xbdbb63d8	-0.09149903
237	0xbded384b	-0.11583003
238	0x3c588f9d	0.013217834
239	0x3ec591ef	0.385879
240	0xbf3adf50	-0.72997
241	0xbe1c7780	-0.1527996
242	0xbf40ec81	-0.75360876
243	0xbf60e2c2	-0.87846005
244	0xbf3bcea0	-0.7336216
245	0xbf21e92d	-0.63246423
246	0x3eeed4a0	0.46646595
247	0xbe3e2b0f	-0.18571113
248	0xbf61def3	-0.8823082
249	0xbdbdfda8	-0.09276897
250	0x3e0062f5	0.12537749
251	0xbdd9d350	-0.10636008
252	0xbeda9e82	-0.42699057
253	0xbe7ce635	-0.24697192
254	0x3ec59470	0.3858981
255	0x3f580387	0.8438038

linear2_q1.bias f4 [256]
0	0x3e9d7eaa	0.307607
1	0x3e67c3dc	0.22633308
2	0x3fb14c0a	1.385133
3	0x3fda71d7	1.7065991
4	0xbf47ce20	-0.78048897
5	0x3fccd5bd	1.6002728
6	0x3f02af09	0.5104833
7	0xbe82c36d	-0.25539723
8	0xbe0d03b9	-0.13770951
9	0x3f61a0eb	0.88136166
10	0xbf79728e	-0.9744042
11	0x3f51122b	0.8166835
12	0xbef2affd	-0.47399893
13	0xbd48f07f	-0.04905748
14	0xbf9898a6	-1.1921585
15	0x40121f3d	2.2831566
16	0x3e645a7b	0.2230014
17	0xbfcd07ed	-1.6018044
18	0xbf048b99	-0.5177551
19	0x3f909aa5	1.1297194
20	0x3dbad20b	0.09122094
21	0xbf024011	-0.5087901
22	0x3e8e1a7a	0.27754575
23	0xbef16f6f	-0.4715533
24	0xbf4e952b	-0.8069636
25	0x3f0d5707	0.5521092
26	0x3f7ceeb6	0.98801744
27	0x3e9cdb44	0.30636036
28	0xbf25ea63	-0.6481077
29	0x403a9705	2.9154675
30	0x3e81cfb4	0.25353777
31	0x3f357f05	0.7089694
32	0xbf45cc5d	-0.7726496
33	0xbf9251f9	-1.1431266
34	0x3f1a34c3	0.6023676
35	0x3f51e6e4	0.81992936
36	0xbde15003	-0.11001589
37	0xbeadb65f	-0.339282
38	0x3eb99dd0	0.36253214
39	0x3fdbb977	1.7165974
40	0xbd2d9050	-0.042373955
41	0x3d885926	0.06657629
42	0x3e8d6af2	0.27620655
43	0x3e932a4f	0.28743216
44	0x3dc089e5	0.09401301
45	0x3f4a91f4	0.79128957
46	0x3e4e13c8	0.20124733
47	0x3dc4fab0	0.09618127
48	0xbef1a09b	-0.47192845
49	0xbf1ac3f7	-0.6045527
50	0x3b885449	0.004160438
51	0xbcdb7f19	-0.026794003
52	0xbea8e2e1	-0.32985595
53	0x3f9c0989	1.219041
54	0xbecc3f3f	-0.39892003
55	0x3f395857	0.7240042
56	0x3eaac22d	0.3335127
57	0x403c7197	2.944433
58	0x3e065c98	0.13121259
59	0xbf3b50b7	-0.73170036
60	0x3f6d7889	0.9276205
61	0xbec6e6fc	-0.38848102
62	0xbe2c271a	-0.16811791
63	0xbe3cb73f	-0.18429278
64	0xbd150048	-0.03637722
65	0xbeaa7617	-0.3329322
66	0xbf1d73ec	-0.6150501
67	0xbcff2235	-0.03114424
68	0xbd153e9c	-0.036436662
69	0x3fd6edcd	1.6791321
70	0xbe547535	-0.20747836
71	0xbef5488d	-0.47906914
72	0xbcf26160	-0.029587448
73	0x3ef502eb	0.4785379
74	0x3f012434	0.50445867
75	0x3fdd2ab1	1.7278653
76	0xbee544bf	-0.44779012
77	0xbd082cba	-0.03324578
78	0x3f65a4d5	0.8970464
79	0xbce3461e	-0.027743395
80	0xbed6555b	-0.41861996
81	0x3f37f205	0.7185367
82	0x3f364b1c	0.7120836
83	0xbf3f370a	-0.7469336
84	0xbba59a32	-0.005053782
85	0xbf7cfd06	-0.98823583
86	0x3e5b449d	0.21412893
87	0x3d8473b5	0.06467382
88	0x3ed5121e	0.41615385
89	0xbf7176c0	-0.94321823
90	0x3ec9b9f8	0.39399695
91	0xbd9403dd	-0.07227299
92	0xbf454c03	-0.7706911
93	0xbe2023d7	-0.15638672
94	0x3e72478e	0.23660108
95	0x3e605ed0	0.21911168
96	0xbe1261f4	-0.14295179
97	0x3fa893fb	1.317016
98	0xbf30e28b	-0.6909568
99	0x3e2a7905	0.16647728
100	0xbdee96b5	-0.11649839
101	0x3fb691a9	1.4263202
102	0x3f6df38a	0.92949736
103	0x3ee73c88	0.4516337
104	0x3fc5f377	1.5464925
105	0xbdfd1de4	-0.12359217
106	0xbc939ed0	-0.018020064
107	0xbe0a9a75	-0.13535483
108	0xbf083863	-0.5321104
109	0xbf3941f0	-0.7236624
110	0x4024a2a3	2.5724266
111	0xbf53bbeb	-0.82708615
112	0x3f743cfb	0.9540555
113	0xbf3679fd	-0.7127989
114	0xbf0c03e5	-0.5469344
115	0xbd02f012	-0.03196723
116	0xbded31ae	-0.11581741
117	0x40215614	2.5208788
118	0xbf90ef4e	-1.132303
119	0x3e10366b	0.14083259
120	0x3e8ba789	0.27276257
121	0x3f6b20eb	0.91847104
122	0x3f29ae41	0.66281515
123	0xbedcd11c	-0.43128288
124	0x3e80cc4f	0.25155875
125	0xbd3ad7c6	-0.045615934
126	0x400a6679	2.1625044
127	0xbd180b97	-0.037120428
128	0xbe408c70	-0.18803573
129	0xbfb29ee8	-1.3954744
130	0x3e83fcf4	0.25778925
131	0x3fedb0ca	1.8569577
132	0x3fa036c6	1.2516716
133	0x3f7a1e4a	0.9770247
134	0xbe0deaa8	-0.13859046
135	0x3f339035	0.7014192
136	0x3e87bed9	0.26512793
137	0x3ed4943f	0.41519353
138	0x3f36bc06	0.7138065
139	0x3edb2f4d	0.42809525
140	0x3ed8464e	0.42241138
141	0xbea056e7	-0.313163
142	0x3ff8b706	1.9430854
143	0x3fb48502	1.4103091
144	0x3f0a97cf	0.5413789
145	0x3f163208	0.5867009
146	0x3d8f1c1c	0.06987783
147	0x3f39b6e4	0.72544694
148	0x3eb83bf0	0.3598323
149	0x3fff8557	1.9962567
150	0x3e4bb66d	0.19893809
151	0x40066faa	2.1005654
152	0x3f8b2c78	1.0872946
153	0x3dec3e64	0.115353376
154	0x3f14820d	0.5801094
155	0x3eb2be55	0.34910837
156	0xbd746c72	-0.059673734
157	0xbed121b6	-0.40846032
158	0x3c1863b5	0.009301116
159	0x3e30f1f3	0.17279796
160	0xbb3e47be	-0.002903446
161	0xbec6f9bf	-0.38862416
162	0xbfcb9f02	-1.59079
163	0x3e8a81f3	0.27052268
164	0x3dbd87ec	0.09254441
165	0xbe9e3a3f	-0.30903813
166	0xbf28332b	-0.65703076
167	0x3da086ed	0.07838235
168	0xbfe62e13	-1.7982811
169	0x400db3e5	2.214105
170	0x3e20f47b	0.15718262
171	0x3e3dd40f	0.18537925
172	0x3e5a78ab	0.21335094
173	0xbf4b546b	-0.79425687
174	0x3e8113d8	0.25210452
175	0x3f407e99	0.7519317
176	0x3dc4da20	0.096119165
177	0xbf95922c	-1.1685233
178	0xbefbd82c	-0.49188364
179	0x3fb3e568	1.4054384
180	0xbc481385	-0.012211685
181	0xbc56d310	-0.013111845
182	0x3f60e923	0.8785574
183	0x3db2e28f	0.08734619
184	0xbfb222b5	-1.3916842
185	0x3ef29509	0.4737933
186	0x3d6f0454	0.058353737
187	0xbf6220f8	-0.88331556
188	0xbcd490da	-0.025947977
189	0x3e60ae2c	0.21941441
190	0x3fa10fa0	1.2582893
191	0xbe2aa148	-0.16663086
192	0x3e19bdd8	0.15013826
193	0xbf6895b6	-0.9085344
194	0xbf0a0021	-0.53906447
195	0x3f1522a4	0.5825598
196	0xbe339aab	-0.1753947
197	0xbe7a5597	-0.24446712
198	0x3f81f81a	1.015384
199	0xbec24d97	-0.3794982
200	0xbcc7c4ea	-0.024385888
201	0xbe7de024	-0.24792534
202	0x3d961824	0.07328823
203	0x3e840b89	0.2579005
204	0xbd114b6e	-0.035472326
205	0x3f59cdaf	0.85079473
206	0x3fa06724	1.2531476
207	0xbd0fa283	-0.035067093
208	0x3f972a67	1.1809815
209	0x3ed53b11	0.41646627
210	0xbd81626f	-0.06317603
211	0x3ed75d82	0.42063528
212	0x3f3c24b4	0.73493505
213	0x3ff063ac	1.8780417
214	0x3f89c73e	1.0763929
215	0x3eca4fd4	0.3951403
216	0xbef71091	-0.48254827
217	0x3e595a99	0.21225967
218	0xbe17d566	-0.14827499
219	0xbd7f0546	-0.06226089
220	0x3e9a8fa6	0.3018772
221	0x3d0a862d	0.033819366
222	0x3ebfa2f2	0.37429005
223	0x3f1a4d7a	0.6027447
224	0x3d639954	0.055566147
225	0x3eeaf57c	0.45890415
226	0x3e8789f7	0.26472446
227	0xbeb0ff14	-0.3456961
228	0xbeaeb82c	-0.34124887
229	0xbdd67348	-0.10471207
230	0xbd1b9311	-0.03798205
231	0x3e5bbc97	0.2145866
232	0xbe6f533d	-0.23371597
233	0x3f22e13d	0.63624936
234	0x400db00c	2.21387
235	0xbe402cac	-0.18767041
236	0x3f157970	0.58388424
237	0x3dce5961	0.100756414
238	0xbd07d6a9	-0.0331637
239	0x3f6388cd	0.88880616
240	0xbf5320d5	-0.8247197
241	0xbe71a97b	-0.23599808
242	0x3f6d06b1	0.92588335
243	0xbed4e4a6	-0.41580695
244	0xbf6fa1ab	-0.9360606
245	0xbd38dc0b	-0.045131724
246	0x3c1873cd	0.009304953
247	0x3e0aa1b3	0.13538246
248	0xbf1375ac	-0.5760143
249	0x3ee8ccac	0.45468652
250	0xbf0bfaf0	-0.54679775
251	0x3de9c063	0.11413648
252	0x3f8ebbee	1.1151102
253	0x3e810eff	0.25206754
254	0xbe5fa30a	-0.21839538
255	0x3e202caa	0.15642038

linear3_q1.weight f4 [1, 256]
0	0x40035784	2.0522165
1	0x401b9e3f	2.4315336
2	0x3e3af934	0.18259126
3	0x3f33d15f	0.7024135
4	0xbea44090	-0.32080507
5	0x3e99dc6b	0.30050978
6	0x3fed583d	1.8542553
7	0xc067739a	-3.6164308
8	0xc00f75d8	-2.2415676
9	0x3f001bd7	0.5004248
10	0xbedc60ef	-0.43042704
11	0x402361a9	2.5528357
12	0xc08648da	-4.196393
13	0xc0687f15	-3.6327565
14	0xbee9f72d	-0.45696393
15	0x3f40fd6d	0.753867
16	0x3f986020	1.1904335
17	0xbeb8c851	-0.3609033
18	0xbf3d4f60	-0.7394924
19	0x401057c2	2.2553563
20	0xc010a4ca	-2.260058
21	0xc0676016	-3.6152396
22	0x40569084	3.3525705
23	0xbf7ce921	-0.98793226
24	0xbf4b6241	-0.794468
25	0xc07f8191	-3.992283
26	0x3fa53786	1.290757
27	0x40005e80	2.0057678
28	0xbfd3a47d	-1.6534573
29	0x3f881176	1.0630329
30	0x401502a6	2.3282866
31	0x3f593ed9	0.8486152
32	0xc062bd3d	-3.5428002
33	0xbdde7843	-0.10862782
34	0x3fd6ef6d	1.6791817
35	0x401660cd	2.3496583
36	0xc08f652b	-4.4810996
37	0xc0251ba5	-2.5798123
38	0x406623cc	3.5959349
39	0x3fc827d3	1.5637153
40	0xbfdde97c	-1.7336879
41	0xc0887d2a	-4.265279
42	0xc050fa05	-3.26526
43	0xc0c8f233	-6.2795653
44	0x3fd2a440	1.6456375
45	0x3f73cd7c	0.9523542
46	0x407fc61c	3.9964666
47	0x3fae1823	1.3601116
48	0xc0198d85	-2.3992627
49	0xbf30d59f	-0.6907596
50	0xc058fc3f	-3.3903959
51	0xc0501792	-3.2514386
52	0xc02c75ed	-2.6946976
53	0x3feec6c8	1.8654413
54	0xc011ab9c	-2.2760992
55	0x3fcece8d	1.6156784
56	0x403db091	2.9639018
57	0x3f967310	1.1753864
58	0x3f5fcb2e	0.874194
59	0xc00b7c02	-2.1794438
60	0x3fb7136d	1.4302803
61	0xbff66e7b	-1.9252466
62	0x40073b89	2.1130087
63	0xbf7f95d8	-0.9983802
64	0x3d81db11	0.06340612
65	0xc050fbb0	-3.2653618
66	0xc00952d9	-2.1456816
67	0x3db0e829	0.08638031
68	0xbb8a2a9b	-0.0042165047
69	0x3fc52776	1.5402668
70	0xc04a4653	-3.1605422
71	0xbfa15dd4	-1.2606759
72	0x3c127621	0.008939297
73	0x3fd668e4	1.675076
74	0x4002baf5	2.042661
75	0x3f5ecd5e	0.87032115
76	0xc00cb9b1	-2.1988337
77	0xc0354946	-2.8325973
78	0x400a9dfa	2.1658921
79	0x3c3ace48	0.01140172
80	0xc059b56a	-3.4016976
81	0x3fcd9265	1.6060301
82	0x3f8b3bbd	1.0877606
83	0xbf3725f9	-0.71542317
84	0xbe70d0f0	-0.23517203
85	0xbffd49f7	-1.9788197
86	0x3f57fcc3	0.8437006
87	0xc04ae609	-3.1702902
88	0x3fb51eca	1.4150021
89	0xbeb9e763	-0.36309347
90	0x3ff9c28d	1.9512497
91	0xbe20e4cb	-0.15712278
92	0xbf0156cc	-0.50523067
93	0xbf8c53e0	-1.0963097
94	0x40933b60	4.600998
95	0x3fdc1793	1.7194694
96	0xbf9bff63	-1.2187313
97	0x3fdf0eb4	1.7426362
98	0xc00d37f0	-2.2065392
99	0xc0f8bd13	-7.7730803
100	0xc02b5bc0	-2.677475
101	0x4004273c	2.0648947
102	0x400deadb	2.2174594
103	0x405051c1	3.2549899
104	0x3fd69b8c	1.6766219
105	0xbec5da0d	-0.38642922
106	0xbbdf1984	-0.0068084616
107	0xbfc88afa	-1.5667412
108	0xbfdee238	-1.7412786
109	0xbfbcdc84	-1.4754796
110	0x3f433608	0.7625432
111	0xbff41fa4	-1.9072156
112	0x3fd8a9c4	1.6926808
113	0xc03c8a71	-2.9459498
114	0xbffb956f	-1.9654979
115	0xbb2f0384	-0.0026704976
116	0xbdb556e5	-0.088544644
117	0x3f700339	0.9375492
118	0xbf000157	-0.50002044
119	0x4033d6dc	2.809989
120	0x3fec6151	1.8467199
121	0x3f7b1160	0.9807339
122	0x40032325	2.04902
123	0xc05689c1	-3.3521578
124	0x3fa23012	1.267092
125	0xc0a61026	-5.1894712
126	0x3f336212	0.7007152
127	0x3f91d551	1.1393224
128	0xc03e18bd	-2.97026
129	0xbeed3b68	-0.46334386
130	0x40205a95	2.5055287
131	0x3fbd40e7	1.4785432
132	0x3f4dfc5b	0.8046319
133	0x4006c071	2.1054957
134	0xc0c6ac1b	-6.208509
135	0x3f0fc9a2	0.5616704
136	0xc104f55b	-8.309901
137	0x3fc27f25	1.5195051
138	0x400a1aa4	2.157876
139	0x3f9dc863	1.2326778
140	0xc0460c17	-3.094488
141	0xc02900b3	-2.6406677
142	0x3f88f2ee	1.0699136
143	0x3fb097f4	1.3796372
144	0x3e92ba45	0.28657737
145	0x4008dc04	2.1384287
146	0xc0a3f525	-5.123675
147	0x40157289	2.3351157
148	0x401d795c	2.4605322
149	0x3f818d74	1.0121293
150	0x3f8498d2	1.0359137
151	0x3f5b199b	0.85585946
152	0x3fcafcd5	1.5858408
153	0xbfad9745	-1.3561789
154	0x40370f4e	2.8603091
155	0x3fac8079	1.3476707
156	0xbebb33ab	-0.36562857
157	0xbfeb7769	-1.8395816
158	0xc04b68e9	-3.1782782
159	0x3ff37bd7	1.9022168
160	0xc027feee	-2.6249347
161	0xc002dcab	-2.0447185
162	0xbef10ef2	-0.47081715
163	0x3fc126a4	1.5089917
164	0x3f6cc72f	0.9249143
165	0xc011449b	-2.2698123
166	0xc042a4e8	-3.041315
167	0xc0b50c59	-5.6577573
168	0xbf1f5166	-0.6223358
169	0x3f9ac14c	1.209024
170	0x401c3901	2.4409792
171	0x3fc2b7a0	1.5212288
172	0x3fc1ee36	1.5150821
173	0xc06b12d8	-3.6730251
174	0x3f45e961	0.7730923
175	0x40088396	2.1330314
176	0xbfe39f2e	-1.7782953
177	0xc060a859	-3.5102751
178	0xbfd75328	-1.6822252
179	0x3fe697e7	1.8015107
180	0x3c85d787	0.016338123
181	0xbb0fe556	-0.0021956763
182	0x3f059ddc	0.52194
183	0x3fef93ca	1.8716977
184	0xbed8e7ef	-0.4236445
185	0xbfece3fc	-1.8507075
186	0xbffa82a8	-1.9571123
187	0xbea4d1a5	-0.32191196
188	0xbb97c44f	-0.004631556
189	0xc078c542	-3.8870397
190	0x3fae079a	1.359607
191	0xbfce7447	-1.6129235
192	0xbfe8edb6	-1.8197544
193	0xc02d3353	-2.7062576
194	0xc005a3ee	-2.0881305
195	0x4010daf0	2.263363
196	0xc02e4b29	-2.7233374
197	0xc032827c	-2.7892141
198	0x3fb441a3	1.4082531
199	0xc036baee	-2.8551593
200	0xbdf433d6	-0.119239494
201	0xbf8e6fa8	-1.1127825
202	0xc09316c0	-4.596527
203	0xc08d1405	-4.408694
204	0xbf3901f8	-0.7226863
205	0x401e5f02	2.4745488
206	0x40201bf0	2.5017052
207	0xbd9ca395	-0.07648388
208	0x3fe1b32e	1.7632806
209	0x40257981	2.585541
210	0xbd9b5a16	-0.07585542
211	0x3ff1fda8	1.8905535
212	0x400def33	2.2177246
213	0x401b45ba	2.4261308
214	0x3f6bff5c	0.9218652
215	0x3fec71e7	1.847226
216	0xc037d09f	-2.8721082
217	0xc07357af	-3.8022268
218	0xc079d00c	-3.9033232
219	0xc05c266c	-3.439845
220	0x3fe90c3e	1.8206861
221	0xc0184d15	-2.3797047
222	0xc035e622	-2.8421712
223	0x3fdc0d76	1.7191608
224	0xc0ee1989	-7.440617
225	0xc0255ffb	-2.5839832
226	0x3f91d27c	1.139236
227	0xc02977c0	-2.647934
228	0xbf9f1ede	-1.2431295
229	0xc0058aa5	-2.0865872
230	0xbff2e26f	-1.8975352
231	0x3f523f76	0.82128084
232	0xc05ebe2a	-3.4803567
233	0x3f908eb7	1.1293553
234	0x3f9cb076	1.2241352
235	0xc00ee867	-2.2329347
236	0x40412195	3.0176747
237	0x3f3f9386	0.7483448
238	0x3bb10da1	0.005403236
239	0x40707fe4	3.7578058
240	0xc00c2c11	-2.1901896
241	0xc00c874b	-2.1957576
242	0x40057a79	2.0856001
243	0xc00d441a	-2.2072816
244	0xc06c7633	-3.6947143
245	0xbed51e0f	-0.41624495
246	0x403d956f	2.9622457
247	0xc02145bc	-2.5198812
248	0xbf95a1be	-1.1689985
249	0x40148501	2.320618
250	0xc06c0c67	-3.688257
251	0x3fca62c6	1.5811393
252	0x3ff9e61a	1.9523346
253	0xc064b9f2	-3.5738492
254	0xbf786c02	-0.97039807
255	0xbff1d76a	-1.8893864

linear1_q2.weight f4 [256, 26]
0	0xbf13ef3c	-0.5778692
1	0xbe57d099	-0.21075667
2	0xbf882a83	-1.0637974
3	0xbde56a46	-0.11201911
4	0xbc0f5b05	-0.008749728
5	0xbd03dcd7	-0.03219303
6	0x3e832f54	0.25622046
7	0xbe7d55c5	-0.2473975
8	0x3dd5b88a	0.10435589
9	0x3d82dcde	0.06389783
10	0xbe07ee6a	-0.13274541
11	0xbe158449	-0.14601244
12	0xbe8d6c01	-0.27621463
13	0x3d211f79	0.039336655
14	0xbdd5ca90	-0.10439026
15	0xbc926b1f	-0.017873345
16	0xbe0134ee	-0.12617847
17	0x3ea26ce1	0.31723693
18	0xbe29594c	-0.1653797
19	0xbe737621	-0.23775531
20	0xbe508f46	-0.20367154
21	0x3f73e470	0.9527044
22	0xbe37eca8	-0.17961371
23	0xc044f728	-3.0775852
24	0x3e296600	0.16542816
25	0xbf38db15	-0.7220929
26	0x3e3b2aa7	0.1827799
27	0xbcf04645	-0.029330382
28	0xbed6f175	-0.41981092
29	0x3ddaeb14	0.10689369
30	0xbdbe7744	-0.09300092
31	0xbc7e9524	-0.015538488
32	0xbe658329	-0.22413315
33	0xbf1218bd	-0.57069
34	0x3e98b133	0.29822692
35	0x3d8380b5	0.06421033
36	0xbdfb8921	-0.12282015
37	0xbe177900	-0.14792252
38	0xbe9228b7	-0.28546688
39	0xbd03fd51	-0.032224003
40	0xbd577ae8	-0.052607447
41	0xbc528fe5	-0.01285169
42	0xbcc16be7	-0.023611022
43	0x3eddd670	0.43327665
44	0x3f359a14	0.7093823
45	0xbeac2d7c	-0.33628452
46	0x3e6694c5	0.22517689
47	0x3fa0af21	1.2553445
48	0x3f65c60a	0.8975531
49	0xbfe4eef1	-1.7885419
50	0x3e8629b2	0.26203686
51	0xbf26f278	-0.6521373
52	0x3cbef60c	0.023310684
53	0xbdff73c9	-0.12473256
54	0xbc85bf69	-0.016326623
55	0xbe6a4a31	-0.22879864
56	0xbe0bce96	-0.13653025
57	0xbe59812e	-0.21240684
58	0x3c7d20ab	0.015449683
59	0xbe4d232a	-0.20032945
60	0xbdcbd30b	-0.099523626
61	0x3da34d55	0.07973734
62	0xbdeea34b	-0.116522394
63	0x3d761983	0.060082924
64	0x3db0c467	0.08631211
65	0x3e44b9dd	0.19211526
66	0x3e23d774	0.16000158
67	0x3d8a75c8	0.06760746
68	0x3daee985	0.08540634
69	0x3e5fd6e6	0.21859321
70	0x3e0ca92d	0.1373641
71	0x3dc5e9be	0.096637234
72	0x3f21314d	0.6296585
73	0x3f0247cb	0.508908
74	0xbf67da53	-0.9056751
75	0xc030e74b	-2.764117
76	0xbe30f487	-0.1728078
77	0x3e24103e	0.16021821
78	0xbdd4309a	-0.103608325
79	0xbf1f427d	-0.6221083
80	0xbec4433e	-0.38332552
81	0xbe855220	-0.2603922
82	0xbe76f66e	-0.24117443
83	0xbe94757e	-0.2899589
84	0xbce22995	-0.027607718
85	0xbea93d47	-0.33054563
86	0xbef7b4f9	-0.4838026
87	0xbf1473b1	-0.5798903
88	0xbeea91ec	-0.45814455
89	0xbec0ecd0	-0.37680674
90	0x3ce4a0ea	0.027908761
91	0xbeddbc97	-0.43307945
92	0xbe71ea44	-0.23624521
93	0x3e532e48	0.20623124
94	0xbe4ddc3a	-0.20103541
95	0x3e996676	0.29960984
96	0xbe2b37da	-0.16720524
97	0x3e4ceb58	0.20011652
98	0xbf819f5b	-1.0126756
99	0xbf154afe	-0.58317554
100	0x3f40ea11	0.75357157
101	0xc03c74b4	-2.944623
102	0x3f8e967a	1.1139672
103	0xbd688c53	-0.05677445
104	0xbd9227a2	-0.071364656
105	0x3db0ece9	0.08638937
106	0x3d59c641	0.053167585
107	0xbc73003f	-0.014831602
108	0x3a37a40e	0.0007005342
109	0x3d07ba49	0.03313664
110	0xbe1651e5	-0.14679678
111	0xbb0174cd	-0.0019753457
112	0xbd830acf	-0.06398546
113	0xbe00cf8f	-0.12579177
114	0xbbd8efa9	-0.0066203666
115	0x3d978059	0.07397527
116	0xbd99d089	-0.07510478
117	0x3c6e2e82	0.0145374555
118	0xbd9188da	-0.071061805
119	0x3d907b4a	0.070547655
120	0x3cc9fdbf	0.024657128
121	0xbe0eebc8	-0.13957131
122	0xbd035bdd	-0.03207003
123	0x3cebe723	0.028796738
124	0xbdc29f82	-0.0950308
125	0xbe896d25	-0.26841083
126	0xbf2f86b1	-0.685649
127	0xbfb33845	-1.4001547
128	0x3d97c01d	0.074096896
129	0x3ecf02d0	0.40431833
130	0xbe1a8be9	-0.15092434
131	0x3d4c7592	0.04991681
132	0xbe8023b5	-0.25027242
133	0xbe1aad19	-0.15105094
134	0xbb0f690d	-0.0021882684
135	0xbd611d15	-0.054959375
136	0x3e554b68	0.20829546
137	0x3d81b390	0.06333077
138	0xbdcbf532	-0.09958877
139	0x3dca5875	0.09880153
140	0xbd3efbbc	-0.04662679
141	0x3dde05d9	0.10840959
142	0x3e26fb51	0.16306807
143	0x391da4f0	0.00015034131
144	0x3e1baceb	0.15202682
145	0x3e05d57a	0.13069716
146	0xbdbdca91	-0.09267152
147	0x3ca04749	0.019565241
148	0xbcd22698	-0.025653169
149	0xbe85e0ec	-0.26148164
150	0xbec6e643	-0.3884755
151	0x3f679c25	0.9047263
152	0x3dac1219	0.08401889
153	0xbfdd8c59	-1.7308456
154	0xbd9d00ec	-0.076661915
155	0x3fcad20b	1.584535
156	0xbd24455e	-0.040105216
157	0x3e452ecf	0.19256137
158	0x3d028ae7	0.03187075
159	0x3e38a680	0.18032265
160	0x3dd8712b	0.1056846
161	0x3dd12020	0.102112055
162	0x3d24246d	0.0400738
163	0x3e1b83c5	0.15186985
164	0x3a48bc6e	0.0007657473
165	0xbc5bfb3b	-0.013426597
166	0x3c44f9b0	0.012022421
167	0x3ca259f4	0.019818284
168	0x3e679afe	0.22617719
169	0x3d81bf9b	0.06335374
170	0x3d9595b8	0.07303947
171	0x3e09d3e9	0.13459744
172	0x3e0cd232	0.13752058
173	0x3e148efe	0.14507672
174	0x3e0726a0	0.13198328
175	0x3cecad07	0.0288911
176	0x3db5a973	0.088702105
177	0xbd9db5c9	-0.077006884
178	0xbf076dd7	-0.5290198
179	0xbf102024	-0.5629904
180	0x3db62749	0.08894212
181	0xbe55fd26	-0.2089735
182	0xbed7be2f	-0.42137286
183	0xbe92dc65	-0.28683773
184	0xbecbfe77	-0.3984258
185	0xbebbbca7	-0.36667368
186	0x3ed12ce6	0.40854567
187	0xbe3a0690	-0.18166566
188	0x3e4fc02e	0.20288154
189	0xbcf657ee	-0.030071225
190	0xbe2de590	-0.16982102
191	0x3da72c8e	0.08162795
192	0xbe832cdc	-0.25620162
193	0x3e8af3bf	0.2713909
194	0xbdd89ae0	-0.10576415
195	0xbdf89221	-0.12137247
196	0xbd8f5877	-0.06999295
197	0xbdba9d4b	-0.091120325
198	0xbdca29fc	-0.09871289
199	0x3e6f2b46	0.23356351
200	0xbd9c80d2	-0.07641758
201	0xbf153564	-0.5828459
202	0xbde7da93	-0.113209866
203	0xbfd93d7c	-1.6971889
204	0xbf27a450	-0.65485096
205	0xbfda0d08	-1.7035227
206	0x3ee76c7e	0.4519996
207	0xbe52d10b	-0.20587556
208	0xbb9b2f6f	-0.004735879
209	0x3ebd32ee	0.3695292
210	0x3e00064b	0.125024
211	0x3eb7cecb	0.35899958
212	0x3ebfe504	0.37479413
213	0x3e9cd6d2	0.30632645
214	0x3f0012f9	0.5002895
215	0xbe66e38f	-0.22547744
216	0xbe5642cf	-0.20923923
217	0x3c53dc8c	0.012931
218	0x3e34c9e7	0.17655145
219	0x3d9c7e77	0.07641309
220	0xbd9b55b1	-0.07584704
221	0xbecbdd05	-0.39817062
222	0xbeb495bc	-0.35270488
223	0xbd8f1554	-0.0698649
224	0xbf654068	-0.895514
225	0xbefd98c5	-0.49530616
226	0xbf3ca3b9	-0.7368732
227	0xbf300bf5	-0.68768245
228	0xbf314fa9	-0.69262177
229	0x3f02dff5	0.5112298
230	0xbea4bc32	-0.32174832
231	0xbf85157d	-1.0397183
232	0x3e42511a	0.1897625
233	0x3f450457	0.7695975
234	0xbe76f7dd	-0.2411799
235	0xbdd5f0ed	-0.104463436
236	0xbc528116	-0.012848159
237	0x3d38ddbb	0.045133334
238	0x3d57edc7	0.052716997
239	0x3d075554	0.03304036
240	0x3dddbe3f	0.10827302
241	0x3dd0a4b5	0.101876654
242	0x3db75ca3	0.08953216
243	0x3e842c2b	0.25814947
244	0xbbf6ca26	-0.007531422
245	0xbd8013f1	-0.062538035
246	0xbcd54ad3	-0.026036656
247	0x3e8b841c	0.2724923
248	0x3e135117	0.14386402
249	0x3dad3b91	0.08458627
250	0xbd174c04	-0.03693773
251	0xbeb4ac6a	-0.35287791
252	0x3ccccbca	0.024999518
253	0xbe410cbd	-0.18852516
254	0x3f00d55e	0.5032557
255	0xbf109cbc	-0.5648916

linear1_q2.bias f4 [256]
0	0xbcc71886	-0.024303686
1	0x3ed792ad	0.42104092
2	0x3fb5cf7a	1.4203942
3	0x3f3b793d	0.7323187
4	0x40137eb7	2.304609
5	0x3ffcbf03	1.9745792
6	0x40100c74	2.25076
7	0x3f9ffac4	1.2498403
8	0x3f16e9db	0.58950585
9	0x3faa57e8	1.3308077
10	0xbe8e46ca	-0.27788383
11	0xbdb42f62	-0.087981
12	0xbd1aabab	-0.03776137
13	0xc0161089	-2.3447592
14	0xbf79423f	-0.9736671
15	0xbf5fc700	-0.87413025
16	0xbf951a97	-1.164874
17	0xbff1c731	-1.8888913
18	0x3e3004f1	0.17189385
19	0xc006a585	-2.1038525
20	0xbf9bcfa4	-1.2172742
21	0x3f705b11	0.93888956
22	0xbfe48709	-1.785371
23	0x3ec04d92	0.3755918
24	0x3fae4662	1.3615229
25	0xbe9253a5	-0.2857944
26	0xbf9ee486	-1.241349
27	0xbf6a163d	-0.9144018
28	0x3e98ee20	0.29869175
29	0x3f33b0de	0.7019175
30	0xbfc9ce57	-1.5766095
31	0xbfa5d8da	-1.2956803
32	0x40158fd0	2.3369026
33	0x3f27e53e	0.6558417
34	0xbeadd984	-0.33955014
35	0xbf2bff31	-0.67186266
36	0xbf6e8302	-0.9316865
37	0xbd0e283d	-0.034706343
38	0x3e7fab9f	0.24967812
39	0x3e699d49	0.22813906
40	0xbf9c39af	-1.2205104
41	0xbe5c1df6	-0.21495804
42	0x3f403468	0.75079966
43	0xc0069505	-2.1028454
44	0xbb51a9be	-0.0031992043
45	0xbf181d43	-0.5941965
46	0x3ea00b47	0.31258604
47	0x3cf5f4d9	0.030023979
48	0xbffeabf9	-1.9896232
49	0x3fcc1cc0	1.5946274
50	0x3f8faa8b	1.122392
51	0xbdd36fd6	-0.103240654
52	0x3fc3ce5a	1.5297348
53	0x3ea9954e	0.33121723
54	0x3e36d91c	0.17856258
55	0x3fce3c8a	1.6112225
56	0x3f63bd3c	0.88960624
57	0xbf9bc958	-1.217082
58	0xbeccaeea	-0.399772
59	0x3fd903f5	1.6954333
60	0x3f12407b	0.5712964
61	0x3fa21448	1.2662439
62	0x3eefb152	0.46814972
63	0x3e41d55f	0.18929051
64	0xbd950ad0	-0.07277453
65	0x401663bd	2.3498375
66	0xbf810575	-1.007979
67	0x3f3f1674	0.74643636
68	0x3f442a27	0.7662682
69	0xbe8e822f	-0.27833697
70	0x3ea8eb7f	0.3299217
71	0xbfded54b	-1.7408842
72	0x3c7a71d3	0.015285927
73	0xbf47f223	-0.78103846
74	0x3de4e401	0.11176301
75	0xbf888f5e	-1.0668752
76	0xbf3f44b4	-0.7471421
77	0x3ed060ae	0.4069876
78	0xbf39674b	-0.7242324
79	0x3eb61d4b	0.35569224
80	0x3cc8fcd2	0.024534617
81	0xbe7aacfa	-0.24480048
82	0x3f686844	0.90784097
83	0x3eb44e91	0.3521619
84	0xc003f148	-2.0616016
85	0xbfad1bda	-1.3524125
86	0xbf820bba	-1.0159829
87	0x3f6b4056	0.91895044
88	0x3de98ca4	0.11403778
89	0x3f069138	0.52565336
90	0x3ee64bd2	0.4497972
91	0x3f6e1db6	0.93014085
92	0x3e3aab40	0.18229389
93	0xbfb48932	-1.4104369
94	0x3f448fa2	0.76781666
95	0x3ec0dbb0	0.37667608
96	0x3ebf26d8	0.37334323
97	0x3f09f015	0.5388196
98	0xbfdb028b	-1.7110151
99	0xbf54974e	-0.8304337
100	0xbf81d41e	-1.0142858
101	0xbfaca20d	-1.3486954
102	0x3e565ec2	0.20934585
103	0xbfb3bfde	-1.4042928
104	0xbf3ac42a	-0.7295557
105	0xbf44e471	-0.76911074
106	0xbdab14df	-0.0835359
107	0xbfd8b2c6	-1.6929557
108	0x3ef0bfc0	0.47021294
109	0x3ec4f462	0.384677
110	0x3d552ee9	0.05204669
111	0x3fe8ab62	1.8177302
112	0x3ebcef49	0.3690131
113	0xbf362888	-0.71155596
114	0x3e81cabe	0.25349993
115	0x3ee27da2	0.44236475
116	0xbf911575	-1.1334673
117	0x3f40a644	0.752537
118	0xbff63df5	-1.9237658
119	0x3f758e08	0.9591985
120	0x3e9eb4ce	0.30997318
121	0x3ad0df8a	0.001593576
122	0xbfdf3c95	-1.7440363
123	0xbd649df0	-0.055814683
124	0xbf856024	-1.0419965
125	0x3e8fa272	0.28053623
126	0x3faff747	1.3747338
127	0x3e82d318	0.25551677
128	0x400b86f7	2.1801126
129	0xbf8cdbea	-1.1004612
130	0x3f97c978	1.1858358
131	0x3ead48ec	0.33844697
132	0xbd5aa3e0	-0.05337894
133	0x3e131187	0.14362155
134	0xbf1261e4	-0.5718062
135	0x3ebc7933	0.36811218
136	0xbfce122b	-1.6099294
137	0x400d4a3e	2.2076564
138	0x3ebc87ad	0.36822262
139	0x3f551802	0.8323976
140	0x3f6285a3	0.88485163
141	0x3f4d7898	0.80262136
142	0xbde5acf2	-0.11214627
143	0xbc46a93f	-0.012125312
144	0x3d75cb18	0.06000814
145	0x3ecca82c	0.39972055
146	0x3ecebe9b	0.40379795
147	0xbf86b5cb	-1.0524229
148	0xbf49d723	-0.788439
149	0x3f017123	0.5056326
150	0xbfa60003	-1.2968754
151	0x3f90602e	1.1279352
152	0x3e3b51e4	0.18292958
153	0x3f08a0b0	0.5337019
154	0xbf87ae8f	-1.0600146
155	0x401b70d7	2.4287622
156	0x3f947816	1.1599147
157	0x3f2ff789	0.68737084
158	0xbf033854	-0.51257825
159	0x3f91b5d9	1.138362
160	0xbe5b4618	-0.21413457
161	0x3feaf2c2	1.8355334
162	0x3f3d9c1d	0.74066335
163	0x3ede1340	0.43374062
164	0x3f0685e6	0.5254806
165	0xbe8145f0	-0.2524867
166	0xbfdb843d	-1.7149731
167	0xbfa91a64	-1.3211179
168	0xbfe052af	-1.7525233
169	0x3f3c5fd1	0.73583704
170	0xbf769346	-0.9631847
171	0x3e9da828	0.30792356
172	0x3e474b12	0.19462231
173	0xbfa07811	-1.2536641
174	0xc00b198e	-2.1734347
175	0x3f24dd6b	0.64400357
176	0x3e2d324d	0.1691372
177	0x3f87d41b	1.0611604
178	0x40155512	2.3333173
179	0xbfcd75f8	-1.6051626
180	0xbf9c8912	-1.222933
181	0xbf58fb2c	-0.8475826
182	0x3f3e76f8	0.7440028
183	0x400c4f69	2.1923468
184	0x3ed395b4	0.41325152
185	0x3fd97559	1.6988937
186	0xbfe099da	-1.7546952
187	0xbfe1594b	-1.7605375
188	0x401d937f	2.4621274
189	0xbe160134	-0.14648896
190	0xbf8f28f2	-1.118437
191	0xbed1e17b	-0.4099234
192	0x3fd0c99e	1.6311529
193	0x3f9d930a	1.2310498
194	0xbf6516ac	-0.8948772
195	0x3f240a83	0.6407854
196	0xbf5a6a7d	-0.8531874
197	0x3f2829b5	0.6568864
198	0x3fc0b0d4	1.5053964
199	0x3f0dcec9	0.55393654
200	0x3f98e45d	1.1944691
201	0xbe8a2363	-0.26980123
202	0xbd86bd40	-0.06579065
203	0x3e38ef88	0.18060124
204	0x3e85d22f	0.2613692
205	0xbfa970af	-1.3237513
206	0xbfc14ab2	-1.510092
207	0x4009b449	2.1516287
208	0xbe9653bd	-0.29360762
209	0x40049cd1	2.0720713
210	0x3fabf51b	1.3434175
211	0xbff05537	-1.8776006
212	0x3ec8a2a4	0.39186585
213	0x3f820a61	1.0159417
214	0xbf5acf92	-0.8547298
215	0x3f8dd473	1.1080459
216	0x3e3c457e	0.18385884
217	0x3f83a0b6	1.028342
218	0x3fab8126	1.3398788
219	0x3f4e3fa1	0.8056584
220	0xbdcc1507	-0.09964948
221	0x4016e7ad	2.3578904
222	0x3f616ec9	0.8805967
223	0x3f1aebb3	0.605159
224	0x3e65c63e	0.22438905
225	0xbf0bc19e	-0.5459231
226	0xbff3181a	-1.899173
227	0x3efebb3d	0.49752226
228	0xbfba4549	-1.4552394
229	0x3f198c9e	0.5998019
230	0xbf1f5ead	-0.6225384
231	0x3ef4a0de	0.47778982
232	0xbfb824f4	-1.4386277
233	0x3f4f3751	0.8094378
234	0x3f9071bd	1.128471
235	0x3ee4169e	0.44548506
236	0x3f0c0f04	0.5471041
237	0x3e5dbd0d	0.21654148
238	0x3ffb5acd	1.9637085
239	0x3f888a8c	1.0667281
240	0x3ec33051	0.381228
241	0xbfa31a76	-1.274245
242	0xbfa3dfbe	-1.2802656
243	0xbf9de9f1	-1.2337018
244	0xbe095225	-0.13410242
245	0x401eca75	2.481107
246	0x3ef5bfa0	0.4799776
247	0x3f5d3eb8	0.86423826
248	0xbfc0d756	-1.5065715
249	0xbf7c6a35	-0.9859956
250	0xbd48fd88	-0.04906991
251	0x3f0d00f8	0.55079603
252	0xbfa58cb8	-1.2933569
253	0x3f1461e1	0.5796185
254	0x3f985e2c	1.1903739
255	0xbea7643a	-0.32693654
