hydrone_aerial_underwater_ddpg/scripts/Models/sac_stage_2_sub2D_tanh_3layers/560_value_net.pth (torch_old, 585563 bytes, 10 tensors)

linear1_q1.weight f4 [256, 26]
00000000: 9612 3b3c 625e 593d 8cf1 bc3d 9150 70be
00000010: f015 f6bc 71b5 3ebe 6345 3ebc 347d 6b3d
00000020: ded3 bd3d 0bd6 803e c72d a2bc 658e 34be
00000030: 39bd 5cbd e305 12be d072 9bbd e2c5 8cbd
00000040: 181d 87bd e898 143e 88dc 853d 333b 9a3e
00000050: bac8 823e c6ea 37be d9ef 33be 8a82 19bf
00000060: ebf9 03bf a0fa 7e3e 9bcd f3be dbb8 7bbe
00000070: 2770 89be 2549 b3bd 2f05 863d 447e 963c
00000080: 228b 383d 7693 65bd 84e2 34bd 3cba 2cbe
00000090: f785 21be 0e46 a1bd 2106 89be ce76 c1bd
000000a0: 4bf5 22be 1e25 a53d f562 8d3d 7cc0 7c3e
000000b0: afb1 b93e 4dde 913d a082 5fbf ebed 4d3f
000000c0: fd4b 8dbe bd76 fdbd 8371 a6be a8f2 113e
000000d0: 4a6e 1d3d d0a0 eb3d e952 913d acaf 51bc
000000e0: 4855 833d 0203 5cbd cac3 fc3d a37d 1bbc
000000f0: 4e38 df3c f721 f7bd ea73 063d 8432 c7bc
00000100: fc38 b9bb 8a03 143e 75a3 cebd 6ee2 71bd
00000110: 7ee9 023d 8142 103d ec09 fe3c b8e4 36be
00000120: 348a 033f a51d ea3c feee acbe dbff a5bf
00000130: 0dc8 d8bd c55e 1ebe 05f8 533d a92c 2cbe
00000140: 822b 003d 0006 fdbc 3c6d af3d 715e 4a3d
00000150: 9e1a f53d 249a 20be bc5a a2be 27ea c1be
00000160: b630 8abe 7ac2 afbe 0a9d c63c ae73 5fbc
00000170: b596 943d 5006 d2be fce7 a3bd 7653 0ebf
00000180: 9e3d 90be bb20 0f3e 5aeb d83d 5d5a 2b3e
00000190: 32db 063f 76ee 493f 874b 2b3e 6770 903e
000001a0: eb7f 63be 7ab7 4f3d 241b 843d 5fc6 f73d
000001b0: 92f6 08bd 28a6 813c 46a9 9f3d 0a14 3bbd
000001c0: 3564 3e3d c592 8a3d 9561 85bd 9210 4e3d
000001d0: 0fdf dcbd 2450 05be 01d9 883d e262 05be
000001e0: f3de f93d 853c b13d cdfa 933d 0032 f6bd
000001f0: 6bae 8abe b1f0 023f ee43 f83f 5e4e aabf
00000200: d946 5b3d cbb0 0a3d 3884 06bf 5461 8a3d
00000210: 54bb afbd bf34 763e 752b 723e 7323 5ebd
00000220: f532 403d 8c95 373c 3c49 ddbd f26d 9dbd
00000230: e917 6fbe fce9 c8bd 5192 d8bb 7a96 14bd
00000240: 172b aa3e dc3f 3bbc bf9f 363e 986f e73d
00000250: e4d8 6c3d 9b6f 8e3d 64f8 82bd 436d 24be
00000260: a481 b53e 9739 bf3c cd77 3f3e 2c37 90be
00000270: 91c7 1abe 4c6b f4bc e48b 14be 6ff1 1fbe
00000280: 33c6 fa3d 5f67 213e 3473 10bd e418 bb3d
00000290: de40 153d c9cd 2cbe b9a7 30bd c53d b23d
000002a0: 1891 5fbe bd68 033d e63a 0a3e bcc1 1cbe
000002b0: 6d1c 04be cdfe 883e f07f e5bd e885 173e
000002c0: b087 b2bd e7f4 ea3e 6f4f ffbe 8373 1ebf
000002d0: 9afc 80bf a8d2 343f 799a 2d3d 36c1 eb3d
000002e0: e803 ad3e e673 d5be eb6b c0be 9474 babe
000002f0: 5032 acbe f178 6cbe e20e 0abe 2b0d 983d
00000300: 905c bd3d 917b 573e 3a58 f3bd 2a49 2a3e
00000310: b679 53be 611d 14bd 1c6b cdbd eef7 703e
00000320: bfa9 473d d9cd 32be acfd d1ba 5778 11bf
00000330: bbc0 583f 0763 a43e ee61 0ebe 0a05 b63e
00000340: fd36 a6bc 9cf2 8c3d d59b a8bc ef4c babe
00000350: 8a14 3ebd d233 bbbb f7cd a83d 34f3 323d
00000360: 3fb0 39bd adfa 19be 004b 8ebb 001b 453e
00000370: e8b0 713c d7b3 143e 2d86 283e 670c 173e
00000380: 235c aa3d a792 0ebd 3d1e b3bd 1ade 17be
00000390: 02dc 9c3b 120b 043f 2679 65bf 6129 8b3f
000003a0: ae44 fa3e 90c6 a8bd 1f1d 8cbe 1e51 173e
000003b0: 9559 6ebd ac61 0c3e e279 693e 39b7 583d
000003c0: 767c a4be d601 eebd 6caa 103c ac9b 19be
000003d0: e1d9 02be f37d 09be 3ba1 b4bd d086 9dbc
000003e0: 22c8 dfbc 0fab 443c d7bb b43c ec62 47be
000003f0: 3293 723e 65b9 2a3e e46d c23e 3a97 803e
0.011418005 0.053068526 0.09225759 -0.23468234 -0.030039757 -0.18623902 -0.011613223 0.05749245
0.09268926 0.25163302 -0.019797219 -0.17632444 -0.053891394 -0.14260058 -0.07590258 -0.06873681
-0.06597346 0.14511454 0.065362036 0.3012329 0.25543767 -0.17960653 -0.17571963 -0.5996481
-0.5155322 0.24900293 -0.47617802 -0.24582236 -0.26843378 -0.087541856 0.065439574 0.018370755
0.045054562 -0.056048833 -0.044161335 -0.16867918 -0.1577376 -0.0787469 -0.26762488 -0.09446488
-0.15913884 0.0806372 0.0690364 0.24682802 0.36268374 0.07122479 -0.8730869 0.8044116
-0.27597037 -0.12376163 -0.32508478 0.14252722 0.038435258 0.11505282 0.07095892 -0.012798231
0.064127505 -0.053713806 0.12342031 -0.009490403 0.027248528 -0.12067025 0.032825388 -0.02431608
-0.005652545 0.14454475 -0.10089771 -0.05905383 0.031960957 0.035219673 0.03101059 -0.17860687
0.51382756 0.028578589 -0.33776087 -1.2968706 -0.10585032 -0.15465839 0.0517502 -0.16813911
0.031291492 -0.03088665 0.08565757 0.049406473 0.119679675 -0.156838 -0.3170985 -0.37873957
-0.26990288 -0.3432806 0.024244804 -0.01363842 0.072553076 -0.4102044 -0.08003232 -0.555961
-0.2817201 0.1397733 0.10591765 0.1673369 0.52678216 0.7887949 0.1672803 0.28210756
-0.22216766 0.050712086 0.06450489 0.12098383 -0.033438273 0.0158263 0.07795958 -0.045673408
0.046482284 0.06766275 -0.06512753 0.05030877 -0.107847326 -0.13018852 0.06682015 -0.13026002
0.12200727 0.08654121 0.07225571 -0.120212555 -0.27086195 0.51148516 1.939573 -1.3305166
0.053534362 0.03386001 -0.525455 0.06756845 -0.08580652 0.24043559 0.2364939 -0.054233026
0.046923596 0.011205088 -0.10804984 -0.07686986 -0.23348965 -0.09810254 -0.006609239 -0.036276318
0.33236 -0.0114287995 0.17834376 0.11300582 0.05782403 0.06954881 -0.06395033 -0.16057305
0.3545047 0.02334289 0.18698044 -0.28167093 -0.15115191 -0.02983632 -0.14506489 -0.15619443
0.12244835 0.15762089 -0.035266116 0.09135607 0.036438815 -0.16875376 -0.043128703 0.08703188
-0.21832693 0.032082308 0.1349903 -0.15308279 -0.12901469 0.26756898 -0.11206043 0.14797175
-0.087172866 0.4588997 -0.4986529 -0.61895007 -1.0077088 0.70633936 0.042383645 0.115114614
0.33792043 -0.41689986 -0.37582335 -0.36417067 -0.33632135 -0.2309301 -0.1348224 0.074243866
0.092461705 0.2104323 -0.11882062 0.16629472 -0.20651898 -0.03616083 -0.10030195 0.23532078
0.048745867 -0.17461337 -0.0016021035 -0.5682425 0.84669083 0.32106802 -0.13904545 0.3555072
-0.020289892 0.068822116 -0.020582119 -0.3638682 -0.046406306 -0.0057129646 0.0824241 0.043688968
-0.045334097 -0.15037031 -0.004342437 0.19248581 0.01475165 0.14521728 0.16457434 0.14750825
0.08318355 -0.034807827 -0.08746002 -0.14830819 0.004786969 0.5157939 -0.8963798 1.0872003
0.48880523 -0.08240998 -0.27365968 0.14777038 -0.0581909 0.13709134 0.22800401 0.05290911
-0.32126206 -0.11621444 0.008829694 -0.1500079 -0.12778427 -0.13426952 -0.08819815 -0.019229323
-0.02731711 0.012003674 0.022062225 -0.1947133 0.23688963 0.16672285 0.37974465 0.25115377

linear1_q1.bias f4 [256]
00000000: b6ed 81bb 08ba 9d3c b994 1b3f edb4 323e
00000010: 77c9 5a3e abf7 aebe b8ed b13e 1268 cbbd
00000020: 95fa 033f 64f1 1d3e 93bc cc3e 3cab fc3e
00000030: 447f 03be 814d 2e3d da8c 7a3e a03e 263f
00000040: f564 643f 8720 0dbf 01bd 7f3f e043 4e3e
00000050: 3440 00bf 96fb 4ebf fba4 e93c e83c ccbe
00000060: 23d7 70bf b3cd ba3d 4d9a 13bf db94 e9be
00000070: 8c0c 45be 307e 213e 8e28 24bd 743e da3e
00000080: adba 70be ffb7 003e 8bb7 39bd ce9a d83e
00000090: 499c 453d 10e8 323f e810 38bf a54f 0cbf
000000a0: cf31 853e 6ac7 4d3d 56bc 29bf 6aac 4e3f
000000b0: f0ca eebe 0dc5 ca3e 5ee5 5c3f 0be2 ba3e
000000c0: b1f7 a0bd f307 5fbe 70ba 053b 3f36 efbe
000000d0: 1f11 ed3e 1215 133e 038d c8be 7098 de3d
000000e0: d40c 3c3f 2495 623f c8fb 02bf 83ba 9b3e
000000f0: 0a71 463f b2d3 0abd d64e 333e cc72 8cbd
00000100: 46df 1f3b 8af3 0a3f 99f9 f5be de61 4c3e
00000110: 79bd 733e 289c 61bf 83ac 253d d815 43be
00000120: cb3d 0d3f dc0c 303e e9ec 2abf 0cf2 343f
00000130: 095a 40bf 7850 4abf 708d 453f cd16 89be
00000140: 4064 73bd 65a1 4e3f 88b3 35be bd04 2a3f
00000150: 7830 20bf e069 073e fbff f23e 50f5 98be
00000160: 90a7 673f 5a34 033e 8aa9 c9be 1778 4e3f
00000170: ada8 343c d5e4 28be 4059 473e 02a4 89bd
00000180: 5cc0 4fbf cafe 89be 1a95 27bf 36d6 7d3f
00000190: 2733 05bf 475f ff3d 55a4 8ebc cd7a 88bd
000001a0: b7ed 583f 39a4 923e fc8c 113f 093f b03d
000001b0: bcc7 89be fbff f53e 4849 2c3f 890e 543f
000001c0: 8717 15bf 8f34 8fbe cdd0 3d3f a6ef a9bc
000001d0: c583 be3d 9ae1 cc3e 254f e0be b396 04bf
000001e0: 14c0 473d bd0c f6be e2ff 8abe d30c 673f
000001f0: d36e 06bf dbc0 543f f57a a63e 38a4 37be
00000200: 2d4c 7c3f 7ff7 683f 6815 5b3f 9b75 753e
00000210: 733e a23e e715 acbe 737b c23e c856 aa3f
00000220: c17c a73d fcef 703f 492f 57bf 32a3 0e3e
00000230: b5ca 5c3e cd46 d93e 8669 bd3e acb5 49bf
00000240: fadb 70be 278c 023f 90ad 673f 37e7 b3be
00000250: 79c7 9e3e 2d74 343c fb4a 793f d264 8cbe
00000260: 6148 533e 4e92 0cbf 8ed8 88be 610d a1be
00000270: c86b 543f 88b4 213f 655c 13bf aec3 29be
00000280: c34b 893e 10f7 6d3f 8c01 16be 5ff6 1f3e
00000290: 1004 c73e cae3 5e3e 2ce6 34bd f7c4 39be
000002a0: 7ba4 b0be cb3e ca3f 2979 833f a41d 04bf
000002b0: 5237 16bf 6ba0 a63e 70e5 1e3e 55b8 7e3e
000002c0: 63d0 a73e 66da 3ebf 2aae 3d3f 20fb 113d
000002d0: 2e21 abbe b3ff 61bd f761 123f cd7c 643d
000002e0: a8ac 98be 3a2a 11bf 1def 4abf bb68 343f
000002f0: aa18 e03e 6a39 093f 3e28 58bf 815a 393f
00000300: 5732 88bb 47c9 093f 36a1 4c3e c4f5 7e3d
00000310: a4fb 55bf abc4 8ebf 7352 b2be 8388 343e
00000320: 4c69 0bbd 209e 47bf 6bb5 c73d 6fd9 57bf
00000330: 4b70 16bf a7fe d6bd 75e5 713e ada7 10bf
00000340: abd7 6a3f 8233 3e3f 5db4 103f 6936 073e
00000350: 3a2e 2abd 6885 6b3f cf96 39bf b65c a4be
00000360: 2d7c 51bf 960c ea3e 3be0 1d3f 4d7c 02bd
00000370: 8fca 0bbf 940c eebb 2ba2 45bf d5b0 84be
00000380: cfa9 843f 0265 463d 33c0 d63d 23af 48be
00000390: 3cc7 1d3f d2d3 5cbe 5c4a 713f 57d4 8ebe
000003a0: 0056 eebe c3be 3abe b917 c43e ddd1 7c3f
000003b0: 5362 90be f931 393f 548e 943e c73d 22bf
000003c0: 6df7 653f 7fec 99be 220f 1abf b9df 13be
000003d0: 99e6 a13e 09ea 133e 48dd 163e f38f 22be
000003e0: 8181 8dbe eb35 2c3e 204a 88be e8cd 52bf
000003f0: ce9f d13d 444c 433f 76f9 3cbf 043a 0dbf
-0.003965105 0.019253746 0.6077381 0.1745183 0.21365915 -0.3417333 0.34751678 -0.09931959
0.5155423 0.15424114 0.3998762 0.4934939 -0.12841517 0.042554382 0.24467793 0.6493931
0.8921655 -0.5512776 0.9989777 0.2014308 -0.50097966 -0.8085264 0.028521052 -0.39890218
-0.9407827 0.09121265 -0.5765732 -0.4562138 -0.19243068 0.15770793 -0.04007774 0.42625773
-0.23508711 0.12570189 -0.045341056 0.42305607 0.04824475 0.6988535 -0.71900797 -0.5480903
0.26014563 0.050239004 -0.66303 0.80731833 -0.46639204 0.39603463 0.86287487 0.36500582
-0.078597434 -0.21780376 0.0020405315 -0.46721074 0.46302125 0.14363506 -0.39170083 0.10868919
0.73457074 0.8850882 -0.5116544 0.30415735 0.77516234 -0.033893295 0.17510542 -0.06857833
0.0024394556 0.5427786 -0.4804199 0.19959208 0.23802747 -0.881289 0.040447723 -0.19051301
0.55172414 0.17192405 -0.66767746 0.70681834 -0.7513738 -0.79029036 0.7716894 -0.26775208
-0.059421778 0.8071502 -0.17744267 0.6641348 -0.6257396 0.13223982 0.47460923 -0.2987466
0.90490055 0.1281294 -0.3938716 0.8065199 0.011026544 -0.16493542 0.1946764 -0.06720735
-0.8115289 -0.269522 -0.65461886 0.99154985 -0.5203118 0.124693446 -0.017412344 -0.066640474
0.84737724 0.28640917 0.5685575 0.08605773 -0.26910198 0.4804686 0.6729932 0.8283468
-0.58239025 -0.27969787 0.7414673 -0.020744156 0.09302477 0.4001587 -0.43810382 -0.5179245
0.048767164 -0.48056594 -0.27148348 0.90253943 -0.52512854 0.83106774 0.32515684 -0.17933738
0.98553735 0.9100265 0.8557954 0.23970644 0.3168827 -0.3361046 0.3798481 1.3307734
0.08178092 0.9411619 -0.84056526 0.13929442 0.21561702 0.4243683 0.3699457 -0.78792834
-0.23521414 0.50995106 0.9049921 -0.3513734 0.3101156 0.011014027 0.97380036 -0.2742067
0.20633079 -0.54910743 -0.26727718 -0.3145552 0.8297696 0.63166094 -0.5756286 -0.16578552
0.26815614 0.9295511 -0.14649028 0.15621327 0.38870287 0.21766582 -0.04416482 -0.18141542
-0.3450049 1.5800413 1.027135 -0.5160773 -0.5867816 0.32544264 0.15517211 0.24875005
0.32776174 -0.74552 0.7409388 0.035639882 -0.33423752 -0.055175494 0.5718073 0.05578308
-0.29819226 -0.5670506 -0.7927111 0.70472306 0.43768817 0.5360323 -0.84436405 0.72403723
-0.0041563916 0.5382275 0.19983372 0.0622461 -0.835871 -1.1153768 -0.3482853 0.176302
-0.034035966 -0.77975655 0.097513996 -0.8431615 -0.58765095 -0.1049779 0.23622687 -0.5650585
0.91735333 0.74297345 0.5652521 0.1320435 -0.04154799 0.92000437 -0.7249574 -0.32101983
-0.818301 0.45712727 0.61670274 -0.031856824 -0.54605955 -0.007264683 -0.77200574 -0.25916162
1.0364321 0.048436172 0.10485878 -0.1959806 0.6163213 -0.21565178 0.9425409 -0.27896377
-0.46549988 -0.18236832 0.3829935 0.98757726 -0.28200015 0.7234188 0.29014838 -0.63375515
0.89830667 -0.30063245 -0.6017934 -0.14440812 0.31621245 0.14444746 0.1473285 -0.15875225
-0.27637866 0.16817443 -0.26619053 -0.8234544 0.102355585 0.7628825 -0.7381815 -0.5516665

linear2_q1.weight f4 [256, 256]
00000000: 484a 86be ccd9 313e 5dfb 493e 77f0 24be
00000010: c9bb 86be e53d 3a3e 41c8 a9bc 16a3 7f3d
00000020: e8fb 3ebe a981 8f3e 814a 3ebe 55a5 4cbd
00000030: d947 093e 45cc 8c3d 1b5e 59bd 633a 3bba
00000040: add9 e33d fa21 5dbe f595 803d 1de0 e73d
00000050: 161b 54bd 020f 02bd 9202 c7be a1c1 b3bf
00000060: be56 9dbd e64e 633e e343 853d a49e 29bf
00000070: f387 903e ab98 73be c426 df3d 4950 7f3e
00000080: 5510 033e ed39 a4be db6b 3f3b f1ba 513e
00000090: 546e a1be 4911 253d 65a1 25be 9410 a4be
000000a0: b89f a23e 6656 5a3e 08f2 a7be cb28 183e
000000b0: 8a70 183d e6c8 bebe 9309 bf3d 5c4b b13e
000000c0: e373 4dbe 4dde 1dbf eb12 fe3e 1ad4 94bf
000000d0: e170 14bf d63a af3e 146c a4bb 87f7 e5bd
000000e0: 4a96 4dbd c255 683d 0c3b a93d 9b03 08be
000000f0: 0035 133c 391a 8dba b93f e6bd c044 08be
00000100: 6ed1 55be 349d c63d 7d62 563e 2a49 babc
00000110: bd9a de3e 273f 68bc a6a8 ecbe 0362 eabe
00000120: 5db5 16bc 0f4a 05bf e210 0abf 74d3 80be
00000130: 1647 d03b b8a5 833d 0117 cfbd 9710 f7bc
00000140: e245 78bd 8bc7 1abd 59a8 86bd 552d 0935
00000150: 21cd c23d 4923 9a3e 6c69 bcbd ec45 35bd
00000160: 6524 363d 7b71 acbe 6619 54bf 5bda 6abd
00000170: 0045 9b3e 5192 fd3c f16e ac3e a887 b2be
00000180: 24c6 b73e ba4c 8a3e d04c 2fbe 3f59 e4bd
00000190: edd4 90bc 8dc2 81be d4db b1bd 7b84 a0be
000001a0: 7aa6 cfbd 638f 19be 462f cc3e c746 40bf
000001b0: 8e75 303e e726 f13d b63d 83bc 5093 d13d
000001c0: 4dee 543e 69e0 83bd 721d 5f3d 14c3 f0be
000001d0: 5662 7f3e 51d5 1cbe 20ab 8d3d 62ec c23e
000001e0: 73f0 c6bd bec4 8b3e cecb d33d 1c55 fe3c
000001f0: 884d 1bbe 7e5e 18be c3e9 74bd f380 d93e
00000200: e6a8 a8bd 2d5d 083c 22e6 bfbd e064 183f
00000210: 23e9 fabd 25e3 cbbf 3140 933e e037 4ebd
00000220: 7211 96be b707 aa3d 4d6a 6ebd 4478 06be
00000230: a035 e5bd 6cb6 89bf 705a 78bf fa79 d53e
00000240: 9f2c 87be ef9a aabd 924c 533e 5c9d debd
00000250: 072f cabc eaec 62bf bb8e 403d bae4 96bf
00000260: 608d d7be 3a1d 27bf 4cc0 99be c30f d13e
00000270: 4fac 163e be2a 0f3e d6ff 143e fa40 6d3e
00000280: c476 65be 43eb 42bd b348 00be 35a5 cd3d
00000290: 0af1 813d 4ef3 b8bd f015 b8bd e91e 033d
000002a0: e347 87bf 80cc ecbe 0d67 1c3e e4ce 37bc
000002b0: 8172 98be 7fc2 2c3f c9bd 303e d98e e63e
000002c0: 8037 573d 6196 413e 976f 913d f276 14be
000002d0: cb8d a53e ad3b 33bc 73c7 723e f686 05bf
000002e0: 6d36 0abf ddd7 a3bc 3c70 7c3e a06b 2e3e
000002f0: c020 bcbc cfa8 2a3e 71da 0dbd d554 703c
00000300: 6646 a9be aa16 8d3d e937 3f3f 557e 943c
00000310: e4ac a4be 5d39 1a3e 5d86 3abf 1fe8 9c3e
00000320: 703a 44bd 8c39 03be 62c8 d2bc 3fa0 01be
00000330: 1870 27be 5bf2 25be 144f 5bbf 2bc7 903e
00000340: 341a babd 1f71 25bd 4cae 57be 390e 63bd
00000350: e540 96bd 9ddd 33be 0d0e c63e 9066 af3e
00000360: 371f 9d3e da68 f2be 31ec d73d 4b27 91be
00000370: ec79 f9bd 9165 39be 64b7 32be fbc1 fcbe
00000380: 0f7f fbbc f4c5 93be a100 f3bd 372f 7b3e
00000390: 3c90 8f3a 7827 e33d a8f3 263e eac0 cbbd
000003a0: 6bec 77be 8746 e5bd e910 56bf fa7b b73c
000003b0: f491 50bf c835 333e 7bd1 90bd ddf6 9f3e
000003c0: 8a2f 69bc 80c5 eebd 0bf2 9fbb 981b acbe
000003d0: b596 07bf 76e9 2ebf d170 063f cc10 673e
000003e0: eb5e d1be 13f5 72bd 36ca fa3d cf64 bfbc
000003f0: 3376 d63e d4d8 5cbc fe47 3f3e fb11 ad3e
-0.26228547 0.17368239 0.19724794 -0.16107355 -0.26315144 0.18187673 -0.020725371 0.06241139
-0.18650782 0.2802861 -0.18583108 -0.04996236 0.13406314 0.06874899 -0.05306826 -0.0007142184
0.11125503 -0.21594992 0.06278602 0.11322043 -0.051783644 -0.031752594 -0.38869148 -1.4043466
-0.076825604 0.22198066 0.06507089 -0.6625769 0.2822872 -0.23788707 0.10896066 0.2493297
0.12799199 -0.32075444 0.0029208574 0.20481469 -0.31529486 0.040299688 -0.16174848 -0.32043898
0.3176248 0.21322021 -0.32801843 0.14859311 0.0372167 -0.37262648 0.09327998 0.34627807
-0.20063739 -0.6166733 0.49623808 -1.1627228 -0.5798474 0.34224576 -0.0050177667 -0.11228853
-0.050192155 0.05672241 0.082632154 -0.13282625 0.008984804 -0.0010765261 -0.11242623 -0.13307476
-0.20880672 0.09697953 0.20936008 -0.022739965 0.4347743 -0.014175213 -0.4622242 -0.45777902
-0.009198514 -0.5206613 -0.5393201 -0.25161326 0.0063561304 0.06428093 -0.101118095 -0.030159278
-0.06061352 -0.037787955 -0.065750785 5.1102444e-07 0.095117815 0.30105045 -0.09199795 -0.044256136
0.044468302 -0.3368033 -0.82851255 -0.057337146 0.3032608 0.030953558 0.33678392 -0.34869123
0.35893357 0.27011663 -0.17119145 -0.11149835 -0.017679656 -0.25343743 -0.08684507 -0.31351075
-0.10139175 -0.14996104 0.39879817 -0.75108 0.17232344 0.11774998 -0.016020637 0.10233176
0.2079403 -0.06439287 0.05447144 -0.47023833 0.24939856 -0.15315749 0.06917405 0.3807097
-0.09713831 0.2729854 0.10341607 0.031046443 -0.15166295 -0.14879796 -0.059793245 0.42481193
-0.0823534 0.008322996 -0.09370066 0.59528923 -0.122514986 -1.5928694 0.28759912 -0.050346255
-0.29310185 0.08302253 -0.058206845 -0.13131815 -0.11191869 -1.0758796 -0.97012997 0.41694623
-0.2640123 -0.083303325 0.20634678 -0.10869858 -0.024680628 -0.8864275 0.04701112 -1.1788552
-0.42100048 -0.6527897 -0.30029523 0.40832338 0.14714168 0.13981149 0.14550719 0.23169318
-0.22408587 -0.047587644 -0.12527733 0.10041276 0.06344803 -0.09030782 -0.08988559 0.0320119
-1.0568813 -0.4624977 0.15273686 -0.01121876 -0.2977486 0.6748428 0.17259897 0.4503086
0.052543163 0.18905021 0.07101362 -0.14498499 0.32334742 -0.010939521 0.23708896 -0.5215906
-0.539893 -0.020000393 0.24652189 0.17033243 -0.022964835 0.16665958 -0.03463215 0.014668663
-0.33061522 0.068890885 0.7469469 0.018126646 -0.32163155 0.15060945 -0.7286127 0.30645844
-0.047907293 -0.12814921 -0.025730316 -0.12658785 -0.16351354 -0.16205733 -0.8566754 0.28276953
-0.09087029 -0.040391084 -0.21062583 -0.055433486 -0.073365964 -0.17565008 0.38682595 0.34257936
0.30687878 -0.4734562 0.10543097 -0.2835029 -0.12181458 -0.18105151 -0.1745277 -0.49366745
-0.030700235 -0.28861964 -0.11865354 0.2452973 0.0010953019 0.110915124 0.16303885 -0.09948905
-0.2421128 -0.11195093 -0.8361955 0.022397984 -0.81472707 0.17500985 -0.07071205 0.3124303
-0.014232526 -0.11658764 -0.0048811487 -0.33614802 -0.52964336 -0.68324983 0.52515894 0.22565001
-0.4089273 -0.059315752 0.122456 -0.023363499 0.41887054 -0.01347943 0.18679807 0.3380278

linear2_q1.bias f4 [256]
00000000: 2a37 743e 43f3 c3bc be9a 5a3f d6d3 3c3f
00000010: 3e42 1bbf 974b 833f 50ef 373e a6ca 70be
00000020: fad1 14be a15b ac3e 3ad1 4cbf d085 293f
00000030: e738 22bf de2a 46be 0dbe 35bf 6f90 903f
00000040: b162 583e d91f 46bf d241 f1be ca8e 4f3f
00000050: 423c 65bd 1b2a e7be 28ed cf3c b0bf e0be
00000060: 17b9 49bf d6cc 763d 718f 0d3f a052 4a3e
00000070: ffcd 02bf f791 873f d599 4bbd a959 493f
00000080: 78b8 3fbf 3c62 72bf f8df d13e 304c 513f
00000090: 4eba 1abe 736e 8fbe 69ef 393e b53f 7d3f
000000a0: 3bfe 2a3d ef94 fb3c de64 b5bd 245a 38bc
000000b0: 5d11 ff3d 2c86 443f 0308 873e 4628 e23d
000000c0: eb62 ddbe cccb d5be cdf3 26be 588e ecbd
000000d0: 16a2 acbe d7c0 333f 922e aebe b966 1b3f
000000e0: b451 5c3e a7f2 8a3f 4c0d 353e b749 cabe
000000f0: d9ab 603f e1d1 b6be df92 66be abc0 6abe
00000100: a7f0 dbbc 128c a2be c5f9 5dbe 8372 75bc
00000110: 6e5b ddbc 65f5 8f3f cfa9 19be 2070 a2be
00000120: f84c a8bc 64f0 923e 7a3a 773e 8ce7 843f
00000130: 5f41 13bf c49c 7ebe 9d5b 563f 1e46 e3bc
00000140: 11fb 04bf 3159 323f 5299 223f 7a80 2dbf
00000150: 2d53 653c 7874 52bf be06 653e 951d b5bd
00000160: d969 dd3e 698f 21bf 4ed6 883e dd03 94bd
00000170: 03b2 85be b061 16be d74b ac3d 30f4 a43e
00000180: 5ec5 463e 5ed4 8b3f e2a6 1bbf d062 d2bd
00000190: 8076 b1be 58c5 963f 5de0 4d3f 1b57 f23e
000001a0: daa5 673f 730d e2bd d09e 93bc 1709 a0bc
000001b0: b5d2 f3be 72c9 11bf ec36 893f f43b 4cbf
000001c0: 38cc 633f c3dc 26bf 1b45 15bf e866 b8bc
000001d0: 21b0 d9bd f042 8c3f ac1a 2cbf 8e0e 043e
000001e0: 5a75 943e c3a2 843f 0ff4 333f 6af8 fdbe
000001f0: f9dd 9a3e 4998 9abe e7dc 8f3f 930d 6d3c
00000200: 4ec6 13be 806f 3bbf 7caa f63c 1e89 863f
00000210: fc72 843f 8a74 713f 5daa 4fbe 16e3 1e3f
00000220: d25f 1dbd 32a7 053f 5683 413f b052 113f
00000230: 2bc1 30bd 18b0 4dbe 5365 9c3f 92d9 663f
00000240: 31b1 da3e fee8 153f b285 a4be 103a 423f
00000250: f338 c23e 9e93 993f ace5 bc3e 5874 823f
00000260: ab8d 493f f28e 703e 0054 df3e 9a7c 8e3e
00000270: a56b 73be e53f b5be a63b 3ebd da40 d43e
00000280: 2c37 3c3e 9fcc 98be ca8a 53bf d778 a73e
00000290: 3767 0a3f f117 8ebe 7fa9 10bf bec6 6bbe
000002a0: e69e 45bf 1b97 943f 91fc c93d 6277 5d3e
000002b0: b34d 8c3e b263 13bf 80c1 be3e d039 2d3f
000002c0: c9ec 293e d925 61bf 8b06 26bf 2330 873f
000002d0: 3ec4 5abc 80d3 92bb cb9d 083f 0dc1 a43d
000002e0: 171d 2cbf 22e7 f93e ecde 153d 06ce 1cbf
000002f0: da90 d4bc 8f90 96bc 46d8 7a3f 91cb 333d
00000300: 5d76 803e 9939 33bf 9e16 b0be 4955 293f
00000310: 8456 fbbe b452 01be c5a5 843f 0333 fabe
00000320: 347a 73bc 0330 a4bd 3b4a cabe af1b 033d
00000330: d21d 7bbc b20b 223f 510e 8b3f ef2b 52bc
00000340: 83f7 023f b9b2 e33e 04bd 5bbd 3427 8c3e
00000350: cafc 013f 330a 973f 595f 823f d15e c13e
00000360: c388 c0be 13a4 0cbb 44a5 86be f619 33be
00000370: 25f9 a33e 6674 6c3e 348b 9dbd f671 1b3f
00000380: 5b86 79be 92cc 183e 08b8 9abc 5e5b d0be
00000390: 2cb8 aebe 0e35 8bbd 4c1f f13b 33f4 863e
000003a0: 3808 bbbe 037e ce3e 54d3 873f 269d 60be
000003b0: 0f89 d43e 50eb 043e 131f 97bc db2e 383f
000003c0: c95c 16bf 4e98 80be 4640 653f ce5d dcbe
000003d0: 75a9 47bf 4b8a 1ebd 16f2 8d3b bf4b 72bc
000003e0: dde0 f7be b637 c23e 5dfb dbbe 096a 303e
000003f0: 94f9 8a3f 20b8 123d 8c86 42be 50e7 9ebd
0.23849168 -0.023919707 0.8539237 0.73760736 -0.6064795 1.0257443 0.17962384 -0.23514804
-0.14533225 0.33663657 -0.80006754 0.66219807 -0.63368076 -0.1935229 -0.7099312 1.1294078
0.21131398 -0.77392346 -0.4712053 0.81077254 -0.05596567 -0.4514931 0.02538164 -0.43896246
-0.7879805 0.06025394 0.55297 0.19758081 -0.51095575 1.059142 -0.049707253 0.78652436
-0.7489085 -0.94681144 0.40991187 0.8175688 -0.15110132 -0.28013954 0.18157734 0.98925334
0.04174636 0.030710666 -0.088571295 -0.01125196 0.12454484 0.7676723 0.263733 0.11042838
-0.4323953 -0.41757047 -0.1630394 -0.115505874 -0.33717412 0.70216125 -0.34019905 0.6070362
0.21515542 1.0855302 0.17680854 -0.39509365 0.8776222 -0.35707 -0.22516964 -0.2292506
-0.02684815 -0.3174749 -0.21677311 -0.014980915 -0.027021136 1.1246763 -0.15006183 -0.3172617
-0.020544514 0.28699028 0.24143401 1.0383162 -0.57521623 -0.24864489 0.8373354 -0.027743395
-0.51945597 0.69667345 0.635152 -0.67774165 0.013996881 -0.8220897 0.22365853 -0.08843533
0.43244818 -0.6310945 0.26726002 -0.07227299 -0.26112375 -0.14685702 0.08412903 0.3221755
0.19411227 1.0924184 -0.6080152 -0.10272753 -0.3466072 1.1778975 0.80420476 0.4733208
0.90487444 -0.110377215 -0.018020064 -0.019535584 -0.47621694 -0.56948006 1.0719886 -0.7977898
0.8898349 -0.65180606 -0.5830857 -0.022510007 -0.10629297 1.0957928 -0.672282 0.12896177
0.28995782 1.0362171 0.7029428 -0.49603587 0.30247477 -0.3019431 1.1239289 0.014468568
-0.14431116 -0.7321701 0.03011059 1.0510595 1.034759 0.9431845 -0.20279832 0.62065256
-0.03842146 0.52208245 0.7559103 0.56766796 -0.04315297 -0.20086706 1.2218422 0.90175736
0.4271331 0.5855864 -0.3213325 0.75869846 0.37934074 1.1998174 0.36893976 1.0191755
0.78731793 0.2349203 0.43618774 0.27829438 -0.23771532 -0.3540031 -0.046443604 0.41455728
0.18380421 -0.29843614 -0.8263365 0.3270938 0.54063743 -0.2775264 -0.5650863 -0.23025033
-0.77195585 1.1608614 0.09862626 0.21627572 0.2740303 -0.57574 0.37257004 0.6766634
0.16594233 -0.87948376 -0.64853734 1.0561565 -0.013352452 -0.004480779 0.5336577 0.08044634
-0.6723189 0.48809153 0.036589548 -0.61251867 -0.025947977 -0.018379478 0.9798626 0.043895308
0.25090304 -0.7000976 -0.34392256 0.6614576 -0.49089444 -0.12629205 1.0363089 -0.48867044
-0.014860678 -0.0801697 -0.39509758 0.032008823 -0.015326934 0.63299096 1.0863744 -0.012827857
0.5115892 0.44472292 -0.053647056 0.2737366 0.5077635 1.1799988 1.0185348 0.37767652
-0.3760434 -0.00214601 -0.26297963 -0.17490372 0.3202602 0.23091277 -0.076925665 0.60720766
-0.24367659 0.14921787 -0.018886581 -0.40694708 -0.34124887 -0.06797229 0.007358467 0.26358184
-0.36529708 0.40330514 1.0611367 -0.21934947 0.41510817 0.1298039 -0.018447435 0.71946496
-0.5873533 -0.251162 0.895512 -0.43040317 -0.77992946 -0.038706105 0.0043318374 -0.014788567
-0.48413745 0.3793313 -0.42965212 0.17227949 1.0857415 0.035820127 -0.18996638 -0.07758963

linear3_q1.weight f4 [1, 256]
00000000: 099b 893f 64cf e53d d852 453e 01e7 e63e
00000010: 7193 84be 51e8 ab3e 0cd1 413f fb2f ccbf
00000020: 35e1 f1bf e8ba b93e 5474 3abe 8287 7f3f
00000030: a997 5fbf c66f 20bf 05ad 52be 4d03 113f
00000040: fe9d 963f d357 76be 315a 1bbf de74 f63e
00000050: d35b 08bf 928a 41bf 4c8a 293f 3805 d2be
00000060: 4d42 a2be 1528 b8bf 1b36 463f 4430 b43f
00000070: 0ba6 48bf 137a f23e 97fb c63f 5801 703f
00000080: 19e2 d4be 8e9c fbbd 26c0 7d3f bece dc3f
00000090: 9f93 debf 04c1 39bf 78dc a63f 79a6 813f
000000a0: 7e07 acbf 8b7e d1bf 9bdb 3fbe 4d65 d1bf
000000b0: 4bb0 923f 7758 493f 0d6e 813f 12fb 2d3f
000000c0: 16ee f0bf faca babe a45f 7dbf 380f fdbf
000000d0: c480 b1bf 1d26 1c3f a935 ebbf 5aeb 573f
000000e0: 3da6 643f ccd4 ad3e a157 693f e575 0bbf
000000f0: a64f c23f 0842 d7be 3d82 e93f 8ec4 efbe
00000100: 7e5d 953d 0fd8 e5bf 3432 83bf 43e7 d93d
00000110: 7ee0 ad3b 7a29 ef3e 951c 47bf f9dc 2cbf
00000120: 5e33 0bba 4f7a 123f 3cb5 853f 0792 013f
00000130: bcf2 b4be 0e83 bdbf 2a51 2c3f 48ce 3a3c
00000140: 98df 59bf a5f8 0c3f c109 8e3f 49b1 dcbe
00000150: 411b 82be b9fe 79bd 266d 5a3f e194 e5bf
00000160: 232f 6d3f c9ad aebe 281a 383f cbe4 20be
00000170: b497 b7be 218c 8dbf f918 c03f faf8 9f3f
00000180: 96a8 b8be 4af1 0f3f a7de 3cbf fa3c b4bf
00000190: 937a 1bbf d301 9c3f 1e27 9a3f c28a 813f
000001a0: 0b7d 283f 5699 cbbe 8419 dfbb 3210 bcbf
000001b0: 8756 8dbf 1fcf 16bf f75f 0c3f e768 28bf
000001c0: d6d6 cd3f e6a2 8abe 952a 3dbf e13d e03b
000001d0: 51d8 c8bd 2f9d 113f cf14 25be 38fb af3f
000001e0: 47fd df3f 7079 053f efb1 d03f 3c23 91bf
000001f0: b6fb a73f 0787 65bf 2480 393f e4cd 9a3f
00000200: 3121 ffbf 7a4d 82be c7cd 563f 9106 1d3f
00000210: 2822 073f 47e5 b73f 7baa 08c0 35df e03e
00000220: 93fa b3bf abdf 9a3f 7d74 3c3f 4988 883f
00000230: 72af 35be a1eb 07c0 47a9 533f 7b90 8e3f
00000240: c3c9 143e 2867 e23f 2a04 b7bf 82cf 933f
00000250: 4887 943f 4acb 7c3f 7964 843f 40d6 dd3e
00000260: fbca f73e 39f1 99bf 83c1 693f 0865 223f
00000270: 54ba 59be 0908 cabf 9d00 58bf 6452 8c3f
00000280: 6a44 1cbf 23b2 d1be 452a 98be adc5 893f
00000290: ede7 b13e 7ed6 edbf cc33 88be cfa3 e5bf
000002a0: d754 62be 15b4 2a3f 5272 533f b6f8 9c3f
000002b0: 033b 523f 0c69 1fbf 0b46 213f de24 1e3f
000002c0: a485 69bf 89fc 34be bfb2 0fbf 29f5 db3e
000002d0: 6b13 f43c 0c99 f7bb ae13 9c3e df0a ad3f
000002e0: 4f66 6fbe 140f bcbf 3b70 13bf 9167 6abe
000002f0: 4fc4 97bb 105e 59bd afc0 293f 33d8 b7bf
00000300: a653 85bf 828c 0cbf d4e5 59bf 7cfb d03f
00000310: ca81 86bf 675e 0fc0 4475 3e3f 7028 7fbf
00000320: 44d8 03be 9833 f3be f4aa 9dbf d0c0 b9bf
00000330: 5fa7 3ebf 6239 f33e 947d f13e 05ac cabd
00000340: ff16 193f 2f70 533f f3dd aebd 2b91 1c3f
00000350: 3450 613f 2b41 5d3f ad35 883f 0d9f 6a3f
00000360: 68dd 81bf b2ba a8bf aa26 98bf 7d9d 9dbf
00000370: dc84 7e3f b974 85bf 8a2e cfbf 22fc 433f
00000380: 1819 babf cb56 e7be e69c 2fbb 73cd debf
00000390: de1e 9fbf 85a3 cebf 4647 55bf 35e5 643f
000003a0: cba9 9fbf 33d5 863f b723 b93e f40e a3bf
000003b0: 8a14 cb3f c86c 733f ca44 0dbc 151c 783f
000003c0: 06db f4be 6c2c 8cbf 3b5b 803f 21f7 b4bf
000003d0: eea6 19be 1132 d8be a75d f73f 1f7d 99bd
000003e0: 4381 86bf 9650 443f ee08 83bf a046 423f
000003f0: 7ab2 e43e fb1e acbf 9079 81bf 44c7 61bf
1.0750438 0.11221197 0.19269884 0.45098117 -0.2589374 0.3357568 0.75709605 -1.5952142
-1.8896853 0.3627541 -0.18208438 0.99816144 -0.8734079 -0.6267055 -0.20573814 0.5664566
1.1766965 -0.2405694 -0.60684496 0.48136038 -0.5326511 -0.75602067 0.6622665 -0.41019607
-0.31691208 -1.4387232 0.7742631 1.407723 -0.7837836 0.4735876 1.5545529 0.9375205
-0.4157875 -0.1228572 0.9912132 1.7250593 -1.73888 -0.72560143 1.3036032 1.0128928
-1.3439786 -1.6366743 -0.18736117 -1.635904 1.146005 0.7865061 1.011171 0.6796123
-1.8822658 -0.36482984 -0.9897406 -1.9770269 -1.3867421 0.60995656 -1.8375751 0.84343493
0.8931616 0.33951414 0.91149336 -0.5447677 1.5180557 -0.42042565 1.824287 -0.46829647
0.07293223 -1.7956561 -1.0249696 0.10639813 0.0053063026 0.46711332 -0.7777799 -0.6752468
-0.00053100835 0.5721788 1.0445933 0.50613445 -0.35341442 -1.480562 0.67311347 0.01140172
-0.851068 0.550669 1.1096727 -0.43104008 -0.25411418 -0.061033938 0.853228 -1.7936059
0.9265005 -0.34116963 0.7191491 -0.15712278 -0.35857928 -1.1058389 1.5007621 1.2497857
-0.3606612 0.5622755 -0.7377724 -1.4081109 -0.6073391 1.2188057 1.2043188 1.012047
0.658158 -0.39765424 -0.0068084616 -1.4692442 -1.1042031 -0.5890979 0.5483393 -0.6578507
1.6081188 -0.27077407 -0.738931 0.006843314 -0.09806884 0.5688047 -0.16121219 1.3748541
1.7499169 0.52138424 1.6304301 -1.1338878 1.3123691 -0.8965916 0.7246115 1.2094083
-1.9932004 -0.25449735 0.8390774 0.61338145 0.52786493 1.4366845 -2.1354053 0.43920293
-1.4060844 1.2099508 0.73615247 1.0666591 -0.17742708 -2.1237566 0.8268017 1.1137842
0.14530091 1.7687731 -1.4298146 1.1547701 1.1603785 0.98747694 1.0343162 0.43327522
0.4839705 -1.202674 0.913109 0.6343541 -0.21262485 -1.5783702 -0.84375936 1.0962644
-0.6104189 -0.4095622 -0.2971975 1.0763451 0.34747258 -1.8581083 -0.26602018 -1.7940615
-0.22102676 0.66681033 0.82596314 1.22634 0.82121295 -0.62269664 0.629975 0.61775005
-0.91219544 -0.1767446 -0.5613212 0.4296048 0.029794415 -0.0075560864 0.30483764 1.3518943
-0.23378871 -1.4692101 -0.57593125 -0.2289107 -0.004631556 -0.05306822 0.66309637 -1.4362854
-1.0416152 -0.549019 -0.85116315 1.6326747 -1.0508358 -2.2401369 0.74397683 -0.9967108
-0.12875468 -0.475003 -1.2317796 -1.4511967 -0.7447414 0.47504717 0.4716612 -0.09896091
0.59800714 0.82593054 -0.08538427 0.6115901 0.88013005 0.86427563 1.064138 0.9164894
-1.0145693 -1.3181975 -1.1886799 -1.2313687 0.9942148 -1.0426246 -1.6186078 0.765566
-1.4538908 -0.45183405 -0.00267964 -1.7406448 -1.2431295 -1.6143652 -0.8331188 0.8941224
-1.2473692 1.0533813 0.3616006 -1.2738938 1.5865643 0.9508786 -0.008622358 0.9691785
-0.47823352 -1.0951056 1.0027841 -1.4137918 -0.15005085 -0.42225698 1.9325455 -0.07494568
-1.0508198 0.76685464 -1.02371 0.75889015 0.44667417 -1.3446954 -1.0115223 -0.8819468

linear1_q2.weight f4 [256, 26]
00000000: 14fd cdbd 45d6 e93d b0fb 41bd ece9 463e
00000010: 0c38 8fbb f019 b43b 9e28 a33d f6ec 86bd
00000020: 5409 c63d 3845 793e 087b ecbd 2899 fdbb
00000030: f234 13be e14a 4abd 80e4 73bd 3735 2bbd
00000040: 0578 713a 09e6 153e bcd7 1dbe c81a ccbd
00000050: cefa 52bf 1816 76bf 7e31 29bf 70d5 9fbf
00000060: eeaa e3bd c730 1ebf a05d bbbb 093f cdbc
00000070: 71af 77be 2232 04bd 33f3 93bb aa29 9abc
00000080: 76f5 f8bd de4a 76bd 78e4 873e a4d8 11be
00000090: e5d3 a33d 8f72 5fbe 8a2a 82be 1cad bebc
000000a0: 0a71 7fbd 8a51 91bd 1a61 febc b9c5 9a3d
000000b0: 000c 163e 0db9 a13e 9110 b23e 4079 203f
000000c0: c0c0 69bd f6d6 07bf 9fcf 41be 5d23 6dbe
000000d0: f71b 533d 434d a83d c7be c03d f40d e1bd
000000e0: 5551 1e3d c84a 0fbd 24b9 f53c 6de6 cfbc
000000f0: 5c87 0dbe c356 333e 2215 8bbd 383d 133d
00000100: 9288 abba c0cb bd3d 6204 433c 14b8 233e
00000110: 9e2d d83c 1b18 c13d 321f 2f3a 3228 183d
00000120: a705 893e 852c aa3d fde9 71be afc6 82bf
00000130: 3777 033e ce79 2b3d 8aef 183e 1e2b a9bd
00000140: ec62 543e 23ba 8dbd ebed 57bd b162 d9bd
00000150: 8966 953c d9d7 58bd 1b94 48be 4c1c 31be
00000160: f3bb fabd 8dbb 57bd 10b0 f9bc 32b2 a1bd
00000170: 8724 3abd d416 683e d00c 42bd 2978 b33e
00000180: ecc2 05be 2e35 16be a26f 25bf 8fc1 973e
00000190: 6b03 1a3e 3c59 50bf d575 e1be c385 ad3e
000001a0: 6ec7 23be cbe5 49bd 8803 de3d 5a87 a73d
000001b0: 86b2 783d fe6e d53d 18b2 7dbd 00fd 41bc
000001c0: cba2 6c3d 2d8b 40bd c183 d03d decc 323e
000001d0: 7354 eebc 5d52 c63d ea4d b1bd 0e35 e23d
000001e0: 0d1f 973d c48f 0abd b00a dbbd 2adf 413e
000001f0: 2a34 483e cbfc 9e3d 1cc1 63be 6c9a 11bf
00000200: 4c43 623d 96e1 13bd b191 4c3b 5039 c83c
00000210: feab 48be 733b cfbd b01f 9cbc 57ce 933b
00000220: e849 103e a6ad 833d d02e c7bd e9e8 c23d
00000230: f009 df3d 59a7 193e f785 fe3d 9c26 003d
00000240: e6f5 49bb c15e 2a3d 3772 d9bd 7aab 013e
00000250: 201c 333c f037 e7bb 206b 023e baaa cd3d
00000260: 5b8a 24be 058b 0bbf e204 b23c 27fa 8e3e
00000270: f1cf 8e3b 9259 1f3e 599f 273c e851 303e
00000280: cc70 b43c 8c59 d83d 8725 cebb ad4c d23d
00000290: 7bf7 99bd d747 81bd 3f5f 3dbc 7cf9 f43c
000002a0: 4944 493e 4075 643d 819b 6e3d e618 033e
000002b0: a139 b63d 1832 f63d 20e5 d13d 9e31 fbbc
000002c0: aa90 643d 5a0b 09be 82b0 c5be 2c30 28bf
000002d0: f9d9 3e3e 5f96 7dbe 41a9 91bd b51d 69bd
000002e0: a9a1 133e 1454 febc 8cc1 ad3d a021 dbbd
000002f0: c548 bfbc 2b18 de3c d8a0 19bd 8c31 f63c
00000300: 4f8d 16be 5fc2 a73c 0fe3 78bc 48dc 1b3d
00000310: 3b1b d9bd 4431 bb3c 9b32 913d 39db 0e3d
00000320: 3ad0 dbba 9b07 63bd 07fd 40be 570c e9be
00000330: 99c6 05bf 800d 05bf ed30 883d c261 7a3d
00000340: 83fe 72b9 6223 0e3e d4ea 863e cf09 933e
00000350: 083e 9e3d 927e 17be 8eab 023d 60ce 48be
00000360: d7d8 d2bd 2ca8 52be 1971 b2bc f2a5 08bc
00000370: 282a 5fbe ffc2 99be f862 46be e692 f0bc
00000380: e2ae a7be 0297 33be 1933 b9be 8d77 98be
00000390: 877e a9be d1cb 0dbf b95d 6a3d 789b e93d
000003a0: 1f50 73bc b51e 12be 249c d0be e241 52be
000003b0: 070b 20bd eeed 02bd f6b1 98bb dae7 0f3d
000003c0: 31a5 983d 054f 2e3b f8c2 343d bc1b 703e
000003d0: fb2c c5bc 5245 d13d eb2c 4a3d 04ce 843e
000003e0: a8a6 5b3e d577 063e 5561 02bd 7958 91be
000003f0: 5640 d63b 3e62 95bd 2f55 933e ea77 7bbe
-0.100580364 0.11417822 -0.04735917 0.19425172 -0.004370695 0.005496256 0.079667315 -0.065881655
0.09669748 0.24342811 -0.11546904 -0.007739205 -0.14375666 -0.049387816 -0.059544086 -0.041798797
0.0009211305 0.14638533 -0.15414327 -0.099660456 -0.8241395 -0.9612746 -0.66091144 -1.2487011
-0.111165866 -0.6179318 -0.005717948 -0.025054472 -0.2418802 -0.032274373 -0.0045150756 -0.018818695
-0.12156193 -0.060129993 0.26541495 -0.14242798 0.079994 -0.21821044 -0.2542308 -0.023275904
-0.06236366 -0.070956305 -0.031052161 0.07557244 0.14653015 0.31586495 0.34778264 0.6268501
-0.057068586 -0.5306238 -0.18926857 -0.23158021 0.05154034 0.082178615 0.09411388 -0.109889895
0.038651783 -0.034983426 0.029995508 -0.02537843 -0.13821167 0.17513566 -0.0679114 0.035947055
-0.0013086966 0.09267378 0.0119029 0.15988189 0.02638894 0.09428426 0.00066803687 0.03714771
0.26762125 0.08309273 -0.23624416 -1.0216883 0.12838446 0.04186421 0.14935127 -0.08260177
0.2074086 -0.069202684 -0.05271713 -0.10614527 0.01823737 -0.052940223 -0.19587748 -0.1729595
-0.1224288 -0.052669097 -0.030479461 -0.07895316 -0.04544499 0.22664958 -0.0473755 0.35052612
-0.13062638 -0.14668724 -0.64623463 0.2963986 0.15040366 -0.8138616 -0.4403521 0.33891115
-0.15994045 -0.049291413 0.10840517 0.08180113 0.06071713 0.10421561 -0.06193742 -0.011840105
0.05777244 -0.04700773 0.1018138 0.17460963 -0.029093003 0.09683678 -0.08657439 0.11045276
0.07378969 -0.03382851 -0.10695398 0.18932787 0.19551149 0.0776306 -0.22241634 -0.56876254
0.05523996 -0.036103807 0.0031214769 0.024441391 -0.1959686 -0.10118761 -0.019058079 0.0045106816
0.14090693 0.06429605 -0.09725726 0.0951708 0.10890567 0.15005244 0.124278955 0.03128682
-0.0030816733 0.04159427 -0.10617488 0.1266307 0.0109319985 -0.007056229 0.12736177 0.10042329
-0.16068403 -0.54509 0.021730844 0.27925226 0.0043582846 0.15561512 0.010230863 0.17218745
0.022026442 0.10563955 -0.0062910947 0.10268531 -0.07517906 -0.063125305 -0.011558353 0.02990412
0.19654955 0.05577588 0.05825377 0.12802467 0.088977106 0.120212734 0.1024878 -0.030663308
0.055802025 -0.13383237 -0.38611227 -0.65698504 0.18637837 -0.24764393 -0.07112361 -0.056913096
0.14417137 -0.031045951 0.08484182 -0.10699773 -0.023350129 0.027111134 -0.03750691 0.030052923
-0.14702342 0.020478426 -0.015190854 0.038051873 -0.10600897 0.02285064 0.0708973 0.034877036
-0.001677043 -0.055427175 -0.18846522 -0.45517227 -0.5225616 -0.51973724 0.06649957 0.061128385
-0.00023173731 0.13880685 0.26351035 0.2871842 0.07726675 -0.14794376 0.03190189 -0.19609976
-0.10295265 -0.20571965 -0.021782445 -0.008340346 -0.21793425 -0.30031583 -0.19373691 -0.029366922
-0.32750612 -0.17538074 -0.36171797 -0.2977871 -0.33104345 -0.55389124 0.057218287 0.114066064
-0.014850645 -0.14269526 -0.40744126 -0.20532945 -0.039073016 -0.03196519 -0.0046598865 0.03513322
0.07453383 0.0026597392 0.04413125 0.2344808 -0.0240693 0.102183 0.049359243 0.25938427
0.21450293 0.1313165 -0.031831104 -0.28387812 0.006538431 -0.07294129 0.28775927 -0.24557462

linear1_q2.bias f4 [256]
00000000: 8454 29be 6bc7 6c3e 3b77 293f b125 c23e
00000010: e2e0 6e3f d764 5c3f 3b2d 6c3f 89ed 3e3f
00000020: 661c 2abe 7fc9 363f 8ec0 ba3d 622f b4bd
00000030: 4fd7 223d 8eab 4bbf bf0a 29bf 9e06 08bf
00000040: ae05 38bf 0485 54bf 0f7a e83d 3d53 73bf
00000050: 38d4 adbe 801a 3d3f 3136 4dbf 41ce c03c
00000060: 482f 243f 07c7 f7be df71 24bf 79da 72be
00000070: 3940 5c3e 8796 053f 4cf0 41bf 7b9e 35bf
00000080: 9432 6f3f 6588 28bc ef45 a43c 153a a83c
00000090: 5056 e0be 3293 21bd 1e9a da3e 0ce2 e23d
000000a0: 0691 e2be 46c8 05be 5c61 f93e 1a54 94bf
000000b0: 0c7c 393e 5638 60be 3394 61be f31b 98bd
000000c0: e447 3fbf 20c3 3c3f 423f 213f 33be c03e
000000d0: 40b8 273f 4d9e ca3e 84da 0c3e ec32 4d3f
000000e0: 93f2 033f 198b 32bf 4675 cdbc d75e 5b3f
000000f0: 40cc 1b3f 14f6 423f 044c cf3d b84e a53d
00000100: 8405 5cbd 863f 5d3f 20e7 1cbf 45d4 753e
00000110: 58bb 123f f76a 0cbf 4192 ae3d 7cad b9be
00000120: d371 7a3c 4597 2fbf c6f9 223d 28a0 3abe
00000130: 36af 97be 9965 083e a6dd e0bd 6bb6 a23e
00000140: ea71 203e a600 eebd 03b4 ed3e 45e2 6c3c
00000150: b1cf 4fbf 1df4 61bf 8d3e 17bf e333 a73e
00000160: de75 2e3e 3af1 a73e b909 56bd cdfe 1f3e
00000170: 34c6 c23e d2a2 52bf 774c 5c3e 0609 823e
00000180: 690e 0c3c abee 013d 6a46 71bf 4fe3 28be
00000190: 65bb debe 87b0 29bf 231d 173e a1cd 14bf
000001a0: fde5 02bf a68d bdbd 6ae1 c33d f6aa 62bf
000001b0: 68f7 e03e 3f92 8d3e f2d3 653e 34bb 6a3f
000001c0: a1ff 773e 42a3 febe 3338 553d ca8e 1b3f
000001d0: cd6c 9cbe e903 813e a77f 49bf 60d5 103f
000001e0: 0f35 263e d4b7 8bbe 765a 26bf 6340 a73e
000001f0: 0154 88be 2226 0bbe b01e 203f a6e6 493d
00000200: e68c 553f ecc4 48be e2f9 313f c7ad 913e
00000210: ed95 9ebc a577 c43d ca15 5bbe 32bf cb3e
00000220: 0dee 68bf c0b6 6d3f 4bc4 883e d71e 453e
00000230: f21b 483e 9ac9 af3e c2b3 00bf 3fa9 46bc
00000240: 598d ba3d a224 833e b519 0f3d 1c5a 17bf
00000250: 5625 403e ef84 6c3e c398 0ebf 7b8b b43e
00000260: f6db 0d3e 3c20 aa3e 227c 28bf 4a2f 823f
00000270: 4729 443f ced2 f13e ae50 65be 8f0b 363f
00000280: bd62 86bd 46f7 433f adae 8f3e 04f2 593e
00000290: 5616 b83e cd16 65be 3cdb cabe 6672 a63d
000002a0: 6791 40bf 9e22 823d 3b6e 0bbf 9902 1d3e
000002b0: e2fa f83d 790b acbe 07b9 8fbf 0447 dc3e
000002c0: 4e5d 303e e745 493f 23c8 6e3f 392a 0cbf
000002d0: dab4 fabe c676 5abd e4b0 a73e 40fd 793f
000002e0: ae97 9d3e 1655 6c3f d14d 6dbf aada 2bbf
000002f0: 52ab 763f 6a65 f73d 4d5d c9be 75c0 cbbe
00000300: aec7 3f3f c6c4 3c3f 477e 6dbe 64b0 533e
00000310: 1ef0 2bbf 8eaa bb3e 568c 383f 8917 843e
00000320: 6a33 2f3f 8fd3 c3bd d36b 80bd 94f5 333e
00000330: 2cd0 c43d aeeb 91be 0339 03bf 7c8f 643f
00000340: 7d42 cbbb 30c3 373f ec6e 323f fbfb 80bf
00000350: f63f 973e 631d 353f d158 10bf e581 c23e
00000360: a522 0c3d 632e 173f 0657 173f 1dd4 c33e
00000370: e418 abbd 6fdf 7b3f 2863 dc3d 99fd c13d
00000380: 5b21 c53d 44f6 2dbf a6ff 5bbf c936 0e3e
00000390: 78d4 3abf 8e79 493e d395 babe a9f4 09bd
000003a0: c8ff 36bf 3295 fd3e e2a0 343f 8f7c 163e
000003b0: 23c9 463f 90a0 38be d35f 693f 7164 033f
000003c0: 50b7 77be 6657 d4be 7837 b7be 92a8 23bf
000003d0: 8a7b a43e f0c5 703f 7f6e bf3c 8028 4c3f
000003e0: 3b30 07bf 158b 07bf 7f1a f13c ff98 873e
000003f0: 8c5c 04bf 11a2 073f 199e 593f ae71 65bd
-0.16536146 0.23122947 0.66197556 0.3791938 0.93311894 0.8609137 0.92256516 0.745812
-0.16612396 0.7140121 0.09118758 -0.087981 0.039756116 -0.79558647 -0.6603202 -0.531351
-0.71883667 -0.83015466 0.11351406 -0.95048887 -0.33950973 0.7386856 -0.80160815 0.02353585
0.64134645 -0.48394033 -0.64236253 -0.23716153 0.21508874 0.5218281 -0.7575729 -0.70944947
0.9343655 -0.010286425 0.020052878 0.020535508 -0.4381585 -0.039447017 0.42695707 0.11078271
-0.4425127 -0.1306468 0.48707092 -1.1588166 0.18113726 -0.2189649 -0.2202919 -0.07427206
-0.7471907 0.7373524 0.6298715 0.3764511 0.6551552 0.395739 0.13755232 0.80155826
0.51542014 -0.69743496 -0.025080334 0.8569159 0.60858536 0.76156735 0.10121921 0.08071655
-0.053716198 0.86425054 -0.6129017 0.24006756 0.57317114 -0.54850715 0.085239895 -0.3626517
0.015285927 -0.68590194 0.039788984 -0.18225157 -0.29625863 0.13320006 -0.10979776 0.317798
0.15668455 -0.116212174 0.464264 0.014458244 -0.81176287 -0.8826311 -0.5907982 0.32656774
0.1703715 0.3280123 -0.052255366 0.15624543 0.38041842 -0.82279694 0.21513544 0.2539751
0.0085483575 0.031721752 -0.9424807 -0.16492961 -0.43502346 -0.66284984 0.14757209 -0.58126265
-0.51132184 -0.09255533 0.09564479 -0.88542116 0.43938756 0.2765064 0.22444132 0.916919
0.24218608 -0.4973393 0.05205555 0.60764754 -0.30551758 0.25198296 -0.78710407 0.56575584
0.16231178 -0.27288687 -0.6498178 0.3266631 -0.2662659 -0.13588765 0.62546825 0.04929223
0.8341812 -0.1960637 0.69521916 0.28452894 -0.0193586 0.09593133 -0.2139503 0.39794308
-0.90988237 0.9285698 0.2671226 0.19250046 0.1954191 0.34333497 -0.5027429 -0.012125312
0.09108991 0.25613886 0.034936626 -0.5912187 0.18764243 0.23097585 -0.55701846 0.35262665
0.1385344 0.33227718 -0.6581441 1.0170681 0.76625484 0.47231144 -0.22394058 0.71111387
-0.065618016 0.76549184 0.28062955 0.21283728 0.3595454 -0.22371979 -0.39620388 0.081272885
-0.75221866 0.06354259 -0.54465073 0.15333022 0.12157227 -0.33602503 -1.1228341 0.4302293
0.17223093 0.7862229 0.93274134 -0.54751927 -0.48966104 -0.053335927 0.32752144 0.97652054
0.30779785 0.9231733 -0.92696863 -0.6713053 0.96355164 0.1207989 -0.39328995 -0.3979527
0.7491406 0.7373775 -0.23192702 0.20672756 -0.67163265 0.3665356 0.72089136 0.25799206
0.68437827 -0.09561836 -0.06270566 0.1757415 0.09610018 -0.28500122 -0.5125887 0.8928144
-0.0062029944 0.7178221 0.69700503 -1.0076898 0.29540986 0.70747966 -0.56385523 0.37989727
0.034212727 0.59055156 0.5911716 0.38247767 -0.08354357 0.9838781 0.107611 0.09472198
0.09625503 -0.67953897 -0.85936964 0.13888086 -0.7298045 0.19675276 -0.36442432 -0.03368059
-0.7148404 0.4952789 0.7055799 0.14695953 0.7765066 -0.1803 0.9116184 0.51325136
-0.24191022 -0.4147293 -0.35784507 -0.6392909 0.32125503 0.9405203 0.023368118 0.797493
-0.5280797 -0.529466 0.02943158 0.26483914 -0.51703715 0.5298167 0.8500686 -0.056016617

linear2_q2.weight f4 [256, 256]
00000000: fa1c 01bf 304f 563e 8e36 1a3e 4e1e 65be
00000010: 0e66 3b3e 9b69 12be 2ee1 223e 0eb6 033e
00000020: 13ad 84be 4dbf dabc 5f38 debd 2155 a23b
00000030: 6a80 6c3e e04a 62be a6f5 073d 69d2 36be
00000040: 396f 18be 14a8 b5be ebd5 34be c078 7bbf
00000050: 2666 3e3e aacf 873e 7b24 91be be52 d3bd
00000060: 58bb 873e 089f 803e 00d1 41bd a18c 20bf
00000070: c012 af3c 11b4 c73d b620 cbbe 5d6b 6dbe
00000080: e6f9 903c 74d2 7cbe 9ab2 adbe 01b5 1fbf
00000090: e691 923e 2d71 5abe 5986 713c 95f5 1a3e
000000a0: 71a9 b43d be52 7ebe 2a25 08be 2cdb 26be
000000b0: ebab 6ebe b352 0abf 34c6 aa3e 799e a6bb
000000c0: 608f febe 3e22 153e ea19 683e 50b0 debe
000000d0: ceea a8bd dd29 b4be ef7e 0dbf 7d54 8d3d
000000e0: 1519 263e ebdd ce3d 418f b4be ffee 813c
000000f0: eb6c e0b9 d4e4 463e cf1d e6bc 9d6d 1ebf
00000100: 6c1a f6ba 1948 683c 0b87 1fbe 2b7d 60bd
00000110: f482 383e cfdd 30bd f05b a83c 8c63 81bd
00000120: cdc9 d4bd c9b3 913c b26f 1ebe 10b4 84be
00000130: dc2f fbbe 52d1 86be 66bb ec3e f7ed f23d
00000140: f485 3dbe 4e22 2cbf 5661 31bd 9531 1d3f
00000150: 68ad 98bd 712c c8bd de20 ad3d dd80 a93d
00000160: 9734 ebbe c8d4 553e 2881 9f3e 08f7 f33d
00000170: ef62 943c 4a92 343e 8066 70be f4ea 1cbf
00000180: ac91 a7be 7f6c f03b 4452 2ebe 473e dd3d
00000190: 32ea 86be 6d02 983e 2eab bfbe a73f 88be
000001a0: 0ffb 8abd 6350 a53e 1831 75bf b69a bebd
000001b0: 69ad 65bc 0634 72be d5bf b23e 4574 203e
000001c0: 6509 80be c426 1d3c 7853 05be 410d 2a3b
000001d0: 057d 3fbe a926 babd 87f8 553d 24a8 973d
000001e0: f007 87bd 9a62 88bd c878 fcbd 9ded edbe
000001f0: a501 57bf 246d 5d3e 010f aa3e 0502 483e
00000200: 3558 1a3e a366 513d 0780 25be d6a5 9a3c
00000210: fe7e 333e 7367 ac3e 0598 e7bc 424b c5be
00000220: 653b a3be 75a8 a83c 83e8 a2bd 1415 c4be
00000230: 4357 5f3e 8263 203e 1d6e abbd 077a 443e
00000240: 2872 81be 973f ad3e 0940 033e 28d7 19be
00000250: 44c6 a03e 79f2 35bd 0876 02be 898e db3d
00000260: 0765 0b3e 8045 8fbe 5acf abbd e0d7 293d
00000270: 3d2f 02bf 542f d63d 31d3 07be d2a4 bcbe
00000280: e8c1 913e ede6 483d dcde 733d 35e7 fc3e
00000290: 39e1 ff3d 9593 74be d7fe fd3b e4b0 633d
000002a0: 23bf cdbe c08d 9dbd ec18 8abe 9e3e 093f
000002b0: 9e8b 4fbf dffb 4dbe e359 b9be 6b66 2ebe
000002c0: 2dcd 353e 7392 d43c 0135 a73e 9de5 33be
000002d0: 3024 94be 49c9 da3e 6399 fdbe 4702 233e
000002e0: 8651 213e 413d 533e 06cf e13e c8f5 73be
000002f0: 7647 0e3e ce19 b5be 65d9 3dbe 50cc 6bbe
00000300: dfab 223d b339 e3bc 8880 883e a9b6 9bbd
00000310: 769e 933d cf7e 1fbe f446 893c 5ca3 f0be
00000320: 8c3d b8bd 5778 5abc 689f 75be 4016 203e
00000330: 09a4 7d3e c54e 8a3e 6aeb 60bd dba5 9cbe
00000340: 17de 6dbe 4290 3f3d 2859 1c3e fe9c 7abe
00000350: 4d02 c53e bf55 81bf 8a79 533d fe93 bebe
00000360: f8ff c4bd 2110 ff3a d2a4 2e3d 88b8 1bbf
00000370: c257 c0bd 71f2 243d 88b3 6e3f 2301 7a3d
00000380: fc65 1dbe 896d 513e f556 13bf 1b3d 4abe
00000390: a137 cf3d d3a3 5c3e 5da0 67be ac47 813d
000003a0: 0649 98bd d6df 633d 33b1 fe3d eb0a 7dbe
000003b0: 5c2f ddbe fd9f 4c3d 95b7 223d aed1 5b3e
000003c0: cd44 8d3d d449 fd3d a634 08bf 89d6 ae3e
000003d0: ddbc b53e 7ada 3fbd 32dd 993e ea6e 12bf
000003e0: ed06 4abe da20 aebe 171d 6e3e 43ad 2fbd
000003f0: 2115 203e 8d75 6f3e 09d3 7c3d ccad cfbe
-0.5043484 0.20928645 0.15059873 -0.22374842 0.1830065 -0.14298098 0.15906212 0.12862417
-0.25913295 -0.026702547 -0.10850596 0.004953996 0.23095861 -0.22098875 0.033193253 -0.17853703
-0.14886178 -0.35479796 -0.17659728 -0.98231125 0.18593654 0.26525623 -0.28348145 -0.10318516
0.2651012 0.2512133 -0.04731846 -0.6271458 0.021371245 0.09751142 -0.39673394 -0.23185487
0.017697286 -0.24689656 -0.33925325 -0.62385565 0.28626937 -0.21332236 0.014741504 0.15132745
0.08821381 -0.24836251 -0.13295427 -0.16294545 -0.23307769 -0.5403244 0.33354342 -0.0050848094
-0.4971876 0.14563844 0.22666135 -0.4349389 -0.082479104 -0.3518819 -0.5527181 0.069008805
0.16220506 0.10100921 -0.35265544 0.015861033 -0.0004280576 0.19423229 -0.028090386 -0.61886007
-0.0018776185 0.014177346 -0.15578859 -0.05480687 0.18018705 -0.043180283 0.020551652 -0.06317815
-0.10390053 0.017785924 -0.15472296 -0.25918627 -0.4905995 -0.26331574 0.46236724 0.118617944
-0.1850813 -0.67239845 -0.043305717 0.6140378 -0.074549496 -0.097741015 0.084535345 0.08276532
-0.4593856 0.20881951 0.31153226 0.11912352 0.018113581 0.1763393 -0.234766 -0.6129601
-0.32728326 0.0073371525 -0.1702357 0.10802894 -0.26350552 0.2968935 -0.37435287 -0.26611063
-0.06786167 0.32287893 -0.95778036 -0.093068525 -0.014018395 -0.23652658 0.3491198 0.15669353
-0.25007167 0.009591762 -0.13020122 0.0025947841 -0.18700035 -0.09089405 0.052238967 0.07405117
-0.06593311 -0.06659432 -0.12327725 -0.46470347 -0.83986884 0.21623665 0.33214572 0.1953202
0.15072711 0.051123273 -0.1616212 0.018877905 0.17528912 0.33672675 -0.02827073 -0.3853398
-0.31881252 0.02058814 -0.07954504 -0.3829733 0.21810631 0.15662959 -0.08370612 0.19187175
-0.25282407 0.33837578 0.12817396 -0.15023482 0.31401265 -0.044420693 -0.12740338 0.10720546
0.13612758 -0.27982712 -0.083891585 0.04146564 -0.5085333 0.10458246 -0.13264157 -0.36844498
0.2846825 0.049048353 0.059538707 0.49395147 0.1249413 -0.23884423 0.0077513265 0.055588618
-0.40184888 -0.07693052 -0.2697214 0.5361117 -0.81072414 -0.20115612 -0.3620139 -0.17031257
0.1775405 0.025948739 0.32657626 -0.1756806 -0.2893386 0.42731693 -0.49531087 0.15918837
0.15753755 0.20628835 0.4410326 -0.23824227 0.13894448 -0.3537125 -0.1853996 -0.23027158
0.03971469 -0.027737474 0.26660562 -0.07603199 0.072079584 -0.15575717 0.016757466 -0.46999633
-0.08996114 -0.013334355 -0.2398659 0.15633488 0.24769606 0.2701322 -0.05491201 -0.30595288
-0.23229252 0.046768434 0.15268385 -0.2447395 0.38478318 -1.0104293 0.05162958 -0.37222284
-0.09619135 0.0019459763 0.042637654 -0.6082845 -0.093917385 0.040270273 0.9324269 0.06103624
-0.15370935 0.2045194 -0.5755456 -0.19749872 0.10118032 0.21546869 -0.22619767 0.063124985
-0.07435803 0.05563339 0.12436142 -0.24711196 -0.43200195 0.049957264 0.03972586 0.21466705
0.06897888 0.12367597 -0.53205335 0.34148052 0.35495654 -0.046839215 0.3005157 -0.5720049
-0.19729204 -0.3400944 0.23253284 -0.042889845 0.1563306 0.23384686 0.061724696 -0.40562284
